Securite/Model2/Save attaque/nominal_0.01/model_best.pth.tar (torch, 404266 bytes, 25 tensors)

features.0.weight f4 [32, 3, 3, 3]
00000000: 47b5 d5bd 738e bbbe a563 13bd 36fc 173e
00000010: af5e 85be dbfe 48be 38f3 f73d cc13 97bd
00000020: 0c9e e83d d495 953c 09a5 04be 0dff dbbd
00000030: 7341 f03d ec62 d8bc 8d89 f03b adde 75bd
00000040: 8601 c53d b1e9 343e bfd3 93bc 9411 afbe
00000050: ee79 843d ea7a a73e f4b7 dc3d ad64 2e3e
00000060: a6e8 0d3e e5fb 143d ee7e af3e b183 103d
00000070: 3d18 8cbe b356 a8be fdcd c43c b8f1 39be
00000080: ef55 a0bd c99a e33d 545b 063f 4d73 9d3e
00000090: e7e7 483d 1c78 84bd d522 9fbd a5e9 433d
000000a0: e990 f2bd c79d 2fbe f0c9 82bd 2c9c a13e
000000b0: 90b8 253e 9635 da3c 40d9 b73d f999 bebd
000000c0: c9a5 93bc 7995 87be 47c2 1dbe f105 4cbe
000000d0: 4ebe 2b3e 319c b93d b5cd fabd 8576 04be
000000e0: 8b72 6dbe 7d9c 03be 7460 b13c 1a7e 2bbe
000000f0: 7674 09bc 7b45 9bbe ca96 2c3d df2f acbd
00000100: df89 c03e 2f39 4c3e bee8 093e be76 0f3f
00000110: 62d1 ba3d 5840 6a3e 0ddd 853e 33e1 d53e
00000120: 6b50 03be 926e b8bd d8d2 073d d775 d4bd
00000130: 7b51 a0be 18ff 63be 5d67 a83b 03fc e7be
00000140: 7cbf 2ebe 066a 983e 2dc3 ef3d 3141 8ebd
00000150: e15f a9be d8d6 053f e3ef 70be 4924 4fbe
00000160: bbfd fd3e 0eed d5be 5b20 f1bd bbd8 3abd
00000170: 14aa 45bd e5b9 08bf fb14 b33e 92ab 5abe
00000180: d30c 3abe 3fda 2f3f b271 0bbe b63c 013e
00000190: 3ba8 6a3d 078b 523e 51f8 08bf b935 3d3e
000001a0: 599e 81bd 08b5 85be 27d7 f03e 2cf3 50bd
000001b0: cd7c 5f3e f003 2c3e 3d55 693e faf8 e03c
000001c0: 5aec e63e 3751 483e 0fc1 c13d 67a7 5abc
000001d0: 7fb9 87be c6d5 acbe a320 0abf 4e34 c8be
000001e0: 25bb d8be 387f 3ebe 7935 c6be 7715 17bd
000001f0: e96b 173d 7e00 54bc db4a 9f3e 7cc2 3f3e
00000200: 672b 9f3e 4b48 a73d faa1 6c3c 3ef9 353e
00000210: 586f 533e 2fcc 1fbd da71 af3d 82a2 18be
00000220: 2d7e 923e 28c4 f3ba ecbe 26be 299b bd3e
00000230: 1a62 a23e 16ed 24bd 802a 3abc 97ea ce3e
00000240: e85f 4b3d 4c87 4ebd d429 393c bee4 cebe
00000250: 63cd bdbe 31a8 1bbe 79e6 31be af33 aebe
00000260: 6d4b 65bd 8dd4 cf3d 4fcb ba3d 3d1a b4bc
00000270: a8cf c43d 0881 5cbe 921b 73bd d9ae 4e3c
00000280: 3bdb 66bd e360 69bd f6ef b23c 1a30 88bc
00000290: 2d3c 50be cd26 bdbd e0b4 003e 245b 4fbe
000002a0: 7a76 28be 7a0d b9bd 2c24 60be edf9 5e3c
000002b0: 951b 72be 1353 69be 812d 0dbe bbc1 683e
000002c0: e223 f7bc 6729 4f3d 7c4a c33e 8256 593c
000002d0: 5ecb 8ebe 9724 75be 68f2 883d 96b2 86be
000002e0: a720 1f3a de5a 163e 2f47 113d 505a cf3e
000002f0: 2f97 7a3e 0c6a dcbd c5fe f63d d36b 973d
00000300: 4b94 83bc a188 bdbd 2b1a a0bc ac98 433e
00000310: 5e38 f1bd ecd0 403d 62bf a0be e72b 863c
00000320: a228 303c aa37 bdbd 40de 8fbe db9d 073e
00000330: d9f3 413e 3a6b 123d afcd 033e 7612 75be
00000340: 79c8 ef3c 3d2a 603e be48 4cbe cc72 21be
00000350: 684c a53e 3348 323e f2cc 31be 15b6 4b3e
00000360: 3881 11be 4a9b 95be e6ef 673e d8ed 8abe
00000370: a417 a23d d9c2 2dbe 01b7 88be 6c0f ca3e
00000380: c9b8 dfbc 79dd 973d 1246 1cbe 8265 1b3d
00000390: 0819 8e3e 338a 8e3e cc16 a9be 3f25 923c
000003a0: 6fb9 1f3f 93b0 5fbe 405c c7bb ce83 36be
000003b0: 8e9f 46bb 44ed 693a 25b9 6b3e 3899 12be
000003c0: dcf4 42be efd1 d03e f408 84be 6c6b 65be
000003d0: 4210 7abe 4136 8ebe c399 e9bb 2515 cfbd
000003e0: 4df2 9f3e 308d b43e e8b2 63bd 1afa a53d
000003f0: 0582 0a3e 4aae 9c3e 39eb 133e ddc1 763d
-0.104349665 -0.36632118 -0.0359837 0.14842305 -0.260488 -0.1962847 0.12106937 -0.07376823
0.1135827 0.01825992 -0.12953581 -0.107420065 0.117312334 -0.026414357 0.007340616 -0.060026813
0.09619431 0.17667271 -0.018045304 -0.341931 0.06468569 0.32710963 0.10777274 0.17030592
0.1385828 0.036373038 0.34276527 0.03528184 -0.27362242 -0.32878646 0.024024004 -0.18158615
-0.078288905 0.11113507 0.52483106 0.3075203 0.049049284 -0.064682215 -0.077703156 0.047830243
-0.11844046 -0.17150031 -0.06386173 0.31564462 0.16183686 0.02663688 0.08976984 -0.09306712
-0.018023388 -0.26481226 -0.15406142 -0.19924141 0.16771814 0.09062994 -0.12246267 -0.12935837
-0.23188226 -0.12852664 0.021652438 -0.16747323 -0.008389583 -0.30326447 0.04213599 -0.08407568
0.37605187 0.19943689 0.1346769 0.5604056 0.09121968 0.22876108 0.2614521 0.41773376
-0.12823646 -0.090054646 0.03316006 -0.10374039 -0.31312165 -0.2226528 0.005139275 -0.45309457
-0.17065233 0.2976839 0.11707149 -0.06946028 -0.33080962 0.5228095 -0.2352901 -0.20228685
0.49607643 -0.4178242 -0.117737494 -0.045616847 -0.048257902 -0.5340865 0.34976944 -0.21354511
-0.18168955 0.6869239 -0.1361759 0.12620816 0.057289343 0.20560847 -0.535039 0.18477525
-0.063290305 -0.26114678 0.47039148 -0.051013157 0.21824951 0.16798377 0.22786422 0.027462471
0.45102197 0.19562231 0.09460651 -0.013345576 -0.2650871 -0.33756846 -0.5395605 -0.39102405
-0.4233028 -0.18603218 -0.3871267 -0.036885705 0.036968146 -0.0129395705 0.31111798 0.18726534
0.310878 0.08168086 0.014442915 0.1777086 0.20647943 -0.039013084 0.08566637 -0.14905742
0.2861189 -0.0018597888 -0.16283768 0.3703244 0.3171547 -0.040265165 -0.011362672 0.40413353
0.04965201 -0.050421998 0.0113014765 -0.4040889 -0.3707076 -0.15200879 -0.17373075 -0.34023806
-0.055980135 0.10147963 0.09120809 -0.021985168 0.0960992 -0.21533597 -0.059352465 0.012614929
-0.05636142 -0.056977164 0.021842938 -0.0166245 -0.20335455 -0.09235916 0.12568998 -0.20249611
-0.16451445 -0.090357736 -0.21888798 0.013609392 -0.23643334 -0.22785597 -0.1378689 0.22730152
-0.030168477 0.050576594 0.38142765 0.013265254 -0.27889532 -0.23939739 0.0668686 -0.26308125
0.0006070234 0.146831 0.035468277 0.4049859 0.24471734 -0.10762414 0.12060312 0.07393613
-0.016061923 -0.092545755 -0.019543728 0.19101208 -0.11778329 0.047074243 -0.31396013 0.016378356
0.010751875 -0.09239133 -0.2809925 0.13243811 0.18940677 0.03574679 0.12871431 -0.23932824
0.029270397 0.21891113 -0.19949624 -0.15766448 0.32284856 0.17410354 -0.17363337 0.19893678
-0.1420945 -0.2922004 0.22650108 -0.27134585 0.07914665 -0.1696886 -0.2670212 0.3946489
-0.027309792 0.074152894 -0.15261105 0.037938602 0.27753472 0.27839813 -0.33025205 0.017840026
0.62392324 -0.21844701 -0.006083995 -0.17823717 -0.0030307504 0.00089236 0.23019846 -0.14316261
-0.19038719 0.40785167 -0.2578808 -0.2240426 -0.24420264 -0.27775767 -0.0071289255 -0.10111455
0.31239548 0.35263968 -0.05559054 0.08104344 0.13526161 0.30601722 0.14445199 0.060243476

features.0.bias f4 [32]
00000000: 70b6 11bf af6e 18be f7c2 9fbc 73d3 253e
00000010: f0fc 51be 8be7 0fbf 3141 1cbf b799 2c3e
00000020: 7ed0 a23e 3f47 90bd 4195 23bd d590 ab3e
00000030: f5d3 73be 2b1e 2dbf 7840 1abe acff 5ebe
00000040: 31bf dabe 2923 f4be cd77 02bf 33d4 093e
00000050: d357 00bf 8a02 33bd 94e4 9ebe b7e9 b23c
00000060: dd79 26bf b493 41bf 1832 80be 414d 41be
00000070: 247a d93d eedc 4b3e 2ccb 87bc 7228 af3e
-0.56919 -0.14885972 -0.019502146 0.16193943 -0.20506644 -0.5621268 -0.61036974 0.16855513
0.31799692 -0.07044839 -0.03993726 0.33508936 -0.23811324 -0.6762416 -0.15063655 -0.21777219
-0.42723992 -0.47683075 -0.5096405 0.13459854 -0.5013401 -0.043703593 -0.31033766 0.02183996
-0.650297 -0.75616 -0.25038218 -0.18877126 0.106189996 0.19908497 -0.016576372 0.34210545

features.0.b_w f4 [8, 1]
00000000: 0000 00c3 0000 8042 0000 0042 0000 8041
00000010: 0000 0041 0000 8040 0000 0040 0000 803f
-128.0 64.0 32.0 16.0 8.0 4.0 2.0 1.0

features.2.weight f4 [32, 32, 3, 3]
00000000: 4012 8ebd 3cb3 9cbd 9321 a5bd af97 11be
00000010: 82ac fabd c92c 2ebe 4b5a 53bd 8514 0cbe
00000020: 2384 45be 776e 7d3c 7fb4 40bc 27c8 3a3d
00000030: d39d d63c 63a2 efbb bb15 253c 7cf1 a0bc
00000040: c736 0bbd 0850 bebc ea67 eebc 97b5 9cbc
00000050: e24f 8c3d 70a1 dbbc 5811 2bbd edbd 983d
00000060: 9db3 62bc df5b febc 0b6c ebbc 5743 2b3d
00000070: a63b aabd 6bd2 4cbe a109 09bd 0940 02be
00000080: 7d80 43be 92a5 bebb 5eb9 cdbd bd0b 31be
00000090: ef78 89bd 858f 89bc 46d9 0d3d 72de 2abd
000000a0: 2b58 1d3d 8806 babc 8ee1 bbbc 5f17 4bbb
000000b0: b782 00bc 96e0 16bd 53b9 88bd 6246 a33d
000000c0: cf39 bfbc 47a1 debd 1506 323d d056 39bc
000000d0: 26e3 6dbd 704e 523d c5e6 efbc 8f80 e0bd
000000e0: 4cd8 783c 2d56 9abb ccef a1bd 9f0d 9ebd
000000f0: ea64 fe3c bc96 91bd b178 bbbd e7c9 503d
00000100: 6e8f 18be 5b3d a6bd e11c 2b3c cf85 f6bd
00000110: 5a26 28be 264b 9abc a3d7 2cbd a148 92bd
00000120: f1f2 1c3e 96f8 873d 7d4e cdbd 4caa d33c
00000130: fd5b df3d e2cf 39bd 343e e53d 4d4a 633d
00000140: 2633 d6bc bd0b cfbd 2432 46bc b61a 89bc
00000150: 8230 73bd 80ac 0fbe 5328 42be 1136 78bd
00000160: f405 42bd d555 15be 5b8e 973d a4e8 0f3e
00000170: e721 8c3d ee27 07bd 9901 bd3d 55fb 013e
00000180: 9e6b 83bd 01e2 223d 6743 3b3e 53f0 7b3c
00000190: c856 933d 7632 9b3c 0708 9fbc e5ff 063d
000001a0: b27a 763d 23d1 b83c b115 d83a 5d8e af3d
000001b0: dcce a9bc ecce 7f3b 3c53 31bd 3f52 7fbc
000001c0: 58a3 42bd 4349 87bd a1ff 463d 7e56 bebb
000001d0: 73ad 46bd a31e 7a3c 836c 023e fb29 903d
000001e0: e74c 41bd 5dfe 843c a929 bd3d b6a9 0fbd
000001f0: bfdc e1bb 99d6 073d 2f22 9d3d dc40 c0bb
00000200: fbbe 433c 5b2e 40bd 7e14 b8bb 0146 a33d
00000210: 2c82 603c 803a 273d bcff 4a3e 64fc 87bb
00000220: f68f 0dbd ccf7 bdbd f7cb 51bd 3e27 0cbd
00000230: 6a36 96bd 551d 6bbd dfc9 cebd b367 55bd
00000240: f6ec 78bd e7c9 71bd 1c0c afbc 9453 c0bd
00000250: 23e3 dfbd 88ac d6bd 9d9a 9cbd 21a8 97bd
00000260: f472 e4bd 4571 43bd c93b e1bc 9280 35bd
00000270: 0149 3ebd 34a4 0bb9 6f80 44bd f9f7 c3bc
00000280: aafc bbbc 5ba2 73bd a715 313d 879d cd3b
00000290: 7b6a 7a3b 9601 a4bc c10e 0dbc be23 30bd
000002a0: 687a 26bc 8a2f 38bd 0456 93bd d154 953d
000002b0: 6cdc 4ebd e581 d8bd ba16 49bc 5d89 f3bd
000002c0: 3cb7 22be 1562 c7bc 17ae b9bd 0b36 e9bd
000002d0: 4307 453d 8e8e 4d3d f063 6e3b 404f 7d3d
000002e0: 3643 1c3d 6f24 a1bd f362 a23d 8c22 753d
000002f0: fd36 b2bd 3f93 12bd 8d9e 1ebd b9f8 00bd
00000300: b19b e8bd b25f aebd a13c 7bbd 8cb6 f8bd
00000310: fed5 2fbd 23fc cebc cd7f a9bd 6d14 e33b
00000320: 823f 953d 4a13 a8bc 8b6e 163d 8347 103d
00000330: cfbb 1e3d 8442 3f3d e166 a6bc d96b da3d
00000340: 1b13 c2bc 3ecc 10be fa84 4a3d 4596 a83b
00000350: 7df3 e9bd b0c7 233c 25e5 bf3d b628 f83c
00000360: 1f04 143d d03c 0abd dddd 25bd 3ab0 f13c
00000370: d826 48bc 8402 5dbd d630 0c3d 9c20 c2bc
00000380: bf5f a8bc 57ac 6a3d 9f72 1d3d 93d6 cb3c
00000390: 48fd 883d a4a9 7a3d 3099 e93c 8c0a b53c
000003a0: 2256 b13d e74d 383c e810 bc3c b2d1 5e39
000003b0: a6ff 79bb a12d b7bc 0b56 c0bd f9d1 70bd
000003c0: 05da 403c 9b02 77bd bc5a a9bd a6b4 c13d
000003d0: f0d2 943c 460c 10be 7d0c 0f3e 0a53 9abc
000003e0: c23f 61be c5ca 0b3e a503 bcbb a561 1cbe
000003f0: b60a 28bd a394 8cbd c8d3 b0bb f3e2 3dbd
-0.06937075 -0.07651374 -0.080630444 -0.14218019 -0.122399345 -0.17009272 -0.051599782 -0.13679703
-0.19288687 0.015468231 -0.011761784 0.045601036 0.026198303 -0.007313059 0.010075982 -0.019646399
-0.033987787 -0.023231521 -0.029102284 -0.019129558 0.06851174 -0.026810378 -0.041764587 0.074581005
-0.013836768 -0.031049667 -0.028738042 0.041812267 -0.08312158 -0.20002143 -0.03345645 -0.1271974
-0.19091983 -0.0058180774 -0.100451216 -0.17289634 -0.067125194 -0.016792068 0.034631036 -0.041716047
0.03841416 -0.022708192 -0.022934701 -0.0030989272 -0.007843665 -0.036835276 -0.06675973 0.07972409
-0.023342995 -0.10870605 0.04346283 -0.011312202 -0.058077954 0.051344335 -0.029284844 -0.109620206
0.015188288 -0.00470998 -0.07907066 -0.07717442 0.031053979 -0.071088284 -0.091538794 0.0509738
-0.14898464 -0.081171714 0.010443897 -0.12037241 -0.1642088 -0.018834662 -0.042197835 -0.07142759
0.1532705 0.06639211 -0.10024736 0.02583804 0.10906217 -0.045364268 0.11193505 0.05549078
-0.026147436 -0.10109661 -0.012096915 -0.01673637 -0.059372433 -0.14030647 -0.18960695 -0.060598437
-0.04736896 -0.14583524 0.07400199 0.14053589 0.06842404 -0.032997064 0.0922882 0.12693532
-0.06417011 0.039766315 0.1828743 0.015377122 0.071942866 0.01894496 -0.019413007 0.032958884
0.060175605 0.022560662 0.0016485957 0.085720755 -0.020728521 0.0039033247 -0.04329227 -0.015583574
-0.047519058 -0.066057704 0.04858363 -0.0058086505 -0.048505258 0.015266093 0.12736706 0.07039257
-0.04719248 0.016234571 0.09236462 -0.03507396 -0.00689277 0.03316364 0.07672536 -0.005867107
0.011947389 -0.046919208 -0.0056176772 0.079723366 0.01370291 0.040827274 0.19824117 -0.0041499604
-0.03456112 -0.09275779 -0.051219907 -0.03421711 -0.073345974 -0.05740102 -0.100970976 -0.05210085
-0.06077286 -0.05903044 -0.021368079 -0.09390941 -0.10931995 -0.104821265 -0.07646678 -0.07405115
-0.11154738 -0.047715444 -0.027494328 -0.044312067 -0.04645634 -0.00013317243 -0.047974046 -0.023921954
-0.022947628 -0.059481006 0.04323354 0.0062748822 0.003821044 -0.020020287 -0.008609475 -0.043002836
-0.01016102 -0.04496721 -0.071941406 0.07291568 -0.05050318 -0.105716504 -0.012273485 -0.11891434
-0.15890211 -0.024338761 -0.09066408 -0.11387261 0.04810263 0.05018478 0.0036375485 0.061843157
0.038150035 -0.07868277 0.07929029 0.0598474 -0.087018944 -0.035784956 -0.038725425 -0.0314872
-0.11357821 -0.08514346 -0.061337117 -0.12144193 -0.04292869 -0.025266713 -0.08276329 0.006929925
0.07287504 -0.02051701 0.036726516 0.03522445 0.038753327 0.046694294 -0.020312728 0.106651016
-0.02369075 -0.14140412 0.049443223 0.0051448666 -0.11423395 0.00999634 0.09369878 0.03029285
0.036136743 -0.0337494 -0.04049479 0.029502977 -0.012216292 -0.053957477 0.03422626 -0.02369719
-0.020553468 0.057293262 0.03843939 0.02488259 0.066889346 0.06119694 0.028515428 0.022099756
0.08659007 0.011249042 0.02295728 0.00021249687 -0.0038146763 -0.022360625 -0.093914114 -0.058793996
0.01177073 -0.06030522 -0.08269259 0.09458284 0.01816699 -0.14067182 0.13969608 -0.018838424
-0.21996978 0.13651569 -0.005737739 -0.15271623 -0.04102584 -0.06864288 -0.00539634 -0.046359014

features.2.bias f4 [32]
00000000: 8999 2c3e c3ec afbd 1a7c 023e 22e8 723d
00000010: 97f8 25be a9fc f6bd 343f a3bd 4a2f 40bc
00000020: 0980 f33d 8cf5 1bbe b4c6 98bd 3ab1 6f3e
00000030: c971 83bd ae01 5bbe 9584 59bd 00bd f6bd
00000040: 9d21 aabe 5f30 d9bb 8950 c13e 0c32 fd3d
00000050: 3fe3 99bd 9c17 0abe 3a1f 68be cd5c 023d
00000060: 7f19 b0bc 6682 c7bd 9264 40bd 954f f93d
00000070: ada7 883e e661 97bd 255b 913e fb40 f53c
0.16855444 -0.085900806 0.12742653 0.05930341 -0.16208111 -0.1205991 -0.079710394 -0.011730025
0.11889655 -0.15230387 -0.074597746 0.2340745 -0.06418187 -0.2138736 -0.053104956 -0.12047768
-0.3322877 -0.0066280807 0.37756756 0.12363061 -0.07514047 -0.13485569 -0.22668162 0.031826783
-0.021496532 -0.097416684 -0.04697091 0.12173382 0.26690426 -0.073917195 0.2838985 0.029938212

features.2.b_w f4 [8, 1]
00000000: 0000 00c3 0000 8042 0000 0042 0000 8041
00000010: 0000 0041 0000 8040 0000 0040 0000 803f
-128.0 64.0 32.0 16.0 8.0 4.0 2.0 1.0

features.6.weight f4 [32, 32, 3, 3]
00000000: a311 04be da45 30be 08d0 86be 6d5a 87bc
00000010: c7f8 eabc 44f6 14be d5e0 1cbd 3794 643d
00000020: 4f1c c83b 7889 033e 3ddd b53d 4144 823c
00000030: 05cd 92bd 432b 4dbd 6761 b83d 0dff efbd
00000040: f621 e1bd abb6 77bd 3f2d 0ebc bd7f dfbb
00000050: 5a22 e13b bb11 6bbd e74b 8fbd 85af bebd
00000060: 3b1c 80bd b710 e4bd 112b d7bd 234f c6bd
00000070: a0f3 cbbd 8ae9 8ebd d8b1 a8bd 84df 7ebd
00000080: 5441 e7bd cdcb 96bd 69a7 09be d089 68bd
00000090: 7c05 44bd 8d40 fcbc eff4 39bd ca23 b4bc
000000a0: 5438 443d 0f15 773c 8bf7 ffbc af85 8b3d
000000b0: 0f8c 8fbc da6e 93bc 42e1 97bd a4da f8bd
000000c0: fac1 be3c 318d 22bd da72 33be 1648 a6bb
000000d0: 6a20 f8bc 585b 87bd 5b3b 8cbd 41b3 e7bd
000000e0: 23dd 40bd 5fde 173d a9b1 8b3d 3dc6 b6b9
000000f0: 1c4f b53d 7980 023c 32cb 023d 1f05 f33b
00000100: a57a 2cbb 3d6c 8d3c 41f4 8bbb 1788 413b
00000110: 1d6e 7f3d 621b f0bd 6918 3b3b ecb3 1bbc
00000120: 48e5 50bd c5f6 c5bb 094c 683c 7493 8fbd
00000130: 6d37 4db9 0d84 ecbc 84db 56bd 3785 9cbd
00000140: 7adb 85bc 6964 d2bc 1b45 4cbd a35e a9bd
00000150: 45dc b8bd db2b 82bd 5d1e c0bb f354 40bd
00000160: a34f bcbc fca0 6dbc 49ef 433d d255 acbd
00000170: 164a e1bd edbf f7bc 0881 d8bd 8885 f6bd
00000180: 22f7 80bd d1da 093d fad5 623d 3ff7 6fbd
00000190: 5f27 c33c 3f95 bc3d 5f70 7f3c 02d3 0b3d
000001a0: 30b2 bb3d 8482 debb 3e7a 9b3b 674e ed3d
000001b0: b663 9ebd af23 bdbd 3de1 0ebd 2e15 f3bc
000001c0: 2619 8cbd 8262 60bd 9b58 183e 0a79 96ba
000001d0: 33d6 863d 3684 5dbd 047d 0cbe b0ad 9ebd
000001e0: d222 c0bc c136 693c 620f f9bc 2d2d 0d3e
000001f0: a8dc 9d3d e15e 4e3d b60f 973d e56d 39bd
00000200: 4400 e6bd d24a 13bd 172f 0ebd 1003 7abd
00000210: 7450 09bd 6847 8f3d 0e3c be3d 2739 5cbc
00000220: db4f e23c fdcb 80bd a3ed 393c a79d 4b3d
00000230: 001c d0bc 8a0d 463e 057f e23d 1540 98bc
00000240: 49ab 14be a017 2cbd 689c 10bd 634f f7bc
00000250: de10 943d d70c 6fbb 4883 4e3a 6a12 c03d
00000260: 2e7f a43d 7b59 303c 4d01 8e3c 1781 883d
00000270: 3718 ac3c 84fb 46bd 7362 c4bd 575f f6bc
00000280: fb2e b2bd db7e d2bd b73a 03be c28a 483d
00000290: ab9d a93d 9ee7 c9bd 740f 4d3d c869 b23c
000002a0: bfd0 8abb 6a63 f13d 9b35 303d 3314 683d
000002b0: 7194 a73c d63a 50bc 3e74 b33d 88f7 e5bc
000002c0: 7c44 d6bd d899 0a3e ed18 373e 0cd3 bcbc
000002d0: cd88 acbc f1c7 e8bb 35f3 0fbe 410a 983c
000002e0: 9324 ca3d c0c8 97bd 738d a63d 9789 0a3e
000002f0: ac78 10bb 8196 06be 2974 e3bc b9e1 c2bd
00000300: 0730 4fbd f732 21bb cb9c c53d 0ba7 d8bc
00000310: 7977 753c 0c18 ae3d 97c5 e8bd 98a6 b6bd
00000320: 6125 e0bd c8b2 94bc 0baf 70bd 6a66 a1bd
00000330: 6b6f e5bc a6ba bcbc 2571 4ebd 8553 5d3d
00000340: a0f6 f23d 6691 593c 7a5f 0b3d 70a1 5abc
00000350: 6689 483d 5ee2 09be f9a4 993d 5dec 6c3d
00000360: 15bc 383d a169 9abd b04a 10be 5433 f7bc
00000370: 747b b7bc 1cb7 3dbd 40db 163c 7199 b23d
00000380: af82 da3d cbbf 763d 3813 033d f3e2 efbc
00000390: 5d31 d8bb 7d58 553d e277 cd3d b9c8 d93c
000003a0: 03ff 3dbd cefa 1c3b 9180 3e3c e060 aebd
000003b0: 7ef7 1ebe bde3 e13b 95fc ddbc 7c3e 0abe
000003c0: 22f1 ad3a f829 263c 47eb 073a 04b5 eabd
000003d0: 7548 e33c 4e3b 003d d78c f83b 3da8 6d3d
000003e0: 2a8f f23b d34c 233e 073c 063c 8f72 78bd
000003f0: ceba fcbd 7d94 2abe 85db 71be 0ec2 b5bd
-0.12897353 -0.17214146 -0.2633059 -0.01652261 -0.02868308 -0.14547068 -0.038300354 0.05580541
0.0061068903 0.12845409 0.088800885 0.015901687 -0.071680106 -0.050090086 0.09002953 -0.11718569
-0.10992806 -0.06047694 -0.00867778 -0.0068206475 0.00687055 -0.057389956 -0.06996899 -0.093108214
-0.062553845 -0.111360006 -0.10506261 -0.09683063 -0.09958577 -0.06978138 -0.08237046 -0.06222488
-0.11291757 -0.07363091 -0.13442768 -0.056772053 -0.047856793 -0.030792499 -0.045399603 -0.021989722
0.04790528 0.015080704 -0.031245967 0.068126075 -0.01752284 -0.017997194 -0.074160114 -0.121510774
0.023285855 -0.039685432 -0.17524281 -0.0050745113 -0.030288894 -0.06609219 -0.06847259 -0.11313487
-0.047085892 0.037077304 0.06820995 -0.00034861444 0.088529795 0.007965201 0.031932063 0.007416382
-0.002631822 0.017263526 -0.0042710607 0.0029530579 0.06236087 -0.11723973 0.0028548485 -0.009503346
-0.05099991 -0.00604138 0.014178284 -0.07010546 -0.00019570971 -0.02887156 -0.05245544 -0.07642596
-0.016340006 -0.025682645 -0.04987059 -0.08270004 -0.09026388 -0.06356021 -0.0058629946 -0.046956014
-0.022987192 -0.014503714 0.047835622 -0.084148064 -0.11000459 -0.030242885 -0.10571486 -0.12037188
-0.06297137 0.033655945 0.055379845 -0.0585854 0.023822485 0.09208154 0.015590756 0.03413678
0.09164846 -0.006790461 0.004744797 0.1158722 -0.07733862 -0.09235322 -0.034882773 -0.029673185
-0.06840734 -0.054781444 0.1487755 -0.0011480164 0.06583824 -0.054081164 -0.13719565 -0.07747972
-0.023454104 0.014234246 -0.030402843 0.13786764 0.077081025 0.050383452 0.073760435 -0.04527082
-0.112305194 -0.035960026 -0.034712877 -0.061038077 -0.03352399 0.069960415 0.09288798 -0.013441361
0.027625969 -0.06288908 0.011348161 0.049710896 -0.025403976 0.19341102 0.11059383 -0.018585244
-0.14518465 -0.042014718 -0.03530541 -0.030189222 0.0722978 -0.003647616 0.0007877839 0.09378512
0.0803207 0.010763521 0.017334605 0.06665247 0.02100764 -0.048579708 -0.0958909 -0.030074758
-0.08700367 -0.10278102 -0.12815367 0.048960455 0.08282026 -0.098586306 0.050063565 0.021778956
-0.0042363103 0.1178654 0.043019872 0.05665989 0.020456525 -0.01270934 0.08762406 -0.028072134
-0.10462281 0.13535249 0.17880602 -0.023049854 -0.021061325 -0.007103913 -0.1405762 0.018559577
0.09870257 -0.07411337 0.08132448 0.13529049 -0.0022044582 -0.1314335 -0.02776535 -0.095157094
-0.05058291 -0.0024597028 0.096490465 -0.02644684 0.014982098 0.0850068 -0.11365812 -0.08918494
-0.109446295 -0.018151656 -0.058760684 -0.07880862 -0.02800723 -0.02303822 -0.05040087 0.05403473
0.11863446 0.013279295 0.0340266 -0.013344154 0.04895916 -0.13465258 0.07502169 0.0578426
0.045101244 -0.07539678 -0.14090991 -0.030175842 -0.022397734 -0.046317205 0.009207547 0.08720673
0.10669457 0.0602415 0.03200075 -0.029283023 -0.0065976814 0.052086342 0.100326315 0.02658497
-0.046385776 0.0023953202 0.011627332 -0.08514571 -0.15524098 0.0068936036 -0.02709798 -0.13500398
0.0013270716 0.010141842 0.00051849004 -0.11460307 0.027744511 0.031306557 0.007585149 0.058021773
0.0074023204 0.15947275 0.008193023 -0.060656127 -0.12340318 -0.16658206 -0.23618896 -0.088749036

features.6.bias f4 [32]
00000000: 5bea 733e 90ae d93e aae2 963d ad61 5b3f
00000010: 1466 213f 8bfa 0f3f 9c65 573f 4a1c 0b3e
00000020: 8aa2 18bd 5331 a33e 7934 6c3e 05a0 c83e
00000030: 46a5 4dbe c466 1c3e 155a f23d da0a a0be
00000040: 33a9 c83e c5ca b43e 719d a9bd 05ed 933e
00000050: 231e 9e3e c2c7 8b3e 2363 0d3d d6f5 bc3e
00000060: 00b6 273e 188b e03e ddae e23e 43b2 c73d
00000070: 4dd3 2ebf ccb6 913e 403d c9bd d5f9 523e
0.23819868 0.42515993 0.073674515 0.85695916 0.63046384 0.56241673 0.8413942 0.1358501
-0.037264384 0.3187357 0.23066892 0.39184585 -0.20082578 0.15273577 0.11833588 -0.3125828
0.3919159 0.3531095 -0.08281983 0.2889177 0.30882367 0.2730084 0.034518372 0.36906308
0.16378021 0.4385612 0.44274035 0.097507976 -0.6829117 0.28459775 -0.09826136 0.20603116

features.6.b_w f4 [8, 1]
00000000: 0000 00c3 0000 8042 0000 0042 0000 8041
00000010: 0000 0041 0000 8040 0000 0040 0000 803f
-128.0 64.0 32.0 16.0 8.0 4.0 2.0 1.0

features.8.weight f4 [32, 32, 3, 3]
00000000: 2f8d 0a3c b138 4b3d 7226 a0bc 1def fb3c
00000010: 7bc2 453b f37b 63bb 7af7 813c 58a2 8bbd
00000020: 43a3 a8bd 3cdb a93c 2161 a53d cbf7 96bd
00000030: bd76 463d 7ffa ba3c 0c1f 0bbe cca3 7cbd
00000040: f6b9 93bd ccf9 4abe 4365 b33d 548f 80bd
00000050: 65b7 a6bc 1f82 27bc 62ec 5a3b b45e 813d
00000060: 4fe2 8bbd c7ab a9bc b1d6 18bd 4303 213c
00000070: ee78 8f3c 1db4 073d 0de0 0b3d 8690 463d
00000080: 4fd4 38bc 7061 bf3c 595d 70bc 804f e8bd
00000090: 8678 18be b2d2 97bd dab2 ee3c db67 dbbc
000000a0: bd18 de3d 4a88 0e3d cc40 133e 5511 213e
000000b0: e887 47bd 1220 71bd cd06 93bc e23e c5bd
000000c0: 180e b73c 61e0 f2bc 8d06 e9bd 4c78 ce3b
000000d0: 5110 9dbd 5dbc 19be afb8 3f3d 8f31 143e
000000e0: 182f de3d 720e 9d3c 391e d03d 049f 8fbc
000000f0: 0001 123d e84c 043d f807 d9bd b12f 0fbd
00000100: 1357 28bd 5841 5abc bb8e 173d 7965 5f3c
00000110: b4d6 e83c 3f62 853c 26a5 313d 8f8c e3bc
00000120: 72a1 acbd c5a0 30bd 4868 723d 76b9 7abd
00000130: 31ec 30bd b9da 9f3c 245c a4bd 5dc9 3bbb
00000140: f385 dabc 6bd3 8cbc e4b8 2e3c 3106 943c
00000150: 6131 273d 3199 2b3d 54d3 573d 42c4 febc
00000160: 6ddb e53a 555a dabb 7f72 cbbb 34b9 7f3d
00000170: 6da9 99bd 1966 863d 03b9 ca3c 3fd9 34bd
00000180: 6581 cd3d 5994 0d3d 1dd0 a9bd d137 8e3d
00000190: d159 ad3d 445b d1bb 5cbe 5f3d fd0f 573d
000001a0: 1e99 a0bd 945e c8bc be5b f7bc 66ba 91bd
000001b0: 7016 a6bc 67a7 00be fe98 0abe c409 46bd
000001c0: 441f d5bd 09fb 67bd 2f78 e6bd dd14 00be
000001d0: 1e2d 16bd 2687 423d 1a71 b4bb 9d4f 84bd
000001e0: 96d4 843d 9407 1b3d e007 9ebd 20c2 24bc
000001f0: 3b60 2dbd 4f6b d4bd 78b6 353d f1b3 ca38
00000200: 6270 3c3d a7fc dbbc ec41 adbc 21aa c0ba
00000210: ba40 9dbc 3c6f a9bd 0b33 34bd 349e 0ebd
00000220: 9876 a8bd 08bd 4d3d 15db f1bd d006 e3bc
00000230: 5b30 813b 6d54 03bd 12f2 13bc b1bf e63d
00000240: d773 7dbd 36a7 6b3d b8fa adbc e976 89bc
00000250: 1b74 87bd 5c95 90bd 73f4 14be 530d 06be
00000260: 4409 55be 6383 b03c d8e1 2a3e 3715 f53d
00000270: 8434 b03c 3843 2a3e 1c0c 22bb d550 1dbc
00000280: 9bca 45bd 8b93 eebd bb25 97bb ff21 3a3b
00000290: 7cf4 293c 8be6 823b 4c64 37bd bf53 373a
000002a0: 2ae9 78bc 6334 c7bc 19db b83d 6ac3 513c
000002b0: 364b 193d 437c 84bd 706a 333c d510 033d
000002c0: 304e 9f3d a9b1 3fbd e3e0 ac3c e05c eebc
000002d0: 8b90 74bd edcf 2abd d167 edbc d015 98bc
000002e0: 2a26 e0bd e85c 51bb bb2e 13bc 2f5f 67bd
000002f0: f8ad e0bd b3d4 bcbc 5b87 deba f583 b7bc
00000300: 7a9b 8a3c 60aa a1bb be2c 97bd 1360 bfbd
00000310: 88c3 adbd 3bd1 14bd 8288 5b3b 2fa9 253d
00000320: 40e6 dfbc e41f ca3c 7137 88bd 05d2 bdbd
00000330: 3e57 8abd cbc6 ddbd 992f 4bbd 8628 7dbd
00000340: 6a20 9fbc b48a bc3d b3cd aa3c b20c f43c
00000350: b7f6 d13c e3ad f63d be0b 1a3b 7c76 983c
00000360: 2fed 7bbd c87d c3bd bccf d5bd 6ad8 4abd
00000370: 3ca4 1fbb 13e9 64b9 134f fcbc 77c8 7dbd
00000380: 1219 2bbe 8dbb fd3d 9b63 c43d 6c99 65bd
00000390: 95c9 d13d f23c 32bd ab0a 3bbe ba50 433b
000003a0: 58cc 61bd 8b03 15be a208 acbd ecea 62bc
000003b0: 9093 7abc c04b ae3c 397f 6a3d 1af1 1d3c
000003c0: bbab 753d c48f 9a3d d457 8abd 9a55 323d
000003d0: 7717 113d 7ed7 31bc 1781 98ba 5fd4 66bc
000003e0: fdea ccbd 68c9 11be 5262 52bd 5bb7 adbd
000003f0: daef b0bd 5237 e6bc 1f32 92bd 7cb2 00bd
0.008456512 0.049614612 -0.019549582 0.030753667 0.0030175734 -0.003471133 0.015865076 -0.06818074
-0.08234265 0.020734422 0.080751665 -0.073714815 0.04845308 0.022824524 -0.13586062 -0.061679646
-0.072132036 -0.19821852 0.087595485 -0.06277338 -0.020351121 -0.010223894 0.0033405055 0.06316891
-0.06830274 -0.020711793 -0.03731412 0.009827438 0.017513718 0.033130754 0.03414922 0.048477672
-0.011281087 0.023361892 -0.014670693 -0.113432884 -0.14889726 -0.07413234 0.029138017 -0.02678292
0.10844562 0.034797944 0.14380187 0.15729268 -0.048713595 -0.058868475 -0.017947579 -0.096311346
0.022345588 -0.029648008 -0.113782026 0.0063009616 -0.07669128 -0.15013261 0.046806987 0.1447203
0.10848826 0.019171927 0.101620145 -0.01753188 0.035645485 0.032299906 -0.10597223 -0.03495759
-0.041098665 -0.013321243 0.037001353 0.013635033 0.02842269 0.016282199 0.04337039 -0.027776984
-0.08429231 -0.04312207 0.05918148 -0.061212026 -0.043194 0.019513475 -0.08025387 -0.0028653957
-0.0266752 -0.017190656 0.010664199 0.018069359 0.040818576 0.04189414 0.052691773 -0.031099442
0.0017536707 -0.0066636004 -0.0062087174 0.062432483 -0.075030185 0.06562442 0.024746424 -0.044152495
0.10034446 0.034565303 -0.082916476 0.0694424 0.08464397 -0.0063890535 0.0546249 0.052505482
-0.07841705 -0.02445916 -0.030195113 -0.07115631 -0.02027437 -0.12563859 -0.13534924 -0.048349157
-0.10406354 -0.05663589 -0.11253392 -0.12507959 -0.03666412 0.04749217 -0.005506647 -0.064604975
0.0648586 0.037849024 -0.07716346 -0.010056049 -0.0423281 -0.1037203 0.04436347 9.665627e-05
0.046005614 -0.026853872 -0.021149598 -0.001469914 -0.019195903 -0.082731694 -0.04399399 -0.034818843
-0.08225745 0.050229102 -0.11809365 -0.02771321 0.003942532 -0.032062937 -0.009029882 0.11267031
-0.06187805 0.05753251 -0.021237716 -0.016780334 -0.06613942 -0.07059738 -0.14546375 -0.1309102
-0.20804316 0.021547025 0.16687715 0.11966937 0.021509416 0.16627204 -0.0024726456 -0.009601791
-0.048288923 -0.11649235 -0.004612652 0.002840161 0.010373231 0.003994768 -0.044773385 0.0006993375
-0.015192309 -0.024316972 0.090261646 0.012802938 0.037425242 -0.064690135 0.01095067 0.031998474
0.07778585 -0.04680029 0.021103328 -0.02909702 -0.05970816 -0.0417022 -0.028980168 -0.018565089
-0.10944779 -0.0031946246 -0.008983309 -0.05648726 -0.10970682 -0.023050642 -0.0016977595 -0.02240179
0.01691984 -0.0049336404 -0.07381581 -0.093444966 -0.0848456 -0.03633235 0.0033498113 0.04044455
-0.027331471 0.02467341 -0.066511996 -0.09268574 -0.067549214 -0.108289324 -0.04960594 -0.061806224
-0.019424636 0.09206143 0.020850038 0.02979121 0.025630338 0.12044885 0.0023505534 0.018611185
-0.061505493 -0.09545475 -0.10440013 -0.049522795 -0.0024359366 -0.00021830601 -0.030799424 -0.061958756
-0.16708782 0.12389288 0.09589311 -0.056054518 0.10243527 -0.043515153 -0.18265788 0.0029802755
-0.055126518 -0.14552133 -0.08400084 -0.013849955 -0.015293971 0.021276355 0.057250235 0.009640003
0.059978228 0.07546952 -0.06755033 0.043538667 0.03542277 -0.0108546 -0.0011635151 -0.014088719
-0.10005758 -0.14236987 -0.051363297 -0.08482238 -0.08639498 -0.02810255 -0.07138466 -0.031420216

features.8.bias f4 [32]
00000000: 66ce 3d3e 8cf6 6bbd fa81 d23e 5af0 803e
00000010: 4afc f53e 4d12 a93e 6441 9d3e dc53 603e
00000020: a28f 033f fe49 6b3e fade 293e 5dbd c1bd
00000030: 1dcd 0d3e 003f e33d d271 223f 0aad a33e
00000040: aca3 793e c689 b83d 1e62 973d 7138 013f
00000050: 5e4d e33d 1634 aabd 4ed1 723e 1972 703d
00000060: 2b90 99be 8233 f83e 3e53 3d3e c0b4 353e
00000070: 5544 a93e 8e95 c83e 8166 283f 99fc dc3e
0.18535766 -0.057608172 0.4111479 0.25183374 0.48044044 0.33021775 0.30713952 0.2190699
0.5139104 0.22977445 0.16588965 -0.09459946 0.13847776 0.11096001 0.63454926 0.31967956
0.24378842 0.09010653 0.07391761 0.5047675 0.11098741 -0.08310716 0.23712656 0.058702562
-0.29992804 0.48476797 0.18488786 0.17744732 0.33059946 0.391766 0.6578141 0.43161467

features.8.b_w f4 [8, 1]
00000000: 0000 00c3 0000 8042 0000 0042 0000 8041
00000010: 0000 0041 0000 8040 0000 0040 0000 803f
-128.0 64.0 32.0 16.0 8.0 4.0 2.0 1.0

classifier.0.weight f4 [10, 2048]
00000000: 7355 beba 40d6 0fbd 1aa5 b63a 1f93 353d
00000010: fcd4 a53d b0d6 fd3d 15bd 5e3d 6a29 883d
00000020: 6406 1cbd 0130 6dbd 56ea 2ebd be22 de3c
00000030: 070b 633d 768f f53d 45da 9e3d c1d8 353d
00000040: 7d79 06bd 6e11 a8bd 0eea 75bd e7cf d3bb
00000050: d0ff a23d 1dc1 383e fde6 d53d e281 243d
00000060: e08c fabb a12e a4bd bdbb 94bd cc6d e0bc
00000070: 00f7 993d c2af cf3d 8097 7c3d 2a72 e33b
00000080: e8f7 66bc ad30 35bd e85a c3bd 3d5e 70bd
00000090: f02a 57bc 49a8 7cbb 5c90 113c 44c0 ffbb
000000a0: 77a1 0abb 4f28 513d caa7 7cbc bf1f 77ba
000000b0: 50cc b9bc 5960 60bd 9363 d6bc a1e3 7dbd
000000c0: 7b5e 123b d454 ca3d 4705 eb3b 828e 0bbd
000000d0: 4714 3abd bdad 36bd abeb 23bd bb17 95bd
000000e0: 9714 a13d 2dbb ef3d 84fd 49bc 69bd 66bd
000000f0: 5968 4fbd 21c4 43bd baad cd3c 9f6c 2fbd
00000100: d1c1 bfbc 1193 d0bb e678 dcba 26e0 303c
00000110: 72b2 d1bb 8757 05bd 8b1e 2fbc 4829 a83c
00000120: 9863 953d 32e2 ac3d 5f43 c53c ea43 093d
00000130: fc67 5b3c d173 f4bc 0b02 99bd 3386 603c
00000140: 1513 9e3d db06 2f3d 12c3 873d b8c3 0abd
00000150: be0f 8a3b 3413 603b 4756 c4bc 6232 4c3d
00000160: 14f8 b73d c63a 283d f5f5 843c 744e 1fbd
00000170: 55bd 01bd 34f4 033d df1a 41ba f8aa 893d
00000180: 02e7 b03d 87b7 173b 01d0 b9bc 11dd efbb
00000190: f5f2 053b 3cc2 a63d 351a 57bc 85aa 9f3d
000001a0: f735 be3c fa67 14bc 0ba2 5ebd 1e50 b4bc
000001b0: 4eae 383d 807e db3b 9520 f6bb 18f5 bb3d
000001c0: 87ea e0bc 3fe9 b8bd 2bfd 5ebd 4ca7 633c
000001d0: 3482 1f3d 7296 993c c9b9 89bc d4a3 9a3d
000001e0: 4401 8cbd 864c c0bd 95a8 37bd 1571 413c
000001f0: adbe 213d 6a7f 9e3c f654 f33b 04e6 e53c
00000200: ae80 73bd bf1c 34bd 7c7c 07bd 7c5b a0bc
00000210: f963 18bd 9589 31bd d888 a5bc acc0 2f3e
00000220: 4271 7abd 832d 8cbd 75bd afbd 2805 acbd
00000230: f9b1 57bd d0b1 52bd f047 1fbc 20fd 3f3d
00000240: fa8a eabd 131f 0bbe 81fa eabd 0d44 d8bd
00000250: bafa 27bd 3cd8 7dbc a8cb 5f3d 0327 153d
00000260: d003 e7bd c32b 1cbe c151 fbbd 1482 06bd
00000270: fa34 06bd b63c d0bc 4efb 8b3b d8c2 873d
00000280: cc5c d9bc 0360 d8bd 18b4 a8bd 8e30 6cbd
00000290: 1772 66bd bac8 e3bc 6c9b f4bc 35eb 323d
000002a0: b157 b23c d8a6 66bd be3c 1cbd b310 28bd
000002b0: acdf 90bd 5d5b c0bd 76e3 88bd fe7a 2a3d
000002c0: 9ae0 2c3d b6f6 e5bc 01ce 66bc 81e9 11bd
000002d0: bedb 82bd 328e d9bd de61 8bbd d178 ae3c
000002e0: 3479 0d3e e31c ee3c 9fbc 053d f57e 983c
000002f0: 4100 05bd 5d1b bdbd b83b 28bd 964f ca3d
00000300: fbf4 ba3d ebdc 95bd 497b 3cbd ea26 38bd
00000310: a26c 34bc d2d7 8dbd 7a76 91bd f311 00bd
00000320: f043 4f3d f009 ff3c 2aa0 753c bffa 93bd
00000330: e60f b0bc 3680 26bd 4e20 77bd e485 963a
00000340: 4f9b df3c 5f6e 223d 12bc a43c 211b 0dbd
00000350: ee0a 16bd eaeb 88bc a066 bdbd d346 93bd
00000360: 9e9d 883c 3030 093d a246 343d a9e2 063d
00000370: 74ef 22bd 904d ddbc 5ee9 29bd 5f3c c5bd
00000380: 996e f93c 9787 8c3d 6945 613d 751b 9dbb
00000390: dfc1 d5bc ea3d 15bd 6ca9 efbd aef8 a1bd
000003a0: d554 80bb 34e0 09bd 743c 0ebd 4791 78bc
000003b0: 1a06 15bd 6758 9fbc dec7 dfbd 92ce 96bd
000003c0: 4dd6 003d b5ba f1bc 6bf4 19bd 6212 01bc
000003d0: e742 a2bd 0a77 7ebd b614 09be db3b 5abd
000003e0: 6408 b63d 693b 3abd 67a5 dbbc 766a 8fbc
000003f0: 0957 debc 3087 c3bd 2fa2 c4bd 0fc9 51bd
-0.0014521315 -0.035116434 0.0013934702 0.04432976 0.08097264 0.12394464 0.05437954 0.06648524
-0.038092032 -0.05790711 -0.04270395 0.027116176 0.05543044 0.119902536 0.07756475 0.044396166
-0.032830704 -0.082064494 -0.060037665 -0.006463993 0.079589486 0.18042417 0.10444448 0.04016293
-0.007646188 -0.08016706 -0.07262371 -0.027396105 0.07517815 0.10140945 0.06166792 0.0069410997
-0.014097191 -0.044235874 -0.09538823 -0.058683623 -0.013132796 -0.0038552454 0.008884516 -0.0078049023
-0.002115337 0.051063832 -0.015420863 -0.0009427033 -0.022680432 -0.054779384 -0.026170528 -0.061984662
0.0022334147 0.09879461 0.00717226 -0.034071453 -0.045429494 -0.044599283 -0.040019672 -0.07279917
0.07865255 0.11705623 -0.012328509 -0.05633298 -0.050636623 -0.047794465 0.025107253 -0.0428282
-0.023407849 -0.006365188 -0.0016820699 0.010795629 -0.006399446 -0.032554176 -0.010688434 0.020527497
0.072943866 0.08441581 0.024079977 0.033512034 0.013391491 -0.029840382 -0.07471093 0.013703871
0.07718483 0.042731147 0.066290036 -0.03387806 0.0042133024 0.0034191133 -0.023966921 0.049852736
0.08982864 0.041071676 0.016230563 -0.038893178 -0.0316747 0.032215312 -0.000736637 0.06722063
0.08637811 0.0023150162 -0.022682192 -0.0073200543 0.0020439003 0.08142516 -0.013128807 0.07796196
0.023219092 -0.009057993 -0.054353755 -0.02201086 0.045088105 0.0066984296 -0.0075112083 0.09177607
-0.027455581 -0.09028863 -0.05444066 0.013894867 0.03894253 0.018748496 -0.016812222 0.07550779
-0.06836179 -0.09389596 -0.044838507 0.011806746 0.039488483 0.019347865 0.0074258996 0.028063782
-0.05944889 -0.043972727 -0.033077702 -0.019574873 -0.037204716 -0.0433441 -0.020206854 0.17163342
-0.061143167 -0.06844618 -0.08581058 -0.08399421 -0.052659962 -0.051439106 -0.009721741 0.04687226
-0.11452289 -0.13586073 -0.11473561 -0.10559855 -0.041010596 -0.015493449 0.05463758 0.036414158
-0.11280024 -0.15251069 -0.12271453 -0.032838896 -0.032765366 -0.025419574 0.004271901 0.0662896
-0.026533507 -0.10565188 -0.08237475 -0.057663493 -0.05626115 -0.027805675 -0.029859267 0.043681342
0.02177033 -0.05631146 -0.038143866 -0.04103155 -0.07073912 -0.09392426 -0.0668401 0.0416212
0.042206384 -0.028071743 -0.014087201 -0.035623077 -0.06389569 -0.10622825 -0.06805776 0.021297844
0.13815767 0.029066509 0.032650586 0.018615225 -0.032470945 -0.09233735 -0.041072577 0.09878461
0.091287576 -0.073175274 -0.04601601 -0.044958986 -0.011012228 -0.0692593 -0.07102676 -0.031267118
0.0506019 0.031132668 0.014991799 -0.072255604 -0.021491956 -0.040649615 -0.060333543 0.0011483994
0.027295737 0.03965604 0.02010921 -0.0344497 -0.036631517 -0.016714055 -0.0924809 -0.07191243
0.01667672 0.03349322 0.044012673 0.032931004 -0.03977914 -0.027014524 -0.041482322 -0.096306555
0.030448245 0.06861799 0.054997835 -0.004794533 -0.026093422 -0.036436 -0.117022365 -0.0790876
-0.0039163628 -0.033661082 -0.03472562 -0.015171356 -0.036382772 -0.019451333 -0.109267935 -0.07363619
0.031454373 -0.029507974 -0.03758661 -0.007877918 -0.07922917 -0.062125243 -0.13386807 -0.05327974
0.08888319 -0.045466814 -0.026812268 -0.01750682 -0.027141111 -0.09547269 -0.096012466 -0.051217135

classifier.0.bias f4 [10]
00000000: 1537 06bc f349 b7be e23e 22be 2f00 013d
00000010: 038c 933e 6ce6 5ebd 8882 bc3e 780d a8be
00000020: 7311 b23e 7e49 08be
-0.0081918435 -0.35798606 -0.158443 0.031494316 0.28817758 -0.054418966 0.36818337 -0.32822776
0.34778938 -0.13309285

classifier.0.b_w f4 [8, 1]
00000000: 0000 00c3 0000 8042 0000 0042 0000 8041
00000010: 0000 0041 0000 8040 0000 0040 0000 803f
-128.0 64.0 32.0 16.0 8.0 4.0 2.0 1.0

momentum_buffer f4 [32, 3, 3, 3]
00000000: dbb6 b13d c759 ed3d 51c5 d33d 8fd4 503d
00000010: 8709 933d 92fe 753d 526a d73c 4a13 353d
00000020: c948 143d 98a3 8b3d b387 d53d e0d1 c63d
00000030: 5bb1 0b3d 7e4a 623d 46cf 473d acdb 323c
00000040: 4521 c63c 8690 803c 08fb dc3c b477 7c3d
00000050: 564c 6a3d 8877 76bb a3ec 8d3c 662d 783c
00000060: 9109 a5bc d700 0cbc 1c0f 57bc 803b 463c
00000070: fb23 003d 60c7 693c 7441 5c3d 108b 9c3d
00000080: cc5c 8b3d e4e9 ac3d c4d6 a33d e7e9 ad3d
00000090: d837 0b3c 7285 e73c 20d5 3a3b 363a 1c3d
000000a0: 6806 643d 749e 193d 25b8 773d 3434 433d
000000b0: 8aa2 333d 308e 7e3b 5a31 e13c 000c 0f3a
000000c0: cc91 ed3c 05ca 563d 9cf6 f73c 9f42 433d
000000d0: 9bc9 3c3d b076 3a3d aec1 b03d d6e9 d63d
000000e0: 3855 f73d a9c5 c13d 6ded ef3d 4f23 123e
000000f0: ca9b 953d c04a ce3d 0913 f93d c518 713d
00000100: 2dc7 8c3d 64e8 aa3d 6a32 873d 81c3 9f3d
00000110: 0615 d73d 2a25 223d f759 743d 623b a73d
00000120: 95db bb3d 50d8 dd3d 2554 ee3d 16c9 d53d
00000130: 3818 f83d 75b7 0a3e c62d 8f3d 2901 b13d
00000140: 6786 c33d 94ec da3d 39f7 2e3e 6160 183e
00000150: 4f2e 5f3d d278 ce3d f8e3 9d3d e04e 3ebc
00000160: b8f5 633d af28 363d 30f9 223e bbf9 6d3e
00000170: 4189 5e3e 6626 e73d cbaf 263e de21 0d3e
00000180: 2c79 3a3d d6dc f93d 1a6b df3d da78 063e
00000190: 19af 513e 85c8 453e 2168 d43d 7562 183e
000001a0: 3a75 013e 55a9 783d 34b6 fd3d eb0e d43d
000001b0: a384 063e b0e4 f73d bf8a ca3d 64ed 063e
000001c0: 8aa4 033e dcb6 b13d 4a31 0e3e 59fc 013e
000001d0: fe3c 913d 7ebd c53d c4ac be3d 5684 8e3d
000001e0: cb48 ba3d 381d b03d 25b0 3a3d a297 ca3d
000001f0: 9685 b63d 0488 043d 9823 b43d 0176 a13d
00000200: e9cc 703d 675c a33d a767 8a3d 474d 103d
00000210: 219c b83d a012 993d 9991 e33c 02a9 09be
00000220: 62af d0bd 37a9 37bd 1b5f 27be 19a7 0bbe
00000230: 6bd4 bebd 1f1f 34be bec6 2ebe 8efe fdbd
00000240: 860f 0fbe 95dd ecbd 3008 7bbd 4ce0 23be
00000250: baf5 0dbe cf45 c7bd 4910 30be 657e 32be
00000260: cd9d 04be d6e6 0fbe d06a f3bd ac4e 8dbd
00000270: 1f2e 0bbe 0dad f9bd 8c77 acbd 5d68 16be
00000280: 5123 17be d5cf e1bd fa61 02be 3a27 e0bd
00000290: 95c1 97bd 7f75 a2bd 7ce7 42bd 2204 12bd
000002a0: 6506 2abd 20cb aebb 64d0 163c 091a e4bd
000002b0: b467 cbbd 030f 91bd ffea 97bd 30a6 3fbd
000002c0: 049e 16bd 2c7d 43bd d514 06bc e47e 0a3c
000002d0: a4f6 d7bd 4097 c3bd a4c5 9bbd 2b62 b0bd
000002e0: 219b 79bd c8cd 5bbd 7457 8abd fe74 0fbd
000002f0: c6ec acbc d142 02be 2973 18be 5381 1ebe
00000300: e7e5 d1bd d60a 08be b165 0ebe b65a a3bd
00000310: d2fa afbd 19d9 eabd 2157 94bd f056 b8bd
00000320: b4b4 c9bd 3c5b 32bd eefa 86bd 31c7 8ebd
00000330: 5929 29bd 3539 f7bc 8c52 4ebd 947a 9ebd
00000340: 16c7 cfbd c510 e1bd ed3a 5bbd 2496 9bbd
00000350: 9843 a8bd 82f7 6ebd d8f5 47bd 8662 7ebd
00000360: cab0 39be bed5 25be cc1b 7dbe c9e2 c4bd
00000370: 84ce b4bd 2c89 12be f322 98bd 17e1 45bd
00000380: d0cd cabd c3be 16be 9b78 06be 34bc 5ebe
00000390: 060a 8ebd 6fc0 85bd e875 e1bd 4ed6 6dbd
000003a0: a3c1 b0bc baf0 68bd 6244 13be 3773 11be
000003b0: 6dc6 70be 0b09 a3bd 8f55 b2bd 5bb9 06be
000003c0: 2bff a0bd 0c63 63bd ccde 9ebd bc5c 363d
000003d0: 1f9a d53d b2a5 203e 3772 133d 0442 d83d
000003e0: edfe 083e 440a 363d 20f2 f43d 7a59 fe3d
000003f0: 1e7c a23c 7ca1 b33d 6ec8 053e 1c54 6f3c
0.08677455 0.11589389 0.103403695 0.05098396 0.071795516 0.06005723 0.026295815 0.04420785
0.036202226 0.068183124 0.10426273 0.09707999 0.034104686 0.055246823 0.048781656 0.010916632
0.024185786 0.015693914 0.02697517 0.061637595 0.057201706 -0.0037607867 0.017324751 0.015147543
-0.020146163 -0.008545122 -0.013126161 0.012099147 0.031284314 0.014268726 0.05377336 0.076437116
0.06804809 0.084430486 0.07999948 0.08491879 0.008497201 0.028261874 0.002850838 0.03814145
0.055670172 0.03750463 0.06047835 0.047657207 0.04385618 0.0038842075 0.027489353 0.0005456805
0.029000185 0.052438755 0.03026896 0.047670957 0.046090703 0.045523345 0.086306915 0.104938194
0.12076801 0.09461529 0.11715207 0.14271282 0.07305105 0.10072851 0.12161834 0.058861513
0.06873927 0.08345106 0.066014126 0.07800961 0.10502057 0.039586224 0.05965611 0.08165623
0.09172741 0.10832274 0.11637143 0.10438745 0.12113994 0.13546546 0.069911525 0.086427994
0.095471196 0.10689655 0.17086495 0.14880516 0.054487523 0.100816384 0.07709497 -0.011615485
0.055654258 0.044472393 0.1591537 0.23239796 0.21732046 0.11286621 0.16277997 0.1378245
0.045525715 0.12200324 0.109091 0.13132039 0.2047695 0.19314773 0.103714235 0.14881308
0.12642375 0.060708363 0.12388268 0.10354408 0.13136534 0.121041656 0.09889745 0.13176495
0.12855735 0.08677456 0.1388599 0.12693919 0.070917115 0.096552834 0.09310296 0.06958835
0.090959154 0.08599323 0.04557814 0.09892203 0.08912198 0.032356277 0.087958515 0.078838356
0.058789168 0.07976609 0.06758051 0.035229947 0.09014154 0.074742556 0.027779387 -0.13443378
-0.101897016 -0.04483911 -0.16344874 -0.13637961 -0.09317859 -0.17589997 -0.17068002 -0.12402068
-0.13970765 -0.11565701 -0.061287105 -0.16003531 -0.13863268 -0.09730112 -0.17193712 -0.17431028
-0.12950821 -0.140529 -0.11885607 -0.06899771 -0.13591813 -0.1219121 -0.08421239 -0.14688249
-0.14759566 -0.11025969 -0.12732688 -0.10944982 -0.0740997 -0.07932567 -0.047584042 -0.035648473
-0.041510005 -0.005334273 0.009204958 -0.11137778 -0.09931889 -0.070829414 -0.07417869 -0.046789348
-0.03677179 -0.047726795 -0.008183678 0.008453105 -0.1054509 -0.09550333 -0.07606056 -0.08612474
-0.060938958 -0.053663045 -0.067549616 -0.03502368 -0.021108996 -0.12720801 -0.1488768 -0.15479021
-0.102489285 -0.13285384 -0.1390598 -0.07976286 -0.08592762 -0.11467189 -0.07243181 -0.09000957
-0.098489195 -0.04354404 -0.0659083 -0.069715865 -0.041299198 -0.030178646 -0.05037169 -0.07738224
-0.101453945 -0.10989527 -0.053522993 -0.075969964 -0.082160175 -0.05834151 -0.04881844 -0.062105678
-0.18133846 -0.16194817 -0.24717635 -0.09613568 -0.08828452 -0.1431014 -0.07428541 -0.048310366
-0.09902537 -0.14721207 -0.13131945 -0.21751481 -0.069355056 -0.065308444 -0.11008817 -0.058065705
-0.021576708 -0.0568702 -0.14381555 -0.14204107 -0.23513193 -0.07960709 -0.08707725 -0.13156645
-0.078611694 -0.05551438 -0.07757339 0.044522032 0.10429787 0.15688208 0.035997596 0.105594665
0.13378496 0.044443384 0.11960244 0.1241941 0.019834574 0.08771035 0.13064739 0.014607456

momentum_buffer f4 [32]
00000000: 7310 01be 6540 5fbc ad2d 12be 8e3f d33d
00000010: 3c98 423d 4267 223e beb6 9f3d 8ec2 81bd
00000020: f4bd aa3c d156 b7bd 2060 3abc 6178 c6bd
00000030: 0d43 2dbd ede1 d73d 0318 e93c b4b9 32bd
00000040: d028 3bbd 48a9 c3bd 3653 8abd 7cbf 12be
00000050: 04a2 3cbd 60f1 8e3d fbe7 103d fc1e a13d
00000060: 09e7 c4bd 7141 053e 019f 323d aeb7 d93c
00000070: 8cf1 2b3c 898a 06be b9f8 a8bd 0579 d2bd
-0.12603931 -0.013626193 -0.14275236 0.103148565 0.047508463 0.15859702 0.07798527 -0.063359365
0.02084253 -0.08952106 -0.011375457 -0.09690929 -0.042300273 0.10541139 0.028453832 -0.04363413
-0.04569322 -0.09553772 -0.067541525 -0.14330858 -0.046052948 0.069796324 0.035377484 0.07867238
-0.09614379 0.13013245 0.04360867 0.026576843 0.010494601 -0.13138784 -0.08250565 -0.10276989

momentum_buffer f4 [32, 32, 3, 3]
00000000: fcd2 bf3b f3a6 883c 2bd8 2e3c 0858 273c
00000010: 87ce 653b a4b0 a23b 54ad 253c 1e4e 053c
00000020: b7ad 0f3a 474f dcbc 307d 87bc 1e44 3bbc
00000030: 062f 84bc 78f0 95bc 9f0e 43bb b021 7e3b
00000040: 65dd 22bc 2958 aabb 20df 94bc df04 4ebc
00000050: 0206 89bc ca4d 7abc 58ae 8ebc 1242 86bc
00000060: 1b44 43bc 5099 a0bc 7bae 6cbc 98db c93a
00000070: 3d46 87bb fadb 23bb c80b 183c 767f 4fbc
00000080: b253 843b e8b3 343c 781c a9bc 538a a8bb
00000090: 445a 123c f5bf 403c 5abd 843c 280f 163c
000000a0: 7e0f 3a3c 1613 6a3c 9d4a 1c3c c6e1 a53b
000000b0: 491e 273c 00b6 bfbb c2d0 1cbc e0af 34bc
000000c0: 7732 29bc c5b3 5fbc 8dd7 84bc 6f29 8abc
000000d0: e08c 59bc e8ea 84bc 049a 96bb 0125 e2bb
000000e0: 64ab e4bb 5438 1b3b 20be bd3a f444 b0ba
000000f0: d9d9 8abb 5dbf 93bb 808d a9bb cc6b 3cbb
00000100: 292d 53bc 9efb 40bc 12ed b6ba 16c3 8cba
00000110: 65bd 9ebb 5e0a 0fbc 6034 db39 494e cc39
00000120: d41c 39bb c424 bdba 3445 5ebb f420 113c
00000130: 6c73 56bc ab1e 34bc a13e a93c c091 fabb
00000140: 7e76 36bc f127 b33b a0fe d53a dc5f 553c
00000150: 56d4 413c d4d9 a03c 0029 e73c cfb9 4c3c
00000160: b783 893c 3a4b a93c 1d81 9b3c b13b 0c3d
00000170: 635c 763c baad 673b ef9c b03c f201 f23c
00000180: 1853 febb 5ed1 11bb 5194 c43c 0b27 41bc
00000190: 6693 11bc 58d5 833c 98de 4cbb 9eb9 a2bc
000001a0: e9c0 83bc 28c5 883c e47d c2bb 1caf 7bbc
000001b0: c291 72bb c06d 713b 5362 313c 3849 28bb
000001c0: 9520 843b 912d 363c 473f 15bb 67ba e73a
000001d0: 30ad c739 2d9c 79bb 1843 63bc 46da 08bc
000001e0: 3899 3dbb 307f 4cbc 562d 62bc 1c10 bdba
000001f0: 1d5f 12bc b703 f5bb a7d0 a13b fb9f a93c
00000200: 0d18 183d 2cd1 073d 746e 043d c8d4 b03c
00000210: 9569 223d c85f 2d3d 9a83 21bc 3efc 193b
00000220: 1db1 443b 4911 8a3b 56d1 d63b fa8a d13b
00000230: 6c3b 0f3c c437 f639 5385 913b 048c 313c
00000240: d90d 1bbb 6bb3 95ba ff5d 46bc c11d 54bb
00000250: d5f9 0eb8 e9cc 20bb 2d18 23bc e09b 443b
00000260: a52b 883b 15fa 833b b0b5 49ba 224d 5bbb
00000270: bb66 f7ba 5fdc adba 6491 5ab9 77fc 503b
00000280: 667d f5b8 523b 81ba 7a35 eb3b 6c19 9f3b
00000290: eceb 3e3b 326d d93b 6696 aabb 46bb afbb
000002a0: 6638 873c e002 893a c5b9 e0bb 4e57 4639
000002b0: 0c72 16bb 86e3 afbb e14e 683b 96d4 653b
000002c0: ab71 9dbb c170 8ebb 607d 7c3b 5b67 223b
000002d0: c0a6 323c df45 043c 6ac1 7d3b 8f0c 1a3c
000002e0: 33be e13b aae5 653b dd4e d33b 9747 8d3b
000002f0: 222b 4b3b 2ed4 68ba b47d d3b9 9201 2ebb
00000300: 323e ae3a e0a8 4f3b 06e4 993b 90a5 1abc
00000310: d626 353b 1496 c03b 09f4 953b 5814 a03a
00000320: 2057 d5b9 5796 803c abfc 803c 9c37 3e3b
00000330: 8b4d 7d3c 44fe 263b a3fc 02bc 936a 493c
00000340: b6cc d63c 9747 083d 0bcb 253c 2e99 c43c
00000350: 2f80 063d 1429 953c a6fc ad3c 6f47 213c
00000360: 3369 2e3c 92cf 0ebb 78ed 923b a0f6 993b
00000370: a643 13b9 0158 fcb9 97d5 af3b 1264 20bb
00000380: e55e 9139 8074 28bb e322 9c38 64b4 943b
00000390: 265a 1ebb 258c c0ba a869 63b9 3538 afba
000003a0: f041 f739 3c14 813b bf22 13bc 8a94 00bc
000003b0: afa3 04bc 44ad 09bb bc5b d0bb ced9 a7bb
000003c0: a46e 5dbb 9259 22bc 7aa9 c8bb 067d e73c
000003d0: 0c6e 013d 69c9 d83c 9f2f ed3c 85e1 053d
000003e0: d036 a43c 60fc 033d a23f 083d 4b42 853c
000003f0: 5632 3bbc 6155 7bbb 0ce3 94bc 27a1 0abc
0.0058540087 0.01668117 0.010671656 0.010213859 0.0035065727 0.004964905 0.010112125 0.0081363
0.00054809026 -0.026893271 -0.016539186 -0.011429815 -0.016135704 -0.018303141 -0.0029763354 0.0038777404
-0.00994048 -0.005198498 -0.0181728 -0.012574404 -0.016726498 -0.015277335 -0.017417118 -0.016388927
-0.011918093 -0.019604355 -0.014445896 0.0015400527 -0.004128246 -0.0025002942 0.009280153 -0.012664666
0.0040382976 0.011029221 -0.020643458 -0.0051434427 0.008932654 0.011764516 0.016203571 0.009158887
0.011356233 0.014286777 0.009539274 0.0050623147 0.010200092 -0.0058505535 -0.009571256 -0.01102826
-0.010326973 -0.0136537 -0.016216064 -0.01686546 -0.013278216 -0.016225293 -0.004595997 -0.006901384
-0.006978439 0.0023684697 0.0014476217 -0.0013448284 -0.0042373952 -0.0045088963 -0.005174339 -0.0028750775
-0.012889185 -0.01177874 -0.001395615 -0.0010739292 -0.004844355 -0.008730499 0.00041809957 0.0003896824
-0.0028245943 -0.0014430513 -0.003391576 0.008857954 -0.013089042 -0.01099364 0.020659747 -0.0076467693
-0.011136649 0.005467408 0.0016326495 0.013023343 0.01183041 0.019635119 0.028217793 0.012495472
0.01678644 0.020665754 0.018982464 0.034236614 0.015036675 0.0035351352 0.021559207 0.029541943
-0.0077613704 -0.0022250037 0.023996504 -0.011789094 -0.00888524 0.016092941 -0.0031260606 -0.0198639
-0.016083198 0.016695574 -0.0059354175 -0.015361574 -0.0037013148 0.0036839098 0.010826665 -0.0025678407
0.0040322044 0.011119262 -0.0022773312 0.0017679454 0.00038085273 -0.0038087473 -0.013870977 -0.008352822
-0.0028930437 -0.012481496 -0.013804754 -0.0014424357 -0.00893381 -0.0074772495 0.0049382034 0.020706167
0.03713231 0.033158466 0.0323319 0.021585837 0.039651472 0.042327672 -0.009858036 0.0023496295
0.0030012794 0.0042134863 0.0065557165 0.006394741 0.008742195 0.00046962325 0.0044409423 0.010836605
-0.0023659377 -0.0011421269 -0.012107371 -0.0032366368 -3.4088112e-05 -0.0024536198 -0.009954494 0.0030000135
0.0041555935 0.004027615 -0.0007694615 -0.0033462723 -0.001887522 -0.0013264528 -0.00020844262 0.0031888762
-0.00011705868 -0.0009859598 0.0071780058 0.0048553254 0.002913232 0.0066353315 -0.005205917 -0.005362901
0.016506385 0.0010453127 -0.006858083 0.00018915275 -0.002295616 -0.005367699 0.0035447406 0.0035069338
-0.00480481 -0.0043469374 0.0038526878 0.0024780843 0.010904014 0.008073299 0.003872002 0.009402408
0.0068891286 0.0035079517 0.00644861 0.0043115127 0.003100105 -0.0008881715 -0.00040338712 -0.002655123
0.0013293682 0.003168635 0.004696372 -0.009438887 0.0027641556 0.0058772657 0.0045762104 0.0012213094
-0.0004069144 0.015696688 0.015745481 0.0029024845 0.015460382 0.0025481144 -0.007994804 0.012293476
0.02622066 0.0332714 0.01011921 0.023998823 0.03283709 0.018208064 0.021238636 0.009843691
0.010645199 -0.0021791202 0.004483875 0.0046985894 -0.00014044213 -0.00048130754 0.005366038 -0.002447371
0.00027727257 -0.0025704205 7.445158e-05 0.004538106 -0.002416262 -0.0014690204 -0.00021687767 -0.0013368191
0.00047160638 0.0039391797 -0.008980452 -0.0078479145 -0.008095666 -0.0021007815 -0.006358592 -0.0051224
-0.003378787 -0.009909051 -0.006123719 0.028257858 0.03159909 0.026463227 0.028953372 0.032685775
0.020045668 0.032223105 0.03326381 0.016266963 -0.011425575 -0.003835045 -0.01817467 -0.008461273

momentum_buffer f4 [32]
00000000: d2f0 89bc b6bc 08bd f521 02bd bb1f 853d
00000010: 287d cb3d 5c78 913d d31b 7fbd f648 febc
00000020: 3640 eebd 4a0f 0c3e 7f7a 383d 1682 e63d
00000030: 2e36 ce3c 07ff b5bb 1716 ec3d 3c01 363c
00000040: 74c7 4d3b 70b6 31bd 688c b33a a08f 7bba
00000050: a083 9c3d f223 073e 1065 edbd d9b8 573d
00000060: 9e47 b13c 7692 7fbd 9801 ff3d a32a 2dbe
00000070: 87c2 013e fe44 b3bd e87c eebc 863c b73d
-0.016838465 -0.033383094 -0.031770665 0.06500193 0.09935981 0.07103035 -0.062282395 -0.03104065
-0.11633341 0.13677707 0.045038696 0.11255281 0.02517232 -0.0055540833 0.11527651 0.011108693
0.00313994 -0.043386877 0.001369846 -0.0009596292 0.07642293 0.13197306 -0.11591542 0.05266652
0.021640595 -0.062395535 0.12451476 -0.16910796 0.12671863 -0.087533936 -0.029112294 0.08947091
