Securite/Model2/Save attaque/clipping_0.2_0.01/model_best.pth.tar (torch, 404714 bytes, 25 tensors)

features.0.weight f4 [32, 3, 3, 3]
0	0xbcf74502	-0.030184273
1	0xbe3b69ca	-0.18302074
2	0xbe4633aa	-0.19355646
3	0x3d9913a4	0.07474449
4	0xbe3b7899	-0.18307723
5	0x3e3a6299	0.18201675
6	0x3e35ca1a	0.17752877
7	0x3dfab681	0.12241841
8	0x3dd05308	0.10172087
9	0xbdcd29b6	-0.10017721
10	0x3d6b99bc	0.05751966
11	0x3e4cc5c2	0.19997314
12	0xbe10eada	-0.14152089
13	0xbe1f2fae	-0.15545532
14	0x3e4caa30	0.19986796
15	0xbc85935a	-0.016305614
16	0xbe3557c4	-0.17709261
17	0x3e2304ea	0.15919843
18	0x3e26109c	0.16217273
19	0x3e3c9491	0.18416049
20	0xbd5df209	-0.0541859
21	0xbd9d3e4d	-0.076778986
22	0xbdf52ca8	-0.11971408
23	0x3e4b4e72	0.19854143
24	0xbe0ff13c	-0.14056867
25	0xbe3e1446	-0.18562421
26	0xbc564431	-0.013077782
27	0x3e2adfd5	0.16686948
28	0x3e2c7dda	0.16844884
29	0x3e378887	0.17923175
30	0x3e42f62b	0.19039218
31	0xbd6e53da	-0.058185436
32	0xbe4bee7f	-0.19915198
33	0x3d349e3c	0.044096217
34	0xbde0adef	-0.10970675
35	0xbe19f5cd	-0.15035172
36	0xbd228228	-0.039674908
37	0xbe462f31	-0.1935394
38	0xbe027142	-0.12738517
39	0x3e425ad2	0.18979958
40	0xbe47beca	-0.19506374
41	0xbe4bcda1	-0.1990266
42	0x3e2bb2fa	0.16767493
43	0xbd85c665	-0.065319814
44	0x3d9cc318	0.07654399
45	0xbd10a60a	-0.035314597
46	0xbe3090d1	-0.17242743
47	0xbdf9fbb5	-0.122062124
48	0x3e3a7f65	0.1821266
49	0xbc85971a	-0.016307402
50	0xbe45279e	-0.19253394
51	0x3e16509c	0.14679188
52	0x3e1c0d70	0.15239501
53	0x3d982b54	0.07430139
54	0x3e43cf4e	0.19122049
55	0xbe1d4615	-0.15358765
56	0xbe01a6d5	-0.12661298
57	0x3da2dd5a	0.07952376
58	0xbe4ce6ab	-0.20009868
59	0xbe4a9e25	-0.1978689
60	0x3d28f227	0.04124656
61	0x3e49aae2	0.19694093
62	0xbb41ad96	-0.0029552928
63	0x3dd0e059	0.10199041
64	0xbe207144	-0.15668207
65	0x3e3c4dbf	0.18389033
66	0xbe29274a	-0.16518894
67	0x3d5a5b09	0.053309474
68	0x3c5e3804	0.01356316
69	0xbe2b2a0c	-0.16715258
70	0x3e494237	0.19654165
71	0x3e2f4053	0.17114381
72	0x3e017a5e	0.12644336
73	0xbc1fefa3	-0.009761724
74	0xbd617ddf	-0.05505168
75	0xbe24a449	-0.16078295
76	0xbddc1a7c	-0.10747239
77	0x3dab7bf9	0.08373255
78	0xbe3d7eab	-0.18505351
79	0x3e49227b	0.1964206
80	0x3e0276ae	0.12740585
81	0x3b83187b	0.004000721
82	0x3e321fd6	0.17394957
83	0xbd7e6a47	-0.062113073
84	0x3c798a1a	0.01523068
85	0x3e4bc340	0.198987
86	0x3e4a7eaa	0.19774881
87	0xbe24ee53	-0.16106538
88	0xbd7bd6b1	-0.061484043
89	0xbe42265c	-0.18959945
90	0xbe39c63a	-0.18142024
91	0x3e465db4	0.19371682
92	0xbe267e4f	-0.1625912
93	0xbe305ee4	-0.17223698
94	0x3e4cf195	0.20014031
95	0x3e4cc384	0.19996458
96	0xbe44b7cd	-0.1921074
97	0xbe00ac0e	-0.12565634
98	0xbe43da12	-0.19126156
99	0x3d26e2fd	0.040743817
100	0x3e4567e9	0.1927792
101	0xbe1fa7de	-0.1559138
102	0x3e1de446	0.1541911
103	0x3e4cf0bf	0.20013712
104	0x3e4b82cd	0.19874115
105	0xbe463877	-0.19357477
106	0x3c9183a0	0.017762959
107	0xbe445197	-0.19171749
108	0x3e47a34a	0.19495884
109	0x3e49eb64	0.197187
110	0x3e125a6c	0.14292306
111	0xbdc0a994	-0.094073445
112	0xbe47d3e3	-0.19514422
113	0x3e46d7a6	0.19418201
114	0xbe24f434	-0.16108781
115	0xbe30ef09	-0.17278685
116	0x3bc9fd31	0.006164216
117	0x3e2d1e08	0.16905987
118	0x3e368b9f	0.17826699
119	0xbdfa20ca	-0.12213285
120	0xbe30190f	-0.17197059
121	0xbe47f1ba	-0.19525805
122	0x3e32cb60	0.17460394
123	0x3d9abfc0	0.07556105
124	0xbe2113e7	-0.15730248
125	0x3e0362d1	0.12830664
126	0x3d011be0	0.031520724
127	0xbdcc66e0	-0.09980559
128	0xbe36a6fe	-0.1783714
129	0xbe084f6b	-0.13311546
130	0xbe42b894	-0.19015723
131	0x3e02aaf9	0.12760533
132	0x3e44a57c	0.19203752
133	0xbc65e5cb	-0.014031838
134	0x3ddc7def	0.107662074
135	0x3e494df8	0.19658649
136	0xbce99a68	-0.02851601
137	0x3d8988e4	0.06715563
138	0x3e4a14ab	0.19734447
139	0xbd5a7be3	-0.053340804
140	0xbe3cfdd6	-0.18456206
141	0x3e456841	0.19278051
142	0xbe47951e	-0.19490477
143	0xbe45d1ba	-0.19318286
144	0x3e4864b3	0.19569664
145	0x3deee286	0.116643
146	0x3deafbc2	0.114738
147	0x3e41512d	0.18878622
148	0x3d9d737e	0.07688044
149	0x3c74d0e1	0.014942379
150	0x3c80f45d	0.015741521
151	0xbe37f0a9	-0.17962898
152	0x3d3d1f39	0.046172354
153	0xbe36eeff	-0.17864607
154	0xbe4b173d	-0.19833083
155	0xbc9ca009	-0.01911928
156	0xbe481c3c	-0.1954202
157	0xbdcfd12d	-0.10147319
158	0x3db803b0	0.08985078
159	0xbe459271	-0.19294144
160	0xbe43b607	-0.19112407
161	0x3e1ec8d2	0.15506294
162	0xbe43cd51	-0.1912129
163	0xbe423d5e	-0.18968722
164	0x3baa62ac	0.005199751
165	0x3e37d190	0.17951035
166	0x3e41e196	0.1893371
167	0xbe4bafbf	-0.1989126
168	0xbd9295ca	-0.07157476
169	0x3e318bec	0.17338532
170	0x3e42ae4a	0.19011799
171	0xbda27392	-0.079321995
172	0x3d0217b0	0.03176087
173	0xbd12b391	-0.03581578
174	0x3e3e5c40	0.18589878
175	0x3e461439	0.19343652
176	0xbe4be195	-0.19910271
177	0xbdcd0e56	-0.100125
178	0x3cd8923a	0.026436914
179	0xbe39f2d0	-0.18159032
180	0x3d519a91	0.051172797
181	0xbc868a42	-0.016423348
182	0x3e163ca9	0.14671578
183	0x3e48ce14	0.19609863
184	0x3e47f0bc	0.19525427
185	0xbe3178bf	-0.17331217
186	0xbe1b4f33	-0.15166931
187	0xbe117c99	-0.14207686
188	0xbd91ac8b	-0.07112988
189	0x3e3280cb	0.17431943
190	0x3e47ee11	0.19524409
191	0xbd889371	-0.06668747
192	0xbd749acf	-0.05971795
193	0x3e4996d5	0.19686444
194	0x3e214714	0.1574977
195	0xbe21b533	-0.15791778
196	0xbe312c30	-0.17302012
197	0x3d362b57	0.044474926
198	0xbe45682f	-0.19278024
199	0xbe3feb00	-0.18741989
200	0xbe43bf5e	-0.1911597
201	0xbe420d6d	-0.18950434
202	0x3e49a4cf	0.19691776
203	0x3e1815d0	0.14852071
204	0xbe1caa37	-0.15299307
205	0xbbf0f1e1	-0.007353053
206	0x3e21d6c0	0.15804577
207	0x3d269a99	0.04067478
208	0xbe3d11f7	-0.18463884
209	0xbe460011	-0.19335963
210	0xbe0097fb	-0.12557976
211	0x3e4a760f	0.19771598
212	0x3bdf503e	0.0068149855
213	0x3c4c0585	0.012452488
214	0x3e30cc93	0.17265539
215	0x3e1fc9bd	0.15604301
216	0xbd4bd016	-0.049758993
217	0x3e3d3074	0.18475515
218	0x3e28647c	0.16444582
219	0x3e3d6960	0.18497229
220	0x3ddc9b96	0.10771863
221	0xbe441fd7	-0.19152771
222	0x3dbe2478	0.092842996
223	0xbe47b7c1	-0.1950369
224	0xbe48113b	-0.19537823
225	0xbe2d289d	-0.16910024
226	0x3e41ca94	0.18924934
227	0x3df338fe	0.11876105
228	0x3e4a96d6	0.19784102
229	0x3d1da70f	0.038489398
230	0xbe45150d	-0.19246311
231	0xbd3767a3	-0.04477657
232	0xbe433b35	-0.19065554
233	0xbe3fd0a3	-0.18731932
234	0xbe2db741	-0.16964437
235	0x3e498d55	0.1968282
236	0x3e00b1ce	0.12567827
237	0x3e43efcc	0.19134444
238	0x3e02009b	0.12695543
239	0xbe3eccfd	-0.18632884
240	0x3dd62e70	0.10458076
241	0xbd9e6590	-0.07734215
242	0xbe3d9f3f	-0.18517779
243	0xbd1a6c26	-0.037700795
244	0xbe42ec18	-0.19035375
245	0xbd389e08	-0.045072585
246	0xbc4f979f	-0.012670427
247	0x3d90e762	0.07075383
248	0xbe0eb34d	-0.13935585
249	0x3dbf18eb	0.093309246
250	0x39c0b3de	0.00036755105
251	0xbc6f4d1e	-0.0146057885
252	0xbdadba14	-0.08482757
253	0xbe45c513	-0.19313459
254	0x3ceb3367	0.028711034
255	0xbd7b008d	-0.061279822

features.0.bias f4 [32]
0	0x3e7c8496	0.24659953
1	0xbcc494c9	-0.023996728
2	0x3ea00138	0.3125093
3	0xbe997054	-0.29968512
4	0x3e0abbc6	0.13548192
5	0xbeccd317	-0.400048
6	0x3e2f2d15	0.17107041
7	0x3e112d09	0.14177336
8	0xbe6c26f2	-0.23061731
9	0xbb05c84a	-0.002041357
10	0xbc2d6449	-0.010582992
11	0x3e5d2b7b	0.21598618
12	0xbc82fd6b	-0.01598998
13	0xbf05ab42	-0.52214444
14	0x3e0df8b0	0.13864398
15	0x3e50d9e1	0.20395614
16	0xbec2cd77	-0.38047382
17	0x3cf97f48	0.0304562
18	0xbf2202f2	-0.63285744
19	0xbe41512e	-0.18878624
20	0xbc44d9bf	-0.012014805
21	0xbe601ef6	-0.2188681
22	0xbeb5d75a	-0.35515863
23	0xbf393b68	-0.7235627
24	0x3e4ab264	0.19794613
25	0xbc318faf	-0.0108374795
26	0xbe8d3e2e	-0.27586502
27	0xbe836781	-0.25664905
28	0x3d927e54	0.071530014
29	0xbef67707	-0.48137686
30	0xbee75400	-0.45181274
31	0x3ea64ebc	0.32481945

features.0.b_w f4 [8, 1]
0	0xc3000000	-128.0
1	0x42800000	64.0
2	0x42000000	32.0
3	0x41800000	16.0
4	0x41000000	8.0
5	0x40800000	4.0
6	0x40000000	2.0
7	0x3f800000	1.0

features.2.weight f4 [32, 32, 3, 3]
0	0xbc870a1b	-0.01648431
1	0x3d926bd7	0.07149475
2	0x3e0d056e	0.13771603
3	0xbc93f7f1	-0.018062564
4	0x3e081691	0.13289858
5	0x3e019c67	0.12657319
6	0xbe0a41aa	-0.13501611
7	0xbdf6b2f0	-0.12045848
8	0xbdade8f6	-0.084916994
9	0xbd1c3e03	-0.038145076
10	0xbe00fdbc	-0.12596792
11	0xbde219c4	-0.11040071
12	0x3c6e1e27	0.014533556
13	0xbe0a008b	-0.1347677
14	0xbda83408	-0.08213049
15	0x3e3e0f44	0.18560511
16	0x3dceea44	0.10103276
17	0x3d9dd9cb	0.07707556
18	0x3d5167a4	0.05112423
19	0x3d8ee149	0.069765635
20	0x3db055bf	0.08610105
21	0xbe1cf199	-0.15326537
22	0xbe049ddf	-0.12950848
23	0xbd3d21b5	-0.046174724
24	0xbd4d8b26	-0.05018153
25	0x3c7a80ae	0.015289469
26	0xbd5b1508	-0.053486854
27	0xbc156f43	-0.009120765
28	0xbc168718	-0.009187482
29	0x3d77cffd	0.060501087
30	0xbc9cfe67	-0.019164277
31	0x3d7c2f1c	0.061568365
32	0xbda69c90	-0.08135331
33	0x3dc0a628	0.09406692
34	0x3e0d9c5e	0.1382918
35	0x3d5d9f67	0.054107096
36	0xbb8c145c	-0.004274888
37	0xbca87884	-0.020565279
38	0x3d4ea948	0.050454408
39	0xbd3d4a1a	-0.046213247
40	0xbd8155b2	-0.06315173
41	0xbdcafbaa	-0.09911282
42	0x3d3148e8	0.04328242
43	0x3d8d819a	0.06909485
44	0xbcb262f3	-0.021775698
45	0xbd44afbf	-0.048019167
46	0xba97d09a	-0.0011582554
47	0x3d399d60	0.0453161
48	0xbe169fda	-0.14709416
49	0xbdb506ae	-0.08839165
50	0xbd1779c3	-0.036981355
51	0xbe00dc4b	-0.12584035
52	0xbdfe478f	-0.124159925
53	0xbdf85ef1	-0.12127484
54	0xbd263ae4	-0.040583506
55	0x3c8286a2	0.015933339
56	0xbdcc430b	-0.09973725
57	0x3dbd9da5	0.09258584
58	0x3dca42e6	0.09876041
59	0x3c8cf5ab	0.017206987
60	0xbd9d7310	-0.07687962
61	0xbe082e11	-0.13298823
62	0xbe49a71d	-0.19692655
63	0xbd8a135a	-0.06741972
64	0xbda2e0d0	-0.07953036
65	0xbe181a59	-0.14853801
66	0xbd6eccd9	-0.058300827
67	0x3d0ae4fc	0.033909783
68	0xbdc5cd81	-0.096583374
69	0x3d7d2cda	0.061810352
70	0x3dbe69ce	0.092975244
71	0x3cd83271	0.02639124
72	0xbd1f1cd0	-0.038845837
73	0x3d7583fc	0.059940323
74	0x3d5de67e	0.054174893
75	0xbe15b25d	-0.14618821
76	0xbc316859	-0.010828101
77	0x3da87dec	0.08227143
78	0x3ddb564e	0.10709821
79	0x3ce1793c	0.02752363
80	0xbd03f5b0	-0.032216728
81	0x3d33ea19	0.043924425
82	0x3c423297	0.011852882
83	0x3ce9b0d1	0.028526695
84	0x3d60a322	0.054843076
85	0x3d87489d	0.06605647
86	0x3cf991a6	0.030464958
87	0xbe482ac6	-0.19547567
88	0xbe4869c0	-0.1957159
89	0xbe4ab108	-0.19794095
90	0xbe19542d	-0.14973517
91	0xbdfbb70c	-0.12290773
92	0xbe01ab9d	-0.12663122
93	0xbdc9c0fc	-0.09851262
94	0xbd82a782	-0.06379606
95	0xbd6c96b6	-0.057760917
96	0xbdb55c93	-0.08855548
97	0xbc1efb67	-0.009703494
98	0xbd500ee1	-0.05079544
99	0x3cf67c67	0.030088617
100	0xbd5ea5b2	-0.054357238
101	0xbcd08783	-0.025455242
102	0x3d6760db	0.056488853
103	0xbd3b4388	-0.0457187
104	0xbd5c9f73	-0.053863
105	0x3d742a01	0.05961037
106	0xbd6dc498	-0.058048815
107	0x3c8ab4bb	0.016931882
108	0xbe48e275	-0.19617637
109	0xbe4765a5	-0.19472368
110	0xbe4a05a2	-0.19728711
111	0xbd9090b7	-0.07058852
112	0xbdbe1553	-0.09281411
113	0xbe19cbc3	-0.15019135
114	0xbd4b4e80	-0.04963541
115	0x3ce85581	0.028361084
116	0xbc997d35	-0.018736461
117	0x3bad5b9c	0.0052904617
118	0xbd6d8202	-0.057985313
119	0xbd05aa6d	-0.032633234
120	0x3d25c026	0.04046645
121	0x3a43d819	0.0007470861
122	0x3ae573b5	0.0017505797
123	0x3dcdd729	0.10050804
124	0x3c6337f6	0.013868323
125	0xbd04d8ff	-0.032433506
126	0x3c641d98	0.013923071
127	0xbc5e2778	-0.013559215
128	0x3d205724	0.039145604
129	0x3d0a1cab	0.033718746
130	0x3ca05bdd	0.019575054
131	0xbd354fe4	-0.044265643
132	0xbd1219b9	-0.035669062
133	0xbd5486d4	-0.051886395
134	0xbe2cbc5d	-0.1686873
135	0xbd3abb93	-0.04558904
136	0x3dc0b894	0.094102055
137	0xbb983490	-0.004644938
138	0xbdf7eb28	-0.12105399
139	0xbd1ffd18	-0.03905973
140	0xbd970550	-0.0737406
141	0xbbff1d30	-0.007785462
142	0x3d2eeaf7	0.04270455
143	0x3d4caf14	0.049971655
144	0x3d4f6389	0.050632033
145	0x3c8a3bdf	0.016874252
146	0x3d0df4df	0.034657355
147	0xbd810a10	-0.063007474
148	0xbd6e9102	-0.05824376
149	0xbdf5423e	-0.11975525
150	0x3d050094	0.032471254
151	0x3c82933d	0.01593935
152	0xbcde8214	-0.027161635
153	0xbbf74a34	-0.0075466875
154	0xbca0edd9	-0.019644665
155	0xbd01df7c	-0.031707272
156	0x3d92c938	0.07167286
157	0x3db14304	0.0865536
158	0xbcce281b	-0.025165608
159	0xbdd501c6	-0.10400729
160	0xbd8fdf2e	-0.0702499
161	0xbdba5482	-0.0909815
162	0x3c08350e	0.0083134305
163	0x3c49b184	0.012310389
164	0xbb1ad38d	-0.002362463
165	0xbd978550	-0.07398474
166	0xbcadb128	-0.021202639
167	0xbb8e76e6	-0.00434767
168	0xbd0719e0	-0.03298366
169	0xbd73740b	-0.05943684
170	0xbd921198	-0.07132262
171	0xbbc7d2fb	-0.006098149
172	0x3ce68f98	0.028144643
173	0x3d1a8b00	0.037730217
174	0xbdbec92d	-0.09315715
175	0x3d13ca6f	0.036081728
176	0xbca0bbc9	-0.019620793
177	0x3cd7609b	0.026291182
178	0x3d2827e3	0.041053664
179	0x3d11a513	0.035557818
180	0x3e0c1acc	0.13682097
181	0x3dc55b85	0.096365966
182	0xbda5f765	-0.081038274
183	0x3e1fccf3	0.15605526
184	0x3e1322a6	0.14368686
185	0x3c58333e	0.013195811
186	0xbe203c0f	-0.1564791
187	0xbe3a729c	-0.18207783
188	0xbe4b6404	-0.19862372
189	0x3b7b210f	0.0038319265
190	0x3d017181	0.031602386
191	0xbbdf39c4	-0.006812306
192	0xbc57da58	-0.013174616
193	0x39dea94b	0.00042469273
194	0xbc9306ad	-0.01794752
195	0xbd84b89b	-0.06480523
196	0xbda86a68	-0.082234204
197	0xbb79e167	-0.0038128735
198	0xbe03a0fd	-0.12854381
199	0xbe0e1427	-0.13874875
200	0xbde5df22	-0.112242
201	0xbb27d95b	-0.0025611732
202	0x3b266d44	0.0025394717
203	0xbd29e45f	-0.041477557
204	0x3dff3547	0.12461334
205	0x3dd6cec4	0.10488656
206	0x3d9896ee	0.074506626
207	0xbded24b2	-0.11579265
208	0xbd8ffe02	-0.0703087
209	0xbdc8b0ef	-0.097993724
210	0x3cd01160	0.02539891
211	0x3d1417f9	0.036155675
212	0x3b604b97	0.0034224743
213	0x3d8cc05d	0.06872628
214	0x3da7f78c	0.08201513
215	0x3d9b0077	0.07568448
216	0xbd31e7d6	-0.043433987
217	0xba9a5de1	-0.0011777246
218	0xbd857f8a	-0.06518467
219	0xbd8be8f7	-0.06831544
220	0xbd4eb258	-0.05046305
221	0xbdad5dd8	-0.08465165
222	0x3ddd6147	0.1080957
223	0x3e39da33	0.18149643
224	0x3d9d52a6	0.076817796
225	0xbdfd3c27	-0.12364989
226	0xbd684580	-0.056706905
227	0xbd58858e	-0.052861743
228	0x3d365d33	0.044522475
229	0x3d42fd92	0.047605105
230	0x3d771baf	0.060329136
231	0x3e46db33	0.19419555
232	0x3e149f6c	0.1451394
233	0x3d46bd4c	0.04852037
234	0xbdcc54ae	-0.09977089
235	0xbdfab861	-0.12242199
236	0xbe14899e	-0.14505622
237	0x3d765fbc	0.060149893
238	0x3dc8a4b3	0.09797039
239	0x3d988090	0.07446396
240	0x3da55b51	0.08074058
241	0x3e4a146b	0.19734351
242	0x3e08a5eb	0.13344543
243	0x3bb85a86	0.0056260256
244	0xbd820377	-0.06348317
245	0xbd2cb0e8	-0.0421609
246	0x3b00f3c1	0.0019676539
247	0xbd4459f4	-0.04793735
248	0xbd3c4b17	-0.04597005
249	0xbbe7ed7f	-0.0070778723
250	0xbe27c37a	-0.16383162
251	0xbe26c8ca	-0.16287532
252	0x3c2ebd3e	0.010665236
253	0xbd88b0c5	-0.06674341
254	0x3d894be8	0.06703931
255	0x3df28cf9	0.11843295

features.2.bias f4 [32]
0	0xbdc65a3f	-0.09685182
1	0x3d7078dc	0.05870901
2	0xbdda9b09	-0.10674102
3	0x3d2c4559	0.042058323
4	0xbca43f81	-0.020049812
5	0xbe5acdf8	-0.21367633
6	0xbddc4ba3	-0.10756614
7	0xbe418be3	-0.18901019
8	0xbc09221c	-0.008369949
9	0xbe6c9405	-0.2310334
10	0x3d6e15b0	0.05812615
11	0x3e37afa2	0.17938092
12	0xbc355bee	-0.011069281
13	0xbe45ef51	-0.19329573
14	0xbd6a9870	-0.057274282
15	0x3cc8eb78	0.024526343
16	0xbdd84a14	-0.10561004
17	0xbe0799f9	-0.1324233
18	0x3e780dbc	0.24223989
19	0xbd9b1842	-0.07572986
20	0xbd51ba07	-0.0512028
21	0xbdabf145	-0.08395628
22	0xbdceab7e	-0.10091303
23	0x3c89f647	0.016841067
24	0x3dedb370	0.116064906
25	0x3e222552	0.15834549
26	0x3e30c47d	0.17262454
27	0x3e0e145a	0.13874951
28	0x3e3bc678	0.18337429
29	0xbb857a2c	-0.004073402
30	0x3db98619	0.0905878
31	0xbc185bac	-0.0092992

features.2.b_w f4 [8, 1]
0	0xc3000000	-128.0
1	0x42800000	64.0
2	0x42000000	32.0
3	0x41800000	16.0
4	0x41000000	8.0
5	0x40800000	4.0
6	0x40000000	2.0
7	0x3f800000	1.0

features.6.weight f4 [32, 32, 3, 3]
0	0x3d29dcac	0.041470215
1	0x3dcbce6b	0.099514805
2	0x3d954f69	0.07290537
3	0x3d6b64d3	0.0574692
4	0xbc895b51	-0.016767176
5	0xbd392d42	-0.045209177
6	0xbd3f7eda	-0.046751834
7	0xbd48ff6e	-0.04907172
8	0xbb679ac0	-0.003534004
9	0x3dfc2276	0.123112604
10	0x3e4281d5	0.1899484
11	0x3e0c6497	0.13710247
12	0xbdf1c43d	-0.118050076
13	0xbdc54e4f	-0.09634077
14	0xbe253831	-0.16134717
15	0xbe3f335d	-0.18671937
16	0xbe4c07d8	-0.19924867
17	0xbe43fe29	-0.19139923
18	0x3ded409f	0.11584591
19	0x3b583895	0.003299271
20	0xbcbdbacd	-0.023160363
21	0x3daba88a	0.08381756
22	0x3e14c947	0.14529906
23	0x3cafb825	0.021450112
24	0xbe3a375a	-0.18185177
25	0xbde6c6bf	-0.112683766
26	0x3d7746b5	0.060370166
27	0x3d91fcd0	0.07128298
28	0x3e2ffa37	0.17185293
29	0x3e2ecbed	0.17069979
30	0x3c219f46	0.009864634
31	0x3d713af0	0.058894098
32	0xbd02489b	-0.031807523
33	0xbe2e17f8	-0.17001331
34	0xbda2c985	-0.07948593
35	0xbe47bbee	-0.19505283
36	0x3e26afcc	0.16277999
37	0x3e43dd08	0.19127285
38	0x3e344a33	0.1760643
39	0xbdf22b73	-0.118246935
40	0xbe29a906	-0.16568384
41	0xbe1f0eb0	-0.15532947
42	0xbe2b64a6	-0.16737613
43	0xbe48fe1d	-0.19628187
44	0xbe496d60	-0.1967063
45	0xbcbbc187	-0.02291943
46	0x3d42c5e2	0.047551997
47	0x3d2fe8e7	0.042946722
48	0xbc1ff8ed	-0.009763938
49	0xbc51038b	-0.012757192
50	0xbcd9c0e9	-0.026581245
51	0x3aae486b	0.0013296729
52	0xbd4c0e0b	-0.04981808
53	0x3c6bf227	0.014400995
54	0x3dec7dd0	0.11547434
55	0x3d023400	0.031787872
56	0xbd8c76c7	-0.068585925
57	0xbb8c9d87	-0.0042912397
58	0x3c8cf443	0.017206317
59	0x3c3c59b2	0.011495994
60	0xbd5b896d	-0.053597856
61	0xbc78d98d	-0.015188587
62	0x3cc33b1d	0.023831898
63	0x3d117b6a	0.035518087
64	0xbba5d52d	-0.005060813
65	0x3d82b849	0.06382806
66	0x3b2d1fdb	0.0026416692
67	0x3e2c2068	0.16809237
68	0x3bfba7ec	0.00767993
69	0xbd880cf4	-0.066430956
70	0xbcbb566e	-0.022868361
71	0x3de17b1c	0.110098094
72	0x3dfb5cf5	0.122735895
73	0x3e358e00	0.1772995
74	0x3dc314a4	0.09525421
75	0xbd8180d1	-0.06323398
76	0x3e06e6c5	0.13173969
77	0xbd23d700	-0.03999996
78	0xbe4cc6d0	-0.19997716
79	0xbe4c8f05	-0.19976433
80	0xbe2312df	-0.15925168
81	0xbd60796a	-0.05480329
82	0x3d0fc868	0.03510323
83	0xbc89a475	-0.016802052
84	0xbb1d9899	-0.0024047254
85	0x3e1caa75	0.15299399
86	0x3d888223	0.066654466
87	0xbdc1dc1f	-0.09465813
88	0xbdd1cd24	-0.102442056
89	0xbc9bf406	-0.019037258
90	0x3ca504ba	0.020143855
91	0x3e007a37	0.12546621
92	0x3ccf286f	0.025287835
93	0xbd97ee2a	-0.07418473
94	0x3da15af6	0.078786775
95	0x3cdeefbc	0.027213924
96	0xbe072bc2	-0.13200286
97	0xbdca9c36	-0.09893076
98	0x3cf37f33	0.02972374
99	0xbb9106f0	-0.004425876
100	0xbb3609cc	-0.0027776835
101	0x3d45fad2	0.048334904
102	0x3d83b766	0.06431465
103	0x3c94d774	0.018169142
104	0xbdc4f572	-0.096171275
105	0x3dc48160	0.09594989
106	0x3daeb436	0.08530466
107	0xbb0fec03	-0.0021960742
108	0x3cce0a25	0.025151322
109	0x3da98652	0.08277573
110	0x3dcb2d64	0.09920767
111	0x3cd4dbb8	0.025983676
112	0xbd1be7dd	-0.03806292
113	0x3dbe6042	0.092957035
114	0x3c5b38d3	0.013380247
115	0xbb95ed13	-0.0045753806
116	0xbcd90136	-0.026489835
117	0xbba65960	-0.0050765723
118	0x3dd42042	0.10357715
119	0x3d45cac2	0.048289068
120	0xbd78d61e	-0.060751073
121	0x3d08d2f5	0.03340431
122	0xbc8365fc	-0.01603984
123	0x3bd3ed48	0.006467495
124	0xbd8c86c7	-0.06861644
125	0xbda3f73f	-0.08006143
126	0x3de6c1e1	0.11267448
127	0xbbdce293	-0.006740877
128	0xbd8fe0dd	-0.07025311
129	0xbd7831c2	-0.060594328
130	0xbb974b07	-0.0046170983
131	0x3d9552a6	0.072911546
132	0xbe4c2a24	-0.1993795
133	0xbe4a3ed2	-0.19750527
134	0xbd796096	-0.060883127
135	0x3d85a3bd	0.06525371
136	0x3dff621e	0.12469886
137	0x3deb9dc5	0.115047015
138	0xbdea4d38	-0.114405096
139	0xbe2d3a15	-0.16916688
140	0xbd4c5a76	-0.049890958
141	0xbe3bb58a	-0.1833097
142	0xbe4ccbda	-0.19999638
143	0xbe4c1dd9	-0.19933261
144	0xbc58d71f	-0.013234883
145	0x3c723c9c	0.014784958
146	0x3c91144b	0.017709872
147	0xbd045bb3	-0.032314014
148	0x3dc88bd4	0.09792295
149	0xbac33491	-0.0014892985
150	0xbda3221a	-0.07965489
151	0xbd3b13b9	-0.045673106
152	0x3e1e8f6f	0.15484403
153	0x3cc088c3	0.023502713
154	0xbc6e8be5	-0.014559721
155	0x3ca07ca5	0.019590685
156	0xbe17180c	-0.14755267
157	0x3d882cb8	0.066491544
158	0x3d6fe17f	0.05856466
159	0x3e02693e	0.12735459
160	0xbd18fbc9	-0.037349496
161	0xbe0aab1c	-0.13541836
162	0x3d4d909c	0.05018674
163	0xbd085ed1	-0.03329355
164	0x3c830820	0.015995085
165	0x3ca8cdda	0.02060597
166	0xbc35262b	-0.011056463
167	0xbd85610a	-0.06512649
168	0x3b9facc4	0.00487289
169	0xbd150c7d	-0.036388863
170	0xbdde4a1d	-0.1085398
171	0x3e02ef3f	0.12786578
172	0x3d9d613e	0.07684563
173	0xbc1c437c	-0.009537574
174	0xbe01baf8	-0.12668979
175	0x3d9c7ace	0.07640611
176	0x3e3134d8	0.17305315
177	0xbd5d67b1	-0.054053966
178	0xbe2f6fad	-0.17132445
179	0xbd50d7b2	-0.050986953
180	0x3dfabb17	0.12242716
181	0x3e2bed2e	0.16789696
182	0x3d8d124e	0.06888257
183	0xbe3d9117	-0.18512379
184	0xbb37e3ca	-0.0028059357
185	0x3d498733	0.0492012
186	0xbe3f08ca	-0.18655697
187	0xbe4cbc2b	-0.19993655
188	0xbe385884	-0.18002516
189	0x3d7cc7f7	0.06171414
190	0xbb143676	-0.002261547
191	0xbd0b3b8c	-0.033992335
192	0x3d87abda	0.06624575
193	0x3df8bc26	0.121452615
194	0xbd1a3ee4	-0.037657633
195	0xbcd253d3	-0.025674736
196	0xbc4a3566	-0.012341833
197	0x3db1fcf0	0.08690822
198	0x3da7e30b	0.08197602
199	0x3d9ad30c	0.07559785
200	0xbcebb341	-0.028771998
201	0xbda172b0	-0.07883203
202	0x3e07422e	0.1320884
203	0xbd91c725	-0.07118062
204	0x3d0ca812	0.03433997
205	0xbbfd9d8a	-0.0077397274
206	0xbd711fbf	-0.058868166
207	0x3da0daed	0.07854257
208	0x3d35ff90	0.044433177
209	0x3e0f9fb9	0.14025773
210	0xbe287836	-0.16452107
211	0x3c805da8	0.015669659
212	0x3e22860c	0.15871447
213	0xbd10a6cb	-0.035315316
214	0xbd47fb20	-0.048823476
215	0xbd192ff1	-0.037399236
216	0x3d7ebd17	0.06219205
217	0x3bd48b05	0.006486299
218	0x3cc11c51	0.023573073
219	0xbd3f83d0	-0.046756566
220	0xbda65fae	-0.08123718
221	0x3d2ffc0b	0.042964976
222	0xbd2162e3	-0.039400946
223	0xbdfae248	-0.12250191
224	0xbdced6ac	-0.10099539
225	0x3cc2765e	0.023738082
226	0xbc43a418	-0.0119409785
227	0xbdc7394b	-0.09727725
228	0xbdbc067d	-0.09180925
229	0xbb0a0c7a	-0.0021064566
230	0x3d0ee99e	0.034890763
231	0xbd9d779e	-0.07688831
232	0xbcf22d7a	-0.0295627
233	0x3d4580cc	0.048218533
234	0x3d8cb46d	0.06870351
235	0x3d37304a	0.044723786
236	0x3d06569c	0.03279744
237	0x3d5d3760	0.054007888
238	0xbd3a8079	-0.045532677
239	0x3d17217b	0.036897164
240	0xbce28283	-0.027650123
241	0xbd2d5477	-0.04231688
242	0xbb263f63	-0.0025367371
243	0x3d5e807f	0.054321762
244	0x3c072600	0.008248806
245	0x3bbf1076	0.0058308197
246	0xbe4bc12f	-0.19897912
247	0xbd346752	-0.044043846
248	0x3bc68db9	0.006059375
249	0xbc014201	-0.007889272
250	0xbd019448	-0.031635553
251	0x3d291943	0.041283857
252	0x3c7d2e0d	0.015452874
253	0xbd57b0ad	-0.052658726
254	0xbd9243f9	-0.07141871
255	0xbd07fb27	-0.033198502

features.6.bias f4 [32]
0	0xbd7f86b3	-0.06238432
1	0x3f100d87	0.5627064
2	0x3e86b763	0.26311788
3	0x3e481429	0.1953894
4	0xbec7c360	-0.39016247
5	0x3e97b6cb	0.29631647
6	0x3efffc48	0.49997163
7	0xbd51d595	-0.05122908
8	0x3e8947e3	0.26812658
9	0x3e81a633	0.25322112
10	0x3e21da00	0.15805817
11	0x3e5f1430	0.21785045
12	0x3d4f8efc	0.05067347
13	0x3ee9e79e	0.45684522
14	0x3d997e1a	0.07494755
15	0xbb56414e	-0.0032692733
16	0x3eaf5ae2	0.34249026
17	0xbc265016	-0.01015093
18	0x3ea41846	0.3204977
19	0x3dbbf3bb	0.09177347
20	0xbf132a79	-0.57486683
21	0x3f09a67a	0.5376965
22	0x3e355edb	0.17711966
23	0x3ee18154	0.44043982
24	0x3e576b91	0.21037127
25	0x3eddeee8	0.43346334
26	0xbe83a6af	-0.25713107
27	0x3ee130fe	0.4398269
28	0x3f57cd4e	0.84297645
29	0x3e163390	0.14668107
30	0x3ec0c140	0.37647438
31	0x3e30aebf	0.1725416

features.6.b_w f4 [8, 1]
0	0xc3000000	-128.0
1	0x42800000	64.0
2	0x42000000	32.0
3	0x41800000	16.0
4	0x41000000	8.0
5	0x40800000	4.0
6	0x40000000	2.0
7	0x3f800000	1.0

features.8.weight f4 [32, 32, 3, 3]
0	0xbce16864	-0.027515598
1	0xbd0a9de0	-0.033841968
2	0xbcb85c8b	-0.022505065
3	0xbca4e368	-0.020127967
4	0xbd7ee14b	-0.062226575
5	0xbdb04210	-0.086063504
6	0x3b667c24	0.0035169208
7	0xbde17450	-0.11008513
8	0xbdfdb700	-0.1238842
9	0xbccd2419	-0.025041627
10	0xbd57d9c3	-0.052697908
11	0xbdf18aba	-0.11794038
12	0x3dbdfa77	0.09276288
13	0x3d890ecf	0.06692278
14	0xbdaee604	-0.08539966
15	0xbdaaf858	-0.08348149
16	0x3cb6b060	0.022300899
17	0xbe2e979a	-0.17050019
18	0xb88e18a5	-6.775678e-05
19	0x3d99cc26	0.07509641
20	0x3e20394b	0.15646856
21	0x3d7e0862	0.062019713
22	0x3c9b2be4	0.018941827
23	0x3d2fa2f6	0.04288002
24	0xbc77ad88	-0.015117057
25	0x3d201078	0.039078206
26	0x3d4191df	0.047258254
27	0x3de92f30	0.113859534
28	0x3d56029c	0.052248582
29	0xbdd7fc4e	-0.1054617
30	0x3e1626fd	0.1466331
31	0xbbc329f5	-0.0059559294
32	0x3b0d2543	0.0021537102
33	0x3cb068ff	0.021534441
34	0xbd372b7b	-0.0447192
35	0x3d3958bb	0.045250636
36	0x3cde40a8	0.02713044
37	0xbe32e6dc	-0.17470878
38	0xbe4270eb	-0.18988387
39	0x3d5fbe51	0.05462486
40	0xbe0a8bba	-0.13529864
41	0xbe3394db	-0.17537253
42	0xbd470611	-0.04858977
43	0x3c4771e0	0.012173146
44	0xbdc2a900	-0.095048904
45	0xbd29d49b	-0.041462522
46	0xbd96819b	-0.07348939
47	0xbcb43104	-0.021996029
48	0x3de318a1	0.11088682
49	0xbd7a0954	-0.061044052
50	0xbca90a77	-0.020634873
51	0x3e1d8c7c	0.15385622
52	0x3e35302c	0.17694157
53	0xbd62d9d3	-0.055383515
54	0x3dc1c256	0.09460895
55	0x3ce02f70	0.02736637
56	0xbc04806a	-0.008087257
57	0x3cd1d2d1	0.02561322
58	0x3e069359	0.13142146
59	0x3e48e9ea	0.19620481
60	0xbd7017f9	-0.058616612
61	0x3d93f787	0.072249465
62	0x3c9186e0	0.017764509
63	0xbd826d4c	-0.06368503
64	0x3c01d306	0.007923847
65	0x3bfce010	0.00771714
66	0xbdd6756b	-0.104716145
67	0x3a32274b	0.0006796016
68	0x3db52806	0.088455245
69	0x3d7f59bf	0.062341448
70	0x3c9cd40a	0.019144077
71	0xbc54217a	-0.012947435
72	0xbd05405c	-0.03253208
73	0x3d01848c	0.031620547
74	0x3d43cb57	0.04780134
75	0xbcf57f5c	-0.029967956
76	0xbd2e323a	-0.04252837
77	0x3d8fd9c5	0.07023958
78	0x3c18561c	0.009297874
79	0x3d9e279f	0.07722401
80	0x3badd99d	0.0053054825
81	0xbdb8d94b	-0.0902582
82	0x3d00a228	0.031404644
83	0x3e08ff1a	0.13378564
84	0xbe0049d7	-0.12528168
85	0x3d461497	0.04835948
86	0xbbd8ac98	-0.0066123717
87	0xbc7ca3b3	-0.015419888
88	0xbc3d3a9a	-0.011549616
89	0xbd0e0b59	-0.03467879
90	0x3df463c2	0.1193309
91	0x3db59beb	0.088676296
92	0xbc814afd	-0.015782828
93	0x3deca41f	0.11554741
94	0x3dfeee05	0.124477424
95	0xbc073e58	-0.00825461
96	0xbd836541	-0.06415797
97	0xbc61552b	-0.013753216
98	0x3e0153e8	0.12629664
99	0xbd0828e8	-0.033242136
100	0xbcc182c5	-0.023621926
101	0xbc013466	-0.007886028
102	0xbd92a808	-0.07160956
103	0xbce05e6b	-0.027388772
104	0xbc0fb9d2	-0.00877233
105	0x3c7a2fa4	0.0152701475
106	0xbcb8d466	-0.022562217
107	0x3ac3506a	0.0014901285
108	0x3c8c1034	0.01709757
109	0x3bc547e6	0.006020534
110	0x3b382fd0	0.002810467
111	0x3e0d4c56	0.13798651
112	0xbccd4a4e	-0.025059845
113	0xbd9264ea	-0.07148154
114	0xbc51b696	-0.01279988
115	0xbd902a48	-0.070393145
116	0xbcd1493c	-0.025547616
117	0xbc9f0641	-0.019412162
118	0xbc954198	-0.018219754
119	0xbdaa4737	-0.083143644
120	0xbcfdc0c9	-0.030975716
121	0xbd27414c	-0.040833756
122	0xbd7003d4	-0.0585974
123	0x3cc59d69	0.02412291
124	0xbc7ed3c6	-0.01555342
125	0xbba938c7	-0.005164239
126	0xbe404f4f	-0.18780254
127	0xbdff2452	-0.124580994
128	0xbd07a6ed	-0.033118177
129	0xbda0c44d	-0.078499414
130	0xbb44a431	-0.0030005092
131	0x3a3e1c75	0.0007252165
132	0xbcb95bda	-0.022626806
133	0xbd892b3b	-0.06697699
134	0xbd43a8fd	-0.04776858
135	0xbc935fd7	-0.017990036
136	0xbc981141	-0.018562915
137	0xbda5bc30	-0.080925345
138	0x3d35049a	0.04419384
139	0x3c456508	0.0120480135
140	0xbdc27a14	-0.09495941
141	0x3d0bbf58	0.034118026
142	0x3d121d07	0.035672214
143	0xbd61451d	-0.054997552
144	0xbe3eab30	-0.1861999
145	0x3cc1cf77	0.023658497
146	0x3dbd034e	0.09229146
147	0xbe43a829	-0.19107117
148	0xbe079f12	-0.13244274
149	0xbcb0aa01	-0.02156544
150	0xbda5263b	-0.080639325
151	0xbdb55a3f	-0.08855104
152	0xbdd1d8df	-0.10246443
153	0x3c2aae72	0.010417568
154	0xbcb5bea9	-0.02218564
155	0xbcab686a	-0.020923812
156	0xbd3f4320	-0.046694875
157	0xbc835ebe	-0.016036388
158	0xbc6c6ad4	-0.014429767
159	0xbc8cddd0	-0.017195612
160	0x3c088e24	0.00833467
161	0x3d6f6098	0.05844173
162	0xbd86412b	-0.065553986
163	0x3d1912d7	0.037371483
164	0x3d25d580	0.040486813
165	0xbc93b727	-0.01803167
166	0xbdad423a	-0.08459897
167	0x3cb02645	0.021502623
168	0xbcb3a102	-0.02192736
169	0xbdde44bd	-0.108529545
170	0xbca1ec83	-0.019766098
171	0xbd81034a	-0.062994555
172	0xbb758175	-0.0037461196
173	0x3ce7b586	0.0282848
174	0xbd29dc35	-0.04146977
175	0xbcb2e6d8	-0.02183859
176	0x3d1bc650	0.038030922
177	0xbcbc849d	-0.023012454
178	0xbd35e4a3	-0.044407498
179	0xbb30f999	-0.002700424
180	0xbcbefa9a	-0.023312856
181	0xbd8c3de4	-0.06847742
182	0xbd8b4452	-0.068001404
183	0xbd274140	-0.04083371
184	0x3a7c8d96	0.0009634135
185	0x3c32ffd3	0.010925251
186	0xbaf829e3	-0.0018933382
187	0xbca47ed8	-0.020080015
188	0x3d289795	0.041160185
189	0xbe04a7d2	-0.12954643
190	0x3d9d1c8a	0.07671459
191	0x3e1dafbb	0.15399067
192	0xbd8d036d	-0.06885419
193	0x3cc711de	0.024300512
194	0x3dd69d5b	0.10479232
195	0x3cba9632	0.022776697
196	0xbc90bc29	-0.017667847
197	0x3d40b81a	0.047050573
198	0x3c8228cc	0.015888594
199	0xbdd2d452	-0.10294403
200	0x3ab5cce7	0.001387027
201	0x3d9db465	0.07700423
202	0x3df88315	0.12134377
203	0x3d5116e9	0.05104724
204	0xbd65100b	-0.055923503
205	0x3c86b546	0.01644386
206	0x3d3bfb95	0.045894224
207	0xbd3ea5a4	-0.046544686
208	0xbd312c17	-0.043254938
209	0xbc91a64e	-0.017779496
210	0x3d648a84	0.05579616
211	0x3c6cd73c	0.014455613
212	0x3d76ddb9	0.060270045
213	0x3d98d657	0.07462757
214	0x3ce75029	0.028236466
215	0x3c600f7a	0.013675565
216	0x3cb8d396	0.02256183
217	0xbd035323	-0.032061707
218	0xbda60296	-0.08105962
219	0x3d9baed0	0.07601702
220	0xbcd4080c	-0.025882743
221	0xbd8c49d2	-0.068500176
222	0x3d874df9	0.06606669
223	0x3d8a7794	0.06761089
224	0xba69890c	-0.0008908666
225	0xbd6744d3	-0.05646212
226	0x3cceabbb	0.025228372
227	0x3e29fdc1	0.16600706
228	0xbe1bb21c	-0.15204662
229	0xbd1ad553	-0.037801098
230	0x3e3f70cb	0.18695371
231	0xbe296fb1	-0.16546513
232	0xbd99863f	-0.074963085
233	0x3cc9fd24	0.02465684
234	0xbb4377ef	-0.0029826125
235	0x3ca0d3d1	0.019632252
236	0x3dbd020d	0.09228907
237	0xbdb51a16	-0.08842866
238	0xbd9f727b	-0.07785507
239	0xbc87075b	-0.016483
240	0x3dc0b7d8	0.094100654
241	0xbc4bd253	-0.012440282
242	0xbc812370	-0.015763968
243	0xbdb34dff	-0.08755111
244	0x3c3af003	0.011409762
245	0xbdaf7fc4	-0.08569291
246	0xbd134125	-0.0359508
247	0x3c6e193b	0.014532383
248	0xbd07ab3e	-0.033122294
249	0x3d1cf50e	0.03831964
250	0xbc887ffd	-0.016662592
251	0xbdc36606	-0.09540944
252	0xbd5a815a	-0.053346016
253	0x3e219124	0.15778023
254	0x3de4fff7	0.11181634
255	0xbe480d4c	-0.19536322

features.8.bias f4 [32]
0	0xbe70a4d8	-0.23500383
1	0xbd60ac20	-0.05485165
2	0x3e401b0c	0.18760318
3	0x3e4759cc	0.19467849
4	0xbe17cd44	-0.14824396
5	0x3e5bbc8e	0.21458647
6	0x3f1a8684	0.60361505
7	0x3f2c6c36	0.67352617
8	0xbd963604	-0.073345214
9	0x3e256a59	0.1615385
10	0x3e09baa5	0.13450105
11	0x3e9edf86	0.3102991
12	0x3e85ee20	0.26158237
13	0xbd6cb633	-0.057790946
14	0x3ea153c3	0.31509218
15	0x3f56f9d0	0.83974934
16	0x3e670729	0.22561325
17	0x3e4a3c3d	0.19749542
18	0xbcada44c	-0.021196507
19	0x3ecb31a9	0.39686325
20	0xbd4f3916	-0.05059155
21	0x3d47f6e6	0.048819445
22	0x3e28d595	0.16487725
23	0x3ed16d80	0.40903854
24	0x3ea5cc78	0.3238256
25	0x3ec3caa4	0.3824054
26	0x3e102a18	0.14078557
27	0x3e1f8d53	0.15581255
28	0x3f0bd652	0.546239
29	0x3dbf1b59	0.09331388
30	0xbdc907fa	-0.098159745
31	0x3efe7d98	0.49705195

features.8.b_w f4 [8, 1]
0	0xc3000000	-128.0
1	0x42800000	64.0
2	0x42000000	32.0
3	0x41800000	16.0
4	0x41000000	8.0
5	0x40800000	4.0
6	0x40000000	2.0
7	0x3f800000	1.0

classifier.0.weight f4 [10, 2048]
0	0xbca76bbf	-0.02043712
1	0xbd01c09b	-0.031677824
2	0x3dce47ed	0.100723125
3	0x3dd205f8	0.10255045
4	0x3de93534	0.11387101
5	0x3d14db2f	0.036341842
6	0x3c626b73	0.013819563
7	0xbdbf785d	-0.09349129
8	0x3d3501f9	0.044191334
9	0x3d37d9fc	0.04488562
10	0x3e3bf57b	0.18355362
11	0x3db26bf7	0.08711999
12	0x3d9b9b68	0.07598001
13	0x3cf047ae	0.029331055
14	0xbc6bba08	-0.014387615
15	0xbac44ec2	-0.0014977085
16	0x3dc0e450	0.09418547
17	0x3dba2b7f	0.090903275
18	0x3e0ba955	0.13638814
19	0x3d785ce0	0.060635448
20	0xbc61dd25	-0.013785635
21	0xbb30040c	-0.002685788
22	0xbb9ad592	-0.0047251666
23	0x3b603fdc	0.003421775
24	0x3ce5fcce	0.028074648
25	0x3da4a220	0.080387354
26	0x3de91e84	0.113827735
27	0x3c72d7ce	0.01482196
28	0xbbb74555	-0.005592982
29	0xbc7f906c	-0.015598398
30	0xbd26ace7	-0.040692236
31	0x3ca22ded	0.01979729
32	0x3d0a6c26	0.033794545
33	0x3d497eb3	0.049193095
34	0x3d4dc391	0.050235335
35	0xba98a538	-0.0011645919
36	0xbcd8bbff	-0.026456831
37	0xbd44dc23	-0.0480615
38	0xbd10df4c	-0.035369202
39	0x3c22f1ae	0.009945316
40	0x3c493754	0.012281258
41	0xbc4dc072	-0.01255809
42	0xbd0ca7a0	-0.034339547
43	0xbcd5dbb7	-0.026105745
44	0xbd4b3a3c	-0.049616084
45	0xbccf8cfc	-0.025335781
46	0xbc2867f3	-0.01027869
47	0xbc3ac9d4	-0.011400659
48	0x3d4e158c	0.050313517
49	0xbce51c4e	-0.027967598
50	0xbd8855b8	-0.066569746
51	0xbd242551	-0.04007465
52	0xbd595bb9	-0.05306599
53	0xbc05dc75	-0.008170237
54	0xbcd76a9f	-0.026295958
55	0xbc7b35b9	-0.015332633
56	0xbc9680e7	-0.018372012
57	0x3c7f0a39	0.015566402
58	0xbd23813c	-0.03991817
59	0xb9c0d5d9	-0.00036780423
60	0xbca21630	-0.01978597
61	0x3c18b8c2	0.009321393
62	0xbac08b4f	-0.0014689955
63	0x3b4f3bbf	0.0031621305
64	0x3c6faed0	0.014629081
65	0x3d6e57f3	0.058189344
66	0x3d173a7c	0.03692101
67	0x3b883849	0.0041571003
68	0x3d541c8e	0.051785044
69	0x3d37bf3b	0.044860106
70	0x3c4751ed	0.012165529
71	0xbb6451dc	-0.003483883
72	0xbc86710d	-0.016411329
73	0xbbbd8522	-0.005783693
74	0xbd8f5fda	-0.07000704
75	0xbdbb0fe8	-0.09133893
76	0xbd9fc296	-0.07800786
77	0xbda24cb8	-0.07924789
78	0xbc4ddcb5	-0.012564828
79	0x3d0a9c5a	0.033840515
80	0xbc822ff9	-0.015892016
81	0x3d5b0b70	0.053477705
82	0x3c245157	0.010029159
83	0xbd3b1fbe	-0.04568457
84	0xbd91e64d	-0.071240045
85	0xbd4bd41f	-0.04976284
86	0x3cbd3c1f	0.023099957
87	0x3bbe0764	0.005799221
88	0xbcd1d1f7	-0.025612814
89	0x3d9a84e0	0.07544875
90	0x3c9bb1f3	0.019005751
91	0x3c679dbe	0.01413673
92	0xbd374534	-0.04474373
93	0xbc9a4809	-0.018833177
94	0xbc2cf9f9	-0.010557645
95	0x3d1b1239	0.037859175
96	0x3bdcee7a	0.006742296
97	0x3d3bc96f	0.0458464
98	0x3d077593	0.033071112
99	0xbb859eba	-0.0040777596
100	0xbd0e7f97	-0.034789648
101	0xbd09ebb1	-0.03367204
102	0x3d55e2bb	0.05221818
103	0x3d45bbb7	0.048274722
104	0x3cd6b6a6	0.02621014
105	0x3d84cab3	0.06483974
106	0x3d643ffe	0.05572509
107	0x3cfacf5b	0.030616453
108	0x3d0665dd	0.03281199
109	0xbd3d0e8a	-0.046156444
110	0x3c33b6da	0.010968888
111	0x3c74e050	0.014946058
112	0x3c2caf06	0.010539776
113	0x3dac149d	0.08402369
114	0x3d7884d4	0.06067355
115	0x3db04374	0.08606616
116	0x3c2df48f	0.010617389
117	0xbd8009bf	-0.06251859
118	0x3d0dba3d	0.03460144
119	0x3d74ae13	0.059736323
120	0xbcbb6231	-0.02287397
121	0x3d54478a	0.051826037
122	0x3d3fc78c	0.046821162
123	0x3ce7fe4a	0.028319497
124	0x3c46b7e7	0.012128807
125	0xbbb920bf	-0.0056496556
126	0x3c4a26d7	0.012338362
127	0xbbfe4edc	-0.0077608656
128	0xbdeb25e9	-0.1148184
129	0x3c41b406	0.011822706
130	0xbb614b2c	-0.0034377081
131	0x3c7f44f7	0.015580407
132	0xbc6c867e	-0.014436362
133	0x3d688164	0.05676402
134	0xbc6628ee	-0.014047844
135	0xbbd59c17	-0.0065188515
136	0xbd17671c	-0.036963567
137	0xbd2eebe2	-0.042705424
138	0xbbd4dff9	-0.006496426
139	0x3bcc22ce	0.006229735
140	0x3babcd85	0.0052430057
141	0x3c0acfec	0.008472424
142	0x3c93da3c	0.018048398
143	0xba9735f5	-0.0011536466
144	0xbd8ecc14	-0.069725186
145	0x3d14e916	0.0363551
146	0x3cc38a10	0.023869544
147	0x3cdea732	0.027179334
148	0x3d1d3b82	0.03838683
149	0x3dcec4bf	0.1009612
150	0x3dac6b2b	0.08418878
151	0x3cb2e7d9	0.02183907
152	0xbd7d20f6	-0.061799012
153	0x3d4f9652	0.050680466
154	0x3dc4b587	0.09604936
155	0x3dae9e18	0.08526248
156	0x3dca0d43	0.09865811
157	0x3dadecf3	0.0849246
158	0x3d991472	0.07474603
159	0x3d81597c	0.06315896
160	0xbd0c067b	-0.034185868
161	0x3de78dc0	0.113063335
162	0x3e05463c	0.13015074
163	0x3de11843	0.10990956
164	0x3dab402b	0.083618484
165	0x3d055015	0.032547075
166	0x3cff0e03	0.031134611
167	0x3da085d4	0.07838026
168	0xbc56b4a3	-0.013104591
169	0x3da7364f	0.081646554
170	0x3da990b4	0.08279553
171	0x3d7d14fe	0.061787598
172	0x3cf1fc69	0.029539304
173	0x3d225fb4	0.03964205
174	0x3b65219b	0.0034962657
175	0x3cb7dfbb	0.02244555
176	0xbd03b61f	-0.032156106
177	0x3dc2e0bd	0.09515522
178	0x3d904e9d	0.07046244
179	0x3d383739	0.04497454
180	0x3c098b18	0.008394979
181	0x3cb1d36a	0.021707255
182	0x3c1b4776	0.009477487
183	0xbd21ad76	-0.039472066
184	0xbd134a90	-0.03595978
185	0x3c72b957	0.014814696
186	0x3cfa6886	0.030567419
187	0xb955e43d	-0.00020398288
188	0x3b9681fc	0.004593132
189	0x3d45ef75	0.048324067
190	0xbcdadc01	-0.026716234
191	0xbd1c8473	-0.03821225
192	0x3d99bc4b	0.07506617
193	0x3d263585	0.040578384
194	0x3d4e4815	0.05036171
195	0x3d75da92	0.060022898
196	0x3cc5d644	0.024150021
197	0xbce050d4	-0.027382292
198	0x3c86a69c	0.016436867
199	0x3d785bb7	0.06063434
200	0x3d710aca	0.05884818
201	0x3c6da6dd	0.014505115
202	0x3d89a4b7	0.0672087
203	0x3d86603d	0.06561325
204	0x3d4e1500	0.050312996
205	0x3ae0123a	0.0017095276
206	0x3a4fd924	0.000792878
207	0xbcbc2011	-0.02296451
208	0x3d2fcfea	0.04292289
209	0x3d558c73	0.052135896
210	0x3d4f761d	0.05064975
211	0x3d6969f9	0.05698583
212	0x3d509a1e	0.050928228
213	0x3cb92f97	0.0226057
214	0xbb911564	-0.004427599
215	0xbcd014ce	-0.025400545
216	0x3c2f4725	0.0106981145
217	0xbd27bce6	-0.040951632
218	0xbc49eb29	-0.012324133
219	0xbd50a6bf	-0.05094027
220	0xbd4496c9	-0.047995362
221	0xbdc3a674	-0.09553233
222	0xbcdc5da9	-0.02690013
223	0xbd8fc5b4	-0.07020131
224	0x3c364e83	0.011127117
225	0xbccb44dc	-0.024813108
226	0xbd82a59d	-0.063792445
227	0xbd0ed8ce	-0.03487473
228	0xbd650e93	-0.055922102
229	0xbda0abb9	-0.078452535
230	0xbcff1651	-0.031138571
231	0xbd809ff0	-0.06280506
232	0x3d8df7ca	0.06932028
233	0x3d627d65	0.055295367
234	0x3da16231	0.07880057
235	0x3dfdc7df	0.12391638
236	0x3dd63de8	0.104610264
237	0x3d7b5ab9	0.061365817
238	0x3d348392	0.044070788
239	0xbca2f559	-0.019892382
240	0x3d71fa71	0.05907673
241	0x3cbe5ff7	0.023239119
242	0xbc63213b	-0.013862903
243	0xbc5de8b5	-0.013544251
244	0x3b29f419	0.0025932847
245	0x3c383bfa	0.011244768
246	0x3a070d62	0.00051518355
247	0xbcc2b102	-0.023766045
248	0x3cc0414b	0.023468634
249	0xbb0b87eb	-0.002129073
250	0x3c486934	0.012232114
251	0x3a47efe3	0.00076269935
252	0xbc1d5b40	-0.009604275
253	0xbc3b047d	-0.011414644
254	0xbd21e20b	-0.039522212
255	0xbd7b06f4	-0.061285928

classifier.0.bias f4 [10]
0	0xbe578256	-0.21045813
1	0xbef340f3	-0.4751049
2	0xbe4a671b	-0.19765894
3	0x3e05b991	0.13059069
4	0x3eac9a66	0.33711547
5	0x3d89d992	0.06730951
6	0x3f0aa9af	0.54165167
7	0xbe8110b2	-0.2520805
8	0x3e675a50	0.22593045
9	0xbe1d45e8	-0.15358698

classifier.0.b_w f4 [8, 1]
0	0xc3000000	-128.0
1	0x42800000	64.0
2	0x42000000	32.0
3	0x41800000	16.0
4	0x41000000	8.0
5	0x40800000	4.0
6	0x40000000	2.0
7	0x3f800000	1.0

momentum_buffer f4 [32, 3, 3, 3]
0	0x3d45774c	0.048209473
1	0x3cefaa04	0.029255874
2	0x3d712a37	0.05887815
3	0x3dab22da	0.08356257
4	0x3d4c2a30	0.04984492
5	0x3cfd8963	0.0309493
6	0x3c081993	0.008306879
7	0xbd85d2cd	-0.06534348
8	0xbddb95b3	-0.10721912
9	0xbc9f8974	-0.019474722
10	0xbcde9606	-0.027171146
11	0xbbe57cfa	-0.0070034238
12	0x3d0b0f67	0.033950236
13	0x3c6d869f	0.014497428
14	0xbc5ef6ee	-0.013608677
15	0xbd3a0106	-0.045411132
16	0xbddb6af7	-0.10713761
17	0xbe1499d6	-0.14511809
18	0x3c117182	0.00887716
19	0x3ca7638c	0.02043321
20	0x3d3450e2	0.04402245
21	0x3d42fe9f	0.047606107
22	0x3d39c957	0.04535803
23	0x3d025823	0.031822335
24	0xba589f80	-0.00082635134
25	0xbd45d999	-0.04830322
26	0xbd8f8822	-0.07008387
27	0xbe5bcd56	-0.21465048
28	0xbe61ef3a	-0.22063914
29	0xbe17044f	-0.14747737
30	0xbe87a6c2	-0.26494414
31	0xbe6844e3	-0.22682528
32	0xbe098846	-0.1343089
33	0xbe2d8b1a	-0.16947594
34	0xbe07c41a	-0.132584
35	0xbd95ec6b	-0.07320484
36	0xbe8db608	-0.2767794
37	0xbe8d22d9	-0.2756565
38	0xbe576f94	-0.21038657
39	0xbe9e0cf6	-0.30869263
40	0xbe8c25a2	-0.27372462
41	0xbe410600	-0.18849945
42	0xbe41814a	-0.18896976
43	0xbe20b3dd	-0.15693612
44	0xbdcb1cfd	-0.099176385
45	0xbe954e23	-0.29161176
46	0xbe94cabc	-0.29060924
47	0xbe5f1ad9	-0.21787585
48	0xbe9ee6dc	-0.31035507
49	0xbe8ce550	-0.27518702
50	0xbe458ae4	-0.19291264
51	0xbe47a732	-0.19497374
52	0xbe286ad1	-0.16446997
53	0xbddafba2	-0.106925264
54	0x3d9bd1c0	0.07608366
55	0x3d989dba	0.07451959
56	0x3d81acf7	0.063318186
57	0x3d82ffda	0.06396456
58	0x3d9e0aec	0.07716927
59	0x3d8f7515	0.070047535
60	0x3d9a24f0	0.075265765
61	0x3ce8259d	0.028338248
62	0x3d830e33	0.06399193
63	0x3d29d6a7	0.041464474
64	0x3da4dc45	0.080498256
65	0x3d94bcfb	0.07262608
66	0x3d8f997e	0.07011698
67	0x3de7001e	0.11279319
68	0x3dcdbc40	0.100456715
69	0x3dc3af07	0.09554868
70	0x3d96f64a	0.07371195
71	0x3dc557a1	0.096358545
72	0x3c7a2361	0.015267224
73	0x3d444a93	0.047922682
74	0x3d1e4008	0.038635284
75	0x3d42b133	0.04753227
76	0x3dab54aa	0.08365758
77	0x3d8e954a	0.069620684
78	0x3d77c2b6	0.060488425
79	0x3d548cf3	0.051892232
80	0x3d8f3a64	0.06993559
81	0xbdbf6d76	-0.0934705
82	0xbc63e932	-0.013910579
83	0x3dc970c9	0.09835965
84	0xbdc7914f	-0.09744512
85	0xbd45bfd9	-0.048278663
86	0x3d64122f	0.055681404
87	0xbdf9697a	-0.12178321
88	0xbde82307	-0.11334806
89	0xbd4f4abe	-0.05060839
90	0xbe4af833	-0.19821243
91	0xbe19f386	-0.15034303
92	0xbd4bdeca	-0.049773015
93	0xbe5279ca	-0.20554271
94	0xbe395e56	-0.18102393
95	0xbda03d1c	-0.07824156
96	0xbe69cb40	-0.2283144
97	0xbe7555b9	-0.23958482
98	0xbe2f7dbe	-0.1713781
99	0xbe354aaa	-0.17704263
100	0xbe02e462	-0.12782434
101	0xbd06cc3e	-0.032909624
102	0xbe3bd674	-0.18343526
103	0xbe191763	-0.14950328
104	0xbd32a082	-0.043610103
105	0xbe55ec9d	-0.20891042
106	0xbe4ff2ac	-0.20307416
107	0xbdfe6c18	-0.12422961
108	0xbcbeecfa	-0.023306359
109	0xbb00eb70	-0.0019671582
110	0x3d85b7a2	0.06529166
111	0xbcb894f2	-0.02253196
112	0xbb668de8	-0.0035179798
113	0x3d12ce68	0.035841376
114	0xbb56a660	-0.0032752976
115	0xbcce811f	-0.025208054
116	0xbd1eb5e1	-0.038747672
117	0xbdd510ee	-0.1040362
118	0xbdc3c90c	-0.09559831
119	0xbd31cb63	-0.043406855
120	0xbddcabfa	-0.107749894
121	0xbdcadda4	-0.09905556
122	0xbd8aca02	-0.06776811
123	0xbd9d9286	-0.07693963
124	0xbddd0820	-0.10792565
125	0xbdee9e6e	-0.11651312
126	0xbdb0a98f	-0.08626091
127	0xbd77e152	-0.060517617
128	0xbcd58461	-0.0260641
129	0xbdbd2a1b	-0.092365466
130	0xbd817e73	-0.063229464
131	0xbd006d5b	-0.03135429
132	0xbd83c61c	-0.06434271
133	0xbdaf7bb3	-0.08568516
134	0xbdb71984	-0.089404136
135	0x3d720b88	0.05909303
136	0xbc17d908	-0.009268053
137	0xbd4fb76a	-0.050712027
138	0x3d2d297a	0.042275883
139	0xbc8c9b9c	-0.017164044
140	0xbd0d3e5b	-0.034483295
141	0x3d7df9fe	0.06200599
142	0x3cb9a48e	0.022661474
143	0x3cc5a3c6	0.024125945
144	0x3d2ca806	0.042152427
145	0xbc8227bc	-0.015888087
146	0xbd3231b3	-0.043504428
147	0x3c9c7673	0.01909945
148	0xbcec80df	-0.028870044
149	0xbd13dc38	-0.03609869
150	0x3d183d9d	0.037168134
151	0x3bf266f0	0.007397525
152	0x3c6fe9ae	0.014643116
153	0xbc8561f7	-0.016282065
154	0xbd9201e7	-0.07129269
155	0xbdc8a24a	-0.09796579
156	0xbcf843e2	-0.030305807
157	0xbd9c2c56	-0.07625644
158	0xbdae2b2c	-0.08504328
159	0xbbf7749c	-0.0075517427
160	0xbd24110a	-0.040055312
161	0xbd1c9a88	-0.03823331
162	0xbd25776f	-0.040397104
163	0xbdbd9232	-0.092564
164	0xbe119999	-0.14218749
165	0xbdb54f19	-0.08852977
166	0xbddd3d46	-0.108027026
167	0xbe0066ae	-0.12539169
168	0xbdb808e7	-0.08986073
169	0xbe00a7ef	-0.12564062
170	0xbe013e02	-0.1262131
171	0xbd6a2475	-0.057163674
172	0xbdcaec44	-0.09908345
173	0xbe1690eb	-0.1470372
174	0xbddcf06a	-0.10788043
175	0xbe03c500	-0.12868118
176	0xbe1ee93a	-0.15518656
177	0xbdf06b36	-0.11739199
178	0xbe247cc4	-0.1606322
179	0xbe30fc50	-0.1728375
180	0xbcb33660	-0.021876514
181	0xbd7892e8	-0.060686976
182	0xbde09a4e	-0.10966931
183	0xbda51783	-0.08061125
184	0xbdc3df15	-0.09564034
185	0xbe04c7fc	-0.12966913
186	0xbdbda8b2	-0.09260692
187	0xbe0aa9c2	-0.1354132
188	0xbe18fd29	-0.14940323
189	0x3d91f752	0.07127251
190	0x3d9508e0	0.072770834
191	0x3dd1ead0	0.10249865
192	0x3da94f6b	0.08267101
193	0x3d60af94	0.054854944
194	0x3d9ca7e0	0.07649207
195	0x3d955f65	0.07293586
196	0x3d13796a	0.03600446
197	0x3d2d046e	0.042240553
198	0x3daf8fd1	0.08572353
199	0x3daddeee	0.08489786
200	0x3ddd2acd	0.10799179
201	0x3ddadaa6	0.10686235
202	0x3da1ffd2	0.07910122
203	0x3dbd0ad6	0.092305824
204	0x3db9a391	0.09064401
205	0x3d7fea62	0.062479384
206	0x3d91a28b	0.07111081
207	0x3d49ed6a	0.04929868
208	0x3d51a39c	0.05118142
209	0x3d3ea8aa	0.04654757
210	0x3d95ffb0	0.07324159
211	0x3d63157c	0.05544041
212	0x3d428c54	0.04749711
213	0x3d4da085	0.05020191
214	0x3ca7ff12	0.02050737
215	0x3c1622d9	0.009163582
216	0xbc24f137	-0.010067276
217	0x3c00ca72	0.007860767
218	0x3d248c8f	0.04017311
219	0xbcb06663	-0.021533197
220	0x3bce2054	0.006290475
221	0x3d619ed9	0.05508313
222	0x3d3df340	0.04637456
223	0x3da3293e	0.07966851
224	0x3ddadbf3	0.10686483
225	0xbcfc19ee	-0.030774083
226	0x3ab92a00	0.0014126897
227	0x3d7acdf3	0.061231565
228	0xbd6c3d32	-0.057675548
229	0xbc77982f	-0.015111967
230	0x3d6bae9b	0.057539564
231	0xbc282d54	-0.010264713
232	0x3d33fb47	0.04394081
233	0x3dc89d4d	0.09795628
234	0xbd4b06f3	-0.049567174
235	0xbd1665a9	-0.036718044
236	0x3bee7dfc	0.007278202
237	0xbd7af3ed	-0.061267782
238	0xbd40ee60	-0.047102332
239	0x3aadc710	0.0013258178
240	0xbc8fcb98	-0.017553136
241	0x3bcaaa10	0.006184824
242	0x3d30cb1c	0.04316245
243	0xbb25114c	-0.0025187312
244	0xbd002da0	-0.03129351
245	0xbc7a7d74	-0.015288699
246	0xbac3b700	-0.0014931858
247	0xbbae5834	-0.005320573
248	0x3abc7ae8	0.0014379891
249	0x3cdff673	0.027339196
250	0x3d36b96a	0.04461042
251	0x3d8399dd	0.064258315
252	0x3c34df44	0.011039559
253	0xbc746fde	-0.014919249
254	0x3b1f9090	0.002434764
255	0x3caa900e	0.020820644

momentum_buffer f4 [32]
0	0x3b1ce270	0.0023938678
1	0x3dc7e783	0.09760954
2	0x3dfef7c3	0.124496005
3	0x3e35e6ed	0.17763872
4	0x3d1cf8e4	0.038323298
5	0x3d315abb	0.043299418
6	0x3d8acb4a	0.067770556
7	0x3d3bc94a	0.04584626
8	0xbd847413	-0.06467452
9	0x3d86ee67	0.065884404
10	0xbde4d6b9	-0.111737676
11	0xbc8ae4aa	-0.016954739
12	0xbd6e4cba	-0.05817864
13	0x3c8a68ca	0.01689567
14	0x3c905b98	0.0176218
15	0x3dd8a700	0.10578728
16	0x3d1eb49a	0.038746454
17	0x3cdfdff4	0.027328469
18	0x3ca12051	0.01966873
19	0xbc84799c	-0.01617127
20	0x3d991f81	0.07476712
21	0xbc9042e8	-0.017610028
22	0x3acc9f90	0.0015611518
23	0x3b75fef8	0.0037536006
24	0x3de6e3a0	0.11273885
25	0x3d867506	0.06565289
26	0xbca595c9	-0.020213025
27	0x3d3a7d9b	0.045529943
28	0xbc09ccbe	-0.008410631
29	0xbd24b269	-0.040209208
30	0x3d947082	0.07248022
31	0x3cab9272	0.020943854
