Securite/Model2/Save attaque/randbet_0.1_0.01_10_-1/checkpoint.pth.tar (torch, 404714 bytes, 25 tensors)

features.0.weight f4 [32, 3, 3, 3]
0.09332141 0.09834087 0.0789647 0.097523585 -0.09556894 -0.09849692 0.07191447 -0.09761455
-0.09895249 0.09779789 0.09977597 0.048375458 0.09877702 -0.09342249 -0.09752456 -0.0954845
-0.09718497 -0.09842453 0.098065175 0.099412434 0.082509436 0.098259725 0.07034107 -0.09828345
-0.054671578 -0.0989631 -0.09976293 -0.074222416 -0.096007094 0.097090155 -0.09562075 0.09808791
0.0975746 -0.09791565 0.098313496 0.072103806 0.097052336 -0.09562141 -0.08545728 0.024061361
0.09861333 -0.098340295 -0.09879807 0.099033654 -0.09862298 0.09901385 -0.090664536 -0.0952442
0.098442145 0.09946214 -0.09694895 0.06864448 0.099678025 -0.0977441 -0.09366443 -0.06834057
-0.016809048 0.09947595 0.099464014 -0.094799 0.08573703 -0.10000924 0.087807775 -0.09460246
-0.09334848 -0.06779646 0.09987489 0.09971846 -0.096856415 0.0905693 -0.10009553 0.07716223
-0.098004796 0.030536914 0.09879639 0.099797666 0.099761344 -0.08289816 0.07899385 -0.10008301
0.09696141 0.027413206 -0.09747678 -0.09768745 0.09898832 -0.01499283 -0.09817286 0.09182981
0.096019186 0.055940133 0.07815845 -0.09653525 -0.093554996 0.09582562 9.137459e-05 -0.09853109
0.041591052 0.01986662 0.030050568 0.09921237 -0.09075 -0.097943954 0.09915166 -0.05576047
-0.09877535 0.08580975 -0.00069560355 -0.099849604 -0.09830669 0.017812064 0.09634738 -0.09850389
0.09669129 0.098765 -0.094719335 -0.04881513 0.09926931 -0.09923893 -0.077664904 0.09574962
-0.09928582 -0.019574605 0.097594365 -0.09308402 -0.07526786 0.09844164 -0.10003258 -0.066202275
0.092433825 -0.09877404 0.09326921 0.09717751 -0.094323464 0.09698856 0.09793422 0.094227456
0.046216525 0.08592403 -0.089574195 0.0944374 -0.100143515 -0.100055024 -0.05186759 -0.0980302
-0.09964809 -0.10008965 -0.10010609 -0.09783174 0.09392654 -0.10008438 -0.039078634 0.096801125
-0.024997866 -0.099996865 -0.10002455 -0.048934516 0.08820297 0.09469093 0.08805087 0.092227876
0.09611616 0.094918564 0.08880559 0.097264335 -0.061472233 0.09798289 0.09893483 0.09866008
-0.10017307 0.09791407 0.097199336 0.0907484 0.009190872 -0.09061638 0.097026765 -0.0818194
-0.09473443 -0.099848285 -0.07982486 0.09916189 0.047746927 -0.09335554 -0.090979 0.05301152
-0.098355345 -0.09833812 -0.10006677 -0.09569587 0.09642581 0.09600211 0.100095265 -0.0101617975
0.10007215 0.10011852 -0.08652198 0.10005774 0.10012382 0.06530359 0.07868875 0.09354713
-0.0019145601 -0.08144085 -0.09281524 -0.0926638 -0.018807108 -0.09249581 -0.09408708 -0.09560452
0.099990204 0.10004537 -0.095071055 -0.09401902 0.099716745 -0.09482466 -0.094580606 0.09729186
0.09530959 0.096724115 0.097038604 0.09809129 0.09928305 0.0907573 -0.09235118 0.09926209
0.09623955 -0.10029146 -0.09958922 -0.09806518 -0.09888307 -0.09682854 -0.09660595 -0.09608643
-0.09171971 0.04642512 0.08084359 -0.075966924 -0.05877076 0.087942876 -0.08586452 -0.06028873
-0.05473004 0.09946196 0.09939496 0.08986541 0.09374447 0.09275532 0.09329507 0.095015325
0.0930374 0.094432406 -0.0966213 0.07947327 -0.10014606 -0.05942409 -0.09890037 -0.0979992
00000000: 4c1f bf3d f066 c93d 3fb8 a13d 72ba c73d
00000010: a6b9 c3bd c1b8 c9bd e547 933d 23ea c7bd
00000020: 9aa7 cabd 434a c83d 5857 cc3d 5825 463d
00000030: 9b4b ca3d 4a54 bfbd f5ba c7bd 618d c3bd
00000040: ea08 c7bd cd92 c9bd 65d6 c83d bf98 cb3d
00000050: b5fa a83d 653c c93d fb0e 903d d548 c9bd
00000060: 4eef 5fbd 2aad cabd 8250 ccbd ec01 98bd
00000070: 5e9f c4bd 34d7 c63d d0d4 c3bd 50e2 c83d
00000080: 31d5 c73d 0088 c8bd 9658 c93d 29ab 933d
00000090: 60c3 c63d 28d5 c3bd 3a04 afbd 551c c53c
000000a0: c9f5 c93d a366 c9bd a456 cabd 28d2 ca3d
000000b0: d8fa c9bd c6c7 ca3d 54ae b9bd 640f c3bd
000000c0: 099c c93d ceb2 cb3d 2c8d c6bd 7a95 8c3d
000000d0: fe23 cc3d 0f2e c8bd 23d3 bfbd 24f6 8bbd
000000e0: 21b3 89bc 0cba cb3d cab3 cb3d fa25 c2bd
000000f0: e596 af3d a5d1 ccbd 90d4 b33d efbe c1bd
00000100: 7d2d bfbd dfd8 8abd 358b cc3d 3139 cc3d
00000110: a85c c6bd 667c b93d e3fe ccbd 3b07 9e3d
00000120: bdb6 c8bd 8d28 fa3c c355 ca3d b862 cc3d
00000130: ad4f cc3d 83c6 a9bd 87c7 a13d 52f8 ccbd
00000140: b493 c63d a991 e03c e8a1 c7bd 5c10 c8bd
00000150: 63ba ca3d 7da4 75bc da0e c9bd 4411 bc3d
00000160: b5a5 c43d 7b21 653d 8a11 a03d 46b4 c5bd
00000170: c399 bfbd 3940 c43d 5ca0 bf38 abca c9bd
00000180: 615b 2a3d 52bf a23c 9c2c f63c db2f cb3d
00000190: 23db b9bd d796 c8bd 0710 cb3d 1765 64bd
000001a0: bb4a cabd 06bd af3d 2a59 36ba f37d ccbd
000001b0: 0555 c9bd 9bea 913c c651 c53d 68bc c9bd
000001c0: 1506 c63d 4e45 ca3d 36fc c1bd 60f2 47bd
000001d0: b54d cb3d c83d cbbd c70e 9fbd 6018 c43d
000001e0: 5d56 cbbd ec5a a0bc 8edf c73d d6a2 bebd
000001f0: 0926 9abd c59b c93d e2dd ccbd 0f95 87bd
00000200: f24d bd3d 0b4a cabd ed03 bf3d 0105 c73d
00000210: a92c c1bd f0a1 c63d bd91 c83d 53fa c03d
00000220: 8a4d 3d3d f0f8 af3d ad72 b7bd 6568 c13d
00000230: 0b18 cdbd a6e9 ccbd 1c73 54bd 0fc4 c8bd
00000240: 4c14 ccbd cdfb ccbd 6c04 cdbd 025c c8bd
00000250: 8f5c c03d 0af9 ccbd eb10 20bd ab3f c63d
00000260: 53c8 ccbc 28cb ccbd acd9 ccbd 8f6f 48bd
00000270: c2a3 b43d 51ed c13d 0454 b43d f8e1 bc3d
00000280: 8dd8 c43d aa64 c23d b5df b53d 8632 c73d
00000290: 4fca 7bbd 41ab c83d 589e ca3d 4c0e ca3d
000002a0: 8a27 cdbd 2c87 c83d 7210 c73d 4cda b93d
000002b0: 5095 163c 1595 b9bd f8b5 c63d ee90 a7bd
000002c0: 2004 c2bd 427d ccbd 377b a3bd 6415 cb3d
000002d0: 4892 433d 3031 bfbd 3353 babd 9c22 593d
000002e0: 876e c9bd 7f65 c9bd cfef ccbd 32fc c3bd
000002f0: e57a c53d c19c c43d bffe cc3d ab7d 26bc
00000300: a1f2 cc3d f00a cd3d 7032 b1bd 13eb cc3d
00000310: b80d cd3d e3bd 853d 9127 a13d a395 bf3d
00000320: faf1 faba 76ca a6bd eb15 bebd 85c6 bdbd
00000330: 5d11 9abc 716e bdbd bab0 c0bd 4dcc c3bd
00000340: aac7 cc3d 96e4 cc3d 9db4 c2bd 0b8d c0bd
00000350: 4b38 cc3d 6e33 c2bd 7ab3 c1bd f440 c73d
00000360: ad31 c33d 4b17 c63d 2dbc c63d 16e4 c83d
00000370: e954 cb3d f7de b93d 9e22 bdbd ec49 cb3d
00000380: 3e19 c53d 9c65 cdbd 6ff5 cbbd 66d6 c8bd
00000390: 3583 cabd 0b4e c6bd 57d9 c5bd f6c8 c4bd
000003a0: 8bd7 bbbd 4428 3e3d 5391 a53d 8c94 9bbd
000003b0: 9cb9 70bd 651b b43d bdd9 afbd 51f1 76bd
000003c0: 9b2c 60bd b6b2 cb3d 968f cb3d 5b0b b83d
000003d0: 1afd bf3d 80f6 bd3d 7c11 bf3d 6597 c23d
000003e0: 648a be3d c765 c13d 63e1 c5bd e2c2 a23d
000003f0: 6119 cdbd ad66 73bd 478c cabd ceb3 c8bd

features.0.bias f4 [32]
-0.12553374 0.20680082 0.22464663 -0.4598467 0.013073889 0.044395782 0.14890352 0.14591248
0.08816468 -0.28878397 -0.39948162 0.16024582 -0.324955 0.19063844 -0.32790953 0.20783244
-0.3005274 0.19728188 0.015944751 -0.15982491 0.18785645 0.15528153 0.19851309 0.2025652
0.14056975 0.22036093 -0.036941648 -0.013664097 -0.22861011 -0.47764733 0.22348705 0.17817251
00000000: eb8b 00be 98c3 533e c409 663e 0771 ebbe
00000010: dd33 563c 5ad8 353d 2a7a 183e 156a 153e
00000020: af8f b43d 7edb 93be db88 ccbe 7b17 243e
00000030: 8060 a6be b936 433e c2e3 a7be 07d2 543e
00000040: bade 99be 4304 4a3e 919e 823c 24a9 23be
00000050: 715d 403e 1f02 1f3e 0447 4b3e 406d 4f3e
00000060: 84f1 0f3e 4ca6 613e 2050 17bd 60df 5fbc
00000070: c518 6abe 318e f4be cad9 643e db72 363e

features.0.b_w f4 [8, 1]
-128.0 64.0 32.0 16.0 8.0 4.0 2.0 1.0
00000000: 0000 00c3 0000 8042 0000 0042 0000 8041
00000010: 0000 0041 0000 8040 0000 0040 0000 803f

features.2.weight f4 [32, 32, 3, 3]
0.09899992 -0.093091324 -0.094950594 -0.008047208 -0.055316236 -0.096769154 -0.06738683 -0.09000274
-0.097335376 -0.09447422 0.099704266 -0.048741594 0.099444576 -0.03822853 0.05382356 0.018008614
-0.0579616 0.008054555 0.046918478 -0.09132822 0.09830995 -0.0856211 0.099247545 0.07192291
0.0682756 -0.01943593 -0.09417302 0.03829506 -0.08132145 -0.012969454 0.019438941 0.0043661296
-0.015171468 -0.099664494 -0.084986754 -0.035531208 -0.06862848 0.0903708 -0.08959646 -0.088739336
0.084505275 -0.093430944 -0.087041676 0.0155674275 -0.09979356 -0.016966196 0.010380956 -0.09818535
0.022689758 -0.032139666 -0.09200324 -0.05729218 -0.05919115 -0.097555965 0.085883714 0.057542995
-0.09615073 -0.09733815 -0.09667946 0.08565969 0.060470957 0.012751612 -0.09717442 -0.018791469
-0.089645706 -0.092090026 -0.08854001 0.025548013 0.033304974 -0.0069575603 0.041678514 -0.05602397
0.09183882 0.09920842 -0.03733155 -0.047504615 -0.07110327 0.099744536 0.09978976 0.09944546
-0.08068763 0.060795493 -0.0758284 0.09376555 0.007030287 0.097173996 -0.07829086 -0.009854199
-0.051664326 -0.032420475 -0.09997954 -0.09913884 -0.09864132 -0.09934405 -0.05612132 -0.051795017
-0.041392177 -0.06287154 -0.099914484 -0.044652484 0.011885688 -0.024233056 0.042467404 -0.07188607
-0.090194345 -0.015018404 0.039493226 -0.02017322 0.019206785 0.096630275 -0.08811691 -0.08713579
0.02494078 -0.0799171 -0.07308867 0.044279244 -0.04742056 -0.044540204 -0.08667348 0.09925596
-0.054918963 0.09972199 -0.09922445 0.07501374 -0.0371123 -0.09694701 -0.08683451 -0.096298456
-0.06394866 0.025954086 -0.05867585 -0.03973759 0.05761809 0.039601047 0.022851473 0.06742604
0.0058174594 -0.096395105 -0.09391896 0.088465095 -0.08926178 -0.09759942 0.03061741 0.09192679
-0.024103815 -0.09834029 -0.0984439 -0.038465537 0.08120064 -0.026288986 -0.099385485 -0.08571385
-0.099981144 -0.029429277 0.09821399 -0.09967981 0.098453134 -0.06186003 0.006850317 0.0023684336
-0.09239716 -0.098924994 0.093618095 0.07792207 -0.066900074 0.059659116 0.08865853 0.0047891904
0.099852815 -0.020987757 -0.047528826 -0.0116377035 -0.09056932 -0.09528902 -0.039891604 -0.031121658
-0.09513155 -0.04541282 -0.023198368 -0.0014361412 -0.08118585 -0.051453736 0.07384523 -0.09313276
0.07957319 0.05800462 0.07858416 0.01654634 -0.09897765 0.041861273 0.08295139 -0.09822252
0.013527812 -0.090764716 0.07809669 -0.08748395 -0.09604433 0.07215891 -0.07728839 0.07305678
-0.05912201 0.09876726 0.06515078 -0.0944078 -0.09860806 0.07766376 0.099763796 0.08963714
-0.057256095 -0.09626017 0.025876809 0.09630065 -0.09906874 -0.09760695 -0.09873736 0.09449375
0.01709937 -0.017092682 0.04785483 -0.07430098 -0.08779596 0.097818576 -0.031233253 0.04121911
-0.09284944 0.056623522 -0.0006690975 0.09256502 0.097880445 -0.06329288 -0.015373007 -0.09927579
0.036454894 -0.010070917 0.02806785 -0.08518303 -0.08648691 0.0027622029 -0.08702306 -0.0940018
0.034945454 -0.015864516 -0.08551012 0.019621352 0.01692673 0.090539955 0.009195365 -0.014424837
0.040967524 -0.09908406 -0.045060296 -0.09619387 -0.094937675 -0.05955936 -0.058685012 -0.0749542
00000000: 78c0 ca3d aaa6 bebd 7575 c2bd 70d8 03bc
00000010: 4793 62bd e82e c6bd 1b02 8abd 5b53 b8bd
00000020: c557 c7bd b37b c1bd c031 cc3d 44a5 47bd
00000030: 99a9 cb3d 8595 1cbd 1876 5c3d cd86 933c
00000040: 2569 6dbd 41f7 033c 972d 403d 4a0a bbbd
00000050: ba56 c93d 1e5a afbd 4c42 cb3d 524c 933d
00000060: 14d4 8b3d 1938 9fbc c9dd c0bd 48db 1c3d
00000070: dc8b a6bd d57d 54bc 6a3e 9f3c c011 8f3b
00000080: c091 78bc e61c ccbd 890d aebd 2c89 11bd
00000090: 178d 8cbd 5314 b93d 597e b7bd f8bc b5bd
000000a0: 1a11 ad3d b958 bfbd e842 b2bd 860e 7f3c
000000b0: 9160 ccbd b1fc 8abc e314 2a3c 6715 c9bd
000000c0: dfdf b93c e2a4 03bd 326c bcbd 34ab 6abd
000000d0: 6b72 72bd 6ccb c7bd cde3 af3d 34b2 6b3d
000000e0: adea c4bd 3959 c7bd e1ff c5bd 596e af3d
000000f0: 65b0 773d 23ec 503c 6203 c7bd 91f0 99bc
00000100: 2b98 b7bd b299 bcbd 7754 b5bd 114a d13c
00000110: cc6a 083d 3ffc e3bb 17b7 2a3d 6479 65bd
00000120: fe15 bc3d c92d cb3d f8e8 18bd 3394 42bd
00000130: 979e 91bd dd46 cc3d 935e cc3d 10aa cb3d
00000140: 8e3f a5bd b204 793d ec4b 9bbd 2708 c03d
00000150: 525e e63b 2903 c73d f556 a0bd 8273 21bc
00000160: f99d 53bd 55cb 04bd 13c2 ccbd 4e09 cbbd
00000170: 7604 cabd e574 cbbd 78df 65bd 0327 54bd
00000180: d88a 29bd cbc2 80bd f79f ccbd 86e5 36bd
00000190: 30bc 423c 6784 c6bc 4df2 2d3d 0139 93bd
000001a0: d0b7 b8bd c10f 76bc a6c3 213d 4f42 a5bc
000001b0: 8c57 9d3c 18e6 c53d a376 b4bd 4074 b2bd
000001c0: 9b50 cc3c 94ab a3bd 83af 95bd 275e 353d
000001d0: 103c 42bd ca6f 36bd de81 b1bd b546 cb3d
000001e0: b5f2 60bd 0b3b cc3d 3036 cbbd cea0 993d
000001f0: 1103 18bd 278c c6bd 4bd6 b1bd 2038 c5bd
00000200: 84f7 82bd aa9d d43c 1756 70bd e2c3 22bd
00000210: f200 6c3d b534 223d 0333 bb3c aa16 8a3d
00000220: 63a0 be3b cc6a c5bd 9558 c0bd 302d b53d
00000230: e1ce b6bd 34e2 c7bd 5dd1 fa3c 1d44 bc3d
00000240: 5d75 c5bc a266 c9bd f59c c9bd 0a8e 1dbd
00000250: 854c a63d 005c d7bc 9e8a cbbd be8a afbd
00000260: eac2 ccbd ab15 f1bc 6b24 c93d ee24 ccbd
00000270: cca1 c93d f160 7dbd a078 e03b b937 1b3b
00000280: b93a bdbd 3099 cabd d8ba bf3d 9b95 9f3d
00000290: e802 89bd 1e5d 743d 9a92 b53d a4ee 9c3b
000002a0: a27f cc3d 84ee abbc 96ad 42bd 11ac 3ebc
000002b0: 687c b9bd e426 c3bd 6165 23bd d9f2 febc
000002c0: 55d4 c2bd cb02 3abd 810a bebc e73c bcba
000002d0: c444 a6bd 27c1 52bd 2b3c 973d 63bc bebd
000002e0: 45f7 a23d 4196 6d3d bbf0 a03d 318c 873c
000002f0: cbb4 cabd ba76 2b3d 6be2 a93d e328 c9bd
00000300: c2a3 5d3c dae2 b9bd 28f1 9f3d c92a b3bd
00000310: e4b2 c4bd 0dc8 933d 6049 9ebd cb9e 953d
00000320: ec29 72bd 7d46 ca3d c66d 853d e058 c1bd
00000330: 06f3 c9bd 2d0e 9f3d f650 cc3d ad93 b73d
00000340: 5e85 6abd 0d24 c5bd 9afb d33c 4639 c53d
00000350: 8de4 cabd 27e6 c7bd d036 cabd f085 c13d
00000360: fa13 8c3c f405 8cbc 6d03 443d 1d2b 98bd
00000370: 5ece b3bd 1b55 c83d e1dc ffbc 5fd5 283d
00000380: d927 bebd 11ee 673d 6066 2fba bb92 bd3d
00000390: 8b75 c83d b39f 81bd 11df 7bbc 1b51 cbbd
000003a0: ba51 153d 7d00 25bc 8cee e53c 7174 aebd
000003b0: 0d20 b1bd 1306 353b 2539 b2bd 0484 c0bd
000003c0: f722 0f3d 4df6 81bc ee1f afbd f5bc a03c
000003d0: eda9 8a3c 036d b93d 28a8 163c 2756 6cbc
000003e0: 90cd 273d 95ec cabd 2591 38bd 4b01 c5bd
000003f0: af6e c2bd 84f4 73bd b25f 70bd 9681 99bd

features.2.bias f4 [32]
0.10167014 -0.05874224 -0.042076375 -0.0047063758 0.04834849 0.07143207 -0.08266346 -0.3749892
0.08675527 0.06386374 -0.061171804 0.22530134 0.22607976 0.06846128 0.21195437 0.2788061
-0.011769457 -0.09094684 0.031086713 -0.024073958 0.18531385 -0.08972011 -0.048257712 0.24728085
0.15625931 0.002737365 0.11573779 0.15563594 -0.18617034 0.39530578 -0.048980817 0.10253716
00000000: 6f38 d03d b49b 70bd 4758 2cbd f137 9abb
00000010: 1109 463d fa4a 923d 764b a9bd 96fe bfbe
00000020: bfac b13d feca 823d 498f 7abd 65b5 663e
00000030: 7481 673e 6d35 8c3d 910a 593e acbf 8e3e
00000040: aed4 40bc 5642 babd 90a9 fe3c c036 c5bc
00000050: eac2 3d3e 2dbf b7bd e1a9 45bd 3137 7d3e
00000060: 7102 203e 5d65 333b ef07 ed3d 075f 1f3e
00000070: 70a3 3ebe 8565 ca3e 1ca0 48bd 01ff d13d

features.2.b_w f4 [8, 1]
-128.0 64.0 32.0 16.0 8.0 4.0 2.0 1.0
00000000: 0000 00c3 0000 8042 0000 0042 0000 8041
00000010: 0000 0041 0000 8040 0000 0040 0000 803f

features.6.weight f4 [32, 32, 3, 3]
-0.0997967 -0.09975313 -0.09113575 -0.09747013 -0.09786604 -0.09057343 -0.06315368 -0.06100054
-0.036606736 0.09818436 0.08285976 -0.02570653 -0.09138057 -0.0982429 -0.09829409 -0.09402407
-0.09999937 -0.10000457 0.08831429 0.09734786 0.096292205 -0.08740125 -0.0568477 -0.0713066
-0.0884087 -0.09730048 -0.06526215 0.08800616 0.077882715 0.0037795585 0.042022105 -0.087016575
0.019295866 -0.09338268 -0.10001293 -0.09999471 -0.05878683 -0.05658691 0.021752175 -0.017812092
0.034270093 0.051463705 0.08010461 0.06784725 0.081971556 0.0149556305 0.06385407 0.03195987
0.021945577 -0.008551394 0.030894719 0.07820787 0.03217151 0.07419081 0.0066843424 0.038146157
0.02078777 0.06428299 0.05955982 -0.051483005 0.060581494 -0.0417666 -0.08928122 -0.015666928
0.06393827 0.09064738 -0.08227675 0.018761447 0.055120375 0.01493739 -0.030407205 -0.0010691851
0.015057142 0.072817646 -0.029071838 -0.09998062 -0.09994159 -0.099126324 -0.100014746 -0.09989788
-0.09926864 0.036391947 0.07492485 0.08590106 0.05955227 0.09155017 0.08925468 0.034789637
0.062586896 0.03731736 -0.03772141 -0.018009152 0.012115877 -0.040153377 -0.0926016 -0.012264335
0.04251035 -0.058906753 -0.021770319 0.02910313 0.025197132 -0.018097563 -0.030756876 0.011319387
0.026540656 0.06469754 0.0698839 -0.018645259 0.003225327 0.065180704 0.003762521 0.07524928
0.010608451 -0.015093118 0.0557036 0.0074712387 0.038829204 0.08928057 0.039091393 0.0045390194
-0.098682545 -0.09962443 -0.098731644 -0.0998495 -0.099762194 -0.09983004 0.099802405 0.09985017
0.088941336 -0.081153244 -0.037896194 0.00039585956 -0.09493217 -0.094756916 -0.048870306 -0.0054415055
-0.00543737 0.027927596 -0.07114711 -0.06507107 -0.016190698 0.039533027 0.007849903 0.033152133
0.059120785 -0.02335561 -0.033134617 -0.09983571 -0.09929248 -0.09833851 -0.099839576 -0.10001163
-0.09855121 0.038289484 0.033562187 0.08178961 -0.03217633 0.091336265 0.08009819 0.07728286
-0.06895876 -0.028795086 0.089121416 -0.0007378258 0.009470434 0.09571566 -0.100010864 -0.10000641
0.09416259 -0.070338465 -0.100014314 0.037905373 0.03539608 0.05144811 -0.065919824 -0.010790475
0.06990426 0.030460812 -0.05390427 0.037313446 -0.063148305 0.018984647 0.04548029 -0.049538225
0.05476353 0.07090937 -0.01692669 -0.036378536 -0.019301426 0.053620394 -0.004923668 -0.036048304
0.082179494 0.06688776 -0.005378226 0.032351606 -0.06502705 -0.014576157 0.013739769 0.0727455
0.09463727 0.029568844 0.09108039 0.07833646 -0.01701636 0.012216629 0.055231005 0.035629768
0.09965101 0.090018526 -0.08745066 -0.0928622 -0.03466866 -0.027320044 -0.09953467 -0.07187867
-0.09646117 -0.09467753 -0.039166834 -0.09067576 -0.095562845 -0.08750011 0.046082765 -0.011366515
-0.002328656 0.09805924 0.099439755 0.097171694 -0.0983519 -0.09893426 -0.09910549 -0.09411204
-0.09987595 -0.09910029 0.00064085255 -0.03791859 -0.09105623 -0.09999574 -0.099987626 -0.099834695
-0.09999252 -0.099994265 -0.09981444 0.0943413 0.098218754 0.09749133 0.0369817 -0.057653386
-0.011883573 -0.0995291 -0.09808838 -0.09629163 0.033533428 -0.02725169 -0.073218115 0.08250863
00000000: 3662 ccbd 5e4b ccbd 61a5 babd 6b9e c7bd
00000010: fe6d c8bd 907e b9bd b756 81bd b4db 79bd
00000020: f2f0 15bd e214 c93d 61b2 a93d 8096 d2bc
00000030: bc25 bbbd 9333 c9bd 694e c9bd b18f c0bd
00000040: 78cc ccbd 32cf ccbd 1fde b43d 515e c73d
00000050: d934 c53d 6dff b2bd 22d9 68bd 3209 92bd
00000060: 9f0f b5bd 7945 c7bd 29a8 85bd 933c b43d
00000070: f980 9f3d 78b2 773b 5f1f 2c3d bf35 b2bd
00000080: 5d12 9e3c 6b3f bfbd 94d3 ccbd 07ca ccbd
00000090: 76ca 70bd adc7 67bd 9e31 b23c aaea 91bc
000000a0: cc5e 0c3d 9bcb 523d e30d a43d 80f3 8a3d
000000b0: b4e0 a73d 7608 753c ecc5 823d 5ae8 023d
000000c0: 36c7 b33c 251b 0cbc ec16 fd3c 732b a03d
000000d0: 46c6 033d 5af1 973d 5408 db3b 253f 1c3d
000000e0: 1d4b aa3c cda6 833d fff4 733d d8df 52bd
000000f0: 4d24 783d 7413 2bbd 13d9 b6bd ee57 80bc
00000100: 11f2 823d 55a5 b93d b680 a8bd 9bb1 993c
00000110: e7c5 613d f4bb 743c 8818 f9bc e623 8cba
00000120: 3bb2 763c 6b21 953d 1028 eebc a4c2 ccbd
00000130: 2dae ccbd be02 cbbd 88d4 ccbd 4297 ccbd
00000140: 5b4d cbbd b90f 153d 3372 993d e5ec af3d
00000150: 15ed 733d a87e bb3d 28cb b63d 947f 0e3d
00000160: 8f2d 803d 17da 183d c481 1abd ee87 93bc
00000170: ac81 463c de77 24bd e8a5 bdbd 59f0 48bc
00000180: 551f 2e3d 3548 71bd ab57 b2bc b069 ee3c
00000190: 376a ce3c 5741 94bc d8f5 fbbc f374 393c
000001a0: ca6b d93c 2580 843d 4a1f 8f3d f1bd 98bc
000001b0: 0260 533b 767d 853d a194 763b 4b1c 9a3d
000001c0: 12cf 2d3c 2049 77bc 7529 643d 4bd1 f43b
000001d0: 5f0b 1f3d bbd8 b63d 4c1e 203d 0ebc 943b
000001e0: 131a cabd e507 ccbd d133 cabd e57d ccbd
000001f0: 1f50 ccbd b173 ccbd 3465 cc3d 3f7e cc3d
00000200: e026 b63d ac33 a6bd 0a39 1bbd 5f8b cf39
00000210: cc6b c2bd ea0f c2bd 3b2c 48bd a84e b2bb
00000220: f72b b2bb 6ac8 e43c 93b5 91bd fb43 85bd
00000230: 5ba2 84bc 62ed 213d e19c 003c 88ca 073d
00000240: a328 723d 4454 bfbc 2ab8 07bd aa76 ccbd
00000250: db59 cbbd b365 c9bd b178 ccbd e6d2 ccbd
00000260: 37d5 c9bd 6fd5 1c3d 8178 093d 5081 a73d
00000270: 54cb 03bd 820e bb3d 850a a43d 7a46 9e3d
00000280: 403a 8dbd ace3 ebbc 4a85 b63d a76a 41ba
00000290: e129 1b3c 9206 c43d 7fd2 ccbd 29d0 ccbd
000002a0: 51d8 c03d 9d0d 90bd 4ed4 ccbd aa42 1b3d
000002b0: 7bfb 103d 41bb 523d f900 87bd 88ca 30bc
000002c0: f729 8f3d f488 f93c b9ca 5cbd fcd5 183d
000002d0: e653 81bd b185 9b3c 8a49 3a3d 98e8 4abd
000002e0: b94f 603d ef38 913d d7a9 8abc a901 15bd
000002f0: 061e 9ebc 0fa1 5b3d b956 a1bb 63a7 13bd
00000300: b94d a83d 73fc 883d d43b b0bb 1e83 043d
00000310: e72c 85bd d5d0 6ebc c51c 613c 98fb 943d
00000320: 2fd1 c13d 5c3a f23c 5b88 ba3d de6e a03d
00000330: e565 8bbc 4228 483c e839 623d 85f0 113d
00000340: d415 cc3d a25b b83d 5519 b3bd 8a2e bebd
00000350: ba00 0ebd 49ce dfbc d5d8 cbbd 2035 93bd
00000360: 6f8d c5bd 4be6 c1bd 676d 20bd 36b4 b9bd
00000370: 74b6 c3bd 4233 b3bd 48c1 3c3d 9f3a 3abc
00000380: 5d9c 18bb 48d3 c83d 12a7 cb3d f401 c73d
00000390: b96c c9bd 0c9e cabd d2f7 cabd d0bd c0bd
000003a0: c38b ccbd 18f5 cabd e3fe 273a 8650 1bbd
000003b0: b07b babd 91ca ccbd 50c6 ccbd 2276 ccbd
000003c0: e1c8 ccbd cbc9 ccbd 836b ccbd 0336 c13d
000003d0: ea26 c93d 89a9 c73d 207a 173d f525 6cbd
000003e0: 51b3 42bc ead5 cbbd 90e2 c8bd 8c34 c5bd
000003f0: 595a 093d f03e dfbc 61f3 95bd 49fa a83d

features.6.bias f4 [32]
0.18770136 0.040888418 0.34770107 0.09401377 0.14688012 0.09906195 0.27693552 0.23389329
0.72564214 0.47693747 0.47287497 -0.12707573 -0.07626897 0.031077547 0.14530408 0.4406329
-0.17869632 0.30670685 0.01422238 0.34675473 -0.13730179 -0.024641428 0.23921736 0.6181955
0.0714625 0.28555548 0.3948896 0.12683485 0.46556816 0.5486107 0.6920453 0.26596916
00000000: c934 403e 9d7a 273d e005 b23e 4b8a c03d
00000010: be67 163e fee0 ca3d 7eca 8d3e b981 6f3e
00000020: afc3 393f 2631 f43e ab1c f23e 2420 02be
00000030: e832 9cbd 5796 fe3c 98ca 143e a39a e13e
00000040: 2bfc 36be ae08 9d3e fc04 693c d689 b13e
00000050: d798 0cbe d2dc c9bc 65f5 743e 0f42 1e3f
00000060: ee5a 923d 5434 923e f82e ca3e ffe0 013e
00000070: f35e ee3e c071 0c3f e129 313f 1c2d 883e

features.6.b_w f4 [8, 1]
-128.0 64.0 32.0 16.0 8.0 4.0 2.0 1.0
00000000: 0000 00c3 0000 8042 0000 0042 0000 8041
00000010: 0000 0041 0000 8040 0000 0040 0000 803f

features.8.weight f4 [32, 32, 3, 3]
-0.100008205 -0.100019656 -0.0921588 0.02304309 -0.07156927 -0.046335008 0.036162186 0.09498952
-0.08287038 0.036447443 0.083806396 -0.09626933 -0.017387826 0.0016423 -0.08961055 -0.07557031
-0.006232989 -0.06000994 -0.0053374707 0.07421622 0.07398 0.07712514 0.073702864 0.043349896
0.013321061 -0.073727876 -0.09905512 0.09660663 0.0036697164 0.033475082 0.053327527 0.09968883
0.04495214 0.0035130042 0.09935294 0.09953258 -0.009198045 -0.015486979 -0.09327291 0.074845485
0.0807851 -0.07250988 0.0954048 0.09739922 -0.098475866 -0.098955415 0.08258818 0.08235224
-0.09807028 -0.06470184 0.06647584 -0.08177272 -0.09578724 -0.09998579 -0.0981623 -0.017746469
0.08594805 -0.06133277 -0.01785565 0.067822896 -0.06692189 0.027346907 -0.05573901 -0.039582964
-0.09795724 -0.0995906 0.094516926 0.09430298 -0.06858759 -0.05350531 0.085882165 0.09165636
0.0771975 -0.077706724 -0.08558148 0.09739532 -0.012181309 -0.096681796 0.097789094 0.09897544
-0.017796049 -0.09966826 0.012644241 -0.09758085 -0.09698704 0.09574132 0.08624815 -0.09938018
0.09001598 0.08138963 -0.09457565 0.06523109 -0.06825416 -0.091234125 0.032380637 0.057699084
-0.08151074 -0.0958236 0.02426185 0.083962455 0.070412904 -0.038360048 0.07366557 -0.032971833
-0.06392071 -0.09383768 -0.0943585 -0.09842515 -0.029402103 -0.016206851 -0.08860834 0.028553685
0.06020071 -0.063402876 0.0097980425 0.09901586 0.09570067 -0.06105637 0.09980949 0.06694467
-0.068719186 0.09935527 0.07132985 0.0006088452 0.08813439 -0.0853467 0.07768752 0.09831952
-0.08809711 -0.012913924 0.09712843 0.069212556 -0.09917334 -0.09655273 0.043659847 -0.045349587
-0.06538321 0.030588863 0.09368535 0.08001217 -0.046733323 0.09668445 0.09739612 -0.04701864
0.04971855 -0.08387196 -0.053283703 -0.087547876 0.06876417 -0.0065631103 -0.098857775 -0.033352286
-0.033312727 -0.09961346 0.06495228 0.026310876 -0.055498455 0.095410794 0.092243776 -0.092380024
-0.088038325 0.07741176 -0.0971416 -0.077420734 0.04976113 -0.08863152 -0.074419685 -0.047881085
-0.050992187 -0.027951013 -0.08386827 -0.029141331 0.011331734 0.012076603 -0.09539875 -0.09182372
-0.00015074686 -0.10002006 -0.100007415 -0.08201783 -0.097130574 -0.073481 0.014298007 -0.022138761
-0.04130576 -0.025522472 0.034613382 0.072302945 -0.0032584143 -0.09840973 -0.08694734 -0.017168034
-0.02777201 0.02932084 -0.088110074 -0.018996216 -0.025079122 -0.098499656 0.022990521 -0.07375882
-0.077759236 0.088423505 0.097505026 -0.015973492 0.036840003 0.074723534 -0.02556079 -0.07170427
0.037216064 0.099626414 0.034406997 0.0835893 0.07963243 0.02726758 0.077560216 0.0015122253
0.031830736 0.09446732 -0.013787775 0.070714384 -0.032335635 -0.04487022 -0.036940075 -0.03474622
0.031568404 0.023135524 -0.08706185 -0.09770092 0.050551478 0.09297079 -0.042195097 -0.090817764
0.037156668 0.015469052 -0.050167665 -0.09637051 -0.09704562 -0.033214703 -0.094750814 -0.08707545
-0.08284954 0.028216967 0.008275384 0.07563988 0.05494952 -0.079059795 0.0070910365 0.05042739
0.06766708 -0.03974994 0.008984785 0.052079547 -0.09833945 0.010860354 0.099014506 -0.099107526
00000000: 1ad1 ccbd 1bd7 ccbd c1bd bcbd ddc4 bc3c
00000010: e992 92bd c7c9 3dbd cd1e 143d de89 c23d
00000020: f2b7 a9bd ea49 153d b0a2 ab3d db28 c5bd
00000030: ea70 8ebc 7242 d73a bc85 b7bd 9bc4 9abd
00000040: 1a3e ccbb fccc 75bd f3e5 aebb acfe 973d
00000050: d482 973d c9f3 9d3d 87f1 963d a98f 313d
00000060: 9440 5a3c a4fe 96bd 69dd cabd b2d9 c53d
00000070: a07f 703b 2b1d 093d f76d 5a3d a829 cc3d
00000080: bc1f 383d 6e3a 663b 8e79 cb3d bdd7 cb3d
00000090: 66b3 16bc 19bd 7dbc de05 bfbd 9748 993d
000000a0: a972 a53d 0f80 94bd 9763 c33d 3e79 c73d
000000b0: b7ad c9bd 23a9 cabd fe23 a93d 4ba8 a83d
000000c0: 12d9 c8bd 6682 84bd 7c24 883d 7578 a7bd
000000d0: 1a2c c4bd 5ac5 ccbd 5109 c9bd 0b61 91bc
000000e0: 8805 b03d 1238 7bbd 0346 92bc bbe6 8a3d
000000f0: 580e 89bd 9f06 e03c 974e 64bd bf21 22bd
00000100: ce9d c8bd 28f6 cbbd 1792 c13d ec21 c13d
00000110: a677 8cbd 6228 5bbd fde2 af3d 54b6 bb3d
00000120: b919 9e3d b424 9fbd 5845 afbd 3377 c73d
00000130: 1d94 47bc 1b01 c6bd a645 c83d a3b3 ca3d
00000140: 05c9 91bc df1e ccbd ca29 4f3c 78d8 c7bd
00000150: 24a1 c6bd 0614 c43d dfa2 b03d d687 cbbd
00000160: 4c5a b83d 9baf a63d e1b0 c1bd e197 853d
00000170: d6c8 8bbd f5d8 babd 8fa1 043d e055 6c3d
00000180: 1aef a6bd 2a3f c4bd cac0 c63c 82f4 ab3d
00000190: a434 903d 6d1f 1dbd f9dd 963d 790d 07bd
000001a0: dce8 82bd f82d c0bd 073f c1bd 2093 c9bd
000001b0: aedc f0bc 3bc4 84bc 4a78 b5bd 6be9 e93c
000001c0: 0595 763d 5ed9 81bd f887 203c d4c8 ca3d
000001d0: b6fe c33d 3f16 7abd eb68 cc3d 4a1a 893d
000001e0: a5bc 8cbd c77a cb3d 6215 923d e99a 1f3a
000001f0: ce7f b43d 40ca aebd a21a 9f3d bf5b c93d
00000200: 426c b4bd ec94 53bc 45eb c63d 50bf 8d3d
00000210: 641b cbbd 70bd c5bd abd4 323d 7dc0 39bd
00000220: a2e7 85bd 7f95 fa3c 1bde bf3d 6cdd a33d
00000230: 716b 3fbd 7f02 c63d 9e77 c73d 9e96 40bd
00000240: aea5 4b3d 10c5 abbd 0340 5abd 4d4c b3bd
00000250: 3bd4 8c3d 5c0f d7bb f275 cabd 689c 08bd
00000260: ed72 08bd 2402 ccbd b305 853d e889 d73c
00000270: 5952 63bd bc66 c33d 4eea bc3d bd31 bdbd
00000280: 704d b4bd 0f8a 9e3d 2df2 c6bd c38e 9ebd
00000290: 54d2 4b3d 7184 b5bd 5969 98bd f51e 44bd
000002a0: 2fdd 50bd 86f9 e4bc 21c3 abbd cdb9 eebc
000002b0: bda8 393c f2dc 453c 6b60 c3bd 130e bcbd
000002c0: cd11 1eb9 51d7 ccbd b0d0 ccbd f7f8 a7bd
000002d0: 65ec c6bd 357d 96bd 3042 6a3c 595c b5bc
000002e0: 3b30 29bd 8114 d1bc c3c6 0d3d 9113 943d
000002f0: 1f8b 55bb 0a8b c9bd 7211 b2bd faa3 8cbc
00000300: 2082 e3bc 4232 f03c 0e73 b4bd f49d 9bbc
00000310: bb72 cdbc 30ba c9bd 9e56 bc3c dd0e 97bd
00000320: 3c40 9fbd 6217 b53d b7b0 c73d d7da 82bc
00000330: 8be5 163d a708 993d dd64 d1bc b0d9 92bd
00000340: df6f 183d ef08 cc3d 5aee 0c3d de30 ab3d
00000350: 5416 a33d 4360 df3c e4d7 9e3d dc35 c63a
00000360: f260 023d 1578 c13d 1fe6 61bc b4d2 903d
00000370: 5f72 04bd d6c9 37bd 7a4e 17bd 0d52 0ebd
00000380: df4d 013d b686 bd3c 7c4d b2bd 6c17 c8bd
00000390: 110f 4f3d 7867 be3d c4d4 2cbd aafe b9bd
000003a0: 9731 183d e871 7d3c 9c7c 4dbd e75d c5bd
000003b0: dbbf c6bd 240c 08bd b70c c2bd 9d54 b2bd
000003c0: 05ad a9bd 4527 e73c 7a95 073c 15e9 9a3d
000003d0: bf12 613d 1aea a1bd ed5b e83b f38c 4e3d
000003e0: 0a95 8a3d d5d0 22bd eb34 133c 5d51 553d
000003f0: 3266 c9bd a0ef 313c 1ec8 ca3d e3f8 cabd

features.8.bias f4 [32]
0.07220943 0.7160249 0.5026209 0.08554067 0.3488732 0.005266714 0.20794511 0.6457413
0.13384484 0.50906324 -0.00805296 0.933565 0.09067373 0.11749133 0.28044784 0.3524366
0.14867514 0.36360362 0.09836747 0.5089071 0.21621042 0.5686932 0.7573783 0.3169722
0.29516637 0.22643176 0.18558988 0.50573885 0.14710626 0.117821135 0.13775964 0.1553214
00000000: 8ae2 933d 684d 373f c3ab 003f f22f af3d
00000010: 829f b23e 6694 ac3b 90ef 543e 4d4f 253f
00000020: 9f0e 093e f851 023f 90f0 03bc 1efe 6e3f
00000030: 26b3 b93d 4b9f f03d dc96 8f3e 9272 b43e
00000040: 4c3e 183e 412a ba3e e274 c93d bc47 023f
00000050: 4466 5d3e e195 113f 8be3 413f 2e4a a23e
00000060: 0c20 973e badd 673e 460b 3e3e 1a78 013f
00000070: 06a3 163e 354c f13d dd10 0d3e 930c 1f3e

features.8.b_w f4 [8, 1]
-128.0 64.0 32.0 16.0 8.0 4.0 2.0 1.0
00000000: 0000 00c3 0000 8042 0000 0042 0000 8041
00000010: 0000 0041 0000 8040 0000 0040 0000 803f

classifier.0.weight f4 [10, 2048]
-0.009227308 0.046448063 0.049354717 0.035376534 -0.0036227973 -0.0067556747 0.01771503 0.00906993
0.06030136 0.056535073 0.08771673 0.061413486 0.08539453 0.0549353 -0.0038742456 -0.012528057
0.07424237 0.028058093 0.055993892 0.04245908 0.06507483 0.026307562 0.03814308 -0.02618634
0.056457005 0.025473118 0.08182177 0.060111605 0.033192217 0.055107582 0.049276944 -0.026398178
0.03383653 0.043926384 0.03345582 0.03969538 0.01586266 0.040169347 0.016910087 -0.0092290165
-0.029212592 -0.0039983066 0.0004890044 0.04283129 0.0400927 0.023423389 0.003423536 -0.05513416
-0.06738742 0.044881936 0.031370476 0.039545935 0.06541425 0.042278334 0.029342262 -0.048570406
-0.10003078 -0.033953153 -0.029655347 -0.0073820134 0.020192565 -0.010393216 -0.020873262 -0.09965862
-0.0313771 0.032178514 0.00028418217 -0.026498582 -0.026117101 -0.039745037 -0.0011342881 0.08922733
0.052700233 -0.016476214 -0.031518314 -0.035193432 -0.03213412 -0.080426626 -0.062338106 0.04952791
0.039571848 -0.02923848 -0.056938354 -0.037594605 -0.049670845 -0.050037123 -0.056786705 0.072132334
-0.018302072 -0.057090856 -0.05436166 -0.06585088 -0.057744227 -0.08218586 -0.06327904 0.042479564
-0.04114124 -0.05116923 -0.056487296 -0.044041783 -0.033403 -0.09680882 -0.061848864 0.0029459938
-0.02020396 -0.036426798 -0.02173819 -0.03131914 -0.07421812 -0.09233519 -0.039125524 0.038130913
0.03454181 -0.027323164 -0.040387 0.01252517 -0.0007287972 -0.05113417 -0.016349366 0.06629955
0.05380004 -0.04692043 -0.05645294 -0.047170542 -0.013896316 -0.042199064 -0.011857905 0.08902133
0.0072723534 -0.0776466 -0.071885474 -0.06569816 -0.08077807 -0.08838563 -0.0980627 -0.01588586
-0.053288665 -0.06386463 -0.018847669 -0.0039920895 0.01716497 -0.027186219 -0.05847898 -0.07925498
0.024359396 0.025487889 0.042905804 -0.024671081 -0.042918257 0.002166312 -0.03164396 -0.095532276
0.02479607 0.010037856 0.015742399 0.015076399 0.040252283 0.007490661 0.0075007994 -0.08192283
0.026772419 0.06735319 0.0079353005 0.022564983 0.057986476 0.0046778414 0.03287909 -0.07804626
-0.030866403 -0.0104267765 0.012965947 0.044959936 0.07057769 -0.009525201 0.047052663 -0.042960737
-0.008110601 0.02312326 0.08729817 0.061781313 0.050202064 0.044280633 0.0516136 0.008629574
0.07557087 -0.0030607719 -0.00957839 0.0032471977 0.0013676906 0.018887768 -0.0132647855 0.09821297
0.013852586 0.021532146 0.05358298 0.050664105 0.03594419 -0.020413943 -0.0031458575 0.05899151
0.0509926 0.005471025 0.09932098 0.08578134 0.0710791 0.06831134 -0.020086631 0.016776888
0.028864624 0.0049579595 0.09866394 0.089338556 0.062370464 -0.00024960423 -0.06343309 -0.00035457898
0.026053013 -0.004411557 0.095769465 0.087035574 0.05703094 -0.06762325 -0.073331915 -0.024712179
0.059402138 0.051996008 0.040320683 -0.013651793 -0.044206336 -0.0941896 -0.023995055 0.011752966
0.095073044 0.09542822 0.055105958 0.0066932933 0.025875777 0.036214285 0.032102972 0.04616393
0.06094741 0.06119803 -0.0082685035 -0.042886585 -0.05502907 -0.006225472 -0.0026760532 -0.02407568
-0.0012222062 -0.017721113 -0.04281748 -0.039352722 -0.03040387 -0.04809722 -0.0358186 0.011348425
00000000: 232e 17bc 5340 3e3d 2c28 4a3d fce6 103d
00000010: 746c 6dbb b55e ddbb 1c1f 913c 0b9a 143c
00000020: 8ffe 763d 5291 673d d4a4 b33d b58c 7b3d
00000030: 54e3 ae3d d603 613d 0ee7 7dbb 7b42 4dbc
00000040: 620c 983d 16da e53c da59 653d 93e9 2d3d
00000050: f445 853d f582 d73c eb3b 1c3d bc84 d6bc
00000060: 763f 673d 00ad d03c 2c92 a73d 9637 763d
00000070: 90f4 073d 7db8 613d 9fd6 493d fe40 d8bc
00000080: 2c98 0a3d 27ec 333d f808 093d 9f97 223d
00000090: 69f2 813c 9d88 243d 0687 8a3c 4d35 17bc
000000a0: 3f4f efbc 3a04 83bb 8830 003a dd6f 2f3d
000000b0: 3e38 243d 68e2 bf3c 675d 603b 5bd4 61bd
000000c0: 6a02 8abd 1fd6 373d 547e 003d ebfa 213d
000000d0: e8f7 853d 0c2c 2d3d 2f5f f03c c3f1 46bd
000000e0: f0dc ccbd 7612 0bbd c5ef f2bc d1e4 f1bb
000000f0: e16a a53c 4f48 2abc 67fe aabc d219 ccbd
00000100: 4685 00bd 9ecd 033d 49fe 9439 8e13 d9bc
00000110: 88f3 d5bc b1cb 22bd 65ac 94ba d2bc b63d
00000120: 33dc 573d 20f9 86bc 5919 01bd fd26 10bd
00000130: 119f 03bd b7b6 a4bd 3e56 7fbd c7dd 4a3d
00000140: 1716 223d 8985 efbc 3138 69bd cdfc 19bd
00000150: a873 4bbd baf3 4cbd 2d99 68bd 1eba 933d
00000160: 3aee 95bc 1ad8 69bd 55aa 5ebd d4dc 86bd
00000170: 3685 6cbd 0f51 a8bd 7198 81bd 0dff 2d3d
00000180: b883 28bd d496 51bd 395f 67bd 2865 34bd
00000190: 96d1 08bd b443 c6bd 3c55 7dbd 9311 413b
000001a0: c682 a5bc 4434 15bd 4a14 b2bc 8048 00bd
000001b0: abff 97bd 3b1a bdbd 1642 20bd 292f 1c3d
000001c0: b77b 0d3d d4d4 dfbc d76c 25bd 5f36 4d3c
000001d0: c10c 3fba 1072 51bd 1bef 85bc 0fc8 873d
000001e0: 6e5d 5c3d a32f 40bd 333b 67bd e635 41bd
000001f0: 60ad 63bc edd8 2cbd a947 42bc d150 b63d
00000200: ec4c ee3b 2e05 9fbd b138 93bd c28c 86bd
00000210: f96e a5bd 8603 b5bd 19d5 c8bd 1023 82bc
00000220: 3745 5abd 76cb 82bd 6d66 9abc 13d0 82bb
00000230: 8d9d 8c3c a2b5 debc a887 6fbd 6f50 a2bd
00000240: 5b8d c73c facb d03c ffbd 2f3d 021b cabc
00000250: 0ecb 2fbd aff8 0d3b 199d 01bd 6da6 c3bd
00000260: 2121 cb3c d275 243c 34f6 803c 0003 773c
00000270: 94df 243d 3874 f53b 44c9 f53b 28c7 a7bd
00000280: d551 db3c 78f0 893d 1003 023c 33da b83c
00000290: 3a83 6d3d 9448 993b 3aac 063d b8d6 9fbd
000002a0: 8adb fcbc 12d5 2abc 206f 543c e927 383d
000002b0: 098b 903d 970f 1cbc 4bba 403d 99f7 2fbd
000002c0: 54e2 04bc fe6c bd3c 62c9 b23d 670e 7d3d
000002d0: aea0 4d3d 9c5f 353d c868 533d 0f63 0d3c
000002e0: e6c4 9a3d 3b97 48bb aeee 1cbc f0ce 543b
000002f0: 1544 b33a 85ba 9a3c 8b54 59bc e223 c93d
00000300: f5f5 623c 2f64 b03c d479 5b3d 2a85 4f3d
00000310: 373a 133d 243b a7bc bb2a 4ebb 15a1 713d
00000320: 9edd 503d 4946 b33b cc68 cb3d 21ae af3d
00000330: eb91 913d d1e6 8b3d b88c a4bc af6f 893c
00000340: 8175 ec3c 6176 a23b 5210 ca3d 22f7 b63d
00000350: 2c78 7f3d 50dd 82b9 35e9 81bd c9e6 b9b9
00000360: 216d d53c d38e 90bb c822 c43d b53f b23d
00000370: 4699 693d 0f7e 8abd 0b2f 96bd 3271 cabc
00000380: a84f 733d c4f9 543d 4d27 253d c5ab 5fbc
00000390: b411 35bd 7ae6 c0bd 4791 c4bc 838f 403c
000003a0: a8b5 c23d df6f c33d c9b6 613d 6a53 db3b
000003b0: 70f9 d33c 6e55 143d 687e 033d 6416 3d3d
000003c0: fea3 793d c9aa 7a3d 9e78 07bc d8a9 2fbd
000003d0: 2966 61bd 0bff cbbb b960 2fbb 5c3a c5bc
000003e0: 6f32 a0ba de2b 91bc 6261 2fbd 5230 21bd
000003f0: 8911 f9bc 9701 45bd 86b6 12bd bfee 393c

classifier.0.bias f4 [10]
-0.07643575 -0.34880185 -0.09996321 -0.0023278615 0.30774584 -0.14292708 0.44003752 -0.26493084
0.2691848 -0.109791465
00000000: 598a 9cbd 2896 b2be 83b9 ccbd 098f 18bb
00000010: dd90 9d3e 7a5b 12be 994c e13e 04a5 87be
00000020: 97d2 893e 59da e0bd

classifier.0.b_w f4 [8, 1]
-128.0 64.0 32.0 16.0 8.0 4.0 2.0 1.0
00000000: 0000 00c3 0000 8042 0000 0042 0000 8041
00000010: 0000 0041 0000 8040 0000 0040 0000 803f

momentum_buffer f4 [32, 3, 3, 3]
-0.019689132 0.016514098 0.044736944 -0.010569796 0.018868834 0.046771478 0.072082244 0.091414
0.10405979 -0.029674754 0.0008655302 0.02281195 -0.02363896 -0.0019726139 0.020571023 0.029115845
0.046962216 0.06909096 -0.027497 -0.0016028304 0.019195776 -0.017922524 0.0032975823 0.02527994
0.027505606 0.048688386 0.06610505 0.11604227 0.18251738 0.14146352 0.07923968 0.14009367
0.12338797 0.020233978 0.08339585 0.07677251 0.08239526 0.15131022 0.14851442 0.074261464
0.122605175 0.14204961 0.040050145 0.07966671 0.09668468 0.04221884 0.10092098 0.09786108
0.03925943 0.07357158 0.08364101 0.013039583 0.032047622 0.0351653 0.052490048 0.101707354
0.14863203 0.04325448 0.07657076 0.12376235 0.09363231 0.109272555 0.13124318 0.028403442
0.08079116 0.12445919 0.019932505 0.060269665 0.10026512 0.05772058 0.08708792 0.09749789
0.057117738 0.09341838 0.120998606 0.041703295 0.061898477 0.091707006 0.063505195 0.07581766
0.08658316 0.07677359 0.08482032 0.10306063 0.07640519 0.08437441 0.08950831 0.034999162
0.03784363 0.030555844 0.035339408 0.03412594 0.05926679 0.027296782 0.026358746 0.03365031
-0.014515631 -0.019654274 -0.023705654 0.013370831 0.013372816 0.031447418 -0.0047010668 -0.0023464486
0.0032948405 -0.04955479 -0.055239998 -0.05916009 -0.013411768 -0.052022263 -0.06063184 -0.005347565
-0.017086681 -0.06631178 0.04755481 0.038319908 -0.024883775 -0.0023499376 -0.03828624 -0.03394942
-0.008132012 -0.008696899 -0.045393024 0.050279554 0.05417052 -0.0076260087 0.055883497 0.035053276
0.052247684 0.05062805 0.06740812 0.05538253 0.1122009 0.12719256 0.09834306 0.13475476
0.1657704 0.17795578 0.14266394 0.15236205 0.19203284 0.12443848 0.1227406 0.12848961
0.104485966 0.11935602 0.13574675 0.09531994 0.09614985 0.14277661 0.08853698 0.075691506
0.09083864 0.051713686 0.0654736 0.09040354 0.044883825 0.047290213 0.09455821 0.048944928
0.046936944 0.062110715 0.1582855 0.13336843 0.11359754 0.17100963 0.12146688 0.1050893
0.18383813 0.118591465 0.10302375 0.1387349 0.110140756 0.06490083 0.147085 0.09793466
0.055195257 0.1445796 0.08969179 0.0631109 0.12997806 0.10767752 0.059042893 0.11800727
0.079334594 0.031551745 0.089084625 0.051184945 0.022772226 -0.11314985 -0.13680092 -0.15540385
-0.1052907 -0.14351973 -0.17095183 -0.06983141 -0.11747256 -0.13997284 -0.058834285 -0.08042927
-0.111636475 -0.024968592 -0.07123677 -0.108659565 0.02062362 -0.034799997 -0.059934944 0.0038593942
-0.014763949 -0.05922405 0.025024427 -0.014197685 -0.05991948 0.047114775 0.0059839655 -0.017990299
0.25330257 0.24209678 0.24118955 0.22177124 0.21526027 0.24124773 0.21673355 0.22120625
0.26155555 0.24852327 0.21599376 0.1882181 0.20843801 0.18874429 0.18046121 0.19061098
0.18904415 0.19992873 0.22314698 0.18912053 0.17349792 0.16005105 0.14591265 0.15775816
0.12855084 0.14321963 0.17886221 0.0949195 0.1127734 0.0834552 0.056004785 0.09732141
0.06096323 0.10385895 0.14375892 0.11971695 0.15705839 0.18005282 0.11955497 0.12184388
00000000: 1a4b a1bc 9348 873c 163e 373d f02c 2dbc
00000010: d092 9a3c 7393 3f3d db9f 933d 4337 bb3d
00000020: 4d1d d53d 7818 f3bc c0e4 623a 20e0 ba3c
00000030: 7ea6 c1bc f846 01bb 9084 a83c 5a84 ee3c
00000040: 745b 403d 907f 8d3d 6341 e1bc 1016 d2ba
00000050: 7640 9d3c 42d2 92bc 401c 583b e017 cf3c
00000060: 7053 e13c 796d 473d 1662 873d 92a7 ed3d
00000070: d6e5 3a3e d0db 103e 6a48 a23d b774 0f3e
00000080: d5b2 fc3d bac1 a53c 72cb aa3d e83a 9d3d
00000090: d9be a83d 11f1 1a3e 2a14 183e 6516 983d
000000a0: 6c18 fb3d 7475 113e 9f0b 243d 4d28 a33d
000000b0: 9e02 c63d aaed 2c3d a9af ce3d 646b c83d
000000c0: 7fce 203d b2ac 963d fa4b ab3d faa3 553c
000000d0: 5e44 033d 7d09 103d ceff 563d f24b d03d
000000e0: ff32 183e 9c2b 313d 21d1 9c3d 1d77 fd3d
000000f0: 4cc2 bf3d 4aca df3d 9d64 063e 56ae e83c
00000100: d675 a53d 76e4 fe3d 7e49 a33c 53dd 763d
00000110: cd57 cd3d 6a6c 6c3d 275b b23d f9ac c73d
00000120: 4af4 693d 2352 bf3d 1ece f73d 13d1 2a3d
00000130: 4289 7d3d e2d0 bb3d 030f 823d 4a46 9b3d
00000140: 8352 b13d 793b 9d3d 47b6 ad3d 7411 d33d
00000150: 537a 9c3d 7ecc ac3d 2250 b73d 485b 0f3d
00000160: ec01 1b3d 4050 fa3c 0ec0 103d a4c7 0b3d
00000170: bcc1 723d 809d df3c 4cee d73c e8d4 093d
00000180: f8d2 6dbc 0002 a1bc 5c32 c2bc 5411 5b3c
00000190: a819 5b3c 02cf 003d 680b 9abb e0c6 19bb
000001a0: 40ee 573b f7f9 4abd 5643 62bd da51 72bd
000001b0: 08bd 5bbc 4c15 55bd 1859 78bd a03a afbb
000001c0: 5ef9 8bbc 78ce 87bd d5c8 423d 56f5 1c3d
000001d0: 0fd9 cbbc 6901 1abb 08d2 1cbd 8c0e 0bbd
000001e0: 213c 05bc 707d 0ebc 09ee 39bd eff1 4d3d
000001f0: e8e1 5d3d 99e3 f9bb 18e6 643d 0694 0f3d
00000200: ab01 563d 5c5f 4f3d 450d 8a3d cbd8 623d
00000210: 96c9 e53d c43e 023e 1668 c93d 27fd 093e
00000220: b7bf 293e 0a3a 363e 7f16 123e cc04 1c3e
00000230: 42a4 443e 9ad9 fe3d 6c5f fb3d c892 033e
00000240: bdfc d53d ee70 f43d 3201 0b3e 1a37 c33d
00000250: 36ea c43d 0834 123e e052 b53d 2604 9b3d
00000260: 9c09 ba3d bbd1 533d 0617 863d 7e25 b93d
00000270: 1ad8 373d 62b3 413d bca7 c13d 7a7a 483d
00000280: f440 403d ce67 7e3d 9815 223e bc91 083e
00000290: d4a5 e83d 261d 2f3e a1c3 f83d 0f39 d73d
000002a0: 1040 3c3e 15e0 f23d 1efe d23d 8610 0e3e
000002b0: 7a91 e13d baea 843d 739d 163e f891 c83d
000002c0: 6c14 623d ad0c 143e 54b0 b73d 4a40 813d
000002d0: f818 053e 0886 dc3d f6d6 713d ccad f13d
000002e0: 2d7a a23d 673c 013d 0072 b63d 4ea7 513d
000002f0: d28c ba3c 1cbb e7bd 8a15 0cbe 3022 1fbe
00000300: a7a2 d7bd d6f6 12be ff0d 2fbe c503 8fbd
00000310: 7495 f0bd 0a55 0fbe 38fc 70bd 1ab8 a4bd
00000320: aaa1 e4bd ef8a ccbc 95e4 91bd e888 debd
00000330: def2 a83c 718a 0ebd 587e 75bd e4ed 7c3b
00000340: 7ee4 71bc eb94 72bd 0700 cd3c 689d 68bc
00000350: 216e 75bd 6cfb 403d 2415 c43b 6460 93bc
00000360: e0b0 813e 38e8 773e 65fa 763e 0018 633e
00000370: 306d 5c3e a509 773e 66ef 5d3e e483 623e
00000380: 9cea 853e e27c 7e3e 782d 5d3e 3fbc 403e
00000390: c670 553e 2f46 413e d3ca 383e 862f 433e
000003a0: ca94 413e 1eba 4c3e a480 643e d0a8 413e
000003b0: 70a9 313e 6ce4 233e 206a 153e 5b8b 213e
000003c0: d5a2 033e 2ba8 123e a827 373e 2865 c23d
000003d0: bef5 e63d 8fea aa3d 4665 653d 7350 c73d
000003e0: 94b4 793d 00b4 d43d 8a35 133e 292e f53d
000003f0: ead3 203e c45f 383e 3cd9 f43d 4989 f93d

momentum_buffer f4 [32]
-0.019899718 0.08504197 -0.08695778 -0.02690592 -0.034008134 -0.09663737 0.020002816 -0.23289719
-0.04223447 -0.14021336 -0.053728014 0.039485734 0.11289231 0.12886226 -0.04003239 -0.111072764
-0.019558296 -0.11613457 0.38146037 0.12947968 0.1696204 -0.016550608 -0.12570813 0.091159776
0.007172983 -0.013053306 -0.044927843 0.09102172 -0.04847715 0.026865209 0.13067289 -0.14404008
00000000: bc04 a3bc 7c2a ae3d ec16 b2bd ce69 dcbc
00000010: 1d4c 0bbd d0e9 c5bd f2dc a33c 9a7c 6ebe
00000020: 0dfe 2cbd 1794 0fbe e811 5cbd cbbb 213d
00000030: 1534 e73d 78f4 033e 01f9 23bd 1e7a e3bd
00000040: b838 a0bc f6d7 edbd c64e c33e 5296 043e
00000050: f8b0 2d3e 2495 87bc a2b9 00be fab1 ba3d
00000060: 580b eb3b 89dd 55bc 4206 38bd 9869 ba3d
00000070: fa8f 46bd 6d14 dc3c 1dcf 053e 3e7f 13be

momentum_buffer f4 [32, 32, 3, 3]
0.0031419548 0.0029638284 0.0038665705 0.013642594 0.010232258 0.013788045 0.022783574 0.016480317
0.008883065 0.048404403 0.039954487 0.044555247 0.058814652 0.0295402 0.042325415 0.05354715
0.019543625 0.029550226 0.022802955 0.03914359 0.048170142 0.04571192 0.06265987 0.0480522
0.04990521 0.03601577 0.021929346 0.010914409 0.009671846 0.010122325 0.010315804 0.001299991
0.0075915917 0.01547871 0.0042302418 0.0036232215 0.029731885 0.04602958 0.013214768 0.031081084
0.036740314 0.01235986 0.01878222 0.020513592 0.011651671 0.017392859 0.02247357 0.019394672
0.02539149 0.010683419 0.010705817 0.019636221 -4.4852495e-05 0.006937385 0.05260246 0.05376521
0.028425694 0.044424005 0.05106223 0.053967766 0.06202321 0.060199175 0.059280258 0.039838806
0.03324061 0.023115385 0.040375903 0.042675897 0.042603623 0.048919294 0.05892558 0.056629874
0.036129836 0.030399581 0.013074912 0.022744602 0.02304648 0.027472198 0.033599384 0.03275318
0.028217379 0.023287818 0.016519453 0.016438164 0.026529167 0.022125933 0.01678578 0.029462583
0.030277446 0.021992609 0.005100757 0.0064599076 0.0028824403 0.007656431 0.003577598 0.005244253
0.0023343866 -0.0015207444 0.0014684373 0.036130227 0.020569518 0.020833276 0.03571633 0.013511717
0.021314861 0.027948838 0.010890706 0.018100906 0.021392658 0.023511251 -0.0016646564 0.008175679
0.019458279 -0.005808111 0.009414702 0.01809803 0.00796077 0.023441602 0.01659507 0.03203632
0.041572735 0.034956194 0.03326889 0.049484894 0.03244857 0.020173648 0.009534543 0.009706402
0.008280338 0.0056570456 0.0016989042 0.0017417278 0.005435 -0.0037180115 -0.00048666447 0.055150814
0.05762283 0.017147904 0.02395438 0.05007347 0.017347876 0.008010786 0.044366866 0.03386803
0.023826484 0.03640137 0.01837485 0.04633974 0.03103228 0.017751176 0.018620975 0.015260441
0.005361365 0.039809365 0.045959488 0.03343547 0.04145425 0.027652945 0.035471905 0.023301832
0.009650365 0.012903968 0.00029111188 -0.0050529 -0.0076412484 0.0059623243 0.00446677 -0.00063412264
0.007241507 0.0057551516 -2.9790215e-05 0.010962821 0.009643909 0.007632875 0.010524832 0.020486217
0.011893914 0.013384623 0.02441613 0.026349934 0.018078025 0.013537271 0.020036424 0.018810822
0.013978356 0.034680534 0.042651717 0.017291442 0.025273044 0.070537455 0.07573892 0.03272553
0.05317771 0.052287415 0.035558514 0.031461343 0.038104612 0.039649274 0.040099215 0.057798136
0.042806115 0.07055319 0.061244763 0.01919993 0.032185197 0.049203534 0.018023927 0.028031511
0.025255602 0.022491286 0.044520143 0.03443901 0.014514303 0.024527518 0.0152116055 0.027481949
0.052360684 0.06009617 0.05667313 0.0446245 0.048417613 0.056796677 0.04927955 0.045980997
0.041289467 0.020762661 0.039927706 0.028278194 0.025911892 0.03464485 0.017474946 0.015860716
0.03570516 0.011335601 0.010130413 0.007597673 0.0019005314 0.0053216633 0.003566027 0.0070611094
0.0060172086 0.0015081071 0.0059309807 0.023525123 0.030874172 0.03525435 0.0287955 0.016618084
0.034235325 0.029978514 0.016282672 0.027902385 0.004376277 0.011285507 0.002082509 0.0065372232
00000000: 41e9 4d3b ca3c 423b 4a66 7d3b 3085 5f3c
00000010: 33a5 273c 41e7 613c 9ea4 ba3c bb01 873c
00000020: 468a 113c b243 463d 51a7 233d 907f 363d
00000030: a2e7 703d 4afe f13c 6a5d 2d3d 4254 5b3d
00000040: f419 a03c 5113 f23c 43cd ba3c 0755 203d
00000050: 0e4e 453d 6c3c 3b3d d153 803d 62d2 443d
00000060: 6869 4c3d 4685 133d 2ca5 b33c 59d2 323c
00000070: aa76 1e3c 1cd8 253c 9e03 293c 7664 aa3a
00000080: e3c2 f83b 6a9a 7d3c d79d 8a3b 9273 6d3b
00000090: 4890 f33c 8389 3c3d c182 583c c29d fe3c
000000a0: 037d 163d 0381 4a3c 2cdd 993c 1f0c a83c
000000b0: a6e6 3e3c 787b 8e3c 7e1a b83c 93e1 9e3c
000000c0: d001 d03c 8209 2f3c 7367 2f3c 24dc a03c
000000d0: 0020 3cb8 0153 e33b ad75 573d e938 5c3d
000000e0: 00dd e83c f2f5 353d a126 513d 4e0d 5d3d
000000f0: 0d0c 7e3d 6993 763d dbcf 723d 042e 233d
00000100: 4e27 083d 7a5c bd3c 3461 253d eccc 2e3d
00000110: 2381 2e3d 995f 483d f35b 713d baf4 673d
00000120: e1fc 133d 8b08 f93c 2838 563c e352 ba3c
00000130: f9cb bc3c 600d e13c 829f 093d 3328 063d
00000140: 2228 e73c 18c6 be3c ce53 873c 54a9 863c
00000150: b253 d93c 7241 b53c 5582 893c 845b f13c
00000160: 6808 f83c d829 b43c 4024 a73b a2ad d33b
00000170: 53e7 3c3b cce2 fa3b 2276 6a3b fcd7 ab3b
00000180: 82fc 183b b753 c7ba 9478 c03a 4afd 133d
00000190: 6881 a83c 8caa aa3c 494b 123d 4060 5d3c
000001a0: 819c ae3c f6f4 e43c ef6e 323c 5a48 943c
000001b0: a83f af3c ab9a c03c 9a30 daba 48f3 053c
000001c0: f866 9f3c f751 bebb 1f40 1a3c 5242 943c
000001d0: e46d 023c 9a08 c03c 62f2 873c 8438 033d
000001e0: 2c48 2a3d 3a2e 0f3d f644 083d acb0 4a3d
000001f0: cbe8 043d 3543 a53c c636 1c3c 9a07 1f3c
00000200: 41aa 073c bd5e b93b c4ad de3a b04a e43a
00000210: 1618 b23b e2a9 73bb 0027 ffb9 d2e5 613d
00000220: eb05 6c3d c379 8c3c fa3b c43c d719 4d3d
00000230: 221d 8e3c ac3f 033c 08ba 353d 34b9 0a3d
00000240: c22f c33c 9a19 153d da86 963c bdce 3d3d
00000250: 6837 fe3c ea6a 913c 048b 983c ee06 7a3c
00000260: 64ae af3b 250f 233d 0440 3c3d a2f3 083d
00000270: efcb 293d 6e88 e23c fd4a 113d 7ce3 be3c
00000280: 911c 1e3c 2a6b 533c 60a0 9839 cc92 a5bb
00000290: 7063 fabb 9a5f c33b fc5d 923b 403b 26ba
000002a0: 2a4a ed3b b695 bc3b 00e6 f9b7 679d 333c
000002b0: 7c01 1e3c 321d fa3b 5870 2c3c b6d2 a73c
000002c0: b1de 423c 2e4b 5b3c 5604 c83c d1db d73c
000002d0: 5e18 943c 6ecb 5d3c 6d23 a43c 2719 9a3c
000002e0: 7905 653c 2d0d 0e3d 91b3 2e3d c8a6 8d3c
000002f0: 6a09 cf3c f175 903d 021d 9b3d 350b 063d
00000300: dfd0 593d 542b 563d cea5 113d 9cdd 003d
00000310: 9513 1c3d 4767 223d 133f 243d bdbd 6c3d
00000320: 7755 2f3d 317e 903d cadb 7a3d 2c49 9d3c
00000330: a0d4 033d a589 493d eaa6 933c 57a2 e53c
00000340: d6e4 ce3c a53f b83c c15a 363d eb0f 0d3d
00000350: 66cd 6d3c efed c83c 193a 793c d321 e13c
00000360: 2878 563d 6727 763d 1522 683d 2ec8 363d
00000370: 8c51 463d a2a3 683d 5ad9 493d 9256 3c3d
00000380: 251f 293d 7516 aa3c 3c8b 233d aca7 e73c
00000390: 2d45 d43c c2e7 0d3d 9e27 8f3c 55ee 813c
000003a0: 933f 123d f5b8 393c 08fa 253c e7f5 f83b
000003b0: 401b f93a 5961 ae3b 01b4 693b e160 e73b
000003c0: 012c c53b adab c53a ac58 c23b c2b7 c03c
000003d0: d5eb fc3c de66 103d 8ae4 eb3c a622 883c
000003e0: 573a 0c3d 8095 f53c 3d63 853c 8b93 e43c
000003f0: df66 8f3b d9e6 383c b47a 083b 3436 d63b

momentum_buffer f4 [32]
0.15916918 -0.12882069 0.07716163 -0.12559824 0.040199134 0.023815714 -0.006003253 0.25113922
-0.10907626 0.0012970453 -0.05391629 0.09473244 -0.02172253 -0.013191957 0.08010722 -0.18145666
-0.14902608 -0.0615699 0.050785515 0.036450688 0.0071712174 -0.07648008 -0.07638646 0.028877564
0.123948686 0.0024118312 -0.03475024 0.15285064 -0.0040420457 0.07868576 0.036102615 0.054552455
00000000: 3ffd 223e 92e9 03be eb06 9e3d d39c 00be
00000010: d9a7 243d 2c19 c33c f0b6 c4bb 5295 803e
00000020: 6063 dfbd 9e01 aa3a 54d7 5cbd 1503 c23d
00000030: 72f3 b1bc 1423 58bc 410f a43d c6cf 39be
00000040: 4b9a 18be b830 7cbd 7904 503d 514d 153d
00000050: 88fc ea3b 97a1 9cbd 8170 9cbd a490 ec3c
00000060: cfd8 fd3d d00f 1e3b 4556 0ebd e184 1c3e
00000070: 2373 84bb 0026 a13d 56e0 133d 6572 5f3d
