Securite/Model2/Save attaque/randbet_0.1_0.01_10_-1/model_best.pth.tar (torch, 404714 bytes, 25 tensors)

features.0.weight f4 [32, 3, 3, 3]
0	0x3dbbb7b8	0.09165901
1	0x3dc49384	0.09598449
2	0x3da37ce3	0.079828046
3	0x3dc84027	0.09777861
4	0xbdc86995	-0.09785763
5	0xbdc96629	-0.09833939
6	0x3d936054	0.071961075
7	0xbdccdd95	-0.10003201
8	0xbdcc77ea	-0.09983809
9	0x3dc7c3ec	0.09754166
10	0x3dc72135	0.097231306
11	0x3d426251	0.047457043
12	0x3dcc5a9b	0.09978219
13	0xbdc78705	-0.0974255
14	0xbdc750d4	-0.097322136
15	0xbdc99fd5	-0.09844939
16	0xbdcce458	-0.100044906
17	0xbdca707d	-0.09884737
18	0x3dc5e674	0.09663096
19	0x3dcb0783	0.09913542
20	0x3da9b7f6	0.08287041
21	0x3dcb19a8	0.09917003
22	0x3d8dff50	0.069334626
23	0xbdc4ef7b	-0.0961599
24	0xbd61460e	-0.05499845
25	0xbdccd58b	-0.100016676
26	0xbdc97210	-0.09836209
27	0xbd953c0e	-0.07286845
28	0xbdc6e088	-0.09710795
29	0x3dc60559	0.09668989
30	0xbdc456b3	-0.09586849
31	0x3dccffba	0.100097135
32	0x3dc8ab8d	0.09798346
33	0xbdc3b139	-0.09555287
34	0x3dcd0b03	0.10011866
35	0x3d91db95	0.0712196
36	0x3dc7f351	0.09763206
37	0xbdc99afc	-0.09844014
38	0xbdaa70e6	-0.08322315
39	0x3ceffa58	0.029294178
40	0x3dcd07df	0.10011267
41	0xbdbd7340	-0.09250498
42	0xbdc17edd	-0.094480254
43	0x3dcd17d7	0.10014313
44	0xbdc71b8f	-0.09722053
45	0x3dccb2ef	0.099950664
46	0xbdb52ce1	-0.088464506
47	0xbdbdaa75	-0.09261028
48	0x3dc9cce4	0.09853533
49	0x3dcb6984	0.09932235
50	0xbdc64dd2	-0.09682812
51	0x3da07eaf	0.07836663
52	0x3dcd2e4f	0.10018598
53	0xbdc628a2	-0.09675719
54	0xbdcc3a86	-0.099721
55	0xbd9a90c2	-0.075471416
56	0xbcbba2b8	-0.022904739
57	0x3dc6c276	0.09705059
58	0x3dc9c400	0.09851837
59	0xbdc76a82	-0.09737112
60	0x3da473de	0.080299124
61	0xbdcb05bc	-0.09913203
62	0x3daa94a9	0.08329136
63	0xbdcc5e80	-0.09978962
64	0xbdc4f91e	-0.09617828
65	0xbd8b6a5b	-0.06807395
66	0x3dc6ff21	0.09716631
67	0x3dca12ba	0.09866853
68	0xbdca60d5	-0.098817505
69	0x3db21f37	0.0869736
70	0xbdcbd82e	-0.099533424
71	0x3d98fcd1	0.07470096
72	0xbdcbd70d	-0.09953127
73	0x3ce2a6b7	0.027667386
74	0x3dccf4fe	0.10007666
75	0x3dc7a1a7	0.097476296
76	0x3dcbba12	0.099475995
77	0xbdadb576	-0.084818766
78	0x3d9e8665	0.077404775
79	0xbdcaed3f	-0.09908532
80	0x3dc813cf	0.09769403
81	0x3cc0c75f	0.023532568
82	0xbdcb9231	-0.09939993
83	0xbdc9f298	-0.09860724
84	0x3dc8a35a	0.09796782
85	0xbc75bba7	-0.014998353
86	0xbdc5751f	-0.0964148
87	0x3dc11d38	0.09429401
88	0x3dc96f0d	0.098356344
89	0x3d814bf6	0.063133165
90	0x3d9976bf	0.07493352
91	0xbdcafe67	-0.09911805
92	0xbdc13c02	-0.09435274
93	0x3dc4db8a	0.09612186
94	0x3a2aa911	0.0006510178
95	0xbdc219fe	-0.09477614
96	0x3d4c7f01	0.049925808
97	0x3ccdc3f1	0.025117846
98	0x3d1c4b89	0.038157973
99	0x3dc537e1	0.09629799
100	0xbdbc3318	-0.09189433
101	0xbdc3cfa0	-0.09561086
102	0x3dc7b8a5	0.09752015
103	0xbd611001	-0.054946903
104	0xbdc34b8c	-0.09535894
105	0x3db9f570	0.090800166
106	0x3b9d8060	0.0048065633
107	0xbdc357f8	-0.09538263
108	0xbdca6343	-0.09882214
109	0x3cb6f0b6	0.022331577
110	0x3dcb5222	0.09927775
111	0xbdc896ff	-0.09794425
112	0x3dcb9cb7	0.09942
113	0x3dcbabfc	0.09944913
114	0xbdc51cda	-0.096246436
115	0xbd474d74	-0.04865785
116	0x3dcb49b9	0.09926171
117	0xbdc6494c	-0.09681949
118	0xbd9455b3	-0.07242908
119	0x3dca5db4	0.09881154
120	0xbdc833d8	-0.097755134
121	0xbca3bd7b	-0.019987812
122	0x3dcaa65d	0.098950125
123	0xbdbfed7f	-0.09371471
124	0xbd9ca8ed	-0.076494075
125	0x3dca6691	0.09882844
126	0xbdc895bd	-0.09794185
127	0xbd62d7c8	-0.055381566
128	0x3dc525b2	0.096263304
129	0xbdc73a94	-0.0972797
130	0x3dc5841c	0.096443385
131	0x3dcaa0d1	0.098939545
132	0xbdbe5da2	-0.09295203
133	0x3dc6092d	0.09669719
134	0x3dca916f	0.098910205
135	0x3dc80fe9	0.097686596
136	0x3d50e54d	0.05099993
137	0x3db9695e	0.090533
138	0xbdb4bccc	-0.08825073
139	0x3dc8a1df	0.097964995
140	0xbdc57a8c	-0.096425146
141	0xbdc66f83	-0.09689238
142	0xbd3e5e98	-0.04647693
143	0xbdc8c7c6	-0.09803729
144	0xbdc5fdc6	-0.09667544
145	0xbdcbee2e	-0.099575385
146	0xbdc5377b	-0.09629723
147	0xbdc312ff	-0.095251076
148	0x3dc8cebd	0.09805057
149	0xbdc85290	-0.097813725
150	0xbd0e8d78	-0.034802884
151	0x3dc6e90c	0.09712419
152	0xbccf8390	-0.025331289
153	0xbdbf35b4	-0.09336415
154	0xbdc6c7a3	-0.097060464
155	0xbd2153fe	-0.03938674
156	0x3dbd8bb9	0.092551656
157	0x3dc971d0	0.09836161
158	0x3dbd9893	0.09257617
159	0x3dc932f4	0.09824172
160	0x3dc95df4	0.09832373
161	0x3dc5fbe3	0.09667184
162	0x3db914ce	0.09037171
163	0x3dc0e063	0.09417798
164	0xbd8869b1	-0.06660784
165	0x3dc5a74a	0.096510485
166	0x3dc94e22	0.09829356
167	0x3dc8a321	0.09796739
168	0xbdc27f4f	-0.094969384
169	0x3dc64fb8	0.09683174
170	0x3dca9125	0.09890965
171	0x3db8c3fb	0.09021755
172	0x3bd9d299	0.0066474197
173	0xbdc1cd8a	-0.094630316
174	0x3dc4977e	0.09599207
175	0xbda510e8	-0.08059865
176	0xbdcac467	-0.09900742
177	0xbdc63b99	-0.09679336
178	0xbda8fbf3	-0.082511805
179	0x3dca47ba	0.09876962
180	0x3d5e3fa7	0.054259922
181	0xbdb83dba	-0.089961484
182	0xbdbd59d4	-0.09245649
183	0x3d72b9a6	0.05925908
184	0xbdcd0793	-0.1001121
185	0xbdcc3f0c	-0.09972963
186	0xbdc58f56	-0.0964648
187	0xbdc85c1b	-0.09783193
188	0x3dbdebd7	0.092734985
189	0x3dc0e570	0.09418762
190	0x3dc24fa2	0.09487845
191	0xbc5c1c7d	-0.0134345265
192	0x3dccd18f	0.10000908
193	0x3dc89ba2	0.097953096
194	0xbdbbfac1	-0.09178687
195	0x3dcc9fd3	0.099914216
196	0x3dcad8f3	0.09904661
197	0x3d85b218	0.06528109
198	0x3da19290	0.07889283
199	0x3db0e9b6	0.08638327
200	0xbbf3a851	-0.0074358364
201	0xbdad5329	-0.08463127
202	0xbdc8902f	-0.09793126
203	0xbdc7b7f9	-0.09751887
204	0xbc997470	-0.01873228
205	0xbdc3d4cf	-0.095620744
206	0xbdc42a73	-0.09578409
207	0xbdc505fb	-0.09620281
208	0x3dc3075e	0.095228896
209	0x3dc9fa01	0.098621376
210	0xbdc5ff65	-0.09667853
211	0xbdc67655	-0.09690539
212	0x3dc738d0	0.09727633
213	0xbdc3b87b	-0.09556671
214	0xbdc491b7	-0.095981054
215	0x3dc8ed4a	0.09810884
216	0x3dc660c7	0.096864276
217	0x3dc4de92	0.096127644
218	0x3dc175b6	0.0944628
219	0x3dc7b4f0	0.09751308
220	0x3dc6da95	0.0970966
221	0x3da9ab23	0.08284595
222	0xbdc58adf	-0.09645628
223	0x3dc4b87b	0.09605499
224	0x3db88298	0.09009284
225	0xbdcaf5af	-0.09910142
226	0xbdc9b631	-0.098492034
227	0xbdc85cd0	-0.097833276
228	0xbdcb3715	-0.099226154
229	0xbdcaa037	-0.0989384
230	0xbdcc1605	-0.099651374
231	0xbdc387cc	-0.095473856
232	0xbdc573db	-0.09641238
233	0x3d371af9	0.044703458
234	0x3dbbd3a8	0.091712296
235	0xbd885ebb	-0.066586934
236	0xbd6eb907	-0.058281925
237	0x3db5a360	0.08869052
238	0xbda4b5b3	-0.08042469
239	0xbd7d9242	-0.06190706
240	0xbd6cc686	-0.057806514
241	0x3dcc39ad	0.09971938
242	0x3dcb2e88	0.099209845
243	0x3dccefce	0.100066766
244	0x3dc68075	0.0969247
245	0x3dbe66d7	0.09296959
246	0x3dca7193	0.09884944
247	0x3dc47ad0	0.09593737
248	0x3dc71053	0.097199105
249	0x3dc7bf3b	0.09753271
250	0xbdc0049d	-0.0937588
251	0x3dafa11d	0.08575652
252	0xbdc04426	-0.09387998
253	0xbd598f0e	-0.053114943
254	0xbdc7c63c	-0.09754607
255	0xbdbd2af4	-0.09236708

features.0.bias f4 [32]
0	0xbe0de0cd	-0.13855286
1	0x3e56cc04	0.20976263
2	0x3e62b408	0.22138989
3	0xbeea4b41	-0.4576054
4	0x3c356ea9	0.011073747
5	0x3d226821	0.039650086
6	0x3e19eadb	0.15030997
7	0x3e0e0257	0.1386808
8	0x3da79800	0.081832886
9	0xbe95f966	-0.29291838
10	0xbeca9b88	-0.39571786
11	0x3e1fa205	0.1558915
12	0xbea614a2	-0.32437617
13	0x3e485d7c	0.19566911
14	0xbea70446	-0.32620448
15	0x3e4e3fbf	0.20141505
16	0xbe98c683	-0.29838952
17	0x3e47de5c	0.19518417
18	0x3ca3c766	0.019992542
19	0xbe252256	-0.1612638
20	0x3e44a273	0.19202594
21	0x3e21361a	0.15743294
22	0x3e4874b4	0.19575769
23	0x3e503eca	0.20336452
24	0x3e0adf7e	0.13561818
25	0x3e5f2302	0.21790698
26	0xbd41776d	-0.047233034
27	0xbbf43178	-0.007452186
28	0xbe68a00f	-0.22717308
29	0xbef5fa07	-0.48042318
30	0x3e66ab71	0.22526337
31	0x3e3271fc	0.17426294

features.0.b_w f4 [8, 1]
0	0xc3000000	-128.0
1	0x42800000	64.0
2	0x42000000	32.0
3	0x41800000	16.0
4	0x41000000	8.0
5	0x40800000	4.0
6	0x40000000	2.0
7	0x3f800000	1.0

features.2.weight f4 [32, 32, 3, 3]
0	0x3dcb014c	0.09912357
1	0xbdbfd059	-0.09365911
2	0xbdc2bed1	-0.095090516
3	0xbc124be3	-0.008929226
4	0xbd6080bc	-0.05481027
5	0xbdc6525b	-0.09683677
6	0xbd88bd21	-0.066766985
7	0xbdb8729a	-0.090062335
8	0xbdc96b54	-0.09834924
9	0xbdbf4682	-0.0933962
10	0x3dcc12f7	0.09964555
11	0xbd43404c	-0.04766874
12	0x3dcc187a	0.09965606
13	0xbd1d09b2	-0.038339324
14	0x3d5dd436	0.05415746
15	0x3c890d72	0.016730044
16	0xbd752828	-0.05985275
17	0x3bba6de1	0.005689368
18	0x3d3d09a5	0.046151776
19	0xbdb79bfe	-0.089653
20	0x3dca48c8	0.09877163
21	0xbdadcdad	-0.08486495
22	0x3dccc09e	0.09997676
23	0x3d975192	0.07388605
24	0x3d8a26f9	0.06745715
25	0xbc9ed0dd	-0.019386703
26	0xbdc0e346	-0.09418349
27	0x3d21cdf0	0.039503038
28	0xbda66fac	-0.081267685
29	0xbc58990e	-0.013220085
30	0x3ca216e9	0.019786315
31	0x3b83c047	0.004020724
32	0xbc74632a	-0.014916221
33	0xbdcbebd5	-0.09957091
34	0xbdaec4eb	-0.08533653
35	0xbd112d08	-0.035443336
36	0xbd8fb3db	-0.070167266
37	0x3db1e8b5	0.086869635
38	0xbdbaab71	-0.09114731
39	0xbdb8d2d9	-0.09024591
40	0x3da7513b	0.0816979
41	0xbdbf498e	-0.09340201
42	0xbdb735bb	-0.08945795
43	0x3c7295c7	0.0148062175
44	0xbdcc03b9	-0.099616475
45	0xbc8892bd	-0.016671533
46	0x3c34be1f	0.0110316565
47	0xbdc71179	-0.097201295
48	0x3cb5943f	0.022165416
49	0xbd047d26	-0.032345913
50	0xbdbae567	-0.09125786
51	0xbd6723da	-0.056430675
52	0xbd70f69d	-0.05882894
53	0xbdc6e4e0	-0.09711623
54	0x3dab0224	0.08350018
55	0x3d670215	0.05639847
56	0xbdc906fe	-0.09815787
57	0xbdc87268	-0.09787446
58	0xbdcaa5f4	-0.09894934
59	0x3dacce0c	0.08437738
60	0x3d6f2440	0.05838418
61	0x3c366032	0.011131333
62	0xbdcaef47	-0.0990892
63	0xbcae81fd	-0.021302218
64	0xbdbadfb2	-0.09124698
65	0xbdc0dfbe	-0.094176754
66	0xbdb7a89f	-0.08967709
67	0x3cc490e8	0.023994878
68	0x3d0089f2	0.031381555
69	0xbc19b06d	-0.009380442
70	0x3d252057	0.040314045
71	0xbd6de5ec	-0.0580806
72	0x3db5a81a	0.088699535
73	0x3dcaa6cb	0.098950945
74	0xbd27ff55	-0.041014988
75	0xbd504b49	-0.050853048
76	0xbd965c57	-0.07341831
77	0x3dca195f	0.098681204
78	0x3dc95d88	0.09832293
79	0x3dc8c962	0.09804036
80	0xbda91a0e	-0.08256923
81	0x3d76d34f	0.060260113
82	0xbd9c13bb	-0.07620951
83	0x3dbea42e	0.093086585
84	0x3be8f4b8	0.007109251
85	0x3dc5d547	0.0965982
86	0xbda0caaa	-0.07851155
87	0xbc2959a6	-0.010336315
88	0xbd50a370	-0.050937116
89	0xbd027573	-0.03185029
90	0xbdccb4bf	-0.09995412
91	0xbdcc94ec	-0.09989342
92	0xbdca61c4	-0.098819286
93	0xbdcbd0be	-0.09951924
94	0xbd658bf0	-0.056041658
95	0xbd53a877	-0.051674332
96	0xbd28e151	-0.041230503
97	0xbd808c85	-0.06276802
98	0xbdcc6ce3	-0.09981706
99	0xbd3bceae	-0.045851402
100	0x3c355e41	0.011069835
101	0xbcc22ecc	-0.023703955
102	0x3d2d12c4	0.042254224
103	0xbd94651a	-0.07245846
104	0xbdb8b947	-0.09019714
105	0xbc7b2899	-0.015329503
106	0x3d1c39f5	0.03814121
107	0xbcad6c69	-0.021169858
108	0x3c864b04	0.016393192
109	0x3dc976e9	0.098371334
110	0xbdb65e8d	-0.08904753
111	0xbdb6dc52	-0.089287415
112	0x3cc2aa94	0.023762979
113	0xbda570c6	-0.080781505
114	0xbd98f99b	-0.074694835
115	0x3d31af02	0.04337979
116	0xbd3d6cf3	-0.04624648
117	0xbd3cbbbc	-0.046077475
118	0xbdaf5392	-0.08560862
119	0x3dcc6c95	0.09981648
120	0xbd5b2e3e	-0.053510897
121	0x3dca25b9	0.09870476
122	0xbdca55a4	-0.09879616
123	0x3d9c5586	0.076335
124	0xbd18334d	-0.0371583
125	0xbdc7e573	-0.09760561
126	0xbdb2354d	-0.087015726
127	0xbdc66e5f	-0.0968902
128	0xbd856c94	-0.0651485
129	0x3cd31f5d	0.025771791
130	0xbd713d93	-0.058896612
131	0xbd251e8b	-0.04031233
132	0x3d680e1d	0.056654084
133	0x3d20177f	0.039084908
134	0x3cbc4ab8	0.022984847
135	0x3d883af9	0.06651873
136	0x3b7e6904	0.0038819918
137	0xbdc5be59	-0.096554466
138	0xbdc23099	-0.094819255
139	0x3db2fcd6	0.08739631
140	0xbdb7256e	-0.08942686
141	0xbdc9b97f	-0.09849834
142	0x3cf0151c	0.02930694
143	0x3dbdf669	0.09275515
144	0xbcce9baa	-0.02522071
145	0xbdcb0f90	-0.09915078
146	0xbdcc22de	-0.09967588
147	0xbd251906	-0.040307067
148	0x3da2f2a6	0.07956438
149	0xbcd3003b	-0.025756946
150	0xbdcbd8ba	-0.09953447
151	0xbdb19734	-0.08671418
152	0xbdcc90ef	-0.099885814
153	0xbce6002e	-0.028076258
154	0x3dc9b9a0	0.09849858
155	0xbdc9f236	-0.09860651
156	0x3dcacbfd	0.09902189
157	0xbd7aeef9	-0.06126306
158	0x3c1aff38	0.009460263
159	0x3a4afce6	0.0007743373
160	0xbdbea8c5	-0.09309534
161	0xbdcb2e76	-0.09920971
162	0x3dbaf41a	0.0912859
163	0x3d9cc47d	0.07654665
164	0xbd8a20d2	-0.06744541
165	0x3d682038	0.05667135
166	0x3db0804d	0.086182214
167	0x3b76c821	0.0037655907
168	0x3dc9cec6	0.09853892
169	0xbcc60213	-0.024170911
170	0xbd4d01d9	-0.05005059
171	0xbc5258c1	-0.012838543
172	0xbdbe8b10	-0.09303868
173	0xbdc6d683	-0.097088836
174	0xbd227a7b	-0.039667588
175	0xbd008b5a	-0.031382896
176	0xbdc45c8b	-0.09587964
177	0xbd3e4c4f	-0.046459492
178	0xbcbc39da	-0.022976805
179	0xba8a62a6	-0.0010557964
180	0xbda933e2	-0.08261849
181	0xbd52fa51	-0.05150825
182	0x3d9a1bca	0.075248316
183	0xbdbe9928	-0.09306556
184	0x3da6018e	0.08105765
185	0x3d7770b3	0.060410213
186	0x3da178f8	0.07884401
187	0x3c8484f2	0.016176675
188	0xbdcac8fe	-0.099016175
189	0x3d2a7cc2	0.041622885
190	0x3da5e062	0.08099438
191	0xbdcba2b0	-0.099431396
192	0x3c1feb43	0.009760681
193	0xbdbb6c2b	-0.09151491
194	0x3d9e97db	0.07743808
195	0xbdb9ebc5	-0.090781726
196	0xbdcaaf47	-0.09896713
197	0x3d9487e6	0.07252483
198	0xbda0573a	-0.07829137
199	0x3d902336	0.07037966
200	0xbd744463	-0.05963553
201	0x3dc6cbb9	0.09706826
202	0x3d808deb	0.06277069
203	0xbdc13c16	-0.094352886
204	0xbdcb5b50	-0.09929526
205	0x3d9ab2c2	0.075536266
206	0x3dcb0d38	0.09914631
207	0x3db8c95f	0.090227835
208	0xbd686edb	-0.056746345
209	0xbdc3a464	-0.095528394
210	0x3ce6c83f	0.028171657
211	0x3dc4c6d2	0.096082345
212	0xbdcc2712	-0.099683896
213	0xbdc8f524	-0.09812382
214	0xbdcbf67e	-0.09959124
215	0x3dbe4456	0.09290378
216	0x3c8f7e7e	0.01751637
217	0xbc7e08b3	-0.015505004
218	0x3d4ff4de	0.050770633
219	0xbd990d68	-0.0747326
220	0xbdb26beb	-0.0871199
221	0x3dcb70e6	0.09933643
222	0xbd01d3f0	-0.03169626
223	0x3d23784d	0.03990965
224	0xbdbdc41d	-0.09265921
225	0x3d646ccd	0.055767823
226	0xbb0b6097	-0.0021267289
227	0x3dbe121c	0.09280798
228	0x3dcc524f	0.099766366
229	0xbd82cb00	-0.063863754
230	0xbc819e13	-0.015822446
231	0xbdcacfa6	-0.09902887
232	0x3d11344f	0.035450276
233	0xbc2ab3d3	-0.01041885
234	0x3cdf705e	0.02727526
235	0xbdaf604e	-0.085632905
236	0xbdb1738d	-0.08664618
237	0x3a9340d8	0.0011234535
238	0xbdb271d2	-0.08713116
239	0xbdbfc40b	-0.09363564
240	0x3d07796c	0.03307478
241	0xbc8a450c	-0.016878627
242	0xbdb0206f	-0.08599936
243	0x3cac1d1c	0.021009974
244	0x3c9e1b4b	0.019300124
245	0x3dbf2b4b	0.09334429
246	0x3c24c311	0.010056273
247	0xbc57df05	-0.013175731
248	0x3d34527f	0.044023987
249	0xbdcb1c25	-0.099174775
250	0xbd348834	-0.044075206
251	0xbdc2d824	-0.09513882
252	0xbdc3d69d	-0.095624186
253	0xbd7a21a2	-0.06106723
254	0xbd752afb	-0.059855442
255	0xbd9aa275	-0.075505175

features.2.bias f4 [32]
0	0x3dd1184d	0.10209713
1	0xbd67acfd	-0.05656146
2	0xbd20b830	-0.039238155
3	0xbbebca12	-0.0071957195
4	0x3d3ecee7	0.046584036
5	0x3d91fbc0	0.071280956
6	0xbda6993c	-0.08134696
7	0xbebce26e	-0.36891502
8	0x3db53d02	0.08849527
9	0x3d8326ea	0.06403907
10	0xbd864f40	-0.065580845
11	0x3e60661b	0.2191395
12	0x3e624242	0.22095588
13	0x3d85c59b	0.06531831
14	0x3e589bf3	0.2115324
15	0x3e8d8609	0.27641323
16	0xbc5ac328	-0.013352193
17	0xbdc8aa3c	-0.09798095
18	0x3cbfc59d	0.023409659
19	0xbce0a68d	-0.027423168
20	0x3e3e8d36	0.18608555
21	0xbdb73ce1	-0.089471586
22	0xbd6afd17	-0.05737027
23	0x3e779afe	0.24180219
24	0x3e1929a7	0.14957295
25	0x3b3dc0e2	0.0028954078
26	0x3ddcf8d3	0.10789647
27	0x3e205b82	0.15659907
28	0xbe3f27f0	-0.18667579
29	0x3ecb5085	0.3970987
30	0xbd4ddc34	-0.05025883
31	0x3dc53682	0.09629537

features.2.b_w f4 [8, 1]
0	0xc3000000	-128.0
1	0x42800000	64.0
2	0x42000000	32.0
3	0x41800000	16.0
4	0x41000000	8.0
5	0x40800000	4.0
6	0x40000000	2.0
7	0x3f800000	1.0

features.6.weight f4 [32, 32, 3, 3]
0	0xbdccab2c	-0.09993586
1	0xbdccd01f	-0.100006334
2	0xbdbcf571	-0.09226502
3	0xbdcaf07b	-0.09909149
4	0xbdc95d2a	-0.09832223
5	0xbdbcf81a	-0.09227009
6	0xbd84ba59	-0.064808555
7	0xbd8001a2	-0.062503114
8	0xbd19d3eb	-0.037555616
9	0x3dcc966b	0.099896275
10	0x3da5e3a1	0.081000574
11	0xbcf850ae	-0.030311909
12	0xbdbbe407	-0.09174352
13	0xbdc73436	-0.09726755
14	0xbdc8a0bc	-0.09796283
15	0xbdc22f10	-0.09481633
16	0xbdcbcd62	-0.09951283
17	0xbdca58f3	-0.09880247
18	0x3db694d5	0.08915106
19	0x3dca7dda	0.098872855
20	0x3dc80df3	0.097682856
21	0xbdaf0155	-0.08545176
22	0xbd5f0b10	-0.05445391
23	0xbd8d63a2	-0.06903769
24	0xbdafaf5a	-0.085783675
25	0xbdc869f3	-0.09785833
26	0xbd85056f	-0.06495177
27	0x3db15215	0.08658234
28	0x3d9e6786	0.07734589
29	0x3b2acdac	0.0026062531
30	0x3d2d9a53	0.042383503
31	0xbdb0954d	-0.08622227
32	0x3c9dc81f	0.019260464
33	0xbdc2e4c2	-0.09516288
34	0xbdcbfc6c	-0.09960255
35	0xbdcb383b	-0.099228345
36	0xbd78b203	-0.06071664
37	0xbd6d8504	-0.05798818
38	0x3ca6314d	0.02028718
39	0xbca5b23c	-0.02022659
40	0x3d041566	0.03224697
41	0x3d48e876	0.049049817
42	0x3da5186f	0.08061301
43	0x3d8b5796	0.06803815
44	0x3da6c523	0.081430696
45	0x3c992f0c	0.018699192
46	0x3d85ee31	0.06539572
47	0x3d043850	0.032280266
48	0x3cce0cda	0.025152612
49	0xbbb331e7	-0.0054685953
50	0x3d08bb6c	0.033381864
51	0x3da7252a	0.08161385
52	0x3d14f2ef	0.036364492
53	0x3d9e6cbd	0.07735584
54	0x3bc5e901	0.006039739
55	0x3d11c480	0.035587788
56	0x3c9252c3	0.01786173
57	0x3d8a6ebd	0.06759403
58	0x3d7e7947	0.062127378
59	0xbd4e5916	-0.050377928
60	0x3d839c9a	0.06426354
61	0xbd1a6637	-0.037695136
62	0xbdb0901b	-0.08621236
63	0xbc719ff7	-0.014747611
64	0x3d852e39	0.06502957
65	0x3dba0712	0.0908338
66	0xbda79570	-0.081828
67	0x3c90861b	0.017642071
68	0x3d5a03f2	0.05322642
69	0x3c897fb0	0.016784519
70	0xbcea36a1	-0.028590502
71	0x38ab3945	8.164583e-05
72	0x3c7b9793	0.015355962
73	0x3d93a832	0.07209815
74	0xbcfd8871	-0.03094885
75	0xbdca959e	-0.098918185
76	0xbdccdeb9	-0.100034185
77	0xbdccd4b3	-0.10001507
78	0xbdcc5784	-0.0997763
79	0xbdccdceb	-0.10003074
80	0xbdcb77a5	-0.0993493
81	0x3d0ee693	0.03488786
82	0x3d8fc9cc	0.070209116
83	0x3da62473	0.08112421
84	0x3d802644	0.062572986
85	0x3dbc70de	0.09201215
86	0x3db83d60	0.08996081
87	0x3d178d3d	0.03699993
88	0x3d809680	0.062787056
89	0x3d1acf09	0.0377951
90	0xbd15a4c9	-0.036534104
91	0xbc87f67b	-0.016597023
92	0x3c6cd6a8	0.014455475
93	0xbd11e006	-0.035614036
94	0xbdb4bc0d	-0.0882493
95	0xbc0c1b60	-0.008551449
96	0x3d2f1e66	0.0427536
97	0xbd6a6b43	-0.0572312
98	0xbca86c74	-0.020559527
99	0x3d067cc5	0.032833833
100	0x3cd67ec1	0.026183488
101	0xbc963c16	-0.018339198
102	0xbccd8491	-0.025087627
103	0x3c702aa6	0.014658606
104	0x3ce6fb86	0.028196108
105	0x3d8e8b99	0.0696022
106	0x3d95c95e	0.07313798
107	0xbc848e73	-0.016181206
108	0xb89b9435	-7.418582e-05
109	0x3d7e538a	0.062091388
110	0x3b06f429	0.0020592308
111	0x3d9415e1	0.072307356
112	0x3c1637e3	0.009168598
113	0xbc7602a8	-0.015015282
114	0x3d58281c	0.052772626
115	0x3be3b996	0.006949614
116	0x3d200f2a	0.03907696
117	0x3db704dc	0.08936474
118	0x3d26c3c8	0.040714055
119	0x3b3a55ad	0.0028432414
120	0xbdc4c438	-0.09607738
121	0xbdccd7c2	-0.1000209
122	0xbdcc027e	-0.09961413
123	0xbdccc9ef	-0.09999453
124	0xbdccd734	-0.10001984
125	0xbdcbb658	-0.09946889
126	0x3dcbc714	0.099500805
127	0x3dcc86c1	0.0998664
128	0x3db0eeb6	0.086392805
129	0xbda838b1	-0.08213938
130	0xbd202e43	-0.03910662
131	0xba234da6	-0.0006229527
132	0xbdc33b65	-0.09532813
133	0xbdc173d7	-0.09445923
134	0xbd4a4055	-0.049377758
135	0xbbba6e1f	-0.005689397
136	0xbb862a31	-0.004094385
137	0x3cf8c907	0.030369295
138	0xbd9ae175	-0.07562534
139	0xbd8b5ffb	-0.06805416
140	0xbc9465bb	-0.018114915
141	0x3d0c1cd7	0.03420719
142	0x3b9a7495	0.0047136047
143	0x3d072774	0.03299661
144	0x3d686465	0.05673637
145	0xbce01e27	-0.027358128
146	0xbd145c67	-0.036220934
147	0xbdc8a7c5	-0.097976245
148	0xbdcc9803	-0.099899314
149	0xbdcc2cb0	-0.09969461
150	0xbdcc19b5	-0.09965841
151	0xbdcc9483	-0.09989264
152	0xbdcbf298	-0.099583805
153	0x3d20dd04	0.039273277
154	0x3cfbb517	0.030725999
155	0x3da84036	0.08215372
156	0xbd000542	-0.031255014
157	0x3db75ef4	0.08953658
158	0x3da524a0	0.08063626
159	0x3d9ffaab	0.07811483
160	0xbd92ad5e	-0.071619734
161	0xbcf60756	-0.030032795
162	0x3dbb39cb	0.091418825
163	0xb9a23471	-0.0003093812
164	0x3c1f5690	0.009725228
165	0x3dc6d675	0.09708873
166	0xbdccb350	-0.09995139
167	0xbdcc96be	-0.09989689
168	0x3dc07cc8	0.093988
169	0xbd8aaf30	-0.067716956
170	0xbdcc852d	-0.09986339
171	0x3d22d20b	0.039751094
172	0x3d1893da	0.037250377
173	0x3d5b27e0	0.053504825
174	0xbd8a7e35	-0.06762353
175	0xbc3e9e28	-0.011634387
176	0x3d8c7ded	0.06859956
177	0x3cfa3e47	0.030547274
178	0xbd5e9475	-0.0543408
179	0x3d15dbac	0.03658645
180	0xbd86bcff	-0.06579017
181	0x3c785538	0.0151570365
182	0x3d28fa9e	0.041254632
183	0xbd43790b	-0.047722857
184	0x3d68791c	0.056756124
185	0x3d932c24	0.071861535
186	0xbc7f14ed	-0.015568954
187	0xbd0d9184	-0.034562603
188	0xbc99e438	-0.018785581
189	0x3d6149ab	0.055001896
190	0xbb003fbf	-0.0019569246
191	0xbcf9e7a7	-0.030505968
192	0x3da4ad31	0.08040846
193	0x3d87b934	0.066271216
194	0xbb8ebe66	-0.0043561934
195	0x3cebdac5	0.02879084
196	0xbd8562c8	-0.06512982
197	0xbc7017ee	-0.014654143
198	0x3cb08686	0.02154852
199	0x3d9a5bc6	0.07537036
200	0x3dbeb395	0.09311596
201	0x3d0ae774	0.033912137
202	0x3dba460b	0.09095391
203	0x3d9fbcb5	0.07799665
204	0xbc899a68	-0.01679726
205	0x3c2adb81	0.01042831
206	0x3d565828	0.052330166
207	0x3d11ac16	0.035564505
208	0x3dcc227e	0.09967516
209	0x3db531a7	0.08847361
210	0xbdb389f0	-0.08766544
211	0xbdbe3daf	-0.09289109
212	0xbd145b38	-0.036219805
213	0xbcdeb70b	-0.027186891
214	0xbdcb0642	-0.09913303
215	0xbd92dd56	-0.07171123
216	0xbdc036e6	-0.09385471
217	0xbdbe1858	-0.09281987
218	0xbd24a7c9	-0.040199075
219	0xbdb72959	-0.08943433
220	0xbdc17be1	-0.09447456
221	0xbdb5ca5d	-0.08876488
222	0x3d3664b4	0.04452963
223	0xbc5ab2cd	-0.0133482935
224	0xbba97d6d	-0.0051724226
225	0x3dc580f8	0.096437395
226	0x3dca24a1	0.09870268
227	0x3dc46b99	0.09590835
228	0xbdca8e6e	-0.098904476
229	0xbdcc3ea7	-0.099728875
230	0xbdcc6a19	-0.09981174
231	0xbdc1b8a5	-0.09459046
232	0xbdcc4f9a	-0.0997612
233	0xbdcc5113	-0.09976401
234	0x3ab20ae8	0.0013583573
235	0xbd26c0b9	-0.04071114
236	0xbdb9f66c	-0.09080204
237	0xbdcadcf6	-0.09905426
238	0xbdcca219	-0.09991855
239	0xbdccd741	-0.10001994
240	0xbdcc6a3a	-0.099811986
241	0xbdccd29f	-0.1000111
242	0xbdccd2bb	-0.10001131
243	0x3dc30f48	0.09524399
244	0x3dc99a25	0.09843854
245	0x3dc210d2	0.094758645
246	0x3d1bf8fe	0.038079254
247	0xbd6bf545	-0.057606954
248	0xbc5c2298	-0.013435982
249	0xbdcb7a9e	-0.09935497
250	0xbdcc378f	-0.099715345
251	0xbdc88161	-0.09790302
252	0x3d015046	0.031570695
253	0xbcf414c8	-0.029795066
254	0xbd9621b5	-0.07330648
255	0x3da4e4c1	0.08051444

features.6.bias f4 [32]
0	0x3e3afc12	0.1826022
1	0x3d25a775	0.040442903
2	0x3eb301ae	0.3496222
3	0x3db87983	0.090075515
4	0x3e160cfe	0.14653394
5	0x3dcebfe8	0.10095197
6	0x3e8ac4ea	0.27103359
7	0x3e6d1168	0.23151171
8	0x3f38e43f	0.72223276
9	0x3ef20fa0	0.47277546
10	0x3ef2a31e	0.47390074
11	0xbe047da4	-0.12938553
12	0xbda2d943	-0.07951596
13	0x3d04ef6c	0.032454893
14	0x3e0f32af	0.13984178
15	0x3eded0d3	0.43518695
16	0xbe3246ef	-0.17409872
17	0x3e9b3e4b	0.30320963
18	0x3c94a865	0.018146703
19	0x3eb4ee1f	0.35337922
20	0xbe102460	-0.14076376
21	0xbcfbc6a2	-0.030734364
22	0x3e6d9ec6	0.23205099
23	0x3f1e1f61	0.6176663
24	0x3d9b7586	0.07590775
25	0x3e8c04d2	0.27347428
26	0x3ec78ee6	0.3897621
27	0x3df7f702	0.1210766
28	0x3ee66d61	0.45005324
29	0x3f0b6464	0.5445006
30	0x3f31f016	0.6950697
31	0x3e833275	0.25624433

features.6.b_w f4 [8, 1]
0	0xc3000000	-128.0
1	0x42800000	64.0
2	0x42000000	32.0
3	0x41800000	16.0
4	0x41000000	8.0
5	0x40800000	4.0
6	0x40000000	2.0
7	0x3f800000	1.0

features.8.weight f4 [32, 32, 3, 3]
0	0xbdca8d09	-0.098901816
1	0xbdc9aa00	-0.09846878
2	0xbdb8d96d	-0.09025846
3	0x3cc392fe	0.023873802
4	0xbd931b28	-0.07182914
5	0xbd3e0dd1	-0.046399895
6	0x3d110e64	0.035414115
7	0x3dbefec7	0.09325939
8	0xbdaa9f67	-0.08331185
9	0x3d21c3e0	0.03949344
10	0x3db52629	0.08845169
11	0xbdbdc62d	-0.09266315
12	0xbc9aaa2b	-0.01887997
13	0x3b68af62	0.0035504927
14	0xbdbd257d	-0.09235666
15	0xbd963112	-0.07333578
16	0xbbe4fb2d	-0.0069879503
17	0xbd87eb83	-0.06636717
18	0xbb0384fa	-0.0020068274
19	0x3d9ea1ee	0.077457294
20	0x3d9ed346	0.07755141
21	0x3da24b87	0.07924562
22	0x3d9dc375	0.07703296
23	0x3d3fb137	0.046799865
24	0x3c8a2cf4	0.016867138
25	0xbd965659	-0.07340688
26	0xbdcbde24	-0.09954479
27	0x3dc540c7	0.09631496
28	0x3b9487a2	0.0045327703
29	0x3d0808df	0.033211585
30	0x3d5981fc	0.05310248
31	0x3dca731b	0.09885236
32	0x3d2dd81f	0.042442437
33	0x3b6cbe0d	0.0036124021
34	0x3dcc3d8a	0.09972675
35	0x3dcab574	0.09897891
36	0xbbcf258b	-0.006321614
37	0xbc726645	-0.014794891
38	0xbdbd644a	-0.09247644
39	0x3da08824	0.07838467
40	0x3da4cd43	0.08046963
41	0xbd8ce92e	-0.06880413
42	0x3dc9eb08	0.09859282
43	0x3dcc62ae	0.09979759
44	0xbdc4b99b	-0.09605714
45	0xbdc72fa2	-0.09725882
46	0x3daabb2e	0.08336483
47	0x3d9f7b8e	0.07787238
48	0xbdc78475	-0.09742061
49	0xbd751490	-0.059834063
50	0x3d8dc5c8	0.069224894
51	0xbdb2634a	-0.08710344
52	0xbdc42f1c	-0.09579298
53	0xbdcaf5c7	-0.099101596
54	0xbdc72f19	-0.0972578
55	0xbc7f1914	-0.015569944
56	0x3dae3ebd	0.0850806
57	0xbd767d9a	-0.060178377
58	0xbc82bfa3	-0.01596052
59	0x3d890ea9	0.06692249
60	0xbd817577	-0.06321233
61	0x3ce0f475	0.027460316
62	0xbd73e701	-0.059546474
63	0xbd25ab93	-0.04044683
64	0xbdc9a12d	-0.09845195
65	0xbdcbe397	-0.09955519
66	0x3dc0840a	0.094001845
67	0x3dc184ab	0.094491325
68	0xbd8a9fba	-0.06768747
69	0xbd5e8f7c	-0.054336056
70	0x3db3c4f9	0.08777804
71	0x3dc1a781	0.09455777
72	0x3d9b6138	0.075869024
73	0xbda4510e	-0.080232725
74	0xbdb0d4e3	-0.08634355
75	0x3dc919ad	0.098193504
76	0xbc5da0f5	-0.013527145
77	0xbdca1b6a	-0.0986851
78	0x3dc96233	0.09833183
79	0x3dca42b1	0.098760016
80	0xbcbb6329	-0.022874432
81	0xbdcce72f	-0.10005032
82	0x3c174970	0.009233817
83	0xbdcc00e4	-0.099611074
84	0xbdc771d5	-0.097385086
85	0x3dbe86ca	0.09303053
86	0x3dada16e	0.08478056
87	0xbdcb81bb	-0.099368535
88	0x3db92744	0.090406924
89	0x3daf644e	0.085640535
90	0xbdc23935	-0.094835676
91	0x3d83c428	0.06433898
92	0xbd8c63bf	-0.068549626
93	0xbdb7b162	-0.0896938
94	0x3d083de5	0.033262152
95	0x3d71744c	0.0589488
96	0xbd9c3fbe	-0.07629345
97	0xbdba9841	-0.091110714
98	0x3ce6acc9	0.028158562
99	0x3db6b7aa	0.0892175
100	0x3d8fd967	0.07023888
101	0xbd05301c	-0.032516584
102	0x3da599b0	0.08085954
103	0xbcdfb682	-0.027308706
104	0xbd6af08d	-0.057358313
105	0xbdb84374	-0.08997241
106	0xbdbcdf8d	-0.092223264
107	0xbdc47836	-0.09593241
108	0xbd008042	-0.031372316
109	0xbc98e1e4	-0.0186624
110	0xbdb3a5b0	-0.08771837
111	0x3cd33b00	0.02578497
112	0x3d6558c4	0.055992857
113	0xbd82b108	-0.06381422
114	0x3bed2d2a	0.00723805
115	0x3dc91946	0.09819274
116	0x3db8487d	0.08998201
117	0xbd7ba1da	-0.06143365
118	0x3dc7609a	0.09735222
119	0x3d7cac6c	0.06168787
120	0xbd88575c	-0.066572875
121	0x3dc5603b	0.09637495
122	0x3d86da69	0.06584627
123	0x3abc816f	0.0014381836
124	0x3db2902c	0.08718905
125	0xbdb77c72	-0.08959283
126	0x3d9ce31b	0.076605044
127	0x3dca77c6	0.09886126
128	0xbdaf99a0	-0.085742235
129	0xbc563f11	-0.01307656
130	0x3dcb07bd	0.09913585
131	0x3d935564	0.07194021
132	0xbdc00968	-0.09376794
133	0xbdbe4441	-0.09290362
134	0x3d4894a8	0.048969895
135	0xbd3b37f4	-0.045707658
136	0xbd8716c1	-0.06596137
137	0x3cf4e715	0.029895345
138	0x3dc14a0b	0.09437951
139	0x3d9c88c1	0.07643271
140	0xbd4ad497	-0.049519148
141	0x3dcc70d2	0.09982456
142	0x3dccb7ef	0.0999602
143	0xbd4641c7	-0.048402574
144	0x3d4bf95f	0.049798366
145	0xbda7a8f9	-0.08186526
146	0xbd539565	-0.051656146
147	0xbdb0f65c	-0.08640739
148	0x3d89b09c	0.06723139
149	0xbc118a20	-0.008883029
150	0xbdc263b0	-0.0949167
151	0xbd0e7405	-0.034778614
152	0xbd16cbf5	-0.036815602
153	0xbdc8cefa	-0.09805103
154	0x3d91ec44	0.07125142
155	0x3d0c9373	0.034320306
156	0xbd5b0daf	-0.053479847
157	0x3dca9b86	0.09892945
158	0x3dc16f0a	0.09445007
159	0xbdb66036	-0.089050695
160	0xbdaafe74	-0.08349314
161	0x3da60e95	0.0810825
162	0xbdc7d536	-0.09757464
163	0xbd9acca4	-0.07558563
164	0x3d5574dd	0.052113403
165	0xbdac3aa8	-0.08409625
166	0xbd93fc57	-0.072258644
167	0xbd3a5263	-0.045488726
168	0xbd512339	-0.05105898
169	0xbd0556be	-0.032553427
170	0xbdb4f5db	-0.08835956
171	0xbd04511c	-0.032303914
172	0x3c387ef1	0.011260734
173	0x3c31c7ac	0.010850828
174	0xbdc62371	-0.09674729
175	0xbdbd4246	-0.09241156
176	0xbb75523d	-0.003743305
177	0xbdc71ab5	-0.09721891
178	0xbdcaf3be	-0.099097714
179	0xbdacc6bc	-0.08436343
180	0xbdc544cf	-0.09632265
181	0xbd90ab1b	-0.07063886
182	0x3c9951e3	0.018715804
183	0xbca44f30	-0.02005729
184	0xbd1f48c1	-0.038887743
185	0xbcb4cd9a	-0.022070695
186	0x3d1ed9aa	0.0387818
187	0x3d98bd85	0.07458023
188	0xbac23906	-0.001481802
189	0xbdcbe0f4	-0.09955016
190	0xbdb5e585	-0.08881668
191	0xbc96e68c	-0.01842048
192	0xbccf00e1	-0.025268974
193	0x3cf69941	0.030102374
194	0xbdb48dbf	-0.088160984
195	0xbc7ae6a9	-0.015313783
196	0xbcc85367	-0.024453832
197	0xbdccd536	-0.10001604
198	0x3cfa8e0e	0.030585315
199	0xbd8fb4e1	-0.07016922
200	0xbd9bf463	-0.076149724
201	0x3dc21bb2	0.09477939
202	0x3dcae013	0.0990602
203	0xbc84c705	-0.016208181
204	0x3d39713e	0.04527401
205	0x3d98da2f	0.0746349
206	0xbcd5aa9e	-0.026082333
207	0xbd9b1c3d	-0.075737454
208	0x3cfdca13	0.030980146
209	0x3dcb3039	0.09921307
210	0x3d055c53	0.03255875
211	0x3da1e8df	0.07905745
212	0x3d980eb3	0.07424679
213	0x3cf417e6	0.029796552
214	0x3d9a67d9	0.075393386
215	0xba907c7a	-0.0011023425
216	0x3d0e4176	0.034730397
217	0x3dbeda88	0.09319025
218	0xbc84d7c6	-0.01621617
219	0x3d937b9c	0.07201311
220	0xbd014ec1	-0.031569246
221	0xbd2f6b79	-0.042827103
222	0xbd1e4ae6	-0.038645647
223	0xbd129979	-0.035790894
224	0x3cffde9b	0.031234076
225	0x3ca3e561	0.020006837
226	0xbdb2303c	-0.08700606
227	0xbdc7aa28	-0.097492516
228	0x3d3e837f	0.046512123
229	0x3db889ab	0.09010633
230	0xbd27f405	-0.0410042
231	0xbdbf7234	-0.093479544
232	0x3d1dc7ca	0.03852061
233	0x3c84529f	0.016152678
234	0xbd584e68	-0.05280915
235	0xbdcc0bdd	-0.099632
236	0xbdcafbcc	-0.09911308
237	0xbd183257	-0.037157383
238	0xbdc71dfd	-0.09722517
239	0xbdb2379f	-0.08702015
240	0xbda879a5	-0.08226327
241	0x3ced13bd	0.028940076
242	0x3c15ec31	0.009150551
243	0x3d9e741d	0.077369906
244	0x3d61ed0e	0.055157714
245	0xbd9e51d1	-0.07730449
246	0x3c0ecf8b	0.008716474
247	0x3d4e8d39	0.05042765
248	0x3d8a6667	0.06757813
249	0xbd20399b	-0.039117437
250	0x3c1ceb4e	0.009577585
251	0x3d506f10	0.050887167
252	0xbdc8eb19	-0.09810466
253	0x3c035857	0.008016667
254	0x3dcc1c4d	0.099663354
255	0xbdc9a1d8	-0.09845322

features.8.bias f4 [32]
0	0x3d960170	0.07324493
1	0x3f35745c	0.70880675
2	0x3effc989	0.49958447
3	0x3daf638b	0.08563908
4	0x3eb21f71	0.34789613
5	0xba2d7d2d	-0.0006618079
6	0x3e52474f	0.20535015
7	0x3f2491bf	0.6428489
8	0x3e092999	0.13394774
9	0x3f01f7d8	0.50768805
10	0xbc5b1ad2	-0.013373094
11	0x3f6edddd	0.93307287
12	0x3db84c76	0.08998959
13	0x3de2fab0	0.11082971
14	0x3e8f5de8	0.28001332
15	0x3eb3b2b2	0.3509727
16	0x3e147764	0.14498669
17	0x3ebb454e	0.36576313
18	0x3dca0a04	0.098651916
19	0x3f022733	0.50841063
20	0x3e5ddf8a	0.21667305
21	0x3f12669b	0.57187814
22	0x3f41aa9a	0.7565094
23	0x3ea2740a	0.31729156
24	0x3e9760fd	0.29566184
25	0x3e6142b0	0.21998096
26	0x3e3b5632	0.182946
27	0x3f005c63	0.5014097
28	0x3e1424ce	0.14467165
29	0x3dee03ae	0.116217956
30	0x3e0e366f	0.13887952
31	0x3e1a22dd	0.15052362

features.8.b_w f4 [8, 1]
0	0xc3000000	-128.0
1	0x42800000	64.0
2	0x42000000	32.0
3	0x41800000	16.0
4	0x41000000	8.0
5	0x40800000	4.0
6	0x40000000	2.0
7	0x3f800000	1.0

classifier.0.weight f4 [10, 2048]
0	0xbc3390d8	-0.010959826
1	0x3d51f42f	0.051258262
2	0x3d4c3f28	0.049864918
3	0x3d1b7736	0.037955485
4	0xbacf29db	-0.001580532
5	0xbc216502	-0.009850742
6	0x3c8901c6	0.016724478
7	0x3bc34f08	0.005960349
8	0x3d774fb0	0.06037873
9	0x3d68ccd6	0.05683597
10	0x3db40a51	0.0879103
11	0x3d72db1f	0.059291
12	0x3db034ad	0.08603797
13	0x3d5ed456	0.054401718
14	0xbb945c75	-0.0045276233
15	0xbc363316	-0.011120578
16	0x3d98abf1	0.0745467
17	0x3ce4f2e9	0.02794786
18	0x3d6c6976	0.057717763
19	0x3d2aca30	0.041696727
20	0x3d86eae6	0.06587772
21	0x3cda7776	0.026668292
22	0x3d185a9f	0.037195798
23	0xbcd421b9	-0.025894986
24	0x3d633a08	0.055475265
25	0x3cb401f3	0.021973586
26	0x3da8dc94	0.08245197
27	0x3d74d710	0.059775412
28	0x3d09e859	0.03366885
29	0x3d5926e2	0.053015597
30	0x3d4c638a	0.049899615
31	0xbce6560e	-0.028117206
32	0x3cffa2ce	0.031205561
33	0x3d2c2f99	0.04203758
34	0x3d0bc317	0.0341216
35	0x3d376c4b	0.04478101
36	0x3c392e19	0.011302494
37	0x3d1578a8	0.03649202
38	0x3c95970f	0.018260507
39	0xbc147bbd	-0.009062705
40	0xbd00bc52	-0.031429596
41	0xbbb9a741	-0.00566569
42	0x3b06bc72	0.00205591
43	0x3d418b3e	0.047251932
44	0x3d2ca769	0.042151842
45	0x3cb23411	0.021753343
46	0x3b86b48f	0.0041108797
47	0xbd657527	-0.05601993
48	0xbd8802e0	-0.06641173
49	0x3d34bd0d	0.044125605
50	0x3d0528dd	0.032509673
51	0x3d1e11aa	0.038591065
52	0x3d88e78a	0.066847876
53	0x3d38b874	0.045097783
54	0x3d00d686	0.031454585
55	0xbd4b8b09	-0.04969314
56	0xbdca1d65	-0.09868888
57	0xbd08cac4	-0.033396497
58	0xbcf6eccc	-0.03014221
59	0xbbe8c592	-0.0071036303
60	0x3c908fb6	0.017646652
61	0xbc1089f6	-0.008821955
62	0xbca83f20	-0.020537913
63	0xbdcaefd9	-0.099090286
64	0xbd023953	-0.03179295
65	0x3d02bb3f	0.031916853
66	0x38666bf1	5.49368e-05
67	0xbce1cf88	-0.027564779
68	0xbcdd41ee	-0.027008977
69	0xbd288b20	-0.041148305
70	0xbb0fe396	-0.002195572
71	0x3db94179	0.09045691
72	0x3d509d85	0.050931472
73	0xbc9041c8	-0.017609492
74	0xbd03b3c1	-0.03215385
75	0xbd16e605	-0.036840457
76	0xbd0263f4	-0.031833604
77	0xbda5f737	-0.08103793
78	0xbd814599	-0.06312103
79	0x3d3ce860	0.046120048
80	0x3d152955	0.03641637
81	0xbcf315ba	-0.029673446
82	0xbd6064c6	-0.054783605
83	0xbd1f2acc	-0.038859174
84	0xbd4fc241	-0.050722364
85	0xbd54f063	-0.051987063
86	0xbd6d0658	-0.057867378
87	0x3d8fe165	0.070254125
88	0xbc9c4c44	-0.019079335
89	0xbd68771d	-0.05675422
90	0xbd5f9a50	-0.054590523
91	0xbd873924	-0.066026956
92	0xbd6d84ae	-0.05798786
93	0xbdb04ba1	-0.08608175
94	0xbd7c4cdc	-0.061596736
95	0x3d388247	0.045046117
96	0xbd2b6ca9	-0.041851673
97	0xbd5112a4	-0.051043168
98	0xbd6765dc	-0.056493625
99	0xbd2fda33	-0.0429327
100	0xbd004c6f	-0.031322893
101	0xbdc39b45	-0.095511
102	0xbd797abd	-0.060908068
103	0x3b2c50d0	0.0026293285
104	0xbcb44404	-0.022005089
105	0xbd15b893	-0.036552977
106	0xbca907cb	-0.020633599
107	0xbcf78b23	-0.030217713
108	0xbd9784ab	-0.07398351
109	0xbdba64ec	-0.091012806
110	0xbd1d19c7	-0.03835466
111	0x3d16933e	0.036761515
112	0x3d0473da	0.032337047
113	0xbcd9e2e6	-0.026597451
114	0xbd22d3f2	-0.039752908
115	0x3c51c0a9	0.012802281
116	0xbb161918	-0.002290314
117	0xbd51dd72	-0.051236577
118	0xbc8057e6	-0.015666913
119	0x3d89493b	0.06703421
120	0x3d5c6cee	0.05381482
121	0xbd47852a	-0.04871098
122	0xbd6b8f4d	-0.05750971
123	0xbd465df8	-0.04842946
124	0xbc79484a	-0.015214989
125	0xbd2d14e0	-0.042256236
126	0xbc287af7	-0.010283223
127	0x3db94814	0.09046951
128	0x3ba9214f	0.0051614414
129	0xbda1c863	-0.07899549
130	0xbd93c92e	-0.07216106
131	0xbd83d4eb	-0.06437095
132	0xbda4196b	-0.080126606
133	0xbdb4c9b1	-0.08827532
134	0xbdc85250	-0.09781325
135	0xbca5cb52	-0.020238552
136	0xbd55884f	-0.052131947
137	0xbd819e5d	-0.063290335
138	0xbc922683	-0.01784063
139	0xbb3851d8	-0.0028124955
140	0x3c967570	0.018366545
141	0xbcdc7135	-0.02690945
142	0xbd6f91c1	-0.05848861
143	0xbda149bf	-0.07875394
144	0x3cd466d4	0.025927939
145	0x3ccab537	0.024744613
146	0x3d20b890	0.039238513
147	0xbcef44df	-0.029207645
148	0xbd31a277	-0.04336783
149	0x38ab4979	8.167601e-05
150	0xbd0e7727	-0.0347816
151	0xbdbf1380	-0.09329891
152	0x3cc1741a	0.023614932
153	0x3c142849	0.009042808
154	0x3c45b5ee	0.012067301
155	0x3c6b83a9	0.014374652
156	0x3d2c5859	0.042076442
157	0x3ba3870f	0.0049904655
158	0x3bdcd7cd	0.0067395926
159	0xbda9f681	-0.0829897
160	0x3cd8a82d	0.02644738
161	0x3d8d8e81	0.06911946
162	0x3c089359	0.008335912
163	0x3cbe799c	0.023251347
164	0x3d6a8632	0.057256885
165	0x3ba6ff43	0.0050963475
166	0x3d098f7b	0.0335841
167	0xbd9f1d3e	-0.077692494
168	0xbcee09e0	-0.029057443
169	0xbc23827b	-0.009979839
170	0x3c2eca3d	0.010668335
171	0x3d38b4f2	0.045094438
172	0x3d97b330	0.07407224
173	0xbbe9fc0f	-0.0071406434
174	0x3d4701f4	0.048585847
175	0xbd2060af	-0.039154705
176	0xbbd8a7f7	-0.00661182
177	0x3cbb4bb6	0.02286325
178	0x3db418b2	0.08793773
179	0x3d7f5b48	0.062342912
180	0x3d506a8d	0.050882865
181	0x3d339e44	0.043852106
182	0x3d5f3af0	0.054499567
183	0x3c2ce762	0.010553213
184	0x3d985615	0.07438294
185	0xbb8a3c0e	-0.004218585
186	0xbc231f90	-0.009956256
187	0x3b9d53ef	0.0048012654
188	0xb9fb0ae0	-0.00047882553
189	0x3c80c7a3	0.015720194
190	0xbc6e07df	-0.014528244
191	0x3dca6f2a	0.09884484
192	0x3c5996ac	0.013280552
193	0x3c9a4001	0.018829348
194	0x3d46da9a	0.04854832
195	0x3d48507b	0.048904877
196	0x3d0cde74	0.034391835
197	0xbcb66fc0	-0.022270083
198	0xbb9aaae0	-0.004720077
199	0x3d74630a	0.059664764
200	0x3d474b30	0.04865569
201	0x3bfcb6f1	0.007712238
202	0x3dc97670	0.09837043
203	0x3db2a1be	0.08722256
204	0x3d907b67	0.07054787
205	0x3d8bc57e	0.06824778
206	0xbc9dc2c3	-0.019257909
207	0x3c8d66a5	0.017260859
208	0x3ce0a2d1	0.027421387
209	0x3c2d2a91	0.010569231
210	0x3dcb7850	0.09935057
211	0x3db9b469	0.09067614
212	0x3d834dd9	0.06411333
213	0x3a7fdf88	0.0009760787
214	0xbd7847ae	-0.060615234
215	0x3ab14197	0.0013523576
216	0x3cca0c2a	0.024664003
217	0x39895f80	0.0002620183
218	0x3dc938eb	0.09825309
219	0x3db4c02a	0.08825715
220	0x3d722c32	0.05912418
221	0xbd89ab3d	-0.06722114
222	0xbd963826	-0.07334928
223	0xbcc4bd4b	-0.024016043
224	0x3d6f672e	0.05844801
225	0x3d5cf817	0.053947534
226	0x3d2afacb	0.04174308
227	0xbc461777	-0.012090555
228	0xbd33113c	-0.043717608
229	0xbdbefd50	-0.09325659
230	0xbccc294e	-0.02492204
231	0x3c3fd42f	0.011708303
232	0x3dbdfc92	0.092766896
233	0x3dc16165	0.09442405
234	0x3d5f8bf5	0.054576833
235	0x3bde4af5	0.006783838
236	0x3cd505be	0.026003715
237	0x3d13e8ce	0.03611069
238	0x3d04eb9c	0.032451257
239	0x3d3dd711	0.04634768
240	0x3d74ae73	0.05973668
241	0x3d781b6b	0.060573023
242	0xbc117cde	-0.008879868
243	0xbd318ce0	-0.04334724
244	0xbd62710a	-0.055283584
245	0xbbefa26f	-0.0073130648
246	0xbb67a4d1	-0.003534604
247	0xbcc575a7	-0.024103953
248	0xbac69d44	-0.001515307
249	0xbc9cedf4	-0.019156434
250	0xbd30d016	-0.043167196
251	0xbd238c21	-0.03992856
252	0xbcf9598f	-0.030438213
253	0xbd432b17	-0.047648516
254	0xbd0ff37c	-0.035144314
255	0x3c3aedc4	0.011409227

classifier.0.bias f4 [10]
0	0xbd9c395e	-0.076281294
1	0xbeb39809	-0.3507693
2	0xbdd11be5	-0.102103986
3	0xbb2db5be	-0.0026506032
4	0x3e9eaebf	0.30992696
5	0xbe13d404	-0.14436346
6	0x3ee24b74	0.4419819
7	0xbe87e081	-0.2653847
8	0x3e8a99a6	0.2707035
9	0xbddff4fc	-0.10935399

classifier.0.b_w f4 [8, 1]
0	0xc3000000	-128.0
1	0x42800000	64.0
2	0x42000000	32.0
3	0x41800000	16.0
4	0x41000000	8.0
5	0x40800000	4.0
6	0x40000000	2.0
7	0x3f800000	1.0

momentum_buffer f4 [32, 3, 3, 3]
0	0x3d20d6a9	0.039267216
1	0x3d20b582	0.0392356
2	0x3bd35a72	0.006449991
3	0x3d58bbae	0.05291336
4	0x3d88f9dc	0.06688282
5	0x3d2e9fb4	0.042632774
6	0x3d5b6018	0.05355844
7	0x3dbafd41	0.091303356
8	0x3d72bb5f	0.059260722
9	0x3cd003fa	0.025392521
10	0x3caa2bc7	0.020772828
11	0xbcbf1b3e	-0.02332842
12	0x3d2e650e	0.042576842
13	0x3d543a01	0.05181313
14	0x3caee250	0.021348149
15	0x3d32d42a	0.043659367
16	0x3da7d786	0.08195405
17	0x3d3a81d4	0.04553397
18	0x3d11643c	0.03549598
19	0x3c9195c0	0.017771602
20	0xbced72a6	-0.028985333
21	0x3d557b35	0.052119453
22	0x3d3549a4	0.044259682
23	0x3c5f2122	0.013618739
24	0x3d3b29e4	0.045694247
25	0x3d8cb514	0.068704754
26	0x3d207d4f	0.039182004
27	0xbd99aa1b	-0.07503148
28	0xbde22579	-0.110423036
29	0xbd1a7ed7	-0.03771862
30	0xbdc702ce	-0.09717332
31	0xbe040d98	-0.1289581
32	0xbd944782	-0.072402015
33	0xbe0d7a58	-0.13816202
34	0xbe29a92f	-0.16568445
35	0xbdd5c54a	-0.104380205
36	0xbdeef62d	-0.11668048
37	0xbe0624be	-0.13099954
38	0xbd58f66e	-0.05296939
39	0xbe0518bc	-0.12997717
40	0xbe102e0e	-0.14080068
41	0xbda48e59	-0.08034963
42	0xbe3b3e72	-0.1828554
43	0xbe3ef0e7	-0.18646584
44	0xbdf7787b	-0.12083527
45	0xbe204962	-0.15652993
46	0xbe2ad190	-0.16681504
47	0xbddf7845	-0.109116115
48	0xbe1f00d4	-0.1552766
49	0xbe2d3acf	-0.16916965
50	0xbe02b5dc	-0.12764686
51	0xbe4e2720	-0.20132113
52	0xbe58cb24	-0.21171242
53	0xbe256ea1	-0.16155483
54	0xbd3c1d49	-0.045926366
55	0xbd8e3afe	-0.069448456
56	0xbd80c42b	-0.06287416
57	0xbd2922d1	-0.04129297
58	0xbd9ef623	-0.077617906
59	0xbd91d8b9	-0.07121415
60	0xbd9ede32	-0.07757224
61	0xbdaae979	-0.083453126
62	0xbd7ff192	-0.06248624
63	0xbd4ede8c	-0.050505206
64	0xbd843556	-0.064554855
65	0xbd2c1d5c	-0.042020187
66	0xbcfbd446	-0.030740868
67	0xbd76eb09	-0.06028274
68	0xbd1c511e	-0.038163297
69	0xbd89fd90	-0.06737816
70	0xbd796cd0	-0.060894787
71	0xbcc500e5	-0.024048278
72	0xbda0706f	-0.07833945
73	0xbdddd12d	-0.10830913
74	0xbda6cfa1	-0.08145071
75	0xbd844f8d	-0.064604856
76	0xbdda00c2	-0.10644676
77	0xbda54256	-0.08069293
78	0xbdce71c2	-0.10080291
79	0xbdd8c024	-0.10583523
80	0xbd864123	-0.065553926
81	0x3d91f5ee	0.071269855
82	0x3d03db0b	0.032191318
83	0x3a3b51f0	0.00071456935
84	0x3d9b989c	0.07597467
85	0x3d2aa28b	0.04165892
86	0x3c777bfa	0.015105242
87	0x3d5a6a1d	0.053323854
88	0x3cf742c8	0.030183211
89	0x3c9c4e52	0.019080315
90	0x3d80a03d	0.06280563
91	0x3ca8add0	0.020590693
92	0xbc3b9c34	-0.011450816
93	0x3d6ea1b2	0.058259673
94	0x3cbfacbe	0.0233978
95	0xb9d3327e	-0.00040282676
96	0x3d07e674	0.03317876
97	0x3c38716a	0.011257509
98	0x3b9220b1	0.0044594635
99	0x3d7ec99d	0.062203992
100	0x3cdb4cc2	0.02677
101	0xbbb22ca6	-0.0054374514
102	0x3d52ff0d	0.051512767
103	0x3ca2a055	0.019851843
104	0xbbc2b9c1	-0.0059425537
105	0x3cdb275f	0.026752172
106	0x3b6e52ac	0.0036365194
107	0xbc20f309	-0.009823569
108	0x3d65fd02	0.05614949
109	0xbbb18368	-0.005417276
110	0xbd1f486f	-0.038887437
111	0x3d1d77a6	0.038444184
112	0xbca690ff	-0.020332811
113	0xbd5833bb	-0.05278371
114	0x3d42d672	0.047567792
115	0x3bb1ed64	0.0054299105
116	0xbd7eed74	-0.06223817
117	0x3ddc0001	0.10742188
118	0x3d2fe5b4	0.04294367
119	0x3c529bc2	0.012854518
120	0x3db17198	0.086642444
121	0x3cc2078a	0.023685236
122	0xbbb7eae7	-0.0056127193
123	0x3dc13b1f	0.094351046
124	0x3d5b2612	0.053503104
125	0xbc408522	-0.011750491
126	0x3e0bb2de	0.13642451
127	0x3da61e4d	0.08111248
128	0x3d3de980	0.04636526
129	0x3df00df8	0.11721414
130	0x3d7c8716	0.061652265
131	0x3d11d24f	0.035600957
132	0x3deb1dcb	0.11480292
133	0x3da431bb	0.08017298
134	0x3cfb6281	0.030686619
135	0x3d453c83	0.04815341
136	0x3d5cb614	0.05388458
137	0x3c80b8e1	0.015713157
138	0xbb1c7890	-0.0023875572
139	0x3c6df3b4	0.014523435
140	0xbc5bf810	-0.013425842
141	0x3bb8cb10	0.0056394413
142	0x3c88c18e	0.016693857
143	0xbd01c519	-0.031682108
144	0x3cc72af0	0.024312466
145	0x3d0959cb	0.0335329
146	0xbc036434	-0.008019496
147	0xbd14cca6	-0.03632798
148	0xbc6b55fa	-0.01436376
149	0xbd39a3c5	-0.0453222
150	0xbcf6ece1	-0.03014225
151	0xbbf7aae0	-0.0075582117
152	0xbd64c46a	-0.055851378
153	0x3d3b9210	0.045793593
154	0x3d3e20ea	0.046418108
155	0xbc28be7f	-0.010299324
156	0xbcb24d5b	-0.021765402
157	0xbc26083a	-0.010133797
158	0xbd4a5121	-0.049393777
159	0xbc9f5ab1	-0.019452425
160	0xbb979a04	-0.0046265144
161	0xbd6eb24a	-0.0582755
162	0xbd5bb496	-0.053639017
163	0x3c824e88	0.015906587
164	0x3d50c33d	0.050967444
165	0xbc9fce58	-0.019507572
166	0x3d8e9ecc	0.06963882
167	0x3dae894b	0.0852228
168	0xbd34429c	-0.044008836
169	0x3c97f708	0.01855041
170	0x3d88a065	0.06671218
171	0xbd860d6a	-0.06545527
172	0x3ca0ba8e	0.019620206
173	0x3d8aa0e4	0.06768969
174	0xbd144bcf	-0.03620511
175	0x3d906f63	0.07052495
176	0x3dc7754b	0.09739169
177	0xbdaac741	-0.08338786
178	0xbc224e38	-0.009906344
179	0x3d48cafa	0.0490217
180	0xbd1e4dae	-0.0386483
181	0x3d194941	0.037423376
182	0x3db967e2	0.09053017
183	0xbc296b06	-0.010340458
184	0x3db09790	0.08622658
185	0x3deddcf4	0.11614409
186	0xbd474ea0	-0.048658967
187	0x3c064dda	0.008197272
188	0x3d86cddb	0.065822326
189	0xbb9b10d8	-0.0047322325
190	0x3db03c15	0.0860521
191	0x3d555b1c	0.05208884
192	0xbcf63daa	-0.0300587
193	0x3d81c178	0.06335729
194	0x3d85beab	0.06530508
195	0x3ba8a233	0.005146289
196	0x3dada0ba	0.08477922
197	0x3db3ab7b	0.08772942
198	0xbbf64168	-0.0075151213
199	0x3daef1ca	0.08542211
200	0x3d43712d	0.047715355
201	0xbd0300dc	-0.03198324
202	0x3d7a1620	0.061056256
203	0x3d7a97de	0.061179988
204	0x3be6386c	0.007025769
205	0x3d9b0510	0.07569325
206	0x3d941add	0.07231686
207	0xbcbb8d3e	-0.022894498
208	0x3d148c2e	0.0362665
209	0xbbbd5759	-0.005778235
210	0xbd0b62e2	-0.03402985
211	0x3d1e69aa	0.038674988
212	0x3cfb19d2	0.03065196
213	0x3cb5e124	0.022202082
214	0x3d9242de	0.0714166
215	0x3d55217e	0.052033894
216	0xbda88efb	-0.08230396
217	0xbd8678da	-0.06566019
218	0xbd1c5c1c	-0.03817378
219	0xbda49083	-0.08035376
220	0xbd5e6512	-0.054295607
221	0xbcb97134	-0.022636987
222	0xbdf9eb86	-0.12203126
223	0xbdefa790	-0.11701882
224	0xbdad6204	-0.084659606
225	0xbd8c6c9c	-0.06856653
226	0xbd5d7071	-0.05406231
227	0xbcfec4a8	-0.031099632
228	0xbd914676	-0.070935175
229	0xbd3d6df1	-0.046247426
230	0xbc98fd38	-0.018675432
231	0xbe04a76c	-0.12954491
232	0xbe0047d0	-0.12527394
233	0xbdb21fc2	-0.086974636
234	0xbd3e9866	-0.046532057
235	0xbcf24a84	-0.029576547
236	0xb958b900	-0.00020668283
237	0xbd1c4519	-0.038151834
238	0xbc4a22e4	-0.01233742
239	0x3c70a106	0.0146868285
240	0xbdab727f	-0.08371448
241	0xbda555ad	-0.08072982
242	0xbd2aa500	-0.041661263
243	0xbe0d7d24	-0.13817269
244	0xbdb6e089	-0.089295454
245	0xbd877aa8	-0.06615192
246	0xbe19dda1	-0.15025951
247	0xbde7bb16	-0.11314981
248	0xbdc13899	-0.09434623
249	0xbe3e6e69	-0.18596806
250	0xbe1b0b59	-0.15141048
251	0xbe19a4c3	-0.15004258
252	0xbe087e1e	-0.1332936
253	0xbd89a240	-0.067204
254	0xbd4b945a	-0.049702026
255	0xbe13ea0b	-0.14444749

momentum_buffer f4 [32]
0	0x3c36851c	0.011140134
1	0xbc4b7d4c	-0.01242001
2	0x3dca98fe	0.09892462
3	0x3d250284	0.040285602
4	0x3ba7dad6	0.005122523
5	0x3d7d0d33	0.061780166
6	0x3db1c5dc	0.08680317
7	0x3dd3b22b	0.10336717
8	0x3e4344ac	0.19069165
9	0x3d56ea77	0.052469697
10	0x3c9fe617	0.019518895
11	0x3dbf86b0	0.093518615
12	0xbc8602ee	-0.016358819
13	0x3d5b78c5	0.05358197
14	0xbd79fb7b	-0.061030846
15	0x3e023198	0.12714231
16	0x3de17104	0.11007884
17	0x3e07bf8d	0.13256665
18	0xbda45cb7	-0.080254965
19	0xbc81a74c	-0.015826844
20	0x3d1df58a	0.038564242
21	0x3e6135e7	0.21993218
22	0x3dc63af1	0.09679211
23	0x3e07ede9	0.1327435
24	0x3d08fad8	0.03344235
25	0xbc9d80f6	-0.019226532
26	0xbad2cf40	-0.0016083494
27	0xbdb55012	-0.08853163
28	0x3d12a3b1	0.03580064
29	0xbd2c81d6	-0.04211601
30	0x3bf47430	0.0074601397
31	0x3e2b7a8b	0.16745965
