Securite/Model2/Save attaque/clipping_0.1_0.01/model_best.pth.tar (torch, 404714 bytes, 25 tensors)

features.0.weight f4 [32, 3, 3, 3]
0	0x3dccf707	0.10008054
1	0xbdc5dc1a	-0.09661122
2	0xbdc8308d	-0.09774885
3	0x3dcd0e7d	0.10012529
4	0xbdc484d8	-0.095956504
5	0x3dcc1220	0.099643946
6	0xbd96be2b	-0.073604904
7	0xbdc691eb	-0.096958004
8	0x3dcca9ce	0.09993325
9	0x3dccf604	0.10007861
10	0x3d3b81e1	0.04577816
11	0xbdc66d4b	-0.09688815
12	0x3dcd0576	0.10010807
13	0xbdc58326	-0.09644155
14	0x3dcbc855	0.0995032
15	0xbdc2bcdb	-0.095086776
16	0xbdc6fddd	-0.09716389
17	0x3dcc77f8	0.0998382
18	0x3dcbfd9b	0.09960481
19	0x3cd477ec	0.02593609
20	0xbdc95e12	-0.098323956
21	0x3dca9d0a	0.09893234
22	0xbdc76500	-0.09736061
23	0x3dc9a225	0.0984538
24	0xbd9d17bb	-0.07670542
25	0xbdc8309c	-0.097748965
26	0x3dca5c93	0.098809384
27	0xbdcb83cb	-0.09937247
28	0xbdcacdb2	-0.099025145
29	0x3dc62244	0.096745044
30	0xbdc3e77a	-0.09565635
31	0x3dc8babc	0.09801242
32	0xbdbed267	-0.09317475
33	0x3d3d064a	0.046148576
34	0x3dc836b6	0.0977606
35	0xbdc9fc71	-0.098626025
36	0xbdcb545f	-0.09928202
37	0xbd7f3f90	-0.062316477
38	0x3dc8d805	0.098068275
39	0x3dc7c4d4	0.09754339
40	0x3dcd0634	0.10010949
41	0xbd94f2ef	-0.072728984
42	0x3dc58132	0.09643783
43	0x3dcb7583	0.09934523
44	0xbdc5e78f	-0.09663307
45	0xbdcb35e8	-0.09922391
46	0xbdcc8dba	-0.0998797
47	0x3dca951c	0.098917216
48	0xbd08fed9	-0.033446167
49	0x3dcb34be	0.09922169
50	0xbd76dbab	-0.060268085
51	0x3d6595be	0.05605101
52	0x3dc6e629	0.09711868
53	0xbdc50e52	-0.09621872
54	0xbdc29e15	-0.09502808
55	0x3dbe9f60	0.09307742
56	0x3dc276ea	0.09495337
57	0x3dc3fc2a	0.09569581
58	0x3dcae76c	0.099074215
59	0x3dc83c04	0.09777072
60	0x3dc0c715	0.09412972
61	0x3dc93686	0.09824853
62	0x3dc4c446	0.09607749
63	0xbdcbaaed	-0.09944711
64	0xbdcb1ac3	-0.09917214
65	0xbdc97920	-0.09837556
66	0xbdcba699	-0.09943885
67	0xbdc8fb2f	-0.098135345
68	0xbdc4ae9d	-0.09603617
69	0xbdc634d6	-0.096780464
70	0xbdcc6ee7	-0.099820904
71	0xbdc9c2fc	-0.098516434
72	0x3db497bc	0.088180035
73	0x3d9f1042	0.07766773
74	0x3cfed81b	0.031108906
75	0x3dbb2db6	0.09139578
76	0x3dc81354	0.097693115
77	0xbdc6593d	-0.096849896
78	0x3dc023f7	0.0938186
79	0xbd9e2f3c	-0.07723853
80	0xbdb6f743	-0.0893388
81	0x3dc44e04	0.09585193
82	0x3dc66329	0.09686882
83	0x3dc59550	0.0964762
84	0x3dc3eefd	0.09567068
85	0xbdb90d0a	-0.0903569
86	0xbdc6427e	-0.09680651
87	0xbda5dc20	-0.08098626
88	0xbdc4f3d9	-0.09616823
89	0xbd299a23	-0.04140676
90	0x3dc65f3c	0.09686133
91	0x3dc8bbf2	0.09801473
92	0x3dc75972	0.09733857
93	0x3d8710cb	0.06595
94	0xbdcc9349	-0.0998903
95	0xbdcc0508	-0.09961897
96	0xbdca4382	-0.09876157
97	0xbdc93d09	-0.09826095
98	0xbd784404	-0.06061174
99	0x3dc81155	0.09768931
100	0x3dc93b99	0.098258205
101	0x3dc91667	0.09818726
102	0x3dc6860d	0.09693537
103	0xbdc6cad4	-0.09706655
104	0xbdc600b8	-0.09668106
105	0xbdc8a467	-0.09796982
106	0xbdca9e45	-0.09893469
107	0x3d867a56	0.065663025
108	0xbd8d0385	-0.06885437
109	0xbdc85c9e	-0.0978329
110	0xbdbfbb88	-0.093619406
111	0xbdcc5b46	-0.099783465
112	0xbdcc9783	-0.09989836
113	0xbdc532be	-0.09628819
114	0xbdc555c7	-0.09635501
115	0xbc37549f	-0.011189609
116	0xbd22225c	-0.03958355
117	0x3dc785ea	0.09742339
118	0x3dc26d78	0.09493536
119	0x3b06b6a5	0.0020555642
120	0xbdcc4e4c	-0.099758714
121	0xbd0753c1	-0.03303886
122	0x3d87975e	0.06620668
123	0xbdc743c5	-0.09729723
124	0x3dc6f7ac	0.097152084
125	0xbdab0e89	-0.08352382
126	0x3dc9101f	0.09817528
127	0x3dc7f0e9	0.09762747
128	0x3da6ffcf	0.0815426
129	0x3db1e297	0.08685797
130	0x3dc5df07	0.0966168
131	0x3dbb6c5c	0.09151527
132	0xbda8119b	-0.08206483
133	0x3dc7a389	0.09747989
134	0x3d7c4235	0.061586577
135	0xbdc4dedc	-0.096128196
136	0x3dbb3db9	0.09142632
137	0x3dc75ecc	0.09734878
138	0x3dccd224	0.10001019
139	0xbdc7ebf2	-0.097618
140	0x3dc858bb	0.09782549
141	0x3db6307e	0.08895968
142	0xbdca1e7e	-0.09869097
143	0x3dc36a9a	0.09541817
144	0xbdc75fe8	-0.097350895
145	0xbdc799fa	-0.097461656
146	0xbdc69569	-0.096964665
147	0x3dc0f87b	0.09422394
148	0xbdcb9f37	-0.09942477
149	0xbdcc792d	-0.0998405
150	0x3da1f068	0.07907182
151	0xbdcb150e	-0.09916125
152	0xbdc62dbc	-0.09676692
153	0x3db2a58c	0.08722982
154	0x3dc2106b	0.09475788
155	0x3dc6ec8c	0.097130865
156	0x3dccb778	0.099959314
157	0xbdc95508	-0.098306715
158	0xbd841ad7	-0.06450432
159	0x3dccc736	0.09998934
160	0xbdb06052	-0.08612122
161	0x3dc6107c	0.09671113
162	0xbcaf2a95	-0.02138261
163	0x3cc9b07e	0.02462029
164	0xbdccdf71	-0.100035556
165	0xbdc83188	-0.09775072
166	0x3dca0837	0.09864848
167	0x3c6374c7	0.013882822
168	0x3dba3fe3	0.09094217
169	0x3d9fb71c	0.07798597
170	0xbdcaaa24	-0.09895733
171	0xbdb7fd21	-0.089838274
172	0x3dc84697	0.09779089
173	0xbdac75eb	-0.084209286
174	0xbdcb6889	-0.09932048
175	0x3dc9f5b1	0.09861315
176	0x3dc9967f	0.09843158
177	0xbd60a7e0	-0.054847598
178	0x3dc9f2b9	0.09860749
179	0xbdc69515	-0.09696404
180	0xbd967454	-0.073464066
181	0x3dc2fe39	0.095211454
182	0x3c1dd4ec	0.009633284
183	0xbdccec80	-0.10006046
184	0x3dc64f67	0.096831135
185	0x3dc662b8	0.09686798
186	0xbdc22ca3	-0.0948117
187	0x3da533b4	0.08066502
188	0xbdc8c945	-0.09804014
189	0x3d1c83dc	0.03821169
190	0xbdccd82b	-0.10002168
191	0xbda809e4	-0.082050115
192	0xbdccbcd5	-0.09996954
193	0xbdccc821	-0.09999109
194	0xbd51c920	-0.0512172
195	0xbdc7d6a5	-0.09757737
196	0xbdc8b89b	-0.09800836
197	0x3dc90f41	0.098173626
198	0xbd4fca73	-0.05073018
199	0xbdccddcb	-0.10003241
200	0xbd900209	-0.07031638
201	0xbdccd16a	-0.1000088
202	0xbdccde1c	-0.100033015
203	0x3dbee7d2	0.0932156
204	0xbdc54470	-0.09632194
205	0x3dbcbbb4	0.09215489
206	0x3dc5902c	0.09646639
207	0xbd407fe6	-0.046996973
208	0xbdccf3d9	-0.10007448
209	0x3da5a9ec	0.08089051
210	0xbdb7d42b	-0.08976015
211	0xbdccf380	-0.100073814
212	0x3dbe476c	0.092909664
213	0x3dc35501	0.095376976
214	0x3dc8a38a	0.097968176
215	0x3dc9829e	0.098393664
216	0x3dc78548	0.09742218
217	0x3dbe3e83	0.09289267
218	0xbdca6fdf	-0.09884619
219	0x3dc984d8	0.09839791
220	0x3d94ee73	0.07272043
221	0xbdcbb8cd	-0.09947357
222	0x3dc8f3d8	0.098121345
223	0xbdc61deb	-0.09673675
224	0xbdcd0827	-0.100113206
225	0x3d90e6f6	0.07075302
226	0xbcc20b20	-0.023686945
227	0xbdccf4fa	-0.10007663
228	0x3dc67eee	0.09692179
229	0xbdcd08d8	-0.100114524
230	0xbdcd0926	-0.100115106
231	0xbdaad701	-0.0834179
232	0xbdccff49	-0.10009629
233	0xbdcd0e3b	-0.1001248
234	0x3d80426a	0.062626675
235	0x3dc3242e	0.09528385
236	0xbd3ad8a3	-0.045616757
237	0x3dc66ea8	0.09689075
238	0x3d872ee7	0.06600743
239	0xbdc16d16	-0.094446346
240	0xbda043f0	-0.07825458
241	0xbdc9ce27	-0.098537736
242	0xbdc86686	-0.0978518
243	0xbd0d9d7f	-0.034574028
244	0xbdc7b728	-0.09751731
245	0xbdc7e6cb	-0.09760817
246	0x3dc60f4e	0.09670888
247	0xbdc81fa1	-0.09771658
248	0x3dc76a17	0.09737032
249	0x3dc60445	0.09668783
250	0x3dc97ff2	0.09838857
251	0x3dab451d	0.08362792
252	0x3dcbb6e2	0.099469915
253	0xbdc4def7	-0.0961284
254	0xbd08c2a3	-0.033388745
255	0x3dc5d682	0.09660055

features.0.bias f4 [32]
0	0x3e68044b	0.22657888
1	0x3e5cb259	0.21552409
2	0x3d20e0f1	0.03927702
3	0xbe0cf7f8	-0.13766468
4	0x3c7af1d4	0.015316445
5	0x3e55edfb	0.20891564
6	0x3e5de3a7	0.21668874
7	0xbeb7b6c8	-0.3588164
8	0xbedabaed	-0.42720738
9	0x3e3ea82d	0.18618841
10	0xbe3454dd	-0.17610498
11	0x3e558084	0.20849806
12	0xbe02018b	-0.12695901
13	0x3dbf2878	0.09333891
14	0xbe93ef7e	-0.28893656
15	0x3e6f3e33	0.23363571
16	0x3e627469	0.2211472
17	0x3c96a813	0.01839069
18	0xbed73524	-0.4203273
19	0x3e6f3afc	0.23362345
20	0x3e7cee80	0.24700356
21	0x3e4804c3	0.19533066
22	0x3e6eeffc	0.23333734
23	0xbdd85f03	-0.10564997
24	0xbe735e74	-0.237665
25	0x3db6f864	0.089340955
26	0xbe3b0aa9	-0.18265785
27	0xbed279ce	-0.41108555
28	0x3e73148f	0.23738311
29	0xbe328169	-0.17432179
30	0x3e45716e	0.19281551
31	0x3e18897b	0.14896195

features.0.b_w f4 [8, 1]
0	0xc3000000	-128.0
1	0x42800000	64.0
2	0x42000000	32.0
3	0x41800000	16.0
4	0x41000000	8.0
5	0x40800000	4.0
6	0x40000000	2.0
7	0x3f800000	1.0

features.2.weight f4 [32, 32, 3, 3]
0	0xbc0d3f99	-0.00862112
1	0x3d50aab9	0.050944064
2	0xbdccdd7e	-0.10003184
3	0x3d3d0c16	0.046154104
4	0x3dc562bc	0.09637973
5	0xbdcca5e6	-0.0999258
6	0x3d88a63e	0.06672333
7	0x3dabcffe	0.08389281
8	0xbdcb5c62	-0.0992973
9	0x3d8a6ad8	0.0675866
10	0x3dc11c34	0.094292074
11	0xbd725183	-0.059159767
12	0xbc6fbd92	-0.014632599
13	0xbb8e86ea	-0.004349579
14	0xbcb899d2	-0.022534285
15	0x3bdf3b80	0.006812513
16	0x3c1c947c	0.009556886
17	0xbdc7d470	-0.09757316
18	0xbdcb4636	-0.09925501
19	0x3c372247	0.011177606
20	0x3dcc7c90	0.09984696
21	0xbdb365a9	-0.087596245
22	0x3d8a7af3	0.06761732
23	0x3dccd5ce	0.100017175
24	0xbd4cda59	-0.05001292
25	0x3d94cd75	0.0726575
26	0x3dccd4c7	0.100015216
27	0xbdbf5438	-0.09342235
28	0x3d0d0b82	0.034434803
29	0xbd9505db	-0.072765075
30	0x3d2a8106	0.041626953
31	0xbcb89798	-0.022533223
32	0xbdc7e954	-0.09761301
33	0x3c9fe113	0.019516503
34	0x3cb3d258	0.021950886
35	0xbdc12152	-0.094301835
36	0x3ca9f26e	0.020745482
37	0xbcf4a748	-0.029864922
38	0xbd3ce926	-0.046120785
39	0x3d5f8545	0.054570455
40	0xbd198ca4	-0.03748764
41	0xbd6a1f97	-0.057159033
42	0x3ba7464d	0.005104816
43	0x3c12b00c	0.008953106
44	0xbc9bd20c	-0.019021057
45	0xbcac89bc	-0.02106177
46	0x3dbd5f4e	0.092466936
47	0xbd43c946	-0.04779937
48	0xbc2f43e1	-0.010697336
49	0x3dbcbcd0	0.092157006
50	0xbd14d15f	-0.036332484
51	0x3cb2cd05	0.021826277
52	0x3dc7f421	0.09763361
53	0xbd66c902	-0.05634404
54	0x3d27b63c	0.040945277
55	0xbdc0a6bf	-0.09406804
56	0xbdc861e4	-0.09784296
57	0xbc8d254d	-0.0172297
58	0xbdabfa12	-0.083973065
59	0xbdc91b55	-0.09819666
60	0xbd27bf91	-0.040954176
61	0xbdac5c81	-0.08416081
62	0xbdcc05be	-0.09962033
63	0xbd2726ab	-0.04080836
64	0xbd66ed55	-0.05637868
65	0xbc097a12	-0.00839092
66	0xbdbbb9f2	-0.09166326
67	0xbd1480e6	-0.03625574
68	0x3d654811	0.05597693
69	0xbdbdbdc8	-0.092647135
70	0x3d002d86	0.031293415
71	0x3db02c31	0.08602179
72	0x3bf38a35	0.007432247
73	0xbd47441f	-0.04864895
74	0x3cd3143d	0.025766486
75	0x3d2204c2	0.03955532
76	0x3dbd0240	0.09228945
77	0xbcf7214c	-0.030167244
78	0x3dc4acd4	0.09603277
79	0x3dc784f3	0.09742155
80	0x3b0f4dca	0.0021866434
81	0xbd08b690	-0.03337723
82	0x3d6a430a	0.05719284
83	0x3b076841	0.0020661505
84	0xbc8982d0	-0.01678601
85	0x3d5c36a3	0.053763043
86	0xbb2dc168	-0.0026512984
87	0xbd1dccd5	-0.03852542
88	0xbcd77ba6	-0.026304077
89	0xbc959b8e	-0.01826265
90	0x3d5f8e74	0.054579213
91	0xbdcbe34c	-0.09955463
92	0xbdccc306	-0.09998135
93	0xbdb4e27f	-0.08832263
94	0xbdcc865a	-0.09986563
95	0xbdccc44c	-0.09998378
96	0xbda300cf	-0.079591386
97	0xbd9509ad	-0.07277236
98	0xbdccbeae	-0.09997307
99	0xbd2fab44	-0.04288794
100	0x3b8ddcb8	0.0043292902
101	0x3dc8038f	0.09766304
102	0xbd9bbebf	-0.07604741
103	0xbcb5f39d	-0.02221089
104	0x3db0ec84	0.08638862
105	0xbdc9e573	-0.09858217
106	0xbd495ef0	-0.049162805
107	0x3dcb1d6e	0.09917723
108	0xbd8362f8	-0.06415361
109	0xbd28549d	-0.04109632
110	0x3dc710fc	0.097200364
111	0xbdbc702f	-0.09201085
112	0xbdad4034	-0.084595114
113	0x3d818127	0.06323462
114	0xbdbdfd1e	-0.09276794
115	0xbbe9b714	-0.0071324203
116	0x3dccd40f	0.100013845
117	0x3dcccc3d	0.09999893
118	0x3c8674cc	0.016413115
119	0xbbdc3873	-0.0067205965
120	0x3d651ddd	0.055936683
121	0xbcc566ec	-0.024096929
122	0xbd7e8cd6	-0.06214603
123	0x3c1c6474	0.009545434
124	0xbc597e62	-0.013274761
125	0xbca4a7e3	-0.020099586
126	0x3d408dae	0.047010116
127	0xbd044332	-0.032290645
128	0xbd21f57d	-0.039540756
129	0xbc818b40	-0.01581347
130	0xbbbb356b	-0.005713155
131	0xbd55c91e	-0.052193753
132	0xbcefcdd6	-0.029272955
133	0xbcbf2ac3	-0.02333582
134	0xbd1d990f	-0.038476046
135	0xbd8e3b09	-0.06944854
136	0xbcf28f75	-0.029609421
137	0x3dccabbd	0.09993694
138	0xbcb41e60	-0.02198714
139	0x3dc7c2e7	0.097539715
140	0x3dcbb740	0.099470615
141	0xbd3e2846	-0.046425126
142	0x3d598176	0.05310198
143	0x3c4e7b8e	0.0126027
144	0xbcd9b35b	-0.026574781
145	0xbd8ed625	-0.069744386
146	0xbda9ce29	-0.08291275
147	0xbda5f5ff	-0.08103561
148	0xbdaa3177	-0.08310216
149	0xbda49b25	-0.08037404
150	0xbd33da0e	-0.043909125
151	0xbdc075b9	-0.09397454
152	0xbd984923	-0.07435825
153	0xbdb50f5b	-0.088408194
154	0xbd4c2e4b	-0.049848836
155	0x3bb75920	0.0055953413
156	0xbdc112ef	-0.094274394
157	0xbd55fcea	-0.05224315
158	0x3c2a8fd2	0.010410266
159	0xbdc42781	-0.09577847
160	0xbd902936	-0.0703911
161	0xba4de776	-0.000785462
162	0x3dc2afac	0.09506163
163	0x3d98310d	0.07431231
164	0xbdbf44ff	-0.09339332
165	0x3db01f33	0.08599701
166	0xbc108ede	-0.008823125
167	0xbdb9f78f	-0.09080421
168	0x3d85b9b7	0.06529563
169	0xbd561899	-0.052269552
170	0xbdbca0f4	-0.09210387
171	0x3d8bb3cd	0.06821404
172	0xbd3fd504	-0.046834007
173	0xbd9bc8aa	-0.07606633
174	0xbd1df028	-0.03855911
175	0xbdb79515	-0.08963982
176	0xbdb94870	-0.090470195
177	0xbd23746b	-0.039905947
178	0xbdca2ecd	-0.09872208
179	0xbd7a59c2	-0.061120756
180	0x3dc014ed	0.09378991
181	0x3db73a5c	0.08946678
182	0x3cf8a32b	0.030351242
183	0x3da39246	0.07986884
184	0x3db00d10	0.085962415
185	0xbc0743db	-0.008255924
186	0xbab54369	-0.0013829294
187	0x3dc641e8	0.09680539
188	0xbd5e2081	-0.054230217
189	0x3cdfeae2	0.02733368
190	0x3dc31f28	0.09527427
191	0x3dc64311	0.09680761
192	0x3cd6574b	0.026164671
193	0x3dc31534	0.095255286
194	0x3dca48ed	0.09877191
195	0xbc55df81	-0.013053776
196	0x3d9940fd	0.07483099
197	0x3d180dba	0.037122466
198	0x3dc05ddd	0.09392903
199	0x3d81e4c7	0.06342464
200	0xbd38da7e	-0.045130245
201	0xbb31b09f	-0.002711333
202	0xbcd60e35	-0.026129821
203	0xbcf665bd	-0.03007781
204	0xbd94a4c3	-0.07257988
205	0xb497e188	-2.8290037e-07
206	0xbc5bfdbc	-0.013427194
207	0xbd0bdae6	-0.034144305
208	0xbd083e8f	-0.033262786
209	0xbc9eab47	-0.01936878
210	0x3dab3b4e	0.08360921
211	0x3d254fc7	0.040359285
212	0xbd9be423	-0.07611873
213	0x3dbe44dd	0.092904784
214	0xbccddb67	-0.025129033
215	0xbd335db6	-0.04379054
216	0xbdc77aad	-0.097401954
217	0xb9b8ae11	-0.00035224904
218	0x3dccd8f7	0.1000232
219	0xbdbccd1a	-0.092188075
220	0xbaae3f1e	-0.0013293957
221	0x3dccdc19	0.10002918
222	0xbdbb85a0	-0.09156346
223	0x3d980b82	0.0742407
224	0x3dccd19d	0.10000918
225	0xbdb266de	-0.087110266
226	0xbda93e92	-0.082638875
227	0xbda00e6b	-0.0781525
228	0xbdb260b2	-0.087098494
229	0xbdac9b6e	-0.08428083
230	0xbdb3bed3	-0.08776631
231	0xbd81e556	-0.063425705
232	0xbd49baad	-0.049250294
233	0xbdc879ed	-0.097888805
234	0x3da19a88	0.078908026
235	0x3c818504	0.015810497
236	0xbdcc5c22	-0.099785104
237	0x3d9c98ea	0.076463535
238	0xbdbde688	-0.09272486
239	0xbdcc624c	-0.09979686
240	0xbb5c0aa9	-0.003357569
241	0xbd7df2bb	-0.061999064
242	0xbdc587b3	-0.09645023
243	0x3d91d6b1	0.07121027
244	0xbd262840	-0.04056573
245	0xbd0a5b56	-0.03377851
246	0x3d2c9b59	0.04214034
247	0xbcf3ead0	-0.029775053
248	0xbccae11e	-0.024765547
249	0x3d0a29ad	0.03373115
250	0x3cb19f7e	0.021682497
251	0xbd200267	-0.03906479
252	0x3d89e19e	0.06732486
253	0xbd156d4c	-0.036481187
254	0xbdc7a063	-0.09747388
255	0x3ba0ba99	0.0049050567

features.2.bias f4 [32]
0	0x3cae1a01	0.021252634
1	0xbe2e6484	-0.17030531
2	0x3d7f59ef	0.062341627
3	0x3c81f4d1	0.015863808
4	0x3e2c8fee	0.1685178
5	0x3df649b5	0.12025777
6	0xbe14aea8	-0.14519751
7	0xbd89feca	-0.0673805
8	0xbcc864ab	-0.024462065
9	0xbb7794e5	-0.0037777957
10	0x3e867fb0	0.26269293
11	0x3ac068b3	0.001467964
12	0x3e501708	0.20321286
13	0x3dfaee84	0.122525245
14	0xbc29e0a2	-0.010368498
15	0xbdcb047e	-0.09912966
16	0xbcce2ee8	-0.025168851
17	0x3e2fd462	0.17170861
18	0x3eeed5f0	0.46647596
19	0x3d374b22	0.044749387
20	0x3ddb3909	0.10704238
21	0x3bbf1556	0.005831401
22	0x3e505108	0.20343411
23	0xbdf3599e	-0.118823275
24	0xbcadfa85	-0.021237621
25	0x3e6ea6e1	0.23305847
26	0xbe9f2557	-0.31083176
27	0x3cbaaf54	0.022788681
28	0xbd19ba09	-0.037530933
29	0xbde5fe03	-0.112300895
30	0x3eca2c06	0.39486712
31	0x3da7e7ff	0.081985466

features.2.b_w f4 [8, 1]
0	0xc3000000	-128.0
1	0x42800000	64.0
2	0x42000000	32.0
3	0x41800000	16.0
4	0x41000000	8.0
5	0x40800000	4.0
6	0x40000000	2.0
7	0x3f800000	1.0

features.6.weight f4 [32, 32, 3, 3]
0	0x3da3ffe9	0.08007795
1	0x3d4054d8	0.046955913
2	0xbd2d7bff	-0.04235458
3	0x3dacbc7e	0.084343895
4	0x3d0f8331	0.035037223
5	0x3c3e12e8	0.011601187
6	0x3d1bf366	0.03807392
7	0xbd7e9b63	-0.062159907
8	0x3c9cac24	0.019125052
9	0xbca83990	-0.02053526
10	0x3cdfb4ca	0.027307887
11	0x3d7cd64b	0.061727803
12	0xbdaef7f5	-0.08543388
13	0xbd850f9f	-0.0649712
14	0xbd29ddeb	-0.041471403
15	0x3ccd5cbc	0.025068633
16	0x3b697b00	0.0035626292
17	0x3d26364d	0.04057913
18	0xbda9d2d5	-0.08292166
19	0xbda7b03f	-0.08187913
20	0xbdaa4c91	-0.08315385
21	0xbda17a87	-0.07884698
22	0xbd5e2701	-0.054236416
23	0xbd391400	-0.04518509
24	0x3d1c0a20	0.038095593
25	0x3d67fe34	0.05663891
26	0x3dad5d06	0.084650084
27	0xbdc84f64	-0.097807676
28	0xbdc0af4e	-0.09408437
29	0xbdb3b5bb	-0.08774897
30	0xbdc469cc	-0.09590492
31	0xbdc78ca5	-0.09743623
32	0xbdcae140	-0.09906244
33	0x3dc91b00	0.09819603
34	0x3dc9b25e	0.09848474
35	0x3dca5fb1	0.09881533
36	0x3be80bf0	0.007081501
37	0xbc4b5e26	-0.012412583
38	0xbcf97915	-0.030453244
39	0xbd6e5665	-0.05818786
40	0xbc5da8c3	-0.013529005
41	0x3d2d1e98	0.042265505
42	0x3c858e43	0.016303187
43	0x3d7313bb	0.05934499
44	0xbcc68e94	-0.024237908
45	0x3d22cd9e	0.039746873
46	0xbdbb4a01	-0.091449745
47	0xbd051351	-0.032489125
48	0xbc259ce9	-0.010108211
49	0xbdcb91ad	-0.09939895
50	0xbc590245	-0.01324517
51	0xb9819624	-0.0002471666
52	0xbd876e07	-0.06612783
53	0x3d9aebcc	0.07564506
54	0xbdc355d8	-0.09537858
55	0xbd4575f9	-0.04820821
56	0xbd7bcc3b	-0.061474066
57	0xbd515fc2	-0.051116712
58	0x3af2b855	0.001851807
59	0xbd1c7536	-0.03819772
60	0x3db2f4d9	0.08738107
61	0x3db206ac	0.08692679
62	0x3d8af74a	0.06785448
63	0xbdbea29e	-0.093083605
64	0xbc74aae2	-0.01493332
65	0xbd04f524	-0.032460347
66	0xbd180a7e	-0.03711938
67	0xbcb7f16e	-0.02245399
68	0x3d831165	0.06399802
69	0x3da0cc31	0.078514464
70	0x3d9ce43d	0.076607205
71	0x3dc7bbd7	0.097526245
72	0x3d0f5d30	0.03500098
73	0xbd92b78a	-0.071639135
74	0x3d65fef5	0.05615135
75	0x3ce5ac70	0.028036326
76	0xbdb3b1b7	-0.08774131
77	0xbd0140d0	-0.03155595
78	0xbb8ea9af	-0.004353724
79	0xbd99357a	-0.07480903
80	0x3db09859	0.08622808
81	0x3d86643c	0.06562087
82	0xbc9660cf	-0.018356709
83	0x3d0d1f6e	0.0344538
84	0x3d7dd549	0.061970983
85	0xbc6df896	-0.0145246
86	0xbce6e4e0	-0.028185308
87	0xbb89595d	-0.004191561
88	0xbd90548a	-0.070473745
89	0xbd06bba4	-0.03289379
90	0x3d410d5f	0.047131892
91	0xbda51d82	-0.08062269
92	0xbcb8ee09	-0.022574442
93	0x3aa821e4	0.0012827483
94	0xbda8928c	-0.082310766
95	0x3c0b44e4	0.0085003115
96	0xbc9bf179	-0.019036042
97	0xbd1dd5ad	-0.038533855
98	0x3cc76a2b	0.024342617
99	0xbdc6ba5c	-0.09703514
100	0xbd8162c7	-0.063176684
101	0x3dbc38a6	0.09190492
102	0xbdc9fc90	-0.098626256
103	0xbdc91237	-0.09817927
104	0x3daacd50	0.083399415
105	0xbdc83fcb	-0.097777925
106	0xbd99dbe2	-0.075126424
107	0x3d9f3a5a	0.077748016
108	0x3bfbbe61	0.007682607
109	0xbd02d13e	-0.03193783
110	0x3d66a859	0.056312893
111	0xbd44f14a	-0.048081674
112	0xbdb8efa0	-0.0903008
113	0xbbd09dfb	-0.006366489
114	0xbdbddefd	-0.09271047
115	0xbdbe6f1c	-0.09298536
116	0x3d9203f0	0.07129657
117	0x3d0fb7a9	0.03508726
118	0xbd85a819	-0.06526203
119	0xbc8d3ea7	-0.017241789
120	0xbd9d90be	-0.07693623
121	0xbdbfcb13	-0.09364905
122	0xbd9e5816	-0.07731645
123	0x3d0eb1b9	0.03483746
124	0x3d97232f	0.073797576
125	0x3d5b2a18	0.05350694
126	0xbdba4e0e	-0.09096919
127	0xbdb96c73	-0.09053888
128	0xbdbcce7d	-0.09219072
129	0xbdcc9b38	-0.09990543
130	0xbdcb8484	-0.09937385
131	0x3cea5ad2	0.02860776
132	0x3d846845	0.064652
133	0x3d864425	0.06555966
134	0x3db62a3b	0.088947736
135	0xbdb786fd	-0.08961294
136	0xbdbc80db	-0.09204265
137	0x3b518b8c	0.0031974046
138	0xbdca5d35	-0.09881059
139	0x3ce95d5c	0.0284869
140	0x3d9849ae	0.07435928
141	0x3bc17731	0.0059041013
142	0x3dc3e9bf	0.09566068
143	0x3da1fc96	0.07909505
144	0xbc518371	-0.012787686
145	0x3d0b0721	0.033942346
146	0xbd8e4665	-0.069470204
147	0x3d892486	0.066964194
148	0x3d85724e	0.065159425
149	0x3d2b286b	0.041786592
150	0xbdbdfc7b	-0.092766725
151	0xbdcc81c8	-0.09985691
152	0xbdcc917b	-0.09988686
153	0xbd9cfc32	-0.0766529
154	0xbdc34794	-0.09535137
155	0x3cd600d5	0.026123444
156	0xbd9e5bb5	-0.077323355
157	0xbd9d3b89	-0.07677371
158	0x3d369a99	0.04458103
159	0xbd553bdf	-0.05205905
160	0x3c57ff2b	0.013183395
161	0x3dc5e9bd	0.09663723
162	0x3dbc1d2f	0.09185254
163	0x3dbf5214	0.09341827
164	0xbd890c18	-0.0669176
165	0x3d9a2a44	0.07527593
166	0x3bc4b290	0.0060027316
167	0xbdb0e471	-0.08637322
168	0x3dc8d43b	0.09806105
169	0x3d75bc33	0.059993934
170	0xbd8249d9	-0.063617416
171	0x3da06475	0.07831661
172	0xbd9c0525	-0.07618169
173	0xbd48e296	-0.049044214
174	0xbd1fd8e7	-0.039025214
175	0xbd9ded99	-0.07711334
176	0x389788d6	7.225729e-05
177	0xbda43c68	-0.08019334
178	0xbdc8c1a3	-0.09802558
179	0xbc9a485d	-0.018833334
180	0x3db4dd1b	0.08831235
181	0x3d398a98	0.04529819
182	0x3db639a6	0.08897714
183	0x3dbeebee	0.09322344
184	0xbd8e57b9	-0.069503255
185	0xbd3e73b7	-0.046497073
186	0x3dc4e1ee	0.09613405
187	0x3c261526	0.010136878
188	0xbc971d1c	-0.018446498
189	0x3cf9c591	0.030489715
190	0xbd6795b0	-0.056539237
191	0x3d394b78	0.04523799
192	0x3ab0f214	0.0013499879
193	0xbdb938ff	-0.09044074
194	0x3c403b36	0.011732867
195	0x3c10ef4b	0.008846114
196	0xbd96ade4	-0.07357386
197	0x3cf7be9b	0.030242255
198	0xbdc71ed4	-0.09722677
199	0xbd9ef8a6	-0.0776227
200	0x3dadca78	0.084858835
201	0xbdc6c923	-0.097063325
202	0xbd974309	-0.07385833
203	0x3d57aadb	0.052653175
204	0xbdc8c0d5	-0.09802405
205	0xb5d8dce0	-1.6157537e-06
206	0x3d9fe097	0.07806509
207	0xbd7d5ae3	-0.061854254
208	0xbdc600f2	-0.09668149
209	0xbc30b270	-0.01078473
210	0xbd64f06a	-0.05589334
211	0xbdc73de1	-0.09728599
212	0xbd9f8090	-0.07788193
213	0x3d5f8763	0.054572474
214	0x3d820e23	0.063503526
215	0x3dc9e4d8	0.098581016
216	0xbda4fde1	-0.08056236
217	0x3bb24702	0.0054405937
218	0xbcf82683	-0.030291801
219	0xbdc41ff9	-0.09576411
220	0xbda96a63	-0.08272245
221	0xbdc898a5	-0.0979474
222	0x3da44444	0.08020833
223	0x3d3a8ea2	0.04554618
224	0x3d4f4405	0.050601978
225	0xbdcbe8ab	-0.09956487
226	0xbdaa4354	-0.08313623
227	0xba783255	-0.0009467949
228	0xbdcc22e8	-0.09967595
229	0xbd1bcd1b	-0.0380374
230	0x3d9921b8	0.074771345
231	0xbd889408	-0.0666886
232	0x3d78fd84	0.060788646
233	0x3dbb4fff	0.091461174
234	0xbdb4b4ae	-0.088235244
235	0xbdaadd0b	-0.08342942
236	0xbd9219fd	-0.07133863
237	0xbcc2aa25	-0.023762772
238	0x3cf302b6	0.029664379
239	0x3d5c25e0	0.053747058
240	0x3d3ef20d	0.046617556
241	0x3dbbf5e0	0.09177756
242	0x3d996665	0.07490233
243	0xbdc8dd30	-0.09807813
244	0xbdbee43f	-0.09320878
245	0x3cb16976	0.021656733
246	0xbdb98233	-0.09058037
247	0xbda46b7c	-0.080283135
248	0x3dc9e0f5	0.0985736
249	0x3cf9eef3	0.030509448
250	0x3dadcb50	0.084860444
251	0x3dc34b0e	0.095358
252	0xbbb5a6f4	-0.005543584
253	0xbd84a9f0	-0.064777255
254	0x3d454569	0.048161898
255	0xbd2e7aee	-0.042597704

features.6.bias f4 [32]
0	0x3e88acca	0.26694328
1	0x3e967ec3	0.29393587
2	0x3eca14c5	0.3946897
3	0x3ee5003a	0.44726735
4	0x3de1acd3	0.11019292
5	0x3eee0881	0.46490863
6	0x3dafe455	0.08588473
7	0x3e024535	0.12721713
8	0x3e12cdd5	0.14336331
9	0xbd97a085	-0.074036635
10	0xbedc24b5	-0.42996755
11	0x3e7b6fdb	0.24554388
12	0x3f264941	0.64955527
13	0xbe823520	-0.25431156
14	0x3eefd7af	0.4684424
15	0x3f0a94ad	0.5413311
16	0x3f0f2cd1	0.5592776
17	0x3f6241b0	0.8838148
18	0x3e19cc20	0.15019274
19	0x3e6af543	0.22945122
20	0x3e1835bf	0.14864253
21	0xbe2f043f	-0.17091464
22	0x3e1138f9	0.1418189
23	0x3eae8e29	0.34092835
24	0xbe88518f	-0.26624724
25	0x3e042c21	0.12907459
26	0x3e8e6692	0.2781263
27	0x3e7ce3ed	0.24696322
28	0x3df7bbb2	0.12096347
29	0x3eb37390	0.35049105
30	0x3e955fae	0.2917456
31	0xbe23fb2d	-0.16013785

features.6.b_w f4 [8, 1]
0	0xc3000000	-128.0
1	0x42800000	64.0
2	0x42000000	32.0
3	0x41800000	16.0
4	0x41000000	8.0
5	0x40800000	4.0
6	0x40000000	2.0
7	0x3f800000	1.0

features.8.weight f4 [32, 32, 3, 3]
0	0xbd06b4d0	-0.03288728
1	0xbb4af86f	-0.0030970832
2	0x3d324649	0.04352406
3	0x3d50feb6	0.05102416
4	0x3d998cc3	0.07497551
5	0x3c333f01	0.010940314
6	0x3cda78bd	0.0266689
7	0x3d699f1e	0.05703651
8	0xbcfaeb9b	-0.030629924
9	0xbd931da8	-0.07183391
10	0xbd0ae11c	-0.033906087
11	0xbdc83671	-0.09776009
12	0xbd984108	-0.07434279
13	0x3d1061cd	0.03524952
14	0xbd83e031	-0.064392455
15	0xbda72ebc	-0.08163211
16	0x3bb96815	0.0056581595
17	0xbd986ea3	-0.07442977
18	0x3dc5e156	0.0966212
19	0x3dc07c2b	0.09398683
20	0x3dc2db13	0.09514441
21	0x3dab96b5	0.083783545
22	0x3dc65f14	0.096861035
23	0xbb8715f1	-0.0041224887
24	0x3d3d64cf	0.046238717
25	0x3dae6527	0.08515387
26	0xbd8f1799	-0.06986923
27	0xbdac1b01	-0.08403588
28	0xbdab9acf	-0.08379137
29	0xbd65b7bc	-0.056083426
30	0xbc2e7bbf	-0.010649621
31	0x3c4a7cc0	0.012358844
32	0x3d23a407	0.03995135
33	0x3dc2f854	0.09520021
34	0x3db39512	0.08768667
35	0x3d86e5ae	0.06586777
36	0xbd0a056b	-0.033696573
37	0xbd110cdf	-0.035412665
38	0xbd5d75c9	-0.054067407
39	0xbd82b935	-0.06382982
40	0x3d82dc2e	0.06389652
41	0x3cb716ab	0.022349676
42	0xbd4c149b	-0.04982434
43	0xbcbeacf4	-0.02327583
44	0xbcf8e47a	-0.030382384
45	0x3a2d0cad	0.0006601315
46	0xbc068b6e	-0.008211954
47	0xbd73f919	-0.05956373
48	0x3d1e7414	0.03868492
49	0x3d9020e8	0.07037526
50	0x3d469652	0.0484832
51	0x3dc0ea3b	0.09419676
52	0x3dc4d5c5	0.09611086
53	0x3db8af37	0.090177946
54	0xbdca9194	-0.09891048
55	0xbda7ef0e	-0.08199893
56	0xbd8a6b6c	-0.0675877
57	0xbbfe0751	-0.007752337
58	0x3c00b040	0.007854521
59	0xbd89bb7d	-0.06725214
60	0xbdc7588d	-0.097336866
61	0xbd4b5fb3	-0.049651813
62	0xbd444d68	-0.047925383
63	0x3d161253	0.03663857
64	0x3d2cfa37	0.04223081
65	0xbdab29fc	-0.08357617
66	0xbbdedbe4	-0.0068011153
67	0xbd667d09	-0.056271587
68	0xbd698f08	-0.05702117
69	0x3c0101f3	0.007874
70	0x3dbb0f8f	0.09133827
71	0x3db06fd3	0.08615079
72	0xbdcc5dc3	-0.09978821
73	0xbd63a3cd	-0.055576134
74	0xbcdede11	-0.027205499
75	0xbcc5067d	-0.024050945
76	0x3cc45248	0.023965016
77	0x3d9820b0	0.0742811
78	0xbc572b82	-0.013132932
79	0xbcfb75cf	-0.030695824
80	0xbdc490af	-0.09597909
81	0x3d9d12b2	0.076695815
82	0x3d0e0184	0.034669414
83	0x3ce65413	0.028116262
84	0x3dc9bd4f	0.09850561
85	0x3d198138	0.03747675
86	0xbd996f2b	-0.07491907
87	0x3d9b4b70	0.07582748
88	0xbd9691c9	-0.07352025
89	0xbce7a032	-0.02827463
90	0xbd65e82a	-0.056129612
91	0xbc8db756	-0.017299335
92	0x3c98ecd9	0.018667625
93	0xbd343d78	-0.044003934
94	0xbd89b988	-0.067248404
95	0xbc92547c	-0.01786255
96	0xbd018289	-0.03161863
97	0x3ce08c76	0.027410727
98	0x3b73003b	0.0037078995
99	0xbdab3929	-0.08360512
100	0xbd81c1aa	-0.063357666
101	0x3cd9d6ba	0.026591647
102	0xbda28d5e	-0.0793712
103	0x3c9a671b	0.018847993
104	0x3dcaac74	0.09896174
105	0xbd052adb	-0.032511573
106	0x3d037e4d	0.03210287
107	0x3daf5dfe	0.085628495
108	0xbd6b2e91	-0.057417456
109	0xbdb1f03d	-0.086884
110	0xbdcbd4d4	-0.09952703
111	0xbd255ec8	-0.040373594
112	0xbd8e4268	-0.0694626
113	0xbdca2545	-0.0987039
114	0xbd8a44f8	-0.06751436
115	0x3d1afa9c	0.037836656
116	0xbd9eb714	-0.07749763
117	0xbc15ad55	-0.009135564
118	0xbb2dd43f	-0.0026524214
119	0xbd52b632	-0.051443286
120	0xbcf14672	-0.029452536
121	0xbcc6fa6c	-0.024289332
122	0xbd7e155c	-0.06203209
123	0xbd85d5b5	-0.06534902
124	0xbdaf5f51	-0.08563102
125	0x3ba9dcde	0.0051838
126	0xbc76d45c	-0.015065279
127	0xbc08a1db	-0.008339371
128	0xbc9b7d85	-0.01898075
129	0xbb8a0289	-0.004211728
130	0x3da2cf76	0.07949726
131	0xbd1c71c1	-0.03819442
132	0x3d3eeb25	0.04661097
133	0x3b2c0ec3	0.0026253916
134	0x3a8d16ec	0.0010764278
135	0x3dbea264	0.09308317
136	0xbc5031f8	-0.012707226
137	0xbdca6234	-0.09882012
138	0x3d584c7e	0.052807324
139	0xbd77e0f5	-0.06051727
140	0xbd717dcc	-0.05895786
141	0xbda14ef7	-0.078763895
142	0xbc8bcb13	-0.017064607
143	0x3d4235c9	0.047414575
144	0xbdbd61c8	-0.09247166
145	0x3cbce602	0.023058895
146	0x3c0283d0	0.007965997
147	0xbdb1e392	-0.08685984
148	0x3d99e96f	0.07515227
149	0x3d45a0b3	0.048248958
150	0x3da608f5	0.08107177
151	0x3d37b243	0.044847738
152	0x3d97188e	0.0737773
153	0x3dc2e8e4	0.095170766
154	0x3db51855	0.088425316
155	0xbc8c47cc	-0.01712408
156	0x3db03f8f	0.08605873
157	0x3d9c8ff6	0.07644646
158	0xbdc7cb1c	-0.09755537
159	0x3da20b13	0.079122685
160	0xbcb3a20a	-0.021927852
161	0xbdc737bd	-0.09727428
162	0x3c24d014	0.010059375
163	0xbdcb83a4	-0.09937218
164	0xbdcade8d	-0.099057294
165	0x3a02ad43	0.00049849245
166	0xbd4031a3	-0.046922337
167	0xbd9a03a3	-0.07520225
168	0xbd0aa521	-0.033848885
169	0xbd8a0311	-0.06738866
170	0xbdcc5c9c	-0.09978601
171	0xbc858ba7	-0.016301943
172	0x3d08d419	0.033405397
173	0xbd4039f3	-0.046930265
174	0x3a9d1ee2	0.0011987353
175	0xbc21f549	-0.009885141
176	0xbcc7aa05	-0.024373064
177	0xbdcc4f03	-0.09976008
178	0xbdba0813	-0.09083571
179	0xbd8dc04f	-0.069214456
180	0xbd982067	-0.07428055
181	0xbdc7cdd2	-0.09756054
182	0xbd6979f6	-0.057001077
183	0xbd898932	-0.06715621
184	0xbdc8515d	-0.09781144
185	0xbceb0369	-0.02868815
186	0xbd850cae	-0.06496559
187	0xbdb380b2	-0.08764781
188	0xbcc26d08	-0.02373363
189	0xbdb40ace	-0.08791123
190	0xbdc21107	-0.09475904
191	0xbd8fba59	-0.07017965
192	0xbc015d7a	-0.007895822
193	0xbd6ea970	-0.058267057
194	0x3dbbb09f	0.09164547
195	0xbd629bb0	-0.055324256
196	0xbd6343e7	-0.05548468
197	0xbcb22e48	-0.021750584
198	0x3c60e89a	0.0137273315
199	0xbc6dd0d6	-0.014515122
200	0x3dc63b67	0.09679299
201	0x3da667b0	0.081252456
202	0x3d81b49d	0.063332774
203	0x3dc07a8b	0.09398373
204	0x3dc19aa4	0.094533235
205	0x3db98145	0.09057859
206	0x3d63f7a4	0.05565609
207	0xbdba3ae7	-0.09093266
208	0xbdca9b8c	-0.098929495
209	0xbdcca793	-0.099929
210	0xbce62c6c	-0.028097354
211	0xbd2ab48f	-0.0416761
212	0xbd8ba096	-0.06817739
213	0xbda3e5d5	-0.08002821
214	0xbca84176	-0.020539027
215	0xbd38ffa6	-0.04516568
216	0x3bd07cb7	0.0063625234
217	0x3bab66b6	0.00523075
218	0x3a0832e3	0.0005195571
219	0x3d9792a8	0.07401019
220	0xba6abc75	-0.0008954474
221	0xbd0a44f5	-0.03375717
222	0x3cbbfacc	0.022946738
223	0xbd3e8d3e	-0.046521418
224	0xbbed20f0	-0.0072365925
225	0x3d2a1e58	0.041532844
226	0xbdbfe808	-0.09370428
227	0xbd327d74	-0.043576673
228	0xbcbeac6d	-0.023275578
229	0xbda162be	-0.07880162
230	0xbda5537c	-0.08072564
231	0x3d054b2a	0.032542385
232	0xbd8d0a92	-0.06886782
233	0x3d03a1be	0.03213667
234	0xbb8a86cc	-0.004227495
235	0x3d67cc48	0.056591302
236	0xbda7cfeb	-0.08193954
237	0xbccf8d04	-0.025335796
238	0x3d43adb3	0.047773074
239	0xbd5a0794	-0.053229883
240	0xbdcad122	-0.0990317
241	0xbdb2acc4	-0.08724359
242	0xbdbc4a32	-0.09193839
243	0xbdccd133	-0.10000839
244	0xbd42602b	-0.047454994
245	0xbbabf74d	-0.0052479864
246	0x3d20475f	0.039130565
247	0x3b32bdf8	0.0027273875
248	0x3d7bad3a	0.0614445
249	0xbb9e0922	-0.004822866
250	0x3d88b1de	0.066745505
251	0x3d023662	0.031790145
252	0xbdc9f543	-0.09861233
253	0xbd81b315	-0.06332985
254	0xbd15edce	-0.03660374
255	0xbc93a3a4	-0.018022366

features.8.bias f4 [32]
0	0x3eaeea7a	0.34163266
1	0xbdcfd5ec	-0.10148224
2	0x3e41c6aa	0.1892344
3	0x3df91fd3	0.12164273
4	0x3e82dfb6	0.25561303
5	0x3e291a32	0.16513899
6	0x3ea85b98	0.3288238
7	0x3f0f357f	0.55941004
8	0xbd9051ae	-0.07046829
9	0x3eac712e	0.336801
10	0xbc63ed91	-0.013911621
11	0x3e4f7000	0.20257568
12	0x3ea7469b	0.32671055
13	0x3ce49ce4	0.027906843
14	0x3eebf204	0.4608308
15	0x3e90d3f3	0.28286704
16	0xbe01e610	-0.12685418
17	0x3f5505c0	0.832119
18	0x3e980f43	0.29699144
19	0x3f186f90	0.5954523
20	0x3f23588a	0.63806975
21	0x3f12d76f	0.57359976
22	0x3e5d7f8e	0.2163069
23	0x3f08edf2	0.53488076
24	0x3e591146	0.21197996
25	0x3f19228f	0.5981836
26	0x3e80a66f	0.2512698
27	0xbe0ae17a	-0.13562575
28	0x3ed843f6	0.4223935
29	0x3e84c5b3	0.25932083
30	0x3f152c56	0.58270776
31	0xbc90e84e	-0.017688897

features.8.b_w f4 [8, 1]
0	0xc3000000	-128.0
1	0x42800000	64.0
2	0x42000000	32.0
3	0x41800000	16.0
4	0x41000000	8.0
5	0x40800000	4.0
6	0x40000000	2.0
7	0x3f800000	1.0

classifier.0.weight f4 [10, 2048]
0	0xbdcc5f94	-0.099791676
1	0xbdb58a2f	-0.08864247
2	0xbd9a4993	-0.075335644
3	0xbd78b979	-0.060723756
4	0xbc6155eb	-0.013753395
5	0x3d25b612	0.04045684
6	0x3da8c64c	0.08240947
7	0x3d60f4e7	0.054921057
8	0x3c27a018	0.01023104
9	0xbd914014	-0.070923
10	0x3b688bbc	0.0035483679
11	0x3c955141	0.018227221
12	0x3d0ee6aa	0.034887947
13	0x3db52606	0.08845143
14	0x3dbf76b3	0.09348812
15	0x3db33090	0.08749497
16	0xbd05df2b	-0.032683533
17	0xbdb4fc7c	-0.0883722
18	0xbd8d8dcd	-0.06911812
19	0x3b2c47f2	0.0026288
20	0x3d64297d	0.05570363
21	0x3d5fec6c	0.05466883
22	0x3dabe086	0.08392434
23	0x3da772e0	0.081762075
24	0xbccffc37	-0.02538882
25	0xbda56fbd	-0.08077953
26	0xbcf4e065	-0.029892156
27	0x3c8e948f	0.017404823
28	0x3d00a255	0.031404812
29	0x3ae9685e	0.0017807593
30	0x3d559f4f	0.05215388
31	0x3d5dd4b3	0.054157924
32	0x3ca5f252	0.020257149
33	0x3c42d6cf	0.011892035
34	0x3bf3fa34	0.007445598
35	0x3d7ab8b2	0.061211295
36	0x3cd15e46	0.025557648
37	0xbce02166	-0.027359676
38	0xbc14c70d	-0.0090806605
39	0xbd00dde0	-0.031461596
40	0x3d9eb42e	0.0774921
41	0x3dc70c6a	0.09719165
42	0x3da32552	0.07966103
43	0x3d45a30c	0.048251197
44	0xbd3b8324	-0.045779362
45	0xbd90ea37	-0.07075923
46	0xbd505cef	-0.05086988
47	0xbd0baa94	-0.034098223
48	0x3dc349bc	0.09535548
49	0x3dcc4415	0.09973923
50	0x3dcba70f	0.09943973
51	0x3cc15f6a	0.023605067
52	0xbdbf5338	-0.093420446
53	0xbdbf70a0	-0.093476534
54	0xbdac6655	-0.08417956
55	0xbdb0c4bd	-0.08631275
56	0x3cb85d64	0.02250547
57	0x3dcc7c08	0.099845946
58	0x3dc22763	0.09480169
59	0x3d3fa69e	0.046789758
60	0xbcffaff7	-0.031211836
61	0xbdaee137	-0.0853905
62	0xbd8ee754	-0.06977716
63	0xbd9a5a82	-0.07536794
64	0x3cea2ee2	0.028586809
65	0x3d1a9c0f	0.037746485
66	0x3d9b6cce	0.07589112
67	0x3d4aa7b0	0.049476326
68	0x3d8df5dd	0.0693166
69	0x3cff89c0	0.031193614
70	0x3d9f095d	0.07765458
71	0x3cb5f0e3	0.02220959
72	0x3ca94341	0.020661952
73	0x3cf11e2e	0.029433336
74	0xbb785761	-0.0037893879
75	0xbcd38cb1	-0.025823923
76	0xbc899f96	-0.01679973
77	0xbc655a01	-0.013998509
78	0xbc579146	-0.0131571945
79	0x3c1b9915	0.009496947
80	0x3bb3b458	0.005484145
81	0xbc59d6e1	-0.01329586
82	0xbcd94ffd	-0.0265274
83	0xbdb5a3bc	-0.088691205
84	0xbdcc061f	-0.09962105
85	0xbda3cf48	-0.0799852
86	0xbd48a669	-0.048986826
87	0x3c9798fd	0.018505568
88	0xbbaf45e0	-0.005348906
89	0xbd06956d	-0.032857347
90	0xbd570be7	-0.052501585
91	0xbdcc59ed	-0.099780895
92	0xbdbe8a66	-0.09303741
93	0xbda19d46	-0.07891326
94	0xbc76365a	-0.015027607
95	0x3c9ec939	0.01938306
96	0xbcd918a8	-0.026501015
97	0xbd09ad73	-0.03361268
98	0xbd282054	-0.041046456
99	0xbd3e6ec3	-0.04649235
100	0xbc988e07	-0.018622411
101	0x3a74f2e3	0.0009344054
102	0x3b8d6253	0.0043146997
103	0x3ce56fc4	0.028007396
104	0xbd7d528e	-0.06184631
105	0xbd3af233	-0.045641135
106	0xbcb9f5ec	-0.022700273
107	0x3c69891f	0.014253884
108	0x3d13e8ad	0.03611057
109	0x3d3f0b3b	0.04664157
110	0x3d2b3852	0.041801758
111	0x3b044453	0.0020182326
112	0xbd229e23	-0.039701592
113	0xbccb870b	-0.024844667
114	0x3d09b3a8	0.0336186
115	0x3db5fb1c	0.08885786
116	0x3da29eba	0.07940431
117	0x3d1485af	0.036260303
118	0x3ca67af9	0.02032231
119	0x3cb7e46a	0.022447783
120	0x3cde57cc	0.027141474
121	0x3d2b13d9	0.041766975
122	0x3d9bf6a1	0.076154
123	0x3d84b181	0.06479169
124	0x3d92976c	0.07157788
125	0x3c9c3443	0.01906789
126	0x3c0a0088	0.008422978
127	0x3cbe8e28	0.023261145
128	0x3dad7fdb	0.08471652
129	0x3cd118bf	0.025524495
130	0xbc881fce	-0.016616728
131	0x3af6f8c5	0.001884245
132	0xbc8e8883	-0.017399078
133	0x3af114b1	0.0018393007
134	0x3d8087a0	0.062758684
135	0x3a3b379f	0.0007141772
136	0x3d7f7056	0.06236299
137	0x3c331bae	0.010931892
138	0x3c942cef	0.018087832
139	0x3d48c5c2	0.04901672
140	0x3bdb5619	0.0066936132
141	0x3ba8632f	0.0051387767
142	0x3bc4b33c	0.0060028117
143	0x3d4862c8	0.04892233
144	0xbbcfd904	-0.006343009
145	0x39427c72	0.00018547641
146	0xbb2bc185	-0.0026207876
147	0xbd3ab298	-0.045580477
148	0xbc9d7fc4	-0.019225962
149	0xbbb156af	-0.005411945
150	0xbc205933	-0.009786892
151	0x3ce46a47	0.027882708
152	0xbb8b72de	-0.0042556366
153	0xbcef4dc4	-0.029211886
154	0xbd2a6e7a	-0.041609265
155	0xbd7f0ef2	-0.062270112
156	0xbd7e498b	-0.062081855
157	0xbd1bc1b2	-0.03802652
158	0xbbcabb3e	-0.006186872
159	0xbc2933be	-0.010327278
160	0xbc243af9	-0.010023826
161	0xbd317f14	-0.04333408
162	0xbd8a1b45	-0.067434825
163	0xbd8e462c	-0.06946978
164	0xbda43f73	-0.080199145
165	0xbdcbe4ed	-0.099557735
166	0x3b120959	0.0022283404
167	0x3c288b84	0.010287169
168	0xbc995fd7	-0.018722458
169	0xbd21d4aa	-0.039509453
170	0xbcf18ea2	-0.029486958
171	0xbd0d7de0	-0.034543872
172	0xbd7f3009	-0.06230167
173	0xbd9fb51e	-0.07798217
174	0xbb8cf194	-0.0043012593
175	0x3d550fe2	0.0520171
176	0x3c861b4a	0.016370434
177	0xbd38076e	-0.04492896
178	0xbca829db	-0.02052777
179	0xbd8d8f1c	-0.069120616
180	0xbd8003fd	-0.06250761
181	0xbda36a98	-0.079793155
182	0x3b4ab450	0.0030930229
183	0x3d289eb7	0.041166987
184	0xbbec9de5	-0.007220971
185	0x3d3c041d	0.04590236
186	0x3d817250	0.063206315
187	0x3cfeb616	0.031092685
188	0x3d219968	0.03945294
189	0x3b94c384	0.004539909
190	0xbc562619	-0.013070607
191	0x3c8771cc	0.016533755
192	0x3c406603	0.0117430715
193	0x3dc77f9e	0.09741138
194	0x3dc3315a	0.095308974
195	0x3da6db1c	0.081472605
196	0x3d0cd654	0.034384087
197	0x3cf0f1a4	0.029412098
198	0x3d86e1a8	0.06586009
199	0xbc8353a5	-0.016031096
200	0xbd046dcc	-0.032331273
201	0x3ce3a569	0.027788835
202	0x3da159d1	0.07878459
203	0x3d6370f5	0.055527646
204	0x3d52523f	0.051347967
205	0x3d0bf875	0.034172494
206	0xbcbecaa1	-0.02328998
207	0xbd81e614	-0.06342712
208	0x3d5f6164	0.05453624
209	0x3d4d1687	0.050070312
210	0x3cd5d973	0.026104664
211	0x3cf6627a	0.030076254
212	0x3c601b5c	0.013678398
213	0x3c8a1b32	0.01685867
214	0xbda50a84	-0.08058646
215	0xbd46c980	-0.04853201
216	0x3d092fb2	0.03349275
217	0xbc43329b	-0.011913921
218	0xbd114c1d	-0.035472978
219	0x3bcd780e	0.006270415
220	0xbc9ed46b	-0.019388398
221	0xbd0846e9	-0.03327075
222	0xbd9c1072	-0.07620324
223	0xbd936da2	-0.07198645
224	0xbbcbb8c0	-0.0062170923
225	0xbd277909	-0.040886912
226	0xbd6d69c2	-0.057962187
227	0xbda20ae7	-0.07912236
228	0xbd69027f	-0.056887146
229	0xbd42d6a2	-0.04756797
230	0xbd653a92	-0.05596406
231	0xbd4c1c74	-0.049831823
232	0xbcd89d0b	-0.026442071
233	0xbdc8e70b	-0.09809693
234	0xbdad2a1e	-0.08455299
235	0xbd57b2e9	-0.052660856
236	0xbdaa3c2a	-0.08312257
237	0xbca55ac0	-0.020184875
238	0x3d0d13db	0.034442764
239	0x3d95e0c6	0.07318263
240	0xbdb02d12	-0.086023465
241	0xbdc4fc6b	-0.096184574
242	0xbdc3c125	-0.09558324
243	0xbdc9e20a	-0.09857567
244	0xbd4ee5a5	-0.050511975
245	0xbc884872	-0.016636107
246	0x3c975e68	0.018477634
247	0x3da2555a	0.07926436
248	0x3d7ba860	0.06143987
249	0xbd0b950e	-0.034077697
250	0xbd98c6d0	-0.074597955
251	0xbd13e005	-0.036102314
252	0xbd1de6ce	-0.03855019
253	0xbb3908c5	-0.0028233987
254	0x3db34f69	0.08755381
255	0x3dacebbe	0.08443402

classifier.0.bias f4 [10]
0	0xbe2cbded	-0.16869326
1	0xbeea7601	-0.45793155
2	0xbe37210c	-0.178837
3	0x3daf912a	0.0857261
4	0x3ec4609f	0.38354966
5	0xbde602c3	-0.112309955
6	0x3f123447	0.5711102
7	0xbe99f2b2	-0.30067974
8	0x3e89c4b6	0.2690789
9	0xbdb4f3b7	-0.088355474

classifier.0.b_w f4 [8, 1]
0	0xc3000000	-128.0
1	0x42800000	64.0
2	0x42000000	32.0
3	0x41800000	16.0
4	0x41000000	8.0
5	0x40800000	4.0
6	0x40000000	2.0
7	0x3f800000	1.0

momentum_buffer f4 [32, 3, 3, 3]
0	0xbd9aecbb	-0.07564684
1	0xbcceebc4	-0.025258906
2	0xbcd4f656	-0.025996368
3	0xbdc448cd	-0.09584198
4	0xbda30d63	-0.07961538
5	0xbd3ef2c4	-0.046618238
6	0xbdb5c288	-0.088749945
7	0xbda03cc0	-0.07824087
8	0xbcde9f10	-0.027175456
9	0xbd96aa3a	-0.07356687
10	0xbcc2505a	-0.023719955
11	0xbc7d22f8	-0.015450232
12	0xbda248a1	-0.07924009
13	0xbd881962	-0.066454664
14	0xbd0f5d66	-0.03500118
15	0xbd90f735	-0.07078401
16	0xbd6e3d5f	-0.058163997
17	0xbba8d640	-0.0051524937
18	0xbd8a3414	-0.06748214
19	0xbc9e69ce	-0.019337561
20	0x3b9ca300	0.0047801733
21	0xbd684976	-0.056710683
22	0xbd30582e	-0.043052845
23	0xba5a9e00	-0.0008339584
24	0xbd32777a	-0.043570973
25	0xbcfffb9a	-0.031247903
26	0x3ccb33f0	0.02480504
27	0xbd3b9ae1	-0.045802
28	0xbc55cabc	-0.013048824
29	0x3d0a9125	0.033829827
30	0xbdc33738	-0.095320165
31	0xbd96dde1	-0.07366539
32	0xbd4a5687	-0.049398925
33	0xbd4d8a81	-0.050180916
34	0xbd72dd22	-0.05929292
35	0xbd308326	-0.043093823
36	0xbd7c2200	-0.061555862
37	0xbcb05e54	-0.021529354
38	0x3c909587	0.017649425
39	0xbe00218b	-0.12512796
40	0xbdca0ce2	-0.098657385
41	0xbd9f8963	-0.07789876
42	0xbda2df00	-0.0795269
43	0xbdb4e9a3	-0.08833625
44	0xbd9c5e97	-0.07635229
45	0xbd7d328e	-0.06181579
46	0xbcb6608a	-0.02226283
47	0x3c6ce306	0.0144584235
48	0xbdee6b07	-0.116415076
49	0xbdb7aaf3	-0.08968153
50	0xbd996b3f	-0.07491159
51	0xbd8b9b4a	-0.068167284
52	0xbd9d2962	-0.07673909
53	0xbd95e8f4	-0.07319823
54	0x3c327612	0.010892408
55	0x3ccbdbbc	0.024885051
56	0xbada9c48	-0.0016678656
57	0x3cf4ba9d	0.02987414
58	0x3cf3610e	0.029709365
59	0xbc0b482e	-0.008501096
60	0x3d55c6af	0.052191433
61	0x3d5f3fd0	0.054504216
62	0x3d12bcee	0.03582471
63	0xbc0d57e8	-0.0086269155
64	0xbbfdbf7c	-0.007743774
65	0xbd11b4f4	-0.03557296
66	0x3caa947b	0.020822754
67	0x3c8ee136	0.017441373
68	0xbcbfcb2a	-0.023412306
69	0x3d36278f	0.04447132
70	0x3d4a51ba	0.049394347
71	0x3cf5b989	0.029995697
72	0xbc424846	-0.011858052
73	0xba87f73c	-0.0010373364
74	0xbc2cead0	-0.010554031
75	0x3c9d65cb	0.019213578
76	0x3ce40b20	0.027837336
77	0x3ba504c2	0.0050359676
78	0x3d05241a	0.032505132
79	0x3d38fcef	0.04516309
80	0x3d35afec	0.044357225
81	0x3cea9d74	0.028639533
82	0xbcda6589	-0.026659744
83	0xbd0d313c	-0.03447078
84	0x3d22fc0a	0.039791144
85	0xbb6198d2	-0.0034423363
86	0xbcb15c5c	-0.021650486
87	0x3cd95694	0.026530541
88	0xbc6e0e13	-0.014529723
89	0xbcffec3f	-0.03124058
90	0x3cf41ea8	0.029799774
91	0xbcd1c5bb	-0.02560698
92	0xbcc63f1d	-0.024200017
93	0x3d274317	0.040835466
94	0x3b5f905e	0.003411315
95	0xbbfa34e8	-0.0076357014
96	0x3cc170c7	0.023613347
97	0xbc140f23	-0.009036812
98	0xbc8c779c	-0.017146878
99	0x3d566fc8	0.052352697
100	0x3c4c22ef	0.012459501
101	0x3c54e5c2	0.012994232
102	0x3d683285	0.056688804
103	0x3d0735de	0.033010356
104	0x3c9cb56e	0.019129481
105	0x3d2a07a4	0.041511193
106	0x3ca6198e	0.020275857
107	0x3b8a6f15	0.004224668
108	0xbd45f2e4	-0.04832734
109	0xbcd6f127	-0.026238037
110	0xbd00c494	-0.03143747
111	0xbd3efe4c	-0.046629235
112	0xbcdea659	-0.02717893
113	0xbce1b6c9	-0.027552979
114	0xbbee0f04	-0.0072649736
115	0x3bab2868	0.0052233227
116	0x3c61beac	0.01377837
117	0xbd255cea	-0.040371813
118	0xbcb9ecc8	-0.022695914
119	0xbcb4acdf	-0.022055088
120	0xbd2cb419	-0.042163942
121	0xbce62f3d	-0.028098697
122	0xbc9e17d8	-0.019298479
123	0xbb9f9451	-0.0048699756
124	0x3ba091ec	0.0049002077
125	0x3c9ba6f0	0.0190005
126	0xbd2df562	-0.042470343
127	0xbcf51284	-0.029916056
128	0xbcc30f81	-0.023811104
129	0xbd4d6228	-0.050142437
130	0xbd26810e	-0.04065042
131	0xbcf08e78	-0.02936481
132	0xbcae8eb3	-0.021308279
133	0xbc03b0b0	-0.008037731
134	0x3c50dfe0	0.012748688
135	0x3b8f5368	0.0043739565
136	0x3dcf2cb6	0.1011595
137	0x3d8b2da8	0.067958176
138	0xbd161ec3	-0.03665043
139	0x3d799d70	0.06094116
140	0x3d268db8	0.040662497
141	0xbd8bd8de	-0.068284735
142	0x3c7b9251	0.015354709
143	0x3d589fc8	0.052886754
144	0x3cd8f010	0.026481658
145	0x3e02011a	0.12695733
146	0x3dba637d	0.09101007
147	0xbc6f8234	-0.014618445
148	0x3dc37d78	0.09545416
149	0x3da4f002	0.0805359
150	0xbd05af81	-0.032638077
151	0x3d511d9c	0.05105363
152	0x3dc4ffae	0.096190795
153	0x3d11fd18	0.03564176
154	0x3dfd7964	0.12376669
155	0x3dec7aa5	0.1154683
156	0xba59e780	-0.0008312389
157	0x3dbe3570	0.09287536
158	0x3dd1ec45	0.10250143
159	0xbcfe34fe	-0.031031128
160	0x3d30a63e	0.04312729
161	0x3dca35a6	0.09873514
162	0x3d896f4a	0.0671068
163	0x3bae17b0	0.0053128824
164	0x3d8e7719	0.0695631
165	0x3da499c2	0.080371395
166	0x3ca93ccd	0.020658875
167	0x3d69ba83	0.057062637
168	0x3dccd835	0.10002176
169	0x3d23a16c	0.039948866
170	0x3cbc3e0c	0.022978805
171	0x3d9081b6	0.070559904
172	0x3ba94478	0.005165633
173	0x3d6a05eb	0.05713455
174	0x3da7761c	0.081768245
175	0x3cc592eb	0.024117908
176	0x3d506b8c	0.050883815
177	0x3dd792ca	0.10526045
178	0x3d61de33	0.055143546
179	0x3d09044c	0.033451363
180	0x3d385bd6	0.045009457
181	0xbca28985	-0.019840965
182	0x381b4000	3.7014484e-05
183	0x3d8242a5	0.06360368
184	0x3a04d700	0.0005067438
185	0xbbd284cc	-0.006424522
186	0x3dbfdf1b	0.09368726
187	0x3d0b1530	0.033955753
188	0xbba6076c	-0.0050668027
189	0x3ce842a2	0.028352086
190	0x3d2e7dac	0.04260032
191	0xbbecc4b8	-0.007225599
192	0x3c386f05	0.011256938
193	0x3cefd51c	0.029276423
194	0xbc3c7aad	-0.011503858
195	0xbd63e6da	-0.05564008
196	0xbd40825c	-0.04699932
197	0xbd90dd62	-0.070734754
198	0x3d1d64d5	0.03842624
199	0x3d5026ac	0.05081813
200	0x3c8270b3	0.01592288
201	0x3d06f6dc	0.032950267
202	0x3d5429b6	0.05179759
203	0x3cdd491a	0.027012397
204	0xbcc3823b	-0.02386581
205	0xbc38945f	-0.011265843
206	0xbcca8b3e	-0.024724599
207	0x3d4a00b4	0.049317077
208	0x3d84f221	0.06491495
209	0x3d34cba2	0.044139512
210	0x3d30da8d	0.043177176
211	0x3d864112	0.0655538
212	0x3d749dcb	0.059720796
213	0xbb3083f0	-0.002693411
214	0x3c7a2a5e	0.01526889
215	0x3ca7d9e5	0.020489642
216	0x3be362b8	0.0069392584
217	0x3da3f51c	0.08005735
218	0x3e011860	0.12606955
219	0x3c655810	0.0139980465
220	0x3d8f9ade	0.070119604
221	0x3de5f110	0.1122762
222	0x3bed043d	0.0072331713
223	0x3d840924	0.06447056
224	0x3dfb7a2e	0.12279163
225	0x3cf8d1be	0.03037345
226	0x3dc7f521	0.097635515
227	0x3e042782	0.12905696
228	0x3d259e70	0.0404343
229	0x3dc742a3	0.09729507
230	0x3e04f43d	0.12983795
231	0x3cf632f6	0.030053597
232	0x3db07144	0.08615354
233	0x3e0b68d1	0.13614203
234	0x3d305a12	0.043054648
235	0x3dc7c358	0.09754056
236	0x3dfc0fcd	0.12307701
237	0x3d36e59a	0.04465256
238	0x3dc89a76	0.09795086
239	0x3e02ee4a	0.12786213
240	0x3d089cc4	0.03335263
241	0x3db13cd6	0.08654182
242	0x3e02f2bd	0.1278791
243	0xbd650944	-0.05591704
244	0xbddebb1e	-0.108755335
245	0xbe09ed76	-0.1346949
246	0xbe0a3389	-0.13496222
247	0xbe191844	-0.14950663
248	0xbe21a132	-0.15784147
249	0xbd0fa836	-0.035072528
250	0xbce85a04	-0.028363235
251	0xbd5071a4	-0.050889626
252	0xbd84ab08	-0.06477934
253	0xbdd1e9e9	-0.10249693
254	0xbde9d939	-0.11418385
255	0xbdf9c9a4	-0.12196663

momentum_buffer f4 [32]
0	0xbbd23af0	-0.0064157173
1	0x3e502469	0.2032639
2	0x3c38d2ec	0.011280756
3	0xba552d20	-0.00081320293
4	0xbde723a0	-0.11286092
5	0x3d3a8997	0.045541372
6	0xbd3df291	-0.046373907
7	0x3c83bbd4	0.016080774
8	0xbd82fa30	-0.06395376
9	0x3e17944c	0.14802665
10	0xbc2cb338	-0.010540776
11	0x3dbaf920	0.09129548
12	0xbdeddec6	-0.11614756
13	0xbdf776eb	-0.12083229
14	0x3cbba902	0.022907738
15	0x3be848ed	0.0070887716
16	0xbd0e80c3	-0.034790765
17	0x3d1df7e3	0.03856648
18	0x3cdeb213	0.027184522
19	0x3d22b440	0.03972268
20	0xbd64950e	-0.055806212
21	0xbc5b3fcc	-0.01338191
22	0xbd67ba62	-0.056574233
23	0xbd31665c	-0.043310508
24	0xbda24da3	-0.07924964
25	0x3ccdc786	0.025119554
26	0x397e86e0	0.00024273572
27	0x3ca2812e	0.019836988
28	0xbe3c8225	-0.18409021
29	0xbe0624b2	-0.13099936
30	0x3d8c0770	0.06837356
31	0xbda2e338	-0.07953495
