Securite/Model19/Result_bfa/randbet_0.1_0.01_10_-1/model_best.pth.tar (torch, 533040 bytes, 150 tensors)

0.0.weight f4 [8, 3, 3, 3]
000000 01 1e 8f 3d b1 b1 1b bd 94 75 db ba 7f 69 c2 3d
       0.06988145 -0.038011257 -0.0016743415 0.09492778
000010 c1 2e bd 3d 61 0b 9e bb 77 b1 94 3d b6 f3 73 3b
       0.09237433 -0.004823134 0.07260411 0.003722412
000020 ba 45 5d bd b7 dc 2a bd 60 02 ca bd 29 ed 98 bd
       -0.054021575 -0.041714396 -0.09863734 -0.0746711
000030 fe 24 a3 3d 51 48 5c bc 0c ab b8 bd 8c 2e 6b 3c
       0.0796604 -0.013444976 -0.090169996 0.014354359
000040 6f d4 ab bd 0c 28 be bd 1f 77 ba 3d 43 37 a0 3d
       -0.08390128 -0.09284982 0.09104752 0.0782304
000050 24 bc 1f 3d 6f 07 c9 3d 06 45 c2 3d 95 cf 2c bb
       0.038997784 0.09815871 0.094858214 -0.0026368846
000060 5d 87 cc 3d d9 0a b8 3d a5 42 c9 b8 08 59 ac bd
       0.09986756 0.08986444 -9.5968404e-05 -0.08415419
000070 e1 04 b6 bd 97 f1 b7 bd 37 b1 6b bd 86 e4 cc 3d
       -0.08887649 -0.089816265 -0.057542052 0.10004525
000080 a2 92 3f bd 1f b9 73 bc 74 ee 8b 3d cd 19 f2 bb
       -0.0467707 -0.014875679 0.06832591 -0.0073883296
000090 6a 40 b6 bd 41 35 a8 bd 95 3d c5 bd 3e 47 93 3d
       -0.08899005 -0.082132824 -0.096308865 0.07191323
0000a0 82 2a cb 3d 20 0b 9e 3d d3 d1 e2 3c c8 ac 83 3d
       0.09920217 0.07716966 0.027687943 0.0642944
0000b0 3d c5 eb 3b 3e cd b7 bd 11 66 7a 3d 9e 24 96 bd
       0.0071951435 -0.08974694 0.061132494 -0.07331203
0000c0 6a b5 cc 3d 60 d8 cc 3d fe 78 c7 3d 27 bf 83 bc
       0.099955395 0.10002208 0.09739874 -0.01608236
0000d0 c6 49 62 3d b2 c6 e9 3c f7 1f b6 3c 9b d5 9f bd
       0.055246137 0.028537128 0.022232039 -0.07804414
0000e0 38 84 c6 3d 60 ed 83 bc eb 74 c9 3d 85 d8 96 bd
       0.096931875 -0.0161044 0.098367535 -0.073655166
0000f0 46 c5 a6 bd ab 46 8a 39 0f 7e 54 bc e3 f6 f0 bc
       -0.08143096 0.00026374063 -0.012969508 -0.0294146
000100 74 31 c9 bd ac 7d ab 3d 3a 01 cd 3d 17 da c5 3d
       -0.098238856 0.083735794 0.100099996 0.09660738
000110 85 2b c3 bd dd 27 2c 3d 29 f7 ba 3d 58 11 96 bd
       -0.09529785 0.042030204 0.09129173 -0.07327527
000120 28 ca 94 bd aa 7f c3 bd 36 ab aa 3b ef c1 b0 3d
       -0.07265121 -0.09545834 0.005208398 0.0863074
000130 fc 04 c9 3d 2f d5 b2 bd 65 6f f3 3c 6a e5 91 3d
       0.09815404 -0.08732068 0.029716203 0.071238354
000140 71 39 4a bd 17 08 c6 3d 7b e1 50 39 39 ab c8 3d
       -0.049371187 0.09669512 0.00019920424 0.09798283
000150 31 eb 85 bd 8e 27 a6 bd 07 06 b9 3d 82 3a 0e bd
       -0.06539 -0.08113013 0.09034353 -0.034723766
000160 5b f3 6e bd ee 26 c9 3d 5f c4 05 bd 72 38 bb bd
       -0.05833755 0.098218784 -0.032657977 -0.091416255
000170 77 47 a9 3d 62 ed c5 bd bd 56 bf bd 62 25 c0 3d
       0.08265584 -0.09664418 -0.09342716 0.0938213
000180 9d af 9f bd 38 4f 8c bd 4f 8f c3 3d b2 a7 8a bd
       -0.077971675 -0.06851047 0.09548818 -0.067702666
000190 90 ed 85 bd bf 6f bf 3d 34 87 b1 bd b2 f6 a1 bd
       -0.06539452 0.09347486 -0.08668366 -0.079083815
0001a0 95 8b c9 3d 6e 24 75 3c 4a 02 c9 3d 8f ff cb 3d
       0.09841076 0.014962299 0.0981489 0.09960853
0001b0 d3 58 ac 3d 77 db 9e 3d e3 59 3d 3d 19 e4 5f 3d
       0.084153794 0.07756703 0.0462283 0.05466089
0001c0 78 c7 bb bd 25 27 05 bd 70 f6 fb 3c a3 71 b8 bd
       -0.09168905 -0.032508034 0.030757159 -0.090060495
0001d0 91 c9 ec bc 84 a8 ab bc 1e 6d cd bd 99 02 c3 bd
       -0.028904708 -0.020954378 -0.10030578 -0.0952198
0001e0 a3 f7 89 bd df 18 cd bd 3a 11 8e bd 8e 67 a4 3d
       -0.06736686 -0.100145094 -0.069368795 0.08027564
0001f0 27 86 c9 bd dc 17 b0 3d fd 81 9b 3d db f1 e3 bc
       -0.09840041 0.08598301 0.07593153 -0.027825287
000200 28 41 10 3d e3 a0 5e bd 80 f2 b4 bd 28 17 cc 3d
       0.035218388 -0.054352652 -0.08835316 0.09965354
000210 c8 22 5a 3d b5 eb c5 bd ad 71 be 3d d1 51 94 bd
       0.053255826 -0.09664098 0.09299026 -0.07242168
000220 50 01 9b bd e7 8c 56 3d 04 93 a9 3c ec 3f 88 3d
       -0.0756861 0.05238047 0.020699985 0.06652817
000230 c5 40 a3 3d e9 37 c2 bd c1 29 c5 bd a5 6b b0 bd
       0.07971338 -0.0948332 -0.096271046 -0.086142816
000240 77 be 7d bd 7a f1 9d bb 8f 14 b4 3d 55 90 79 3d
       -0.06194922 -0.004820046 0.08792984 0.06092866
000250 7d 99 7f 3d 4e f3 ab 3d 13 a9 c0 bd 06 45 c2 bd
       0.062402237 0.08396016 -0.09407248 -0.094858214
000260 39 15 b0 bd 67 6a ae bd c8 8b a5 bd a3 28 ef 3c
       -0.08597798 -0.085163884 -0.08083302 0.029194182
000270 79 4a d8 3c e4 7c 58 3d 98 fa a9 3d a8 0e c3 bd
       0.026402699 0.05285348 0.0829975 -0.0952428
000280 94 e7 c2 bd e2 5b a3 bd 29 b2 c4 bc 93 22 c0 bd
       -0.09516826 -0.0797651 -0.024010735 -0.093815945
000290 72 68 47 bd 9f 0c a6 3d e5 04 b4 3d ba be b6 3d
       -0.04868359 0.08107876 0.08789996 0.08923097
0002a0 8b 5a c4 3d e0 4e c7 3d 23 ba a6 3d bb 9b 95 bc
       0.09587582 0.09731841 0.081409715 -0.018262735
0002b0 24 87 a6 bd d3 24 65 bd d5 79 5a 3d 54 99 96 bd
       -0.08131245 -0.05594332 0.053338844 -0.07353464
0002c0 70 c5 a3 bb 18 19 66 bc 4e f2 f7 bc ab 23 89 bd
       -0.0049979016 -0.014044069 -0.030266907 -0.06696256
0002d0 d3 91 b6 3d 69 dc 9a 3d ba 39 c3 3d 09 1f 7d 3d
       0.089145325 0.07561571 0.09532495 0.061797176
0002e0 12 63 b9 bd 9b 03 65 bd 0f 18 93 bd a9 c5 85 bd
       -0.09052099 -0.05591164 -0.07182323 -0.06531841
0002f0 11 41 b7 bd 62 5f 80 bd 0a 26 79 3d b2 3e 53 3d
       -0.08947957 -0.06268193 0.060827293 0.051573463
000300 b9 19 bd bd fa 17 c7 bd 56 66 ca bd 0e 26 3d bd
       -0.09233422 -0.0972137 -0.098828 -0.04617887
000310 72 cb c0 bd 83 2b ca bd 8a 87 5f bd fb de c9 3d
       -0.09413804 -0.098715805 -0.05457262 0.09856983
000320 68 f0 bf 3d f3 70 b5 bd d7 7d c3 bd 7d 3f a9 3c
       0.09372026 -0.08859434 -0.095454864 0.020660156
000330 6a 80 fa 3a 21 81 7f bd 76 9b c2 bd ab 63 9d 3d
       0.0019111757 -0.062379006 -0.09502308 0.07685026
000340 46 fa c8 3d 5b b3 c4 3d 88 31 c0 3d 5d 19 be 3d
       0.09813361 0.09604522 0.09384447 0.092821814
000350 1f 33 c6 3d 6f 05 cb 3d 2b d8 c8 3d d0 a7 99 3d
       0.09677719 0.09913146 0.09806856 0.07502711

0.0.b_w f4 [8, 1]
000000 00 00 00 c3 00 00 80 42 00 00 00 42 00 00 80 41
       -128.0 64.0 32.0 16.0
000010 00 00 00 41 00 00 80 40 00 00 00 40 00 00 80 3f
       8.0 4.0 2.0 1.0

0.1.weight f4 [8]
000000 86 57 c4 3e 31 dc 58 3e fa bc a5 3e f6 73 95 3e
       0.38348025 0.21177746 0.3237074 0.29190034
000010 ae c6 e2 3e ba b6 0e 3f 28 3f 7a 3e ee c8 78 3e
       0.44292206 0.5574757 0.24438155 0.24295399

0.1.bias f4 [8]
000000 83 62 2f be 34 b9 57 3d 3a 1e cf 3e 2b 90 ca 3b
       -0.17127423 0.052666858 0.4045275 0.006181737
000010 7f a1 02 be fd d8 18 bf d5 db 96 be 82 23 66 3c
       -0.12756918 -0.597061 -0.29464594 0.014046552

0.1.running_mean f4 [8]
000000 0d 55 c1 bd 0d c1 1c bd ee 91 0a bd dc cd fd 3b
       -0.0944005 -0.038270045 -0.033830576 0.0077454876
000010 99 27 8a 3d 2e 97 db 3d 2e 79 1e bc 94 f2 f9 bc
       0.06745834 0.107221946 -0.009672446 -0.030511178

0.1.running_var f4 [8]
000000 f5 22 83 3e 4a ed 2d 3e 3e 2d 63 3d 15 9a 56 3e
       0.25612608 0.1698505 0.05546307 0.20957215
000010 26 5d f7 3d f1 8a a8 3e d2 10 82 3d de a1 67 3e
       0.120783135 0.32918504 0.063508645 0.22620341

1.module.0.0.weight f4 [8, 8, 3, 3]
000000 7e ca c7 bd f6 77 b0 bc a9 a8 42 bc 29 92 8c bd
       -0.09755419 -0.021541577 -0.011881032 -0.06863815
000010 05 c2 c8 3d 50 68 9d 3d 33 9d 75 bd 49 86 3a 3d
       0.09802631 0.07685912 -0.05996437 0.04553822
000020 8b 08 15 3d 2e 8f 18 3d 58 e7 c5 3d 74 27 f3 3c
       0.0363851 0.03724592 0.09663266 0.029681899
000030 43 3d f9 3c 60 25 8e 3d 7b a5 11 bd 22 bb a3 bd
       0.03042472 0.069407225 -0.035558205 -0.07994677
000040 ad 6d 8a bc 43 48 ad bd ac 59 aa bd 9c 79 cd 3d
       -0.016898 -0.084610485 -0.08317885 0.10032961
000050 ca c1 89 bd d8 f9 bd bd 03 d8 ca 3d 68 0c c3 3d
       -0.067264155 -0.092761695 0.09904482 0.09523851
000060 54 2f 8d 3d c9 e5 c7 bd a3 5f 47 bd 3c b9 aa 3d
       0.06893793 -0.09760625 -0.04867519 0.08336112
000070 50 01 89 bd a2 f7 3e bd 55 b0 09 3d 68 9f a6 bd
       -0.066897035 -0.04662288 0.03361543 -0.08135873
000080 33 41 c2 bd d1 eb de bb 6e 03 68 bd 26 09 2c 3d
       -0.09485092 -0.006803014 -0.056643896 0.042000912
000090 5b a4 0e 3d e4 b4 89 bd 73 63 97 3d dd 1c ee bb
       0.03482471 -0.06723955 0.07392015 -0.0072666244
0000a0 33 00 98 bd a0 e1 8e bd e7 1f 9a 3c 90 68 44 3d
       -0.07421913 -0.06976628 0.01881404 0.04795128
0000b0 27 0d d4 3c 79 80 c3 bd a9 ae c0 bd 20 89 a8 bd
       0.025885178 -0.095459886 -0.09408314 -0.082292795
0000c0 b2 07 3d 3d 76 aa b1 3d 2f bd 13 bd 5a 50 ce 3c
       0.046149917 0.08675091 -0.03606909 0.025184799
0000d0 77 90 37 bd 6c 30 c5 bd 98 66 8e bd be 5e 42 3c
       -0.044815507 -0.09628376 -0.06953162 0.011863409
0000e0 6b 4b b0 3b d7 e8 7f 3b e3 df 7c 3d 78 fa a1 3d
       0.0053800843 0.0039048695 0.061736953 0.07909101
0000f0 33 a1 0e bd 46 d4 56 bd 4e 1a 6f 3d e2 48 bc bc
       -0.0348217 -0.052448533 0.058374695 -0.022983972
000100 4b 30 87 3c 07 92 69 3d e5 ff 05 3d f9 fd dd bc
       0.01650252 0.05702403 0.032714743 -0.027098643
000110 b6 7d 83 bc 8b 1f b5 3d 2d 55 cb 3d e0 c5 54 bd
       -0.016051155 0.08843907 0.09928355 -0.05194652
000120 99 fe 92 bd 0a ac 30 bd 06 a3 91 bd 14 e7 cb bd
       -0.07177467 -0.04313282 -0.071111724 -0.09956184
000130 9a d9 ca bb 5b e9 8c bb a9 4b 93 bc e1 40 81 3d
       -0.006190491 -0.004300279 -0.017980414 0.06311203
000140 8d 6b 8a 3d e9 fb c4 3d 1c 70 c8 3d e6 0b cb 3d
       0.06758795 0.096183605 0.09787008 0.09914379
000150 e6 28 86 bd 01 42 ac bc 60 d3 c1 3d 7b 6c 86 bd
       -0.065507695 -0.021027567 0.09464145 -0.0656366
000160 97 6a 0a bd 89 65 10 3c 51 90 c0 3d 14 b0 aa bd
       -0.03379306 0.00881327 0.09402526 -0.083343655
000170 6f 4c 92 3d 04 f7 91 bd 44 ac 89 bd 96 3d b9 3d
       0.07143485 -0.071271926 -0.0672231 0.0904495
000180 28 6a 38 bc 8c cb c9 3d 8f 0c 6e bd 1f 5e 8d bd
       -0.011255778 0.098532766 -0.058117446 -0.06902718
000190 c8 2c cc 3b 26 be 6b 3d 37 55 8f bd a3 2d 06 3d
       0.0062309243 0.057554387 -0.06998675 0.032758366
0001a0 2e d3 66 bd 78 ea a8 bc 8b ff 4f bd 3a 88 76 bd
       -0.05635374 -0.020619616 -0.050780814 -0.06018851
0001b0 30 4f cc 3c 31 6f c8 3d 86 27 84 bd f0 a2 09 3d
       0.024940103 0.09786833 -0.06452851 0.033602655
0001c0 03 3c 7b 3c 36 52 8d bd 21 4b 15 bd 1b 61 38 bd
       0.015334132 -0.06900446 -0.0364486 -0.045014482
0001d0 a3 7d 0b bd 70 3c 11 3d 05 9e 66 bc 14 06 ac 3d
       -0.034055363 0.03545803 -0.014075761 0.08399597
0001e0 45 62 58 bd 07 69 3d 3d 04 fa 45 3d 2e cc 8e 3d
       -0.052828092 0.04624274 0.048334137 0.06972538
0001f0 dd 75 9f 3d 2f db 84 3c b1 a3 98 bd 3c 97 9b 3c
       0.077861525 0.016217796 -0.07453097 0.018993013
000200 6b eb 2f 3c 19 d0 c1 bc 7b e4 80 bd 98 de 85 bc
       0.01073728 -0.023658799 -0.06293579 -0.016341493
000210 1e 16 b1 3d 1a a7 50 bc 1a d0 61 bd 95 94 1d bd
       0.08646797 -0.012735153 -0.0551301 -0.038471777
000220 c8 9a a0 bd 20 cd db bc 26 45 9d bd 79 90 2d bd
       -0.07842022 -0.02683121 -0.07679205 -0.042374108
000230 9d 52 84 bd f3 df 85 bd 52 49 89 bd ce 6f 8c bd
       -0.0646107 -0.065368555 -0.06703438 -0.068572626
000240 65 d0 4e bd ff 14 84 3b 1b e3 a7 bb 10 6a 6b 3d
       -0.05049171 0.0040308232 -0.0051235086 0.057474196
000250 8f 5a 06 3d 4d 63 e8 3b fb 57 5a bd a7 c4 d5 bc
       0.032801207 0.0070919157 -0.05330656 -0.026094748
000260 f3 23 6e bd 67 2b 90 3b 15 fe 9a bd 75 55 9c bd
       -0.058139753 0.004399705 -0.075679936 -0.07633487
000270 d1 08 c7 3d eb fb bf 3d 33 ca b5 3d 18 85 b2 bd
       0.097184785 0.093742214 0.08876457 -0.08716792
000280 b7 c7 93 bd 62 0b ac bd 83 ee b4 bd bf e8 7b bd
       -0.07215827 -0.084006086 -0.08834555 -0.06150126
000290 c8 e1 a2 3c 0c e3 59 bc ef 43 91 3d 28 e7 29 3d
       0.019883052 -0.013298761 0.070930354 0.041480213
0002a0 e1 46 79 bd 82 f8 12 bd b2 3f 58 bb 76 08 9a bc
       -0.06085861 -0.035881527 -0.003299695 -0.018802863
0002b0 34 2f 8b 3d 55 18 c2 bd d6 1b 60 3d bc aa b3 3d
       0.06796113 -0.09477297 0.054714046 0.087727994
0002c0 24 14 9b bc c8 95 e4 3b e3 bf cc 3d cb f6 e0 3c
       -0.018930502 0.006975863 0.09997537 0.02746143
0002d0 e3 e5 a6 bd d1 27 85 3d 9b 02 35 bd 2a 12 8f 3d
       -0.08149316 0.06501735 -0.044191938 0.069858864
0002e0 81 66 94 3d d1 d2 02 3d 5a f8 70 3d df af 2a 3b
       0.072461136 0.03193933 0.058830597 0.0026044769
0002f0 89 e2 8e bd 88 44 cb 3d c4 ca c8 3d f5 de c4 3d
       -0.06976802 0.09925181 0.098042995 0.09612838
000300 cc 08 2d 3d 0a 74 86 3c 80 15 8c bd 5a f2 43 3c
       0.042244717 0.016412754 -0.06840038 0.011959637
000310 8c 4d 19 3d 78 93 92 bb c5 31 cc bd c6 0c 5e bd
       0.03742747 -0.004473146 -0.0997043 -0.0542114
000320 a2 97 bc bb 82 dc 5d 3d e4 99 86 3d b9 59 51 3d
       -0.0057553807 0.05416537 0.06572321 0.051110957
000330 ba db 44 3c ce 03 b4 bd 6e ce bc bd 91 a6 61 bd
       0.0120152775 -0.08789788 -0.09219061 -0.05509049
000340 27 b0 48 3d 7d 39 84 bd 20 72 cb 3d f6 9f 12 3d
       0.048996117 -0.064562775 0.09933877 0.035797082
000350 b1 8d 8f 3d 34 57 a8 bd c3 58 73 bd 7e e3 62 bd
       0.07009447 -0.08219758 -0.05941082 -0.055392735
000360 dc ad c8 bd 4b ac 48 bd af e3 ca bd 96 76 1e bd
       -0.09798786 -0.048992436 -0.099067084 -0.03868731
000370 a4 b0 6a bd 07 3a aa bc 58 72 c1 bd 5a 81 bb bd
       -0.057297364 -0.020779623 -0.094456375 -0.09155531
000380 bf 45 b5 bd 6d 26 15 3c d4 f7 59 bd 8d a0 c7 3d
       -0.08851194 0.0091034 -0.053214863 0.097474195
000390 ed 52 e4 3c e2 b4 21 3d cd f5 a3 3d fe 81 c0 bd
       0.027871573 0.039479144 0.08005867 -0.09399794
0003a0 ca 12 c9 bd dc ea 94 bd 0c 45 b6 3d c8 2f 4c 3d
       -0.09818037 -0.07271358 0.088998884 0.049850255
0003b0 c8 4a 9a bd 14 ec 30 bb 05 34 a7 3c c1 17 87 bc
       -0.07533795 -0.0026996182 0.020410547 -0.016490819
0003c0 e7 6a 87 bd 3b 35 7e bc c6 82 b7 3d 05 4a 59 3b
       -0.06612187 -0.015515621 0.0896049 0.0033155691
0003d0 cd a2 8a bc 21 90 9a bb 17 16 b5 bd f8 aa c1 bd
       -0.016923333 -0.0047168885 -0.08842104 -0.09456438
0003e0 9d 97 c8 bd 91 28 56 bd 84 90 c9 bc 6a 0b 89 ba
       -0.09794543 -0.05228478 -0.024605043 -0.0010455672
0003f0 27 c2 18 3d bf 6c 4d 3d 53 51 6f 3d 9c 59 b6 bd
       0.037294533 0.050152536 0.058427166 -0.089038104

1.module.0.0.b_w f4 [8, 1]
000000 00 00 00 c3 00 00 80 42 00 00 00 42 00 00 80 41
       -128.0 64.0 32.0 16.0
000010 00 00 00 41 00 00 80 40 00 00 00 40 00 00 80 3f
       8.0 4.0 2.0 1.0

1.module.0.1.weight f4 [8]
000000 7d df 54 3f 65 bb 22 3f a0 0a 0c 3f 8b 30 02 3f
       0.83153516 0.6356719 0.5470371 0.5085532
000010 35 06 2b 3f fc db 0b 3f 68 5f 4e 3f 59 cb 0a 3f
       0.66806346 0.54632545 0.8061433 0.54216534

1.module.0.1.bias f4 [8]
000000 e6 fc bb 3e 01 9c 3d be c3 c5 d9 be aa 2a a4 be
       0.36716384 -0.18516542 -0.42533693 -0.320638
000010 f7 0e 89 be 68 9a 81 3c 31 13 86 3e 2e e0 04 3e
       -0.2676923 0.015820697 0.26186517 0.12976143

1.module.0.1.running_mean f4 [8]
000000 3a d2 77 bc 74 c7 99 bc 97 a6 da bc 68 87 d5 bd
       -0.0151258055 -0.018771864 -0.026690764 -0.10426217
000010 eb 42 08 be ec ad f5 bd cb 02 c3 bc 6d 5f 03 bd
       -0.13306777 -0.119960636 -0.023805043 -0.032073427

1.module.0.1.running_var f4 [8]
000000 18 62 98 3c eb 99 24 3c 27 9e 53 3c 91 aa 94 3c
       0.018601462 0.0100464625 0.012916124 0.018147739
000010 5c 9e 8d 3c 9a e3 c3 3c a4 a5 e8 3b 15 28 68 3c
       0.017287426 0.02391224 0.007099824 0.014169713

1.module.1.0.weight f4 [8, 8, 3, 3]
000000 6f e1 99 bc 90 2d 14 bd b3 4d 3d bd d8 af 8c 3d
       -0.018784253 -0.036176264 -0.046216678 0.06869477
000010 c5 89 ae 3d 5e 9a 3e 3c 7c d4 69 bc 95 24 bc bd
       0.08522371 0.011633484 -0.014271852 -0.09186665
000020 dc be bd bd 41 58 ad bd 17 c2 c0 bd 6a f4 cc bd
       -0.09264919 -0.08464099 -0.0941202 -0.10007556
000030 81 d2 20 bd 9d bf b6 bd 61 e4 6d bd aa b8 b7 3d
       -0.039263252 -0.08923266 -0.058079127 0.08970769
000040 cd c3 16 3d ab 0d 8c bd d3 d9 a5 3c 12 2e 50 bd
       0.036807824 -0.068385445 0.020245468 -0.050825186
000050 5d 4c 5d 3d 9a e9 ca bd 74 8a c4 bd 07 93 a1 bc
       0.054027904 -0.09907837 -0.0959672 -0.019723428
000060 c2 53 19 3d 25 22 6c 3c 7e d3 90 3d b3 4d 46 bd
       0.037433393 0.014412438 0.07071589 -0.048413943
000070 68 ba d3 bc ee 71 52 3d e8 fa 5c 3d 21 c9 a4 3c
       -0.025845721 0.051378183 0.05395022 0.020115437
000080 b1 0c 78 3d a0 67 8b bd 4f f7 ad bd 1c 5c 63 bc
       0.06055898 -0.06806874 -0.08494436 -0.013876941
000090 9e 56 1e 3d 12 a3 4c 3d 95 78 0d bd 00 d3 56 3c
       0.038656823 0.049960203 -0.034538824 0.01311183
0000a0 1f ec 3e 3c c9 07 97 bd 0d 0a 6d 3d 23 3c 91 bd
       0.011652975 -0.07374532 0.057870913 -0.07091548
0000b0 a2 c9 aa bd 7d e6 92 bd 44 32 a8 bd 7b f7 ad bd
       -0.0833924 -0.071728684 -0.082127124 -0.08494469
0000c0 d1 8c ad 3d 72 3e c9 3d e9 ea b4 3d 90 da 7e bd
       0.08474124 0.098263636 0.08833868 -0.062220156
0000d0 ca c9 98 bd 41 56 93 bd f5 cd 53 bd 3b 29 58 bd
       -0.07460363 -0.07194186 -0.051710088 -0.052773695
0000e0 b4 f5 54 bd c4 5d 81 bd ff 6a 77 3d 28 5a 37 3d
       -0.051992133 -0.063167125 0.060404774 0.044763714
0000f0 cc 5d 9a bd e7 d1 70 3d 76 69 96 bd f2 9f 90 bc
       -0.075374216 0.05879393 -0.07344334 -0.017654393
000100 da 3b 9a bd c0 76 ae bd e7 bb 0c bb 6e c9 85 bb
       -0.07530947 -0.085187435 -0.0021474303 -0.00408285
000110 ca dd 5c 3d d5 f9 04 3d 33 68 c9 bd 58 77 c4 bd
       0.053922452 0.03246482 -0.098343275 -0.095930755
000120 f9 b8 a3 bc 1d 68 8b 3d b5 68 71 3d 2e 75 29 3d
       -0.019985663 0.068069674 0.058937747 0.041371517
000130 b4 43 49 3d f5 ee 47 bd e1 1c cb bd 98 80 c8 bd
       0.049136832 -0.04881187 -0.099176176 -0.09790152
000140 e7 30 89 bd 4a 1e b1 bd 7d de c2 bd ad 15 88 bd
       -0.066987805 -0.08648355 -0.095150925 -0.06644759
000150 b1 06 b0 bd d4 79 c2 bd 18 c8 b9 bd 39 9f ad bd
       -0.08595026 -0.09495893 -0.09071368 -0.08477635
000160 67 ff aa bd c8 c4 a8 bd ec 6f a3 bd 2b 4d 97 bd
       -0.083494954 -0.08240658 -0.07980332 -0.073877655
000170 57 16 81 bd d9 ed 6c bd 2a 85 af 3d 9e 9e cb 3d
       -0.06303089 -0.057844017 0.08570321 0.09942363
000180 43 a7 9a bd 2f 32 b0 3c cc e4 2e 3d 7b 59 93 bd
       -0.07551434 0.021508304 0.042698666 -0.071948014
000190 1d 7d 16 bd 29 7c 61 bd 2e ba 2b 3d 24 a4 83 3c
       -0.03674041 -0.05505005 0.0419256 0.01606948
0001a0 60 84 98 bd e2 9b 9f bd 44 6f 83 bd 8b d2 aa bc
       -0.074471235 -0.07793404 -0.064177066 -0.020852348
0001b0 b3 fd 06 bc 15 cf 14 bd 19 dc 5c 3c eb 30 a8 3a
       -0.008239198 -0.0363303 0.01348021 0.0012831962
0001c0 fe 69 8b 3d 2f 56 5f 3d 91 ff 47 bc 6c 31 92 bd
       0.06807326 0.05452555 -0.012206928 -0.07138333
0001d0 b8 d4 9d bd 8c ee ea 3c 73 70 32 3d 17 41 b3 3c
       -0.077065885 0.028678201 0.04356427 0.021881623
0001e0 b6 05 a8 3b 3e 6d ca 3d 44 75 94 3d 52 d0 89 bd
       0.005127634 0.098841175 0.07248929 -0.06729187
0001f0 0d bc 46 3d 42 3d 2a bc 30 20 88 bd f1 e2 60 3c
       0.048519183 -0.010390582 -0.06646764 0.013725982
000200 20 b0 f6 bc 14 2e 23 bd dc 92 8e 3d f4 84 79 bc
       -0.03011328 -0.039838865 0.06961605 -0.015229452
000210 c1 12 37 3d c2 93 19 bd d3 59 cc 3c b2 da 0e 3d
       0.04469562 -0.03749443 0.024945175 0.034876533
000220 3a 34 07 3d c4 e7 77 3c 6e a8 ad 3d d6 fd b2 3d
       0.03300879 0.015130941 0.08479391 0.087398216
000230 0a 67 ad 3d 42 48 74 bc ec 34 fc 3c 8f 28 96 3d
       0.08466919 -0.014909806 0.030786954 0.07331955
000240 d0 a3 9b bd 9b 90 89 3d a9 f8 4a 3d 63 3b ca bd
       -0.07599604 0.067170344 0.049553547 -0.09874608
000250 14 ab cb bd 41 00 bd bd 57 4d 71 3d ce e9 8c 3d
       -0.0994474 -0.09228564 0.058911648 0.06880532
000260 b1 ca 3c 3d b5 8b 9d bd dd fb 73 bd 1e ed 86 bd
       0.04609174 -0.076926626 -0.059566367 -0.06588195
000270 8c ad c3 bd a4 9d bb bc 13 09 7e 3c 3e 23 5c 3d
       -0.09554586 -0.022902317 0.015505093 0.053744547
000280 c4 c6 7c 3d 2d 40 23 3c 12 db c8 bd 6f ed 59 3d
       0.061712995 0.009964031 -0.09807409 0.05320495
000290 6b 9b a3 3d d7 51 b4 bd 38 cc b3 bd ee ba 1d bc
       0.07988628 -0.08804672 -0.08779186 -0.009627087
0002a0 08 35 b1 bd 87 51 6a bd af 83 be 3c 3a 99 2d 3c
       -0.08652693 -0.057206657 0.023256151 0.010595614
0002b0 f2 bc 78 3d 25 fc 3d bc 4d 7e ac bd 17 88 af bd
       0.060727067 -0.0115957605 -0.084225275 -0.08570879
0002c0 78 0a 71 bd 7e f6 87 3d c6 a3 2a 3d 2c 2e 30 3d
       -0.058847874 0.066388115 0.041660093 0.043012783
0002d0 2c 9a 16 3d d5 ce 37 3d fd 6e a9 3c da 77 a1 bd
       0.036768124 0.044874985 0.020682806 -0.07884188
0002e0 51 fb b7 bd 21 2b 9a bd 94 d0 7b bd f9 0a 86 bd
       -0.08983482 -0.075277574 -0.061478212 -0.065450616
0002f0 56 b9 90 bd fc 0c 92 bd 32 f6 50 bd 50 63 3c bd
       -0.070666 -0.07131383 -0.05101604 -0.04599315
000300 f3 a1 85 bd b8 d4 a3 bd 3f 34 42 bd a7 36 98 3d
       -0.0652503 -0.07999557 -0.047413107 0.07432299
000310 9e 38 7e 3d 24 28 c3 3c d2 49 15 bd bb 93 09 bd
       0.062065713 0.023822851 -0.036447354 -0.033588152
000320 64 5b af 3d 8e 39 cc 3d ee 44 08 3d c5 d4 c7 bd
       0.08562353 0.09971915 0.03326886 -0.097573794
000330 7e cf b4 bd c6 0c b1 bb f0 37 8e 3d 3a 4e 27 3d
       -0.088286385 -0.005403134 0.06944263 0.040846087
000340 27 a9 18 3d 8e 4c c8 bd d3 5a b0 3c b4 76 52 bb
       0.03727069 -0.09780227 0.021527683 -0.003211421
000350 df b0 e4 3b df ae c9 bd 96 6d ca bd ec 38 9f bd
       0.0069790925 -0.09847807 -0.09884183 -0.07774529
000360 6c 08 8c 3d 3d 8e f0 bc f6 17 be bd b1 cd 61 3d
       0.06837544 -0.0293647 -0.09281914 0.055127803
000370 0b 01 21 bd fa 57 c9 bd 79 f6 71 3d 94 d9 48 3c
       -0.039307635 -0.09831233 0.059072945 0.012258906
000380 ee ed cc bd f1 8e 6f bd 84 d9 b6 bd b1 b2 4e 3d
       -0.10006319 -0.05848593 -0.089282066 0.050463382
000390 ed f3 93 3d 2b 89 b3 bd c1 fd 50 bc 84 2f bb 3d
       0.072242595 -0.08766397 -0.012755812 0.09139922
0003a0 f6 05 a4 bd b5 e3 17 bd 9a d7 c5 bd bd 27 b1 bd
       -0.080089495 -0.037082393 -0.09660263 -0.086501576
0003b0 67 77 0c 3c 48 1b 55 bd 32 41 9d 3a 4e 77 c0 bd
       0.00857339 -0.05202797 0.0011997579 -0.093977556
0003c0 de 67 56 3d e7 44 f1 bc 34 68 5d bc a9 3c 94 bd
       0.05234515 -0.0294518 -0.0135136135 -0.072381325
0003d0 f7 b2 76 bd d8 cf 9a bc 9d 2f bd bd 08 45 a9 bd
       -0.060229268 -0.018897936 -0.09237597 -0.0826512
0003e0 bb 4c 5d bd 94 bb 23 bd a1 e7 13 bd 29 f1 7b bd
       -0.054028254 -0.03997381 -0.03610957 -0.061509285
0003f0 0c 81 85 ba 81 89 9a bd 3d c0 b4 bd 01 dc 2a bd
       -0.0010185554 -0.07545758 -0.08825729 -0.04171372

1.module.1.0.b_w f4 [8, 1]
000000 00 00 00 c3 00 00 80 42 00 00 00 42 00 00 80 41
       -128.0 64.0 32.0 16.0
000010 00 00 00 41 00 00 80 40 00 00 00 40 00 00 80 3f
       8.0 4.0 2.0 1.0

1.module.1.1.weight f4 [8]
000000 09 08 19 3f 2b 1c 0c 3f 98 ab 23 3f a1 8d 4d 3f
       0.59777886 0.5473048 0.63933706 0.80294234
000010 bf 49 04 3f 8f cf 81 3f ff d4 2d 3f 3b 1b fc 3e
       0.5167503 1.0141467 0.6790313 0.49239525

1.module.1.1.bias f4 [8]
000000 aa 57 80 3a 05 21 f3 bd 90 2d b0 3c 0c 01 48 be
       0.0009791751 -0.11871532 0.0215061 -0.1953165
000010 a2 1d e5 bc b3 c6 9c be 61 bc 58 bb 52 9f 48 be
       -0.027968232 -0.30620345 -0.0033071267 -0.19592026

1.module.1.1.running_mean f4 [8]
000000 84 37 a4 be 81 bc e3 bc 27 26 64 be 86 8b 67 be
       -0.32073605 -0.027799847 -0.22280179 -0.22611818
000010 04 2d b6 3d 1d ad b4 bd 68 7c b8 3d 64 8b 62 be
       0.08895305 -0.08822081 0.090081036 -0.22123486

1.module.1.1.running_var f4 [8]
000000 b1 2f 81 3d 25 5f 51 3d 9d c0 69 3d 7b 2d 98 3d
       0.063079245 0.051116128 0.057068456 0.0743055
000010 af f0 3b 3d b9 4e 58 3d 9e 4e a6 3d 7a 1e 9c 3d
       0.04588383 0.05280945 0.08120464 0.076230004

1.module.2.0.weight f4 [8, 8, 3, 3]
000000 27 1b a2 3d 23 6c 9a 3d 24 cf b1 3d 15 59 20 3d
       0.07915335 0.07540157 0.08682087 0.039147455
000010 34 58 c3 3d bd fc 8d 3d e5 65 9b 3d ca 44 9c 3d
       0.09538308 0.069329716 0.07587794 0.07630308
000020 a5 df 8a 3d 26 a4 6c bd 88 e9 23 3c 20 83 83 3b
       0.06780938 -0.05777373 0.010004409 0.004013434
000030 35 65 93 bd cc 94 77 ba 13 05 c7 3c 61 29 c8 3b
       -0.07197038 -0.00094444747 0.024294412 0.0061084484
000040 ac 98 3b 3d 98 4e 0c 3d 9f ec 00 3d ec 72 70 bc
       0.045799896 0.03425464 0.03147566 -0.014675837
000050 55 8d 30 3d 5b 3c cb bd 2d 10 07 bd 92 19 bb 3c
       0.043103535 -0.09923621 -0.03297441 0.022839341
000060 cf ba 9c bd d3 0c 58 bd 1d 76 cc 3c e4 7e 17 3d
       -0.076528184 -0.052746605 0.024958665 0.036986247
000070 ee 30 84 3c 9c 4f 05 3d ff bd 27 3c 19 ed b9 bc
       0.016136613 0.032546625 0.01023817 -0.022696065
000080 87 e6 8c bd f4 11 9f bd 06 41 d7 3c 83 c8 e8 3c
       -0.06879907 -0.07767096 0.026276123 0.028415924
000090 15 dc ae 3d 63 a0 70 3d 27 0c ec 3c 71 a1 a1 3c
       0.08538071 0.058746707 0.028814388 0.019730302
0000a0 61 5e 00 3c 7b dc b4 3c da 74 80 3b c7 20 d9 bc
       0.007835002 0.02207779 0.00392018 -0.026504887
0000b0 e3 72 92 bc 2d ec 94 bd 2d 85 92 bd 47 92 a6 bd
       -0.017877048 -0.072716095 -0.071543075 -0.08133369
0000c0 fa 34 8d bd 5b 27 62 bd fb 31 69 bd 2f 00 8e bd
       -0.0689487 -0.055213314 -0.05693243 -0.06933629
0000d0 5d 6d ac bd ff 2f 79 bd c2 32 20 3d e3 a7 01 3d
       -0.08419297 -0.06083679 0.039110906 0.03165425
0000e0 6c 79 22 3d 1a f4 21 3c aa ad 80 3c 12 37 38 3c
       0.03966658 0.0098848585 0.01570781 0.011243599
0000f0 fb af 02 3c e6 c4 0a 3c 14 c5 d6 ba 3c 0f cb 3d
       0.007976527 0.008469796 -0.0016385638 0.09915015
000100 ed 3d c9 3d ce 4e c9 3d 2b 3b 21 3d 66 17 b7 3d
       0.098262645 0.09829484 0.039363068 0.0894001
000110 6e 15 72 3b f8 1b 4c 3c aa 50 15 bd 73 67 21 3d
       0.0036939043 0.01245784 -0.03645388 0.039405297
000120 af 0e bd bd 5b 22 c3 bd e3 f8 84 bd 18 a9 ca bd
       -0.09231316 -0.09528037 -0.06492784 -0.09895533
000130 99 cb 8b bd c9 4e 7e 3d 66 bb 8b 3d 05 3e 3d bc
       -0.068259425 0.062086854 0.06822853 -0.011550431
000140 14 4d 9e bd 3e a3 25 bd 05 4d cb bd 61 32 c2 bd
       -0.07729545 -0.040438883 -0.099268 -0.09482265
000150 19 bd 2f bd a7 4c c6 bd a0 84 bf bd 44 a2 a7 b9
       -0.042904947 -0.09682589 -0.09351468 -0.0003197362
000160 66 2a 16 3d cb 60 40 bc 0f 82 84 3d 9e ec 53 3d
       0.036661528 -0.011741827 0.06470119 0.051739328
000170 45 2e fd 3c 72 7f 34 3d 0d 26 96 bd e7 a0 ac bc
       0.030905852 0.044066854 -0.07331476 -0.021072818
000180 43 85 82 bb 82 ad 47 3b 5b 96 8b bc 1a 15 34 bd
       -0.003983171 0.003046841 -0.017039469 -0.043965437
000190 36 c6 c8 3c 8f b3 e9 3c 76 d8 a6 bd 0a 5c bd bd
       0.024508577 0.028528003 -0.081467554 -0.09246071
0001a0 a6 d7 54 bd 19 49 9b bd 55 37 ae bd 4c d4 85 bd
       -0.05196347 -0.07582302 -0.085066475 -0.06534633
0001b0 5f 1a cd 3c ed a3 25 bd 58 25 89 bd 3e 98 a5 bd
       0.025036989 -0.040439535 -0.06696576 -0.080856785
0001c0 a8 1c 13 3d 74 64 8f 3d a8 a5 c0 3d f0 56 cc 3d
       0.035916 0.07001582 0.094065964 0.099775195
0001d0 97 f8 c9 3d 6a 37 ba 3c b4 67 9c bd a0 5d b9 3d
       0.09861868 0.022731502 -0.07636967 0.09051061
0001e0 20 48 31 bd 4c ce ad 3d 99 a2 b4 3b 01 c2 93 3d
       -0.043281674 0.08486614 0.005512547 0.07214738
0001f0 82 9d da bb 99 f7 4b bd 47 fb 1b bd cf 77 87 bd
       -0.0066716084 -0.049796674 -0.038081434 -0.066146486
000200 d9 53 33 bd 2d 4f a8 bd 91 50 bf bd 16 1b c6 bd
       -0.043781135 -0.082182266 -0.09341539 -0.09673135
000210 98 e2 a5 bd f2 7f a6 bd a6 1e 48 bd 32 1b d5 3c
       -0.0809986 -0.081298724 -0.048857354 0.026013944
000220 f2 e6 50 3c 63 2d 89 3d 13 9a 83 3d fc f4 6c 3d
       0.012750374 0.0669811 0.06425872 0.057850823
000230 e4 1f 81 3d a2 eb 9f 3d c7 0e 18 3c 1b 1f da 3c
       0.06304911 0.07808615 0.009280867 0.02662616
000240 b3 87 c3 bd 7b dc 9f bd 03 71 f5 3b b5 22 b6 bd
       -0.09547367 -0.07805725 0.0074902787 -0.088933386
000250 9b b2 6c bd 5d 23 17 3d 93 ff 70 3c 05 1e dd bc
       -0.05778752 0.03689896 0.014709371 -0.026991853
000260 cb df 4b 3c 87 ce b1 bc 78 1a 38 bc e4 00 1f bd
       0.012443493 -0.021704925 -0.011236779 -0.03881921
000270 d4 e7 7c bd 6f b5 c1 bd 97 10 25 bd a0 66 bd 3c
       -0.061744526 -0.09458434 -0.040299024 0.023120224
000280 9a 6b ea bc 5c fe c7 bd d7 37 4b 3d a2 4b c5 bd
       -0.028615762 -0.09765312 0.0496138 -0.096335664
000290 cc 2b b4 bd fd fb d3 3c 18 d4 64 bd 0b 27 29 bd
       -0.08797416 0.025876993 -0.05586633 -0.041297
0002a0 9f 14 a2 bd 53 cc c5 bd 4f 98 84 bd 89 dc af bc
       -0.079140894 -0.096581124 -0.06474363 -0.021467464
0002b0 36 97 77 3d 79 4c b0 3d b0 23 c0 bd f9 cf 91 bd
       0.06044694 0.08608336 -0.09381807 -0.07119746
0002c0 ee c2 27 3d 7a 6e cb bd eb 41 c2 bd d7 be 05 3d
       0.040957384 -0.09933181 -0.09485229 0.032652702
0002d0 60 2b 0d 3c 55 78 cc bd 9c ed 61 bd b2 bd 88 bd
       0.008616298 -0.09983889 -0.055158243 -0.066768065
0002e0 30 c5 93 bd 8c cd ad bd b2 64 84 3d 58 7f a6 bd
       -0.07215345 -0.084864706 0.064645186 -0.08129758
0002f0 80 d2 ac bd 31 33 9e bd ee 3b 6b bd 18 7b af bd
       -0.08438587 -0.07724608 -0.0574302 -0.085684
000300 65 86 a3 bd fd 77 ae bd 8c 2f 70 bd 15 b2 7f bd
       -0.07984618 -0.0851898 -0.058639094 -0.06242569
000310 4c 09 c0 bd 10 c5 bb bd 1f 7e b5 bd 5a f1 40 3c
       -0.09376773 -0.09168446 -0.08861946 0.011776293
000320 e8 bd a4 3d e7 8e 75 bd 81 bf 96 bd ad 59 12 bd
       0.08044034 -0.059950735 -0.07360745 -0.035730053
000330 3e 00 f7 3b 37 cc 38 bd f4 b0 a0 bd e0 81 1c bd
       0.0075378707 -0.04511663 -0.07846251 -0.038209796
000340 59 38 6d bc 89 07 5f 3d c3 ea 55 bb 56 a8 16 3c
       -0.014478766 0.054450545 -0.003264115 0.009195408
000350 ef be ae 3d 9e b7 73 3d e8 8a 43 3d 96 16 9f 3d
       0.085325114 0.059501283 0.047739893 0.0776798
000360 b8 28 26 bd d3 f3 9b 3d 14 81 9e bd 64 06 9c 3d
       -0.040566176 0.07614865 -0.077394634 0.076184064
000370 d8 25 c9 bd 03 70 b8 bd f6 f5 66 3d a2 68 a1 bd
       -0.09821671 -0.090057395 0.05638691 -0.07881285
000380 08 e3 86 3b d4 59 e1 3a db eb 3c 3b cb c9 9b 3b
       0.0041164197 0.0017192909 0.0028827104 0.00475428
000390 14 4e 0e 3d d6 a0 24 bd 15 2b 3e 3d 74 ec 74 bd
       0.03474243 -0.040192448 0.046427805 -0.05979581
0003a0 56 18 b2 bd e4 ba c6 3d ff 3a c3 3d db 78 c8 bc
       -0.08696048 0.09703615 0.09532737 -0.02447169
0003b0 a6 eb 29 bd fa 7c c5 bd 4a 09 89 bb 00 ae bd 3d
       -0.041484497 -0.09642978 -0.0041820155 0.092617035
0003c0 6c 29 c8 3d 2d d7 ef bc 1d 8a bc bd d0 8a e3 bc
       0.097735256 -0.029277408 -0.092060305 -0.027776152
0003d0 0b 60 8d bd af ff 8c bc d1 ac 5e 3d 3c 28 ef bc
       -0.06903084 -0.017211763 0.05436403 -0.02919399
0003e0 15 01 80 bc 36 0b 85 3d a0 b1 29 bd 6f b1 c2 bd
       -0.015625516 0.06496279 -0.041429162 -0.09506499
0003f0 c7 b4 c8 bd 7d 17 a2 bd 45 0d b1 bc ff 8f c6 bd
       -0.098001055 -0.07914636 -0.021612773 -0.09695434

1.module.2.0.b_w f4 [8, 1]
000000 00 00 00 c3 00 00 80 42 00 00 00 42 00 00 80 41
       -128.0 64.0 32.0 16.0
000010 00 00 00 41 00 00 80 40 00 00 00 40 00 00 80 3f
       8.0 4.0 2.0 1.0

1.module.2.1.weight f4 [8]
000000 a3 b6 ea 3e c3 ba 19 3f fc f4 3d 3f 14 8e 2e 3f
       0.45842466 0.600506 0.7420194 0.68185544
000010 13 43 0f 3f 4d dd 1e 3f 56 c2 27 3f 27 cd 1c 3f
       0.5596172 0.6205643 0.6553091 0.6125054

1.module.2.1.bias f4 [8]
000000 80 5a 54 be 6e fb b7 3b f3 27 8d bd 4d dd f0 bd
       -0.20737648 0.0056146896 -0.06892385 -0.1176096
000010 4c a0 89 bd 4d 76 23 be a0 d4 80 bd d9 54 7c 3d
       -0.06720027 -0.15963097 -0.06290555 0.061604355

1.module.2.1.running_mean f4 [8]
000000 a0 88 46 3d 2f b2 5f be 41 ac eb be 1a b8 a0 bd
       0.04847014 -0.21845315 -0.46029857 -0.078476146
000010 c1 a6 88 bd fa c2 5d be 0f f5 bd 3d 60 e1 7d be
       -0.06672431 -0.21656409 0.09275257 -0.24793005

1.module.2.1.running_var f4 [8]
000000 70 da 44 3d 72 2c a8 3d b9 f7 a9 3d 21 91 6a 3d
       0.04805988 0.08211602 0.082992025 0.057267312
000010 f6 60 8f 3d 20 47 b2 3d f4 bc 81 3d 26 26 9b 3d
       0.07000916 0.08704972 0.06334868 0.075756356

2.module.0.0.weight f4 [8, 8, 3, 3]
000000 5a ce 5a bd c7 d7 36 3d 54 36 1c 3c 68 67 b0 bd
       -0.05341945 0.044639375 0.009534437 -0.08613473
000010 e9 96 71 bc 13 c8 90 bd 96 f8 5f bd 1c 5b a9 bd
       -0.014745452 -0.07069411 -0.05468043 -0.08269331
000020 aa 42 b6 bd 4a ef b6 3d 75 0e 9f 3d 11 02 80 3d
       -0.08899434 0.089323595 0.07766429 0.06250394
000030 ae 8b 8d bd 64 5d 93 bd 2a c5 84 bd b5 1f d8 bc
       -0.069114074 -0.07195547 -0.064829186 -0.026382307
000040 82 db 76 bd cf 7b 70 bd 6f a2 49 bd 4f a9 56 bd
       -0.060267933 -0.058711823 -0.049227174 -0.05240756
000050 7c 27 ca 3c 18 22 50 bd 85 c6 6f bd 7e 8b 02 3c
       0.02467703 -0.050813764 -0.058538932 0.007967828
000060 b6 3b aa 3d 82 94 7b 3d 8b e0 7a 3d 50 88 ca bd
       0.0831217 0.061420925 0.061249297 -0.09889281
000070 39 eb cb bd a7 c8 c1 bd b4 a4 cc bd 5d ab cc bd
       -0.099569745 -0.094620995 -0.09992352 -0.099936225
000080 d0 88 60 bd 22 43 c8 bd 21 8f cc bd 93 83 b9 bd
       -0.054817975 -0.097784296 -0.09988237 -0.09058299
000090 27 94 b3 bd ec 75 c7 bd ae 6f cc bd d9 82 89 bd
       -0.08768492 -0.09739289 -0.09982239 -0.0671441
0000a0 39 e7 a3 bd db 94 9e bd 5c f8 44 bc 46 23 08 3d
       -0.080030866 -0.07743236 -0.012022104 0.033236764
0000b0 92 36 2f 3d f1 47 a4 ba 81 4d 14 3d 8a 43 33 bd
       0.04277665 -0.0012533647 0.036206726 -0.043765582
0000c0 d6 1d c3 bd a6 79 b5 bd 92 c9 81 bd e1 02 52 bd
       -0.09527175 -0.08861093 -0.063372746 -0.051272277
0000d0 30 f1 8f 3c 43 71 46 bd e1 8a 88 bd 02 79 b4 3c
       0.017571062 -0.04844786 -0.06667114 0.022030357
0000e0 53 78 96 3c 69 d3 ee bc 57 d0 7c 3c 1e 3a 6e bd
       0.018367922 -0.029153543 0.015430531 -0.058160894
0000f0 26 59 67 3d 4e bb 94 3d 4b 45 56 bc 16 a9 af bd
       0.056481503 0.07262288 -0.013078044 -0.085771725
000100 0f a4 d6 3c 42 c2 9f 3c 79 19 28 3d 0b b3 4f 3d
       0.026201276 0.019501809 0.041039918 0.050707858
000110 0d 96 51 bd 49 18 0d 3d 04 f9 8a 3d 72 95 1d bd
       -0.05116849 0.03444699 0.06785777 -0.0384726
000120 8f 11 68 bd 82 17 ab bd 74 5f b5 bd 51 2a 95 bd
       -0.05665737 -0.08354093 -0.08856097 -0.07283462
000130 47 e4 62 bc 2f 3e 8c bd a9 09 21 bd 6a e9 55 3b
       -0.013848371 -0.06847798 -0.039315853 0.0032640346
000140 c8 ea 84 3c 64 9a e3 3c 98 69 f4 38 c5 21 b3 3d
       0.016225234 0.02778358 0.00011654495 0.087466754
000150 e7 d0 cc bd 26 14 aa 3d dc b7 c6 3d 57 9d b9 3d
       -0.100007825 0.08304624 0.09703037 0.09063213
000160 a4 a9 c2 3d 3a ce 13 3d 74 31 da 3c 9c 8b 84 bd
       0.09505013 0.036085345 0.02663491 -0.06471941
000170 fe 5a 33 bd 2c eb ad bd 24 05 61 bd 13 e7 58 3c
       -0.04378795 -0.08492121 -0.054936543 0.013238686
000180 40 3e bb 3d d1 e5 f3 bc 6e d2 65 3d 88 ee e9 3c
       0.091427326 -0.029772671 0.056108885 0.028556123
000190 e3 b3 86 3d be 46 c8 3d ad 62 e3 3a 06 d9 97 3d
       0.065772794 0.09779118 0.0017348133 0.07414441
0001a0 07 1e 22 3d a4 20 14 bd 1e 46 fd bc 03 bb a4 3d
       0.039579418 -0.03616394 -0.030917224 0.08043482
0001b0 ea 89 f4 bc 7e 9b a1 bc bb 4c b4 bd b7 b2 f2 bc
       -0.029850919 -0.019727465 -0.08803698 -0.029626234
0001c0 44 95 9c bd 5b 4e bd bd 46 92 99 bd 17 5b a2 bd
       -0.07645658 -0.09243461 -0.074986026 -0.0792753
0001d0 9b 6f 03 3d b5 f1 89 bd cf 4f a9 bd 24 5d 37 bd
       0.032088857 -0.06735555 -0.082671754 -0.04476656
0001e0 e0 a9 b6 bd 36 b9 28 3d 04 e7 b2 bc 6e c1 a1 bd
       -0.0891912 0.041192256 -0.021838672 -0.07898222
0001f0 d7 3d b3 bd 16 09 c7 bd 23 f8 c9 3d dd c0 a8 bd
       -0.087520294 -0.0971853 0.098617814 -0.08239911
000200 7d c4 82 bd ab 28 06 3d 3d 45 61 bd 4c 8f a1 3d
       -0.063851334 0.032753628 -0.05499767 0.0788866
000210 98 c2 c9 3d 05 ee 40 3d 1b 9a a5 bd a4 27 a7 bd
       0.09851569 0.047101993 -0.08086034 -0.08161858
000220 a7 0c bc bd d4 bb 9c bd f9 3f a4 bd 3e 0a bc bd
       -0.09182101 -0.07653013 -0.08020014 -0.09181641
000230 dc 75 bc bc 6f 14 a4 3d 8d b6 b4 3d 19 9c c8 3d
       -0.023005418 0.0801171 0.08823881 0.09795398
000240 50 07 cd 3b 12 0c 52 bd 30 3b bd bd 96 bd ba bd
       0.0062569752 -0.051281042 -0.09239805 -0.09118192
000250 43 db bd bd 15 69 ba bd cb 68 94 bd 88 e2 5c bd
       -0.092703365 -0.09102074 -0.0724655 -0.053926975
000260 58 d2 d8 3a 22 9f 5b bc b4 c7 c6 bc ee 8f 5f bd
       0.001654218 -0.013404639 -0.024265148 -0.05458062
000270 33 02 c1 bd d8 39 ad bd 22 3e ba bd 24 03 9d 3d
       -0.094242476 -0.084582984 -0.09093882 0.07666615
000280 f8 cf a3 3d c4 b9 7c 3d ce e1 a6 bd a4 5a 89 bd
       0.07998651 0.061700597 -0.081485376 -0.067067415
000290 07 76 57 bd 2f 50 b1 bd 12 bd 93 bd 36 57 30 bd
       -0.052602794 -0.08657872 -0.07213797 -0.04305192
0002a0 a1 3b ae 3d 7b 3e bc 3d 9e 19 b4 3d e6 11 bc bd
       0.08507467 0.09191605 0.087939486 -0.09183101
0002b0 5a 75 9c bd 96 2e c8 bd 9c 21 2f bd 95 f2 97 bd
       -0.076395705 -0.097745106 -0.04275666 -0.07419316
0002c0 a4 46 3a bb a1 af cb bd cf 39 1d bd b8 53 38 3d
       -0.0028423453 -0.09945608 -0.03838521 0.045001715
0002d0 61 5f bf bd 1e 75 bd bd 12 5a 9d bd cd 13 8d bd
       -0.09344364 -0.09250854 -0.07683195 -0.06888542
0002e0 6f 3e 04 3d 94 fa 0e 3d de 24 c4 3a 17 22 b0 3d
       0.032286104 0.03490694 0.00149646 0.08600252
0002f0 4a 99 2a 3d 7a 97 36 3d af 1a 8c bd f0 74 ae bd
       0.041650094 0.044578053 -0.06841027 -0.08518398
000300 bc 7a 1a b9 21 aa 8e bd 75 4a 38 bd 0b 3e c7 3c
       -0.00014732307 -0.06966043 -0.044992883 0.024321577
000310 0d a1 14 3d 20 ec 4d 3c e9 08 b4 3d a9 f8 a6 3d
       0.036286402 0.012568504 0.08790762 0.08152897
000320 b2 f5 cd bc 38 2c c9 bd ee e2 cc bd 53 ea cb bd
       -0.02514157 -0.09822887 -0.10004221 -0.09956803
000330 5f cf 41 3d 09 a6 36 3d 5b ee 03 3d 5b 69 de 3c
       0.047316905 0.044591937 0.032209735 0.027149847
000340 00 15 ab bd 8c e9 b3 bd aa 03 9e 3d de 2f 89 3d
       -0.08353615 -0.0878478 0.077155426 0.06698583
000350 bd 8e a9 3d 2d 7c b9 bd fd 85 97 bd 69 f5 ec 3c
       0.08279178 -0.09056888 -0.07398603 0.028925614
000360 8c 68 ab 3d c0 27 2d 3d df 74 7f bb 46 e4 db 3c
       0.0836955 0.042274237 -0.0038979573 0.026842248
000370 55 10 92 bd 19 ba cc bd 54 ab b8 bc c6 b8 9f bb
       -0.07132021 -0.09996433 -0.022542633 -0.0048743216
000380 83 d5 93 bd 11 1c 60 3d 70 90 75 3d 1e dc 06 3d
       -0.072184585 0.054714266 0.0599522 0.032924764
000390 0c 56 c6 bd 07 39 c9 bd 7b 2a c8 bd ef cc eb bb
       -0.09684381 -0.0982533 -0.097737275 -0.007196061
0003a0 6b 8c 38 bc 9a ed d1 3c 1d 4a dd bb 33 9e 86 bc
       -0.011263947 0.025625993 -0.0067532198 -0.016432857
0003b0 bb 4f 84 3d 8d e1 38 bb f5 b1 92 bd b9 ac aa bd
       0.0646052 -0.002821061 -0.07162849 -0.083337255
0003c0 f9 94 ac 3d 6c 34 1a 3d 2c ce 6c 3d 70 62 ff ba
       0.08426852 0.03764765 0.05781381 -0.0019484293
0003d0 e9 60 8b bd 9f cb 9a bd 34 93 64 3d e9 65 7b bd
       -0.068055935 -0.07558369 0.055804446 -0.061376486
0003e0 eb a5 67 bc cc a3 98 3d e6 cb fc bb 44 cb 21 bc
       -0.014138679 0.07453117 -0.0077147363 -0.009875122
0003f0 d0 79 b3 3d 7d f7 85 bd 37 25 b4 3d 8f 02 bf 3d
       0.08763468 -0.06541345 0.08796161 0.0932666

2.module.0.0.b_w f4 [8, 1]
000000 00 00 00 c3 00 00 80 42 00 00 00 42 00 00 80 41
       -128.0 64.0 32.0 16.0
000010 00 00 00 41 00 00 80 40 00 00 00 40 00 00 80 3f
       8.0 4.0 2.0 1.0

2.module.0.1.weight f4 [8]
000000 9c a1 3c 3f 8d 3f 20 3f a2 fc 4d 3f ad 1a 1b 3f
       0.73684096 0.6259697 0.8046361 0.6058758
000010 06 60 1f 3f d7 a6 4b 3f c0 3d 1d 3f 47 c7 f6 3e
       0.62255895 0.7955145 0.6142235 0.48198912

2.module.0.1.bias f4 [8]
000000 cd fc 4b be e6 07 05 bd 77 56 97 be 91 fa 12 be
       -0.19920655 -0.032478236 -0.29558155 -0.14353396
000010 5a bd 38 bc 43 3d 5e 3a 02 ec fc 3d 19 97 47 bd
       -0.011275614 0.00084777566 0.123497024 -0.048728082

2.module.0.1.running_mean f4 [8]
000000 50 18 db be 51 01 3e be 9e df cb be 15 5d 2a 3e
       -0.42791986 -0.1855519 -0.39819044 0.1663707
000010 8d 3c fe bd 24 8a 21 be 6b 54 58 be 91 fb ba 3d
       -0.12413893 -0.15775353 -0.21125953 0.09130014

2.module.0.1.running_var f4 [8]
000000 45 6b ac 3d 12 51 ba 3d 54 d7 d2 3d f3 d8 63 3d
       0.084188975 0.09097494 0.10294977 0.05562682
000010 4a d4 7a 3d 18 2e 95 3d 97 c5 a2 3d 78 05 98 3d
       0.06123761 0.07284182 0.079478435 0.07422918

2.module.1.0.weight f4 [8, 8, 3, 3]
000000 99 d4 32 bd 20 82 b5 bd de 2c 50 3d 57 b6 5a bd
       -0.04365978 -0.0886271 0.05082404 -0.05339655
000010 1b 55 fa bc 1e 70 bb 3d 0a 7c 98 bd a3 60 c3 bd
       -0.03055816 0.09152244 -0.074455336 -0.09539916
000020 5c dd 10 bd 47 51 b0 bd bb 05 7f bd 56 de 57 bc
       -0.035367355 -0.086092524 -0.062261324 -0.013175568
000030 cf e1 c8 bd 02 df c5 bd 7a 99 5d 3d de 0c bb bd
       -0.098086946 -0.09661676 0.054101445 -0.091333136
000040 84 f9 85 bc e8 1a 9a 3d 23 f7 03 3d 35 13 79 3d
       -0.01635433 0.07524663 0.03221811 0.060809333
000050 c1 a2 92 3d 0f e0 98 3d 1e 1f 9a 3d 07 c1 94 3d
       0.07159949 0.07464611 0.075254664 0.072633795
000060 be bf 8d bb 49 4b 38 bc a9 74 f0 3c 97 ec 0a bc
       -0.004325836 -0.011248418 0.029352503 -0.008479259
000070 f8 f8 72 3d 7a 60 fc 3c 84 3d 9a 3a bd 27 6f 3d
       0.059319466 0.030807722 0.0011767601 0.058387507
000080 d5 c6 e8 3c 5b de 5a bd 70 dc e8 3a 4d 41 3d 3d
       0.028415123 -0.05343471 0.0017765891 0.046204854
000090 45 b0 c0 bd 35 95 07 bd 05 1e 86 bd 85 3a b1 bd
       -0.09408621 -0.03310128 -0.065486945 -0.0865374
0000a0 81 25 cc bd 45 b9 0a 3b 64 41 a6 bd 9a 6c 09 3d
       -0.09968091 0.0021167558 -0.08117941 0.033550836
0000b0 0d c2 1b bd f3 f0 99 3d db a8 44 3d 41 7d 98 bd
       -0.038026858 0.075166605 0.048012596 -0.07445765
0000c0 ef d0 93 bc 98 79 88 bb b5 2d 81 bd 43 b1 4e 3d
       -0.018043963 -0.0041648857 -0.06307546 0.05046202
0000d0 f8 c5 fa bc 9a c4 87 bd be f1 bf bd ab ee ba bd
       -0.030611977 -0.06629296 -0.093722805 -0.091275536
0000e0 65 a8 89 bc 58 c6 ae bd 4c 27 8f bd 48 d0 46 3d
       -0.01680393 -0.08533925 -0.06989917 0.048538476
0000f0 23 96 bc 3d 28 11 ca 3d 28 18 81 bc 14 c5 ca 3d
       0.09208324 0.098665535 -0.015758589 0.09900871
000100 80 ed 7b 3d 06 f2 c6 bd 1c 77 93 3c ee 14 7f 3d
       0.061505795 -0.09714131 0.018001132 0.06227582
000110 db f7 07 bd 08 d1 5e bc 83 6f 94 3d 80 fd 22 3d
       -0.033195358 -0.013599642 0.07247832 0.039792538
000120 b8 c3 cb bd 1b 66 53 bd 14 2c 49 3d 66 fd ca bd
       -0.0994944 -0.051611047 0.0491143 -0.09911613
000130 70 47 6c 3c 71 96 ae 3d 3c d6 c1 bd 36 54 7f bc
       0.014421329 0.08524788 -0.0946469 -0.015584042
000140 24 6b c0 3d cf bb c3 bd ff 47 17 3d 88 20 60 bb
       0.093954355 -0.09557306 0.036933895 -0.0034199078
000150 4b 02 85 3d cc 2a a2 3d 65 9a 1d bd d7 66 97 3d
       0.06494578 0.07918319 -0.03847732 0.07392662
000160 82 b8 83 3d 0b 19 8d 3d 37 d2 43 3c 06 ae 5d 3d
       0.064316764 0.06889542 0.011951975 0.05412104
000170 6e 71 83 3d db b8 9b bb ab 0c 17 3d 0a 5c 73 bc
       0.06418119 -0.004752261 0.036877315 -0.014853487
000180 f8 9d 52 bb d8 2d e3 3a 85 13 7a 3d c8 7b 95 3c
       -0.0032137614 0.0017332388 0.06105377 0.0182475
000190 4f e0 e8 3c 1d 94 8a 3d 98 2a 32 3b f7 93 c1 bd
       0.028427271 0.067665316 0.0027186032 -0.0945205
0001a0 09 e4 bb bd 68 1c a5 3c 51 8e 1f bc 27 dc a4 3c
       -0.09174354 0.020155147 -0.009738521 0.020124508
0001b0 a2 25 27 bd 0e c6 ef bc 58 8f 91 3d 4a 0f b7 bd
       -0.040807374 -0.029269245 0.07107419 -0.08938463
0001c0 a8 78 8b 3d 02 7c 65 3d a8 59 8e 3d 7c e6 d8 3c
       0.06810123 0.056026466 0.06950694 0.026477091
0001d0 40 56 78 bd 4b f5 3a 3d d6 d4 ef bc 96 2b 10 3d
       -0.06062913 0.045644086 -0.029276293 0.035197817
0001e0 61 24 df 3c af 07 8e bc 04 20 85 3d 8e 02 71 3d
       0.027239027 -0.017337648 0.06500247 0.058840327
0001f0 96 a1 28 3d 70 c4 96 3d 70 f5 30 3d b9 90 4f 3c
       0.041169725 0.07361686 0.043202817 0.012668782
000200 7f ef b3 3d c2 22 9c bd 07 11 ae bd e5 f1 77 bd
       0.08785915 -0.07623817 -0.084993415 -0.060533423
000210 9a 8b b2 bd 1d c0 bd bd 5d 70 e7 3c 5b 68 b6 bd
       -0.08718033 -0.09265158 0.028251821 -0.08906623
000220 51 c1 fc ba 88 9d 94 bb 0d 0a ad bd 41 65 05 bd
       -0.0019283687 -0.0045353808 -0.08449183 -0.032567266
000230 0a f4 ba bd 7c 45 84 bd 6b 0e ae bd ff 89 cb bd
       -0.09128578 -0.064585656 -0.08498844 -0.0993843
000240 02 cd a0 3d df 9f 8c 3d eb 89 e6 39 65 28 bf 3d
       0.07851602 0.068664305 0.00043971775 0.093338765
000250 b6 31 8d 3d 6a a7 09 bd 1c ab c8 3d 0a 0f a4 3d
       0.06894247 -0.033606924 0.097982615 0.08010681
000260 2e 42 db 3c 4b 03 5b bc 24 ca b7 bd b3 dc c5 bd
       0.026764955 -0.013367484 -0.08974102 -0.09661236
000270 2d ef 37 3d f8 57 b0 bd d1 74 a1 bd 14 69 9a bd
       0.04490583 -0.08610529 -0.07883609 -0.07539573
000280 44 8e ae bd 2b f2 1b bd fa 32 71 3d 7d c7 42 bd
       -0.08523229 -0.038072746 0.058886506 -0.047553528
000290 a3 c7 4c bd 5d 90 6a 3d dd 2f a1 3c 44 fc 86 3d
       -0.049995076 0.05726658 0.019676143 0.065910846
0002a0 57 98 5f bc be be c9 bd ce d0 fb bc 1f e2 32 bd
       -0.0136471605 -0.09850834 -0.030739214 -0.043672677
0002b0 01 a9 50 bd 5d 8d a2 bd fb 8f be bd 5a 40 49 3d
       -0.050942425 -0.07937119 -0.09304806 0.049133636
0002c0 c5 46 00 bd f1 5d d2 bb fd f5 c1 bd 69 64 cb bd
       -0.03131749 -0.00641989 -0.09470747 -0.09931261
0002d0 7d 71 a4 3d 37 7f 71 3d aa 86 b4 bd 37 ac c5 3b
       0.08029459 0.058959212 -0.08814748 0.0060324925
0002e0 04 bc 2a 3d 2a 33 45 bd 60 4a a1 bc 7c 2c a8 3d
       0.041683212 -0.048144497 -0.019688785 0.0821161
0002f0 35 b6 12 bd 07 70 b8 bb 21 09 e0 3c 2f 1a c6 3d
       -0.035818297 -0.005628589 0.027348103 0.09672963
000300 cc 3f a0 bc c0 de 41 bc 3d 6b 23 bd 2e 65 90 bd
       -0.01956167 -0.011832893 -0.039897192 -0.070505485
000310 8b 53 92 bd b8 de c6 bc 25 ef 3d bc ef 82 88 bd
       -0.07144841 -0.024276122 -0.011592661 -0.066655986
000320 06 11 86 bc 58 54 42 bc bb f8 88 bd 19 e1 86 3d
       -0.01636554 -0.011860929 -0.066880666 0.06585903
000330 c5 d2 ac 3d f4 e4 d9 3c 7a ed fc bc cf 40 93 3d
       0.084386386 0.026598431 -0.030874956 0.07190096
000340 54 7f a6 bd 5d ec 8d bc 33 6e 10 bc 3a 1f a4 bd
       -0.08129755 -0.01732462 -0.008815336 -0.080137685
000350 ab c8 99 3c b9 c8 2a 3d 34 cf a9 bd 9c 2c ac 3d
       0.018772444 0.04169533 -0.08291474 0.08406946
000360 bb b0 8a 3d 4e ff 48 bb 46 ee ad bd fc ac 94 3d
       0.0677199 -0.0030669752 -0.08492713 0.07259557
000370 b9 05 86 bc ef cd b6 bd a4 a7 b0 3d 82 6b 90 3d
       -0.01636015 -0.089259975 0.08625725 0.070517555
000380 48 fb cb bd a5 e8 52 3b 1f 28 00 bd 11 6c b3 bd
       -0.099600375 0.0032182124 -0.031288262 -0.087608464
000390 de f7 1c 3d 5b cd fd 3c 0f 2f ab bd 22 dd 61 3d
       0.038322322 0.03098171 -0.08358585 0.05514253
0003a0 44 57 2b 3d f2 4e 71 bd 69 4a b7 3d f5 46 c7 3d
       0.04183127 -0.05891318 0.089497395 0.09730331
0003b0 a2 f4 b3 3d f5 da 4a bb d8 3a c4 3d 29 95 c2 3d
       0.087868944 -0.0030953262 0.09581536 0.09501106
0003c0 6e c9 52 3d f3 ec b9 3d ca 50 87 3d 25 10 d2 3c
       0.05146163 0.090783976 0.06607206 0.025642464
0003d0 ac b4 9e 3d 3e 92 86 3a 01 2c 7a 3d 26 1d be 3d
       0.07749304 0.0010266972 0.06107712 0.092829034
0003e0 28 7a 9a bc ea b9 8a 3d 36 4d fa 3a 92 69 94 bc
       -0.018857077 0.067737415 0.0019096497 -0.018116746
0003f0 78 e8 b2 3c 22 c1 8f 3d c0 85 3e 3d 3a 57 2d bd
       0.021839365 0.07019259 0.046514273 -0.042319514

2.module.1.0.b_w f4 [8, 1]
000000 00 00 00 c3 00 00 80 42 00 00 00 42 00 00 80 41
       -128.0 64.0 32.0 16.0
000010 00 00 00 41 00 00 80 40 00 00 00 40 00 00 80 3f
       8.0 4.0 2.0 1.0

2.module.1.1.weight f4 [8]
000000 2c 58 31 3f d7 0a 2a 3f c6 3c 3e 3f 4d 19 4a 3f
       0.69275165 0.6642279 0.7431148 0.78944856
000010 35 4c 1a 3f 5c 99 25 3f 6c e9 06 3f 95 08 22 3f
       0.6027253 0.6468713 0.52699924 0.63294345

2.module.1.1.bias f4 [8]
000000 56 c5 d7 bd 71 57 11 3d b0 a0 27 bd 6b 05 94 be
       -0.10535686 0.03548378 -0.040924728 -0.28910384
000010 32 f6 ce bd 6c d2 6d bd 25 27 09 be d3 a4 1c be
       -0.10105552 -0.058062002 -0.13393839 -0.1529725

2.module.1.1.running_mean f4 [8]
000000 85 03 2a be 99 8a 09 3c 69 7d e8 bd 4b 58 63 3d
       -0.16602905 0.008394861 -0.11352045 0.055504125
000010 89 45 77 bd 9c 3f ee bd 05 96 e6 bd c8 66 c1 3c
       -0.06036905 -0.11633226 -0.11259083 0.02360858

2.module.1.1.running_var f4 [8]
000000 f9 f3 88 3d f6 15 6e 3d 27 0a 63 3d c3 c3 84 3d
       0.06687159 0.058126412 0.055429604 0.06482651
000010 51 34 32 3d 3a e5 3c 3d 2b 66 e4 3d d8 97 95 3d
       0.043506924 0.046117045 0.111522995 0.073043525
