Securite/Model19/Result_bfa/clipping_0.1_0.01/checkpoint.pth.tar (torch, 533040 bytes, 118 tensors)

0.0.b_w f4 [8, 1]
000000 00 00 00 c3 00 00 80 42 00 00 00 42 00 00 80 41
       -128.0 64.0 32.0 16.0
000010 00 00 00 41 00 00 80 40 00 00 00 40 00 00 80 3f
       8.0 4.0 2.0 1.0

0.1.weight f4 [8]
000000 58 35 61 3e 15 5a b6 3e ae 83 ad 3e 45 6a 02 3e
       0.21993005 0.35615602 0.33889526 0.12735851
000010 6c 19 61 3e f8 ae 91 3e a7 13 ca 3e ec cb 32 3e
       0.21982354 0.28453803 0.3946812 0.17460603

0.1.bias f4 [8]
000000 6e fe a9 3d 56 14 70 be af 1a 99 3e a1 74 6a bd
       0.08300482 -0.23445258 0.2990317 -0.057240132
000010 82 6d 74 3d b2 1a af bc 21 95 8a be 16 bf 9a 3d
       0.059674747 -0.021375034 -0.270669 0.07555978

0.1.running_mean f4 [8]
000000 5b 89 73 3c 26 4d e6 bd fc 6f d7 bc be f5 48 bd
       0.014864291 -0.11245184 -0.026298515 -0.049062483
000010 8f 1c 0b 3d 5f 33 f5 3d 02 5d e9 3d bb 8a 4e bc
       0.033962782 0.11972689 0.11394693 -0.012606318

0.1.running_var f4 [8]
000000 95 2b 80 3d 88 a4 80 3e db 4b 3f 3d 54 46 35 3e
       0.062583126 0.25125527 0.0467032 0.1770261
000010 79 ac 1f 3e 27 f1 7f 3e 83 5b 90 3e 9e 02 6e 3e
       0.15593137 0.24994336 0.28194818 0.23243186

1.module.0.0.b_w f4 [8, 1]
000000 00 00 00 c3 00 00 80 42 00 00 00 42 00 00 80 41
       -128.0 64.0 32.0 16.0
000010 00 00 00 41 00 00 80 40 00 00 00 40 00 00 80 3f
       8.0 4.0 2.0 1.0

1.module.0.1.weight f4 [8]
000000 45 8e 52 3f 63 9e 13 3f 9e 21 35 3f df c9 5c 3f
       0.82248336 0.57663554 0.7075442 0.8624553
000010 41 73 21 3f ac c3 eb 3e 2a c7 ec 3e df b1 d7 3e
       0.6306649 0.46047723 0.462457 0.42127892

1.module.0.1.bias f4 [8]
000000 4a 22 2e 3f 11 66 50 3d 9d 87 81 be ee 80 a9 be
       0.6802107 0.050878588 -0.25298777 -0.33106178
000010 d3 b3 3a bd 55 bb 2e be f4 c6 80 be 69 12 ab bd
       -0.04558165 -0.17063649 -0.2515179 -0.08353121

1.module.0.1.running_mean f4 [8]
000000 d2 47 28 bd df 23 88 bc 32 44 b2 bc 1d 27 5a bc
       -0.04108412 -0.016618667 -0.021761034 -0.013314989
000010 f9 7d d3 bd 03 be c5 3c 8f b7 cc 3d 2a 5f ec bd
       -0.10326762 0.024138456 0.099959485 -0.115415886

1.module.0.1.running_var f4 [8]
000000 57 73 11 3c ee d2 9a 3c c1 4c 49 3c d4 e6 0d 3c
       0.008877597 0.018899407 0.012286366 0.008660991
000010 f4 a0 75 3c b3 ee 02 3c 49 3f 8c 3c 66 c4 87 3c
       0.0149919875 0.007991481 0.01712002 0.016573142

1.module.1.0.b_w f4 [8, 1]
000000 00 00 00 c3 00 00 80 42 00 00 00 42 00 00 80 41
       -128.0 64.0 32.0 16.0
000010 00 00 00 41 00 00 80 40 00 00 00 40 00 00 80 3f
       8.0 4.0 2.0 1.0

1.module.1.1.weight f4 [8]
000000 ed c7 0d 3f 96 9d 47 3f df ff 4e 3f 36 4e 2a 3f
       0.5538319 0.7797483 0.8085918 0.6652559
000010 80 7d 25 3f 38 76 2c 3f 24 95 2b 3f 45 12 14 3f
       0.6464462 0.6736789 0.67024446 0.5784038

1.module.1.1.bias f4 [8]
000000 5e b8 87 bc ee 0c 91 bd 90 51 8a be e2 c1 4d be
       -0.016567405 -0.07082544 -0.27015352 -0.20093492
000010 d8 ed ca bd af 94 3b be c4 b9 e8 3d 74 38 ec bd
       -0.09908646 -0.18318437 0.11363557 -0.11534205

1.module.1.1.running_mean f4 [8]
000000 83 00 49 be f5 27 34 be 0c 47 62 bd 51 07 31 bd
       -0.19629101 -0.17593367 -0.055243537 -0.043219868
000010 a2 2c a9 bd 09 2e 88 bd a8 6b 84 bd f5 e5 55 be
       -0.08260466 -0.066494055 -0.06465846 -0.20888503

1.module.1.1.running_var f4 [8]
000000 b8 ce 00 3e 4c d4 b6 3d d7 3f 4e 3d 41 24 56 3d
       0.12578857 0.08927211 0.05035385 0.05228067
000010 70 9e b6 3d 85 60 c0 3d 4e 53 71 3d 25 c5 e1 3d
       0.08916938 0.0939341 0.058917336 0.110239305

1.module.2.0.b_w f4 [8, 1]
000000 00 00 00 c3 00 00 80 42 00 00 00 42 00 00 80 41
       -128.0 64.0 32.0 16.0
000010 00 00 00 41 00 00 80 40 00 00 00 40 00 00 80 3f
       8.0 4.0 2.0 1.0

1.module.2.1.weight f4 [8]
000000 0e f3 38 3f 19 8b d7 3e da 18 39 3f f2 2f 12 3f
       0.7224587 0.4209831 0.72303545 0.5710441
000010 f0 27 f6 3e 96 cf 16 3f 5e 66 12 3f 58 eb 1b 3f
       0.48077345 0.589105 0.5718745 0.6090598

1.module.2.1.bias f4 [8]
000000 99 9f 7d bd 26 d5 97 bd 79 2f 92 bd 0d 24 c1 bd
       -0.061919782 -0.07413702 -0.07137961 -0.09430704
000010 39 e7 a5 3b 8b 0b 99 3c 96 8d 5f be c7 7a 6e be
       0.0050629643 0.018682262 -0.21831354 -0.23289023

1.module.2.1.running_mean f4 [8]
000000 b8 94 8d be a4 1a 61 be e1 e2 25 be f9 3e e8 be
       -0.27652526 -0.21982819 -0.16199829 -0.45360544
000010 e3 16 d5 bd 88 c0 08 be 11 3f 44 be a3 92 62 be
       -0.10404756 -0.13354695 -0.19164683 -0.2212625

1.module.2.1.running_var f4 [8]
000000 d4 f2 aa 3d 00 6e 6b 3d 2a 23 6c 3d ea ff a7 3d
       0.08347097 0.05747795 0.057650723 0.082031086
000010 af 9a 6d 3d 57 9f a6 3d e4 9c 5f 3d 77 38 80 3d
       0.058008846 0.081358604 0.054592982 0.0626077

2.module.0.0.b_w f4 [8, 1]
000000 00 00 00 c3 00 00 80 42 00 00 00 42 00 00 80 41
       -128.0 64.0 32.0 16.0
000010 00 00 00 41 00 00 80 40 00 00 00 40 00 00 80 3f
       8.0 4.0 2.0 1.0

2.module.0.1.weight f4 [8]
000000 3e cd 34 3f b2 e4 33 3f 12 61 22 3f e2 b2 27 3f
       0.70625675 0.70270836 0.6342937 0.6550733
000010 4f d9 1d 3f 52 99 52 3f 37 89 28 3f 65 7a 13 3f
       0.6165971 0.822652 0.65834373 0.57608634

2.module.0.1.bias f4 [8]
000000 6b 7b b8 3c b3 5e b7 bb 09 7b ab bd c9 12 45 be
       0.022519788 -0.005596006 -0.083730765 -0.19245447
000010 4d bf ea bd 60 3f d1 bd a2 61 66 bd bf 1c 0a bd
       -0.11462269 -0.10217166 -0.056245454 -0.03371882

2.module.0.1.running_mean f4 [8]
000000 cf f0 6e be f4 e1 9d be 0f 97 3d 3d f3 eb 88 bd
       -0.23334049 -0.3083645 0.04628664 -0.06685629
000010 3d ba e4 bd 2e 65 6f 3c a7 b2 14 be 89 77 15 3e
       -0.11168335 0.014611525 -0.14521275 0.1459638

2.module.0.1.running_var f4 [8]
000000 72 99 a2 3d 74 8e 9a 3d 0a 30 48 3d ac 5b 55 3d
       0.079394236 0.07546702 0.04887394 0.05208938
000010 4c 3a 46 3d a0 30 77 3d 6b 87 77 3d 70 43 2d 3d
       0.04839544 0.060349107 0.06043188 0.04230064

2.module.1.0.b_w f4 [8, 1]
000000 00 00 00 c3 00 00 80 42 00 00 00 42 00 00 80 41
       -128.0 64.0 32.0 16.0
000010 00 00 00 41 00 00 80 40 00 00 00 40 00 00 80 3f
       8.0 4.0 2.0 1.0

2.module.1.1.weight f4 [8]
000000 94 2f 32 3f 6e ae 3a 3f 19 80 33 3f 9e 80 25 3f
       0.6960385 0.7292241 0.70117337 0.6464938
000010 ac a1 1a 3f fb 26 22 3f 78 4b 24 3f 3e 4f 30 3f
       0.6040294 0.6334073 0.64177656 0.68870914

2.module.1.1.bias f4 [8]
000000 dc 4d 57 bd f0 4a 08 bd d3 41 76 3c bf d0 c2 bd
       -0.052564487 -0.03327459 0.015030342 -0.095124714
000010 d6 09 cf bd cd 76 5b be 47 1d 14 be 52 6e 46 be
       -0.10109298 -0.21432038 -0.14464293 -0.19378021

2.module.1.1.running_mean f4 [8]
000000 fa 20 18 3e c4 6d 8f be 2a 07 c1 be ce 24 e1 be
       0.1485633 -0.28013432 -0.37700778 -0.43973392
000010 bb 54 97 be 5c d8 97 3e 18 ac 80 be 9f 21 07 bc
       -0.29556832 0.29657257 -0.25131297 -0.008247762

2.module.1.1.running_var f4 [8]
000000 85 f1 9d 3d 1e 67 0e 3e dd 4c c4 3d 1a 31 be 3d
       0.07712082 0.13906524 0.09584973 0.09286709
000010 db a2 b3 3d 0b 18 c9 3d cd 15 c9 3d 6a 72 a7 3d
       0.087712966 0.09819039 0.09818611 0.081761196

2.module.2.0.b_w f4 [8, 1]
000000 00 00 00 c3 00 00 80 42 00 00 00 42 00 00 80 41
       -128.0 64.0 32.0 16.0
000010 00 00 00 41 00 00 80 40 00 00 00 40 00 00 80 3f
       8.0 4.0 2.0 1.0

2.module.2.1.weight f4 [8]
000000 ee 3d 62 3f ad d8 5d 3f 69 a5 59 3f 38 02 6a 3f
       0.8837575 0.86658746 0.8501802 0.91409636
000010 d1 91 64 3f 67 cf 58 3f e9 88 37 3f e7 94 4d 3f
       0.89285 0.8469147 0.71693283 0.8030533

2.module.2.1.bias f4 [8]
000000 2b 09 8e be e2 24 8b 3d b7 a5 e6 3d 43 ed fc bd
       -0.2774137 0.06794144 0.11262076 -0.123499416
000010 12 8e 85 bd f3 44 03 be 78 82 a3 bd 72 1d fa 3c
       -0.065212384 -0.12819271 -0.07983869 0.030531619

2.module.2.1.running_mean f4 [8]
000000 99 f1 8e be ab 09 3a be 9d 62 98 bd 2f 40 fe bd
       -0.279187 -0.1816775 -0.07440684 -0.12414586
000010 81 b2 16 be 97 93 5e bd eb 64 74 3d 98 da 12 3d
       -0.14716531 -0.05433997 0.059666555 0.035853

2.module.2.1.running_var f4 [8]
000000 1c e6 a4 3d d6 61 15 3e df 16 d0 3d 95 a8 10 3e
       0.080517024 0.14588103 0.10160612 0.14126809
000010 c1 67 b6 3d a4 53 ca 3d fd 6f 80 3d b4 5a 75 3d
       0.08906508 0.098792344 0.0627136 0.059900954

5.module.0.0.b_w f4 [8, 1]
000000 00 00 00 c3 00 00 80 42 00 00 00 42 00 00 80 41
       -128.0 64.0 32.0 16.0
000010 00 00 00 41 00 00 80 40 00 00 00 40 00 00 80 3f
       8.0 4.0 2.0 1.0

5.module.0.1.weight f4 [16]
000000 09 e2 28 3f 5b f8 29 3f cb 76 2a 3f ca ca 0f 3f
       0.659699 0.66394585 0.66587514 0.56168807
000010 82 b0 30 3f 5d 11 12 3f ea 3f 0c 3f 0a ca 09 3f
       0.6901933 0.57057744 0.54785025 0.5382391
000020 6a 61 23 3f a2 23 0d 3f 63 ec 1c 3f ad e6 39 3f
       0.6382052 0.55132496 0.612982 0.7261761
000030 02 c5 49 3f e9 16 2d 3f 8a 4c 41 3f f5 c6 56 3f
       0.78816235 0.67613083 0.75507414 0.83897334

5.module.0.1.bias f4 [16]
000000 f8 67 45 bd d7 bc b3 3c c3 84 6b bd b1 73 c6 be
       -0.048194855 0.021940632 -0.05749966 -0.3876014
000010 48 83 6d bd 30 cd 65 be a6 ae d2 bd 7e 8f ed bd
       -0.057986528 -0.22441554 -0.10287218 -0.115996346
000020 8d fd 36 be e3 71 9e be 05 5a 52 be 42 15 56 3c
       -0.1787016 -0.30946264 -0.20542152 0.013066592
000030 92 7d ce bc 73 0f 76 bc c0 62 31 be 36 ae d5 3d
       -0.025206361 -0.015018332 -0.17322826 0.10433619

5.module.0.1.running_mean f4 [16]
000000 4e bc ca be bb d3 e1 bd 14 26 9f be 4b d2 dd 3e
       -0.3959679 -0.110267125 -0.3108374 0.43324503
000010 bc 77 da be 4a c8 ad be 9a d6 09 bf 2f d1 0f 3e
       -0.42669475 -0.3394187 -0.5384308 0.14044641
000020 c4 1a 9e be 40 ed 20 3f c3 e5 43 3f 26 24 2b bf
       -0.30879796 0.62862015 0.76522464 -0.66852033
000030 ac 35 72 3e 10 b7 4e bf c4 fd 3e be 1f ad 98 be
       0.23653287 -0.8074808 -0.18651491 -0.2981958

5.module.0.1.running_var f4 [16]
000000 bc 6b e0 3e f7 99 af 3e 4c 0b c5 3e c5 bb be 3e
       0.43832195 0.34297153 0.3848518 0.37252632
000010 17 bd e3 3e 7a eb f7 3e d0 6b ee 3e b7 4a e8 3e
       0.44480202 0.48421842 0.4656663 0.45369503
000020 cf 7b b1 3e 8d c9 e1 3e ed 70 1e 3f f2 10 c7 3e
       0.3466477 0.44099084 0.6189106 0.38880116
000030 e4 a9 07 3f da b5 e5 3e 61 27 16 3f e0 f1 f5 3e
       0.5299361 0.44865304 0.5865384 0.48036098

5.module.1.0.b_w f4 [8, 1]
000000 00 00 00 c3 00 00 80 42 00 00 00 42 00 00 80 41
       -128.0 64.0 32.0 16.0
000010 00 00 00 41 00 00 80 40 00 00 00 40 00 00 80 3f
       8.0 4.0 2.0 1.0

5.module.1.1.weight f4 [16]
000000 fa c6 47 3f a8 a7 34 3f 8b ad 34 3f 27 d4 32 3f
       0.7803799 0.70568323 0.70577306 0.6985497
000010 7c 09 23 3f ce cf 32 3f 3a bd 44 3f b6 f5 23 3f
       0.63686347 0.69848335 0.76851237 0.640468
000020 e0 3a 2a 3f 3d c2 30 3f 2f e9 10 3f cc 08 11 3f
       0.66496086 0.69046384 0.5660581 0.5665405
000030 24 f6 39 3f 0c 8b 0f 3f 30 8f 26 3f f5 20 20 3f
       0.72641206 0.56071544 0.65062237 0.6255029

5.module.1.1.bias f4 [16]
000000 59 58 6d bc 3a ee 29 bd 0e ab 35 be 44 05 fb bd
       -0.014486396 -0.041486956 -0.17741033 -0.12256864
000010 80 62 d2 bd 04 d5 13 bc bb 6a 8f bd 75 3b 72 bd
       -0.10272694 -0.009022955 -0.07002779 -0.059138734
000020 9f 94 92 bc 95 e2 0f bc a4 0d cb bd 68 0f 0e be
       -0.017893134 -0.008782049 -0.09914711 -0.13873065
000030 48 49 c0 3b a0 9c 08 be 1b 75 60 3b 23 1a e2 bd
       0.005868111 -0.13340998 0.0034249488 -0.110401414

5.module.1.1.running_mean f4 [16]
000000 5d 1f ca be e5 f7 4c bd ab 11 22 be 9c 37 7e bd
       -0.39477053 -0.0500411 -0.15827052 -0.062064752
000010 88 dd 31 3e 7b 93 28 bf f8 ac 98 bd 25 61 10 be
       0.17369664 -0.6585004 -0.07454866 -0.14099558
000020 fa 92 6c be 02 56 05 bd f6 48 24 3e b1 ca 0c be
       -0.23102942 -0.032552727 0.16043457 -0.13749196
000030 30 9d 1e 3e d9 66 f5 bd f3 54 9b 3d 16 a5 1c be
       0.1548965 -0.11982507 0.07584562 -0.1529735

5.module.1.1.running_var f4 [16]
000000 f5 20 12 3e 7d f0 19 3e 5b 6b 9e 3e 82 22 ff 3d
       0.14270385 0.15033145 0.3094128 0.12457754
000010 28 ef d1 3d bb 77 7d 3e 62 23 53 3e 9b 36 fc 3d
       0.102506936 0.24752705 0.20618966 0.12315103
000020 8c 5f f3 3d c4 b3 e9 3d 5f 70 0f 3e 95 ae c1 3d
       0.118834585 0.11411241 0.1400771 0.09457127
000030 b8 f5 b2 3d bb 9b da 3d 2e 9f 06 3e 16 1d b0 3d
       0.087382734 0.106742345 0.1314666 0.08599298

5.module.2.0.b_w f4 [8, 1]
000000 00 00 00 c3 00 00 80 42 00 00 00 42 00 00 80 41
       -128.0 64.0 32.0 16.0
000010 00 00 00 41 00 00 80 40 00 00 00 40 00 00 80 3f
       8.0 4.0 2.0 1.0

5.module.2.1.weight f4 [16]
000000 77 b9 26 3f cf 20 5f 3f 9c de 23 3f 29 31 3c 3f
       0.65126747 0.87159437 0.6401155 0.7351251
000010 e3 88 36 3f 9a 17 1a 3f 1e 62 2e 3f d4 97 2f 3f
       0.7130262 0.60192263 0.68118465 0.68591046
000020 05 d1 2d 3f aa e6 05 3f 22 d5 27 3f f0 bb 44 3f
       0.67897063 0.5230509 0.6555959 0.7684927
000030 4e f8 3c 3f f4 92 2a 3f 80 a9 0f 3f e8 65 11 3f
       0.7381638 0.6663048 0.5611801 0.5679612

5.module.2.1.bias f4 [16]
000000 ad 52 7d bd 0c af c2 bc 85 c6 a2 bd 38 10 01 bc
       -0.061846424 -0.02376511 -0.07948021 -0.007877402
000010 f2 ad 2f bd b0 d8 33 be 58 c3 e3 bc 30 a0 96 bc
       -0.042890497 -0.17563128 -0.027803108 -0.01838693
000020 82 b9 5d bd 5e e1 56 bd 58 e5 9b bd d7 a5 87 bd
       -0.054131992 -0.05246102 -0.07612103 -0.06623428
000030 fc 9b 12 3d 11 43 b0 3c f9 7b 81 bd aa 85 40 be
       0.03579329 0.021516355 -0.06322474 -0.18800989

5.module.2.1.running_mean f4 [16]
000000 e6 6a e8 bd 30 80 8b 3d f4 c0 2f bc 94 67 e4 be
       -0.11348514 0.06811559 -0.010727156 -0.44610274
000010 30 f6 a8 bd cd 3e 02 be ca 29 df be ca aa 5e be
       -0.082500815 -0.12719269 -0.4358657 -0.21744838
000020 be e7 65 3e 24 1f 2b bb 51 3a b3 bb 09 a7 86 bd
       0.22451684 -0.002611109 -0.0054695983 -0.06574828
000030 ec 21 c0 be 6b 58 54 3e 3e 36 3b be 96 4d da be
       -0.3752588 0.20736854 -0.1828241 -0.42637318

5.module.2.1.running_var f4 [16]
000000 66 a9 c6 3d b7 37 d1 3d 01 e8 f8 3d ee cc 15 3e
       0.09700279 0.10215705 0.12153626 0.14628956
000010 de bd 0f 3e 57 5d af 3d 06 d8 f3 3d 01 fc f7 3d
       0.14037272 0.08562725 0.119064376 0.12108613
000020 37 cb fa 3d bd 66 ab 3d 24 2d 0c 3e 90 72 89 3d
       0.122457914 0.08369205 0.13689095 0.06711304
000030 2f 1a ab 3d 37 3e d7 3d fc 92 ae 3d ba 92 e5 3d
       0.083546035 0.105099134 0.08524129 0.112096265

6.module.0.0.b_w f4 [8, 1]
000000 00 00 00 c3 00 00 80 42 00 00 00 42 00 00 80 41
       -128.0 64.0 32.0 16.0
000010 00 00 00 41 00 00 80 40 00 00 00 40 00 00 80 3f
       8.0 4.0 2.0 1.0

6.module.0.1.weight f4 [16]
000000 ae 1d 26 3f 95 d6 32 3f 4b b9 33 3f e3 be 19 3f
       0.6488904 0.69858676 0.7020461 0.60056895
000010 0e d2 17 3f 99 3c 37 3f 08 94 1f 3f 43 64 41 3f
       0.59304893 0.7157684 0.6233525 0.7554361
000020 54 49 34 3f 0f 41 3b 3f c2 19 27 3f e4 2f 3c 3f
       0.7042439 0.73146147 0.6527368 0.73510575
000030 16 6f 17 3f f2 fc 10 3f fa 42 30 3f 59 18 2f 3f
       0.5915388 0.56635964 0.688522 0.68396527

6.module.0.1.bias f4 [16]
000000 3e 95 a8 bd e1 cc 3c bc d3 69 9f 3c 4d 03 4a bd
       -0.08231591 -0.011523456 0.01945964 -0.049319554
000010 1d 3b 19 bd cb bb 73 3c a6 48 b6 bc 6f 6f 04 be
       -0.03740989 0.014876316 -0.022251438 -0.12933134
000020 52 81 0d be 9b 6c e0 bc 16 ec 65 bd 1d c3 bf bc
       -0.13818863 -0.027395537 -0.056133352 -0.023408467
000030 a6 d7 d3 bd ba 3a 70 be 7d 08 ec bd cd ec 67 3d
       -0.10343866 -0.23459902 -0.115250565 0.056622315

6.module.0.1.running_mean f4 [16]
000000 0b 23 11 3d 68 64 7e be ee 16 49 3d 64 87 27 3f
       0.03543381 -0.2484299 0.049094133 0.65440965
000010 67 72 44 3d 0d be aa bc 0a 8f fa bd 1b 2b fa be
       0.047960665 -0.020842576 -0.12234314 -0.48861012
000020 33 40 87 be d9 47 84 be 75 47 54 be c4 c4 8e be
       -0.26416168 -0.25836065 -0.20730384 -0.27884495
000030 e8 28 3e bf 53 41 9d 3e d2 9f 02 bf 15 df 0f be
       -0.7428117 0.307139 -0.51025116 -0.14049943

6.module.0.1.running_var f4 [16]
000000 f5 d4 6c 3e 37 bf 53 3e 5c dd 25 3e cc 63 ad 3e
       0.23128112 0.20678411 0.16197723 0.338652
000010 6d 9d 2f 3e 49 02 8e 3e a1 d0 34 3e e5 e3 86 3e
       0.17149897 0.27736118 0.1765771 0.26345745
000020 d9 9b e4 3e d8 6e 31 3e e8 52 05 3f 8c 91 ac 3e
       0.44650152 0.1732744 0.5207963 0.33704793
000030 5b 25 c2 3e 1f e5 cf 3e c1 4c d3 3e 7b 93 b0 3e
       0.37919125 0.40604493 0.41269496 0.3448752

6.module.1.0.b_w f4 [8, 1]
000000 00 00 00 c3 00 00 80 42 00 00 00 42 00 00 80 41
       -128.0 64.0 32.0 16.0
000010 00 00 00 41 00 00 80 40 00 00 00 40 00 00 80 3f
       8.0 4.0 2.0 1.0

6.module.1.1.weight f4 [16]
000000 7c 6e 29 3f 33 62 2e 3f 45 a6 0a 3f 23 2d 46 3f
       0.6618421 0.6811859 0.5415996 0.77412623
000010 2c 83 2c 3f ca 61 36 3f 05 15 29 3f 73 0c 21 3f
       0.6738765 0.71242964 0.660477 0.6290962
000020 ae d3 28 3f eb 1d 1c 3f e4 3c 1e 3f 23 c7 28 3f
       0.65948 0.6098315 0.6181166 0.6592886
000030 61 f5 1e 3f 44 fd 3e 3f be 8e 36 3f 5c 0b 2c 3f
       0.6209317 0.746052 0.7131156 0.67204833

6.module.1.1.bias f4 [16]
000000 a5 b0 f5 bd 57 c7 2c 3d f6 71 30 be dd 59 52 be
       -0.11996583 0.042182293 -0.17230973 -0.20542093
000010 88 6a cd bd f3 b4 2a 3d 3a a7 81 bc 09 11 8d bd
       -0.10030085 0.041676473 -0.01582681 -0.06888015
000020 8b 18 bf bd f8 21 79 bd 37 c2 a4 bd 20 87 e0 bd
       -0.09330853 -0.06082341 -0.08044856 -0.10963273
000030 63 f5 d9 bd 65 ef 01 be ac 9d e1 bc fd 33 44 bd
       -0.10642507 -0.12688978 -0.027541004 -0.047901142

6.module.1.1.running_mean f4 [16]
000000 e2 23 84 3e 2c 51 3a be 88 6e 4a bd 58 c9 ff be
       0.25808626 -0.18195027 -0.049421817 -0.499583
000010 95 bd 08 bd 4b ec 8b be 5d 84 a2 bd 9d 0f 80 be
       -0.033383925 -0.27328715 -0.079354025 -0.25011912
000020 b9 21 56 be 2c e3 0a 3e e5 d7 3c bd 9d 30 88 be
       -0.20911302 0.13563222 -0.04610433 -0.2659959
000030 d4 7b 75 bd c7 35 77 bd 16 28 9e be 4f bb 2d be
       -0.059932545 -0.06035402 -0.30889958 -0.16965984

6.module.1.1.running_var f4 [16]
000000 cb e0 ea 3d 1c 55 6d 3d c8 23 18 3e 00 d3 13 3e
       0.11468657 0.057942495 0.148574 0.14435959
000010 35 3e d8 3d 8e 6b f0 3d 4d 56 9b 3d 01 ac b8 3d
       0.1055874 0.117392644 0.0758482 0.09017182
000020 11 f6 a8 3d 6a ae 50 3d 21 31 b5 3d c8 ca 05 3e
       0.082500584 0.050947584 0.08847261 0.13065636
000030 d0 3b 14 3e 90 6f e6 3d 17 52 ba 3d 3f 03 90 3d
       0.14475942 0.112517476 0.09097689 0.07031869

6.module.2.0.b_w f4 [8, 1]
000000 00 00 00 c3 00 00 80 42 00 00 00 42 00 00 80 41
       -128.0 64.0 32.0 16.0
000010 00 00 00 41 00 00 80 40 00 00 00 40 00 00 80 3f
       8.0 4.0 2.0 1.0

6.module.2.1.weight f4 [16]
000000 28 52 58 3f 9f 2e 4c 3f cf e1 48 3f 32 b0 3b 3f
       0.8450036 0.7975864 0.78469557 0.7331573
000010 f5 39 4b 3f 0c b4 54 3f 60 5d 4b 3f d1 5b 3d 3f
       0.7938531 0.8308723 0.79439354 0.73968226
000020 09 01 4a 3f 21 c8 46 3f 84 eb 4a 3f b6 2b 33 3f
       0.7890783 0.7764912 0.7926562 0.6998857
000030 59 f1 3c 3f 0a 22 57 3f 81 25 47 3f 66 82 59 3f
       0.7380577 0.84036314 0.777916 0.849646

6.module.2.1.bias f4 [16]
000000 53 60 80 bc 21 12 a4 bc 86 33 0c bd 03 f3 63 bd
       -0.015670931 -0.020028176 -0.034228824 -0.055651676
000010 cf c8 97 bd 95 69 cc bc fe ff 35 3c 7b 94 9e bd
       -0.07411348 -0.02495269 0.011108397 -0.07743164
000020 b6 d9 ee bb 04 8c 00 ba 15 f8 35 3b be 62 b0 bd
       -0.0072891368 -0.00049036765 0.0027766277 -0.086125836
000030 3a 5b 91 3c 57 2b c9 bc 9e e4 48 3c a5 e8 d5 bc
       0.017743696 -0.024556799 0.012261538 -0.02611191

6.module.2.1.running_mean f4 [16]
000000 68 dd 2d be 73 ba aa 3c 8e 1a fc 3c b6 76 07 3e
       -0.16978991 0.020840859 0.030774381 0.13228878
000010 7b a9 ef bd 0d 5e 97 3e 78 c5 66 bd b3 fb 22 3e
       -0.11702248 0.29563943 -0.056340665 0.15916328
000020 23 57 55 be 8a 91 8c 3e 69 b1 a3 bc dd 17 b1 3c
       -0.20834021 0.27454787 -0.019982057 0.021617824
000030 e9 49 8c 3e 7e 21 40 3e 1e 62 ac bd 91 a0 97 3e
       0.2740014 0.18762776 -0.08417152 0.2961469

6.module.2.1.running_var f4 [16]
000000 c0 29 ba 3d c8 39 8e 3d f8 9c 94 3d bb 40 f0 3d
       0.090899944 0.06944615 0.07256502 0.11731096
000010 7a 7c d6 3d db c5 0a 3e 91 08 06 3e 1c 6f fd 3d
       0.10472961 0.13552038 0.13089205 0.12374708
000020 50 33 82 3d 6e de 1a 3e b4 d6 bb 3d 31 5d 9c 3d
       0.06357443 0.15123913 0.09171811 0.07634962
000030 ba 98 d3 3d c7 ae c5 3d da 73 ec 3d a0 1e 03 3e
       0.10331865 0.09652477 0.115455344 0.12804651

9.0.b_w f4 [8, 1]
000000 00 00 00 c3 00 00 80 42 00 00 00 42 00 00 80 41
       -128.0 64.0 32.0 16.0
000010 00 00 00 41 00 00 80 40 00 00 00 40 00 00 80 3f
       8.0 4.0 2.0 1.0

9.1.weight f4 [32]
000000 c4 2d 34 3f 09 e7 2e 3f d3 bd 22 3f 60 a9 28 3f
       0.7038233 0.6832128 0.635709 0.65883446
000010 52 a9 30 3f b3 aa 18 3f 21 41 10 3f d3 4b 2f 3f
       0.6900836 0.59635466 0.5634938 0.68475074
000020 9f 45 37 3f f4 f9 24 3f 20 cc 24 3f c8 34 29 3f
       0.7159061 0.644439 0.6437397 0.6609616
000030 f7 a3 23 3f de ea 17 3f ad 0c 48 3f f5 ac 2c 3f
       0.63922065 0.59342754 0.7814434 0.6745141
000040 ff 29 2d 3f 92 0d 41 3f 0d b8 32 3f 3b 7b 18 3f
       0.67642206 0.7541133 0.6981209 0.59563035
000050 a8 98 19 3f 57 7f 32 3f b2 01 1f 3f 5f 5e 3f 3f
       0.5999856 0.69725555 0.6211196 0.74753374
000060 1e 3d 11 3f c8 5f 29 3f d8 6f 41 3f 0b d2 1c 3f
       0.5673388 0.66161776 0.75561285 0.61258
000070 c3 f4 15 3f 55 32 26 3f e8 5c 3d 3f a9 e7 26 3f
       0.585766 0.6492055 0.7396989 0.65197235

9.1.bias f4 [32]
000000 24 4c 31 be 18 63 8b bc cf 33 59 bd 10 07 25 be
       -0.17314202 -0.017015025 -0.053027924 -0.16115975
000010 76 68 4b bd f0 86 1a be 59 32 1b be 5b 98 83 bd
       -0.04966017 -0.15090537 -0.15155925 -0.06425544
000020 9a ea bb bd d9 b0 27 bd e4 a6 01 be ad 78 0b be
       -0.09175606 -0.04094014 -0.1266132 -0.13620253
000030 7b 1d 81 bd ee 06 6c bd 2b 95 a1 3d 38 6c 61 bd
       -0.06304451 -0.057623796 0.0788978 -0.055034846
000040 de 2f 8a be df 42 45 be 59 b1 7e 3c a6 e9 fc bd
       -0.26989645 -0.1926379 0.015545213 -0.123492524
000050 bc 85 a5 bd a5 70 03 be 95 d5 0c bd 3e 45 e8 bd
       -0.080821484 -0.12835939 -0.034383375 -0.11341332
000060 72 32 07 be 32 f6 b7 bc 6c 75 20 3e 09 22 d9 bd
       -0.13202837 -0.022456262 0.15669793 -0.10602195
000070 4f 0d c8 bd 80 03 89 bd b1 b7 87 bd 76 f1 33 bd
       -0.097681634 -0.06690121 -0.06626833 -0.043931447

9.1.running_mean f4 [32]
000000 69 2e 07 bf 20 ea c3 be 23 4c cc 3d e2 af 56 be
       -0.5280519 -0.3826456 0.099754594 -0.20965531
000010 bb f2 88 3d a6 92 a2 3e c1 7a f7 bd ca e6 e6 3b
       0.06686922 0.3175251 -0.1208396 0.007046555
000020 62 7d 08 be 2d d2 6a be 65 b4 82 be 26 a9 be bd
       -0.1332908 -0.22931738 -0.25528255 -0.09309606
000030 ad 87 71 be 63 02 55 3d 45 e3 32 be 91 84 e6 be
       -0.23586912 0.05200423 -0.17469509 -0.45023015
000040 59 97 7c bd 5f 51 29 bf 3e db 5e 3e 08 38 b0 3d
       -0.061667774 -0.6613979 0.21763322 0.08604437
000050 0a 46 d5 be e9 1b 1a bf 48 56 06 be 21 96 04 be
       -0.41654998 -0.6019884 -0.13118851 -0.12947895
000060 bf 54 6a 3d cd 28 4a bf 35 2e d1 be b4 ea 3a be
       0.057209726 -0.7896851 -0.40855566 -0.18253595
000070 38 b1 1a be 76 9e 24 be 0a c8 0e be 29 e4 98 be
       -0.15106666 -0.16076073 -0.13943496 -0.29861572

9.1.running_var f4 [32]
000000 c6 ba 6d 3f 70 2d 5e 3f 69 97 3b 3f 84 6e 45 3f
       0.9286312 0.8678808 0.7327791 0.7712176
000010 dc d7 9c 3f 52 8c f2 3e 13 a5 f0 3e a6 11 03 40
       1.2253375 0.4737268 0.47000942 2.0479522
000020 f7 cf ad 3f 78 77 1e 3f b3 d1 22 3f 51 67 57 3f
       1.3579091 0.61901045 0.63601226 0.84142023
000030 1b 95 40 3f 95 eb fe 3e 91 db ef 3f c0 bc 4f 3f
       0.75227517 0.4978911 1.8738881 0.81147385
000040 92 ac c8 3f 6c a6 ae 3f ee b2 43 3f a6 0e 8f 3f
       1.5677664 1.3644538 0.764449 1.1176345
000050 42 49 e9 3e 04 0b ad 3f b9 f2 37 3f f5 ab af 3f
       0.45563704 1.3518987 0.7185474 1.3724352
000060 89 b0 ef 3e a8 87 87 3f af 29 a6 3f a1 84 d4 3e
       0.46814373 1.0588274 1.2981471 0.41507438
000070 db e2 fd 3e 84 bd 8a 3f ac 53 86 3f c8 49 33 3f
       0.4958714 1.0839086 1.0494285 0.70034456

10.0.b_w f4 [8, 1]
000000 00 00 00 c3 00 00 80 42 00 00 00 42 00 00 80 41
       -128.0 64.0 32.0 16.0
000010 00 00 00 41 00 00 80 40 00 00 00 40 00 00 80 3f
       8.0 4.0 2.0 1.0

10.1.weight f4 [32]
000000 91 a2 23 3f 4e 50 24 3f ec e7 19 3f 80 eb 1e 3f
       0.6391993 0.64185035 0.6011951 0.62078094
000010 7b 4f 1a 3f f3 07 1c 3f f8 26 2e 3f 81 b6 1f 3f
       0.6027753 0.6094963 0.6802821 0.62387854
000020 ce f6 24 3f 99 b5 25 3f 58 f8 1b 3f 34 ac 25 3f
       0.64439094 0.6473022 0.6092582 0.64715886
000030 b0 da 2f 3f 19 cf 22 3f 1c f5 21 3f e4 fe 27 3f
       0.68693066 0.63597256 0.6326463 0.6562331
000040 e3 d2 22 3f 13 23 20 3f eb f4 1f 3f 59 d5 21 3f
       0.6360304 0.6255352 0.6248309 0.6321617
000050 f7 6e 31 3f 69 3c 1a 3f de 59 18 3f 59 01 1b 3f
       0.69309944 0.6024843 0.59512126 0.6054893
000060 4b a9 1f 3f 14 b5 1f 3f c8 54 29 3f 3d d1 1d 3f
       0.62367696 0.6238568 0.6614499 0.616474
000070 22 97 1a 3f 4d 1e 1c 3f 2b 4c 18 3f df 3d 26 3f
       0.6038686 0.60983735 0.59491223 0.6493816

10.1.bias f4 [32]
000000 57 78 86 be e8 7f a1 be b1 53 32 be 7b 86 96 be
       -0.26263687 -0.31542897 -0.17414738 -0.29399475
000010 57 6d 42 be 71 31 44 be 15 68 5c be 69 65 89 be
       -0.18987022 -0.19159485 -0.21524079 -0.26835182
000020 02 55 82 be 35 98 27 be 08 9d 8c be 4a ab c8 be
       -0.2545548 -0.16366656 -0.27463555 -0.39193183
000030 d9 87 40 be 32 1a 80 be 5a a3 6c be 56 49 1a be
       -0.18801822 -0.25019985 -0.23109189 -0.15067038
000040 a3 8e 94 be cc 93 ba be 32 15 45 be bb ea 6c be
       -0.29015073 -0.36440885 -0.19246367 -0.23136418
000050 d6 b4 a8 be 82 fe 2a be 3a 8f 21 be 0a 93 0a be
       -0.32950467 -0.1669865 -0.15777293 -0.13532653
000060 89 c4 3c be 22 f1 91 be 7b 86 42 be 2a 3c 43 be
       -0.18434347 -0.28504282 -0.18996613 -0.1906592
000070 30 94 23 be 88 13 30 be ad 30 3f be c3 e5 45 be
       -0.15974498 -0.1719495 -0.18670912 -0.19325928

10.1.running_mean f4 [32]
000000 54 1d 0a be 4c ec 60 be 61 c4 81 bd 65 c0 94 be
       -0.1348775 -0.2196514 -0.063362844 -0.29053035
000010 f6 44 02 be 87 2f 19 be e4 48 f2 bd 41 dd d2 bd
       -0.12721619 -0.14959536 -0.11830309 -0.10296107
000020 0c 7a a8 bd 63 d1 55 bc ce 4f 85 be 34 8d 41 be
       -0.082264036 -0.01305041 -0.2603745 -0.18901521
000030 9c a7 ab bd c1 e7 d8 bd b6 5e 40 be a4 45 59 be
       -0.08381578 -0.105910785 -0.1878613 -0.21217972
000040 67 72 44 be f1 53 a5 be a7 0a 81 be 6d 66 f4 bd
       -0.19184266 -0.32290605 -0.2520344 -0.11933599
000050 21 8c 56 be fe ab ee bc 0d e7 43 bd 54 6c 67 bb
       -0.20951892 -0.029134747 -0.04782777 -0.0035312371
000060 f2 2e 02 be c4 d5 54 be 34 46 ed bd 7b 1a 1d be
       -0.1271322 -0.2078467 -0.11585656 -0.15342133
000070 d4 9e 7d bd fa 9d 33 be 54 9c d1 bd 36 d6 dd bc
       -0.06191905 -0.17540732 -0.10234895 -0.027079683

10.1.running_var f4 [32]
000000 04 1b b2 3d 16 a9 ad 3d 8b ca d9 3d c0 ac 2c 3e
       0.08696559 0.08479516 0.10634335 0.16862774
000010 44 f2 e6 3d cc 93 ea 3d e3 64 9f 3d 0b 5d b0 3d
       0.11276677 0.11453971 0.077829145 0.086114965
000020 37 16 06 3e b6 32 20 3e d1 c2 db 3d 82 9f cc 3d
       0.13094412 0.15644345 0.10730518 0.09991361
000030 dc 0f f7 3d fe 16 b8 3d 12 e5 ea 3d 0f f2 c5 3d
       0.12063572 0.089887604 0.11469473 0.0966531
000040 91 62 b2 3d b7 e9 11 3e 9a 91 ba 3d 32 3d 84 3d
       0.08710206 0.14249311 0.091098025 0.064569846
000050 46 23 39 3e dc 49 ca 3d b1 a7 06 3e 08 08 9e 3d
       0.18079862 0.09877369 0.13149907 0.077163756
000060 1b 92 f7 3d ed bf a1 3d d0 3c d0 3d b5 ce cc 3d
       0.12088414 0.07897935 0.10167849 0.10000364
000070 e1 31 af 3d ee 4c f4 3d 54 f3 07 3e 4e 4c 2b 3e
       0.085544355 0.11928736 0.13276416 0.16728327

13.0.b_w f4 [8, 1]
000000 00 00 00 c3 00 00 80 42 00 00 00 42 00 00 80 41
       -128.0 64.0 32.0 16.0
000010 00 00 00 41 00 00 80 40 00 00 00 40 00 00 80 3f
       8.0 4.0 2.0 1.0

13.1.weight f4 [64]
000000 0f ae 7d 3f a9 02 8c 3f 4c 0f 85 3f 41 99 7d 3f
       0.9909372 1.0938312 1.0395293 0.9906197
000010 68 18 88 3f 92 f6 89 3f 9d fa 7a 3f ef ab 75 3f
       1.0632448 1.0778372 0.98038656 0.95965475
000020 53 3c 9c 3f b0 6d 81 3f a1 4c 87 3f 31 1b 80 3f
       1.220591 1.0111599 1.057026 1.0008298
000030 6d a0 7a 3f 29 ed 86 3f 54 9d 70 3f f3 a5 86 3f
       0.9790104 1.0541126 0.93990064 1.0519394
000040 09 7b 86 3f 67 24 87 3f dc 99 75 3f 06 9c 86 3f
       1.0506297 1.0557984 0.95937896 1.0516365
000050 88 d6 8b 3f 49 02 7d 3f b8 00 83 3f f0 43 8e 3f
       1.0924845 0.9883161 1.0234594 1.1114483
000060 8b 53 85 3f b7 e2 83 3f 35 d7 83 3f d1 bd 90 3f
       1.041612 1.0303563 1.0300051 1.1307927
000070 eb 2b 7a 3f a9 30 81 3f 37 21 7b 3f d0 a7 72 3f
       0.97723264 1.0092975 0.98097557 0.9478731
000080 89 d0 71 3f e0 0a 70 3f 9d 2a 79 3f ec 82 8d 3f
       0.94458824 0.93766594 0.9733065 1.1055579
000090 3c 02 89 3f 3d 64 70 3f 7d 0d 90 3f e2 dc 85 3f
       1.0703807 0.9390295 1.1254116 1.0458033
0000a0 7b 59 7c 3f 7f 72 7b 3f d7 ce 94 3f a1 66 71 3f
       0.98574036 0.9822158 1.1625623 0.94297224
0000b0 92 f0 8b 3f 42 d2 99 3f cd d5 7e 3f 97 84 6f 3f
       1.0932791 1.201729 0.99544984 0.9356169
0000c0 c6 7a 7b 3f d6 b1 81 3f 8d 3b 69 3f 7a 31 85 3f
       0.9823421 1.0132396 0.9110649 1.0405724
0000d0 5b 20 85 3f 9c 54 99 3f af 51 92 3f 2f c4 80 3f
       1.0400499 1.1978946 1.1431178 1.005987
0000e0 94 f2 78 3f c4 01 82 3f 9f 57 88 3f 40 bf 85 3f
       0.97245145 1.0156789 1.065174 1.044899
0000f0 cc b1 79 3f 1d a0 6e 3f 6f 1c 85 3f 82 1c 89 3f
       0.9753692 0.93213063 1.0399302 1.0711825

13.1.bias f4 [64]
000000 e7 24 8b 3e 1f 6e a2 3e 2e a5 a2 3e 77 63 a9 3e
       0.27176592 0.3172464 0.31766647 0.33083698
000010 9b 09 a4 3e 71 56 83 3e d5 fa 75 3e c5 7e 8f 3e
       0.32038578 0.25651887 0.24021466 0.28026405
000020 f0 72 ce 3e 73 c5 94 3e af 44 99 3e b2 81 51 3e
       0.40322065 0.29056892 0.29935214 0.20459631
000030 13 1f 79 3e 2a 0d a2 3e ff 83 3e 3e 44 a7 aa 3e
       0.2432826 0.31650668 0.1860504 0.3333074
000040 50 e4 9c 3e 3d d3 a1 3e f1 17 96 3e e6 59 72 3e
       0.3064294 0.31606475 0.2931514 0.23667106
000050 e7 0e 99 3e fe ea a7 3e 79 5e ac 3e 95 cf 9b 3e
       0.29894182 0.32796472 0.33665827 0.3043181
000060 1a f9 88 3e 9c 55 7f 3e d7 b0 a3 3e 8a 6a c6 3e
       0.2675255 0.24935001 0.31970856 0.38753158
000070 7e 03 53 3e 4a 3b 89 3e cf e1 65 3e b5 d1 7c 3e
       0.20606801 0.26803046 0.2244942 0.24689372
000080 8e a9 7c 3e a7 4c 8e 3e 74 89 95 3e 3a 2f 91 3e
       0.24674055 0.27792856 0.2920643 0.28356344
000090 fe d8 99 3e 5b 96 5e 3e c6 93 bd 3e 73 29 84 3e
       0.30048364 0.21737044 0.37026805 0.25812873
0000a0 11 20 a4 3e a0 23 83 3e 82 d1 ba 3e 43 81 82 3e
       0.32055715 0.25613117 0.36487967 0.25489244
0000b0 6b fa 98 3e ee 6a b8 3e 57 01 7c 3e 4f f7 79 3e
       0.29878554 0.3601908 0.24609886 0.24410747
0000c0 52 49 81 3e d1 18 7a 3e ed 10 08 3e 0a 12 8f 3e
       0.2525125 0.24423529 0.13287707 0.2794345
0000d0 ad 83 64 3e cf 2a b7 3e bf 16 aa 3e d9 57 8c 3e
       0.22315855 0.35774848 0.3322048 0.27410772
0000e0 a1 79 9a 3e 0b 4c a2 3e 0d 76 7e 3e 59 b1 92 3e
       0.3017092 0.3169864 0.2484972 0.2865093
0000f0 df ca 86 3e 06 b7 27 3e 25 2e 97 3e e0 43 a6 3e
       0.26326653 0.16378412 0.29527393 0.3247366

13.1.running_mean f4 [64]
000000 38 d8 9e bc c2 6a b0 bc 86 3f b3 bd 9a 9a 66 bc
       -0.01939021 -0.021535281 -0.087523505 -0.014074946
000010 af 56 b6 bd 07 9e bd 3d 93 60 a1 bb 27 dd e2 bc
       -0.08903252 0.09258657 -0.0049248426 -0.027693344
000020 d5 74 90 bc 40 fb eb bd a7 36 4b be 72 3a 04 3d
       -0.017633835 -0.115225315 -0.19845067 0.0322823
000030 fd 38 02 bd 08 75 17 be 70 39 d9 3b c9 b2 cf bd
       -0.03179263 -0.14790738 0.0066291615 -0.101415224
000040 63 f3 84 bd 64 f4 40 3d c3 b1 ab bd 98 e7 1a 3e
       -0.06491735 0.04710807 -0.08383515 0.15127409
000050 a4 bd e6 bc d1 f3 43 bd 4a d5 6a be 4b 61 e9 3c
       -0.0281666 -0.047839943 -0.22932926 0.028488776
000060 4e 2f 2b 3c e4 eb ab bd a1 65 35 3e 12 16 46 bd
       0.01044829 -0.08394602 0.1771455 -0.04836089
000070 e8 5e 5a bd 3a d1 64 bd 00 a0 98 bc 0f c9 a7 3d
       -0.053313166 -0.055863596 -0.018630981 0.08192646
000080 80 79 dd bd c7 f0 6e 3d f2 0a fa 3d e3 72 f4 bd
       -0.1081419 0.058335092 0.12209119 -0.119359754
000090 51 5e 48 be 0a ff 25 bd a1 5d ba bb 5d 3e f6 bd
       -0.19567229 -0.040526427 -0.005687431 -0.120236136
0000a0 32 4d b0 bd 50 a2 10 3b a5 1f 89 bd a4 94 c8 bd
       -0.08608474 0.0022069402 -0.06695489 -0.09793976
0000b0 01 be 05 be 44 43 15 3d 4f ba 1c 3c f1 6c 1d be
       -0.13060762 0.036441103 0.009565904 -0.15373589
0000c0 e5 1d b0 bd c7 50 1e 3e d0 ce 14 3e a8 0a 41 be
       -0.08599452 0.15460502 0.14532018 -0.18851721
0000d0 8a 58 0c 3e c0 c3 86 bd 13 16 33 3c 95 25 e0 3d
       0.1370565 -0.06580305 0.010930556 0.10944668
0000e0 81 6e 1e be ce 7b 20 be e3 9c 80 3d ab d8 15 be
       -0.15471841 -0.15672228 0.06279924 -0.14633434
0000f0 eb 34 0e 3d 4d 83 85 bd f5 15 85 be 2f 6c b7 3b
       0.034718435 -0.06519184 -0.25993314 0.0055976133

13.1.running_var f4 [64]
000000 7a 0a 14 3e 37 63 ec 3d bd fb 14 3e f6 c6 2b 3e
       0.14457121 0.11542361 0.14549156 0.16775116
000010 87 00 30 3e d7 9b 53 3e 1f 5d 05 3e d7 39 15 3e
       0.17187701 0.20664917 0.13023804 0.14572845
000020 a2 1e 7c 3e 6d f1 12 3e 9c 8a 1d 3e eb 12 2d 3e
       0.2462106 0.14349909 0.15384907 0.16901748
000030 bc 40 f1 3d 04 9e 32 3e 88 ae 4c 3e 70 d0 29 3e
       0.11779925 0.1744309 0.19988453 0.16583419
000040 8c 0d 4a 3e e8 a2 7b 3e c3 ff 2f 3e 78 6d 08 3e
       0.1973173 0.24573863 0.17187409 0.13323009
000050 2c b5 fe 3d 1b 7d 34 3e db 98 12 3e 06 7c 12 3e
       0.124368995 0.17625849 0.14316122 0.14305124
000060 68 48 22 3e b1 0b 42 3e 85 ea 26 3e 4c 81 08 3e
       0.15847933 0.18949772 0.163004 0.13330573
000070 5c 55 0c 3e 71 a5 41 3e f8 0f 12 3e 13 0d 27 3e
       0.13704437 0.18910767 0.14263904 0.16313581
000080 cf af c2 3d 83 6d 3a 3e 44 74 3b 3e 9f 6a 3f 3e
       0.09506189 0.18205838 0.1830607 0.18693016
000090 4b 51 15 3e b8 12 f3 3d f3 eb 86 3e fd 47 0a 3e
       0.14581792 0.11868805 0.2635189 0.13504024
0000a0 f4 4e 31 3e 83 61 3c 3e 0b 58 43 3e 35 79 ff 3d
       0.17315274 0.18396573 0.19076554 0.1247429
0000b0 69 8d 20 3e 88 c7 6b 3e 4e 7c 0f 3e 49 c7 0f 3e
       0.15678944 0.23025334 0.14012262 0.14040865
0000c0 5f 30 06 3e fc ba e8 3d 75 67 3a 3e 2a 7a 32 3e
       0.1310439 0.113637894 0.18203528 0.17429414
0000d0 2e 55 e0 3d 91 83 f3 3d ab 3c 5f 3e ac 10 11 3e
       0.10953747 0.11890329 0.21800487 0.14166516
0000e0 ca ea 3a 3e 3b 1a 19 3e 20 60 57 3e 2b 17 f8 3d
       0.18253627 0.14951412 0.21032763 0.12113794
0000f0 2d 4e 14 3e 17 1d d9 3d d5 de 21 3e 25 2e 8f 3e
       0.14482947 0.106012516 0.1580766 0.27964893

16.weight f4 [128, 64]
000000 7c bd 1b 3d 7c b9 cc 3d 8d ca cc 3d fd 00 4d bd
       0.038022503 0.09996316 0.09999571 -0.05004977
000010 80 f9 c4 3d fa ba cc 3d 5d 50 c2 3d 09 ce cc 3d
       0.09617901 0.099966004 0.09487984 0.100002356
000020 36 b5 54 bd 7c 0c c7 3d a7 f9 5d 3d 35 bb cc 3d
       -0.05193063 0.09719178 0.054193165 0.099966444
000030 7c b7 cc 3d a5 c7 cc bd 18 a3 b3 bd 35 ce cc 3d
       0.09995934 -0.09999017 -0.08771342 0.10000268
000040 ed b7 3c bd eb 37 20 3d e6 cb cc bd c2 7a ba 3d
       -0.046073843 0.039115828 -0.09999828 0.091054454
000050 46 bc cc 3d bb ac 9d bc 99 61 91 3c 0f de 8b bd
       0.09996848 -0.019247403 0.017746734 -0.06829464
000060 25 be cc 3d 5b a2 25 bb f5 36 02 3d 84 c5 cc bd
       0.09997205 -0.0025273773 0.031790692 -0.099986106
000070 f6 25 bc 3c 4a ce cc 3d 94 12 e5 bc dd 90 cc 3d
       0.02296732 0.10000284 -0.02796296 0.09988568
000080 e8 51 7a 3d 13 6f 8a 3c bc 12 6e 3d cc ed 92 bc
       0.061113268 0.016898667 0.058123335 -0.017935656
000090 96 e4 27 3c d5 e8 51 bd f2 3b 6e 3d e8 fc 36 3d
       0.01024737 -0.051247437 0.058162637 0.044674784
0000a0 83 cb cc bd dc b5 40 bc a6 9b ba bd 2e ca cc bd
       -0.09999754 -0.011762109 -0.09111719 -0.099995
0000b0 6e 0a 59 bd 64 c8 04 3d a9 4b c5 3c f3 7f bd 3d
       -0.052988462 0.03241767 0.02408393 0.0925292
0000c0 95 25 c0 3d f4 74 ad 3d 1d d1 c6 3d 90 6e 9e 3b
       0.09382168 0.08469573 0.09707854 0.0048349574
0000d0 ae 3f 13 3d 2e e7 5b bd 41 cf cc 3d 93 71 dd 3c
       0.0359494 -0.053687267 0.10000468 0.027031695
0000e0 d6 8d e8 bc fc ca cc bd 20 cc cc 3d 68 ce cc 3d
       -0.028387945 -0.09999654 0.09999871 0.10000306
0000f0 dd 7c 3c 3d 19 a0 87 3d db 32 ab 3d 7a ce cc 3d
       0.046017516 0.06622333 0.08359309 0.1000032
000100 1f 75 3a 3d cf 55 e8 bc c8 a3 67 bd 21 3a 36 3d
       0.04552185 -0.02836123 -0.05655268 0.04448903
000110 ad d8 1f 3d d6 c1 1a bd f7 74 d8 bb 3c d2 58 bc
       0.039024998 -0.037782513 -0.00660574 -0.0132337175
000120 e4 e6 81 3c 3f 3d a9 ba 33 22 87 bd 29 63 8f 3d
       0.015857168 -0.001291193 -0.0659832 0.07001335
000130 90 43 12 bd d2 f3 4f bd 17 88 13 3c 57 f6 2b bd
       -0.035708964 -0.050769635 0.009004614 -0.041982975
000140 4c 6b 76 3d 24 0d 54 bd ee da 7c 3d 20 b1 c6 3c
       0.06016092 -0.051770344 0.061732225 0.024254382
000150 83 0c b0 3c 6e 97 5a 3c 70 c1 83 bc 3f c5 a0 3d
       0.021490341 0.013341768 -0.01608345 0.07850122
000160 e6 f5 4e 3c af 6f 56 bd b0 75 a6 bd bf 6c ec bc
       0.012631869 -0.052352604 -0.08127916 -0.028860448
000170 d7 ab 4e 3d bb 67 89 bc 93 e7 54 3d ea 6a 06 bd
       0.050456848 -0.016773095 0.05197866 -0.032816805
000180 b3 15 c1 3d 22 b7 9f bc 21 4b 4f 3d 5e 19 b1 3c
       0.09427967 -0.019496504 0.050608758 0.021618541
000190 ef ee 77 bb 4e dc 81 3d 4f 3f f2 bc d8 1b 71 bd
       -0.0037831625 0.06340848 -0.029571204 -0.058864444
0001a0 bc 2e af 3d 77 b7 18 3c ef d1 6a bc 1c 5b 89 bd
       0.08553836 0.009321085 -0.014332279 -0.06706831
0001b0 68 29 76 bd 90 2b 34 bd 8e d3 40 bb 88 70 91 bd
       -0.06009808 -0.043986857 -0.0029422971 -0.07101542
0001c0 6c 60 75 3d 52 19 a6 bd 2c 99 33 3d b3 98 0b bd
       0.05990641 -0.08110298 0.043847248 -0.034081172
0001d0 7c 7f 08 bd 09 40 0f bd 15 3d 02 3c 5c 4a 98 bd
       -0.033324704 -0.034973178 0.007949133 -0.07436058
0001e0 92 88 14 3d ba 1f 19 bd 81 40 85 bd 8e 02 5f 3d
       0.036263056 -0.037383772 -0.06506444 0.054445796
0001f0 8a c6 b4 3c 0b b4 03 3c b9 d3 09 bd cb 0f 18 bd
       0.022067327 0.008038531 -0.03364918 -0.037124436
000200 cb 97 89 bd 33 57 82 bd e2 12 88 3d e2 31 fa 3c
       -0.06718405 -0.06364288 0.066442266 0.030541364
000210 d0 b6 7f 3d 64 b7 0f bd ef b1 8a bd 5d 76 88 3d
       0.062430203 -0.035087004 -0.067722194 0.06663201
000220 8d 3b 4b 3b 43 a8 3e 3d e8 8f 52 3d 2c 19 a6 3c
       0.0031010837 0.046547186 0.05140677 0.020275675
000230 ec 87 89 bc ef 93 89 bd 18 bf 32 bd fb df 0f bd
       -0.016788445 -0.06717669 -0.043639272 -0.035125714
000240 16 94 e6 bc 6c 66 c5 bc 04 98 6e bd f2 c7 d5 bc
       -0.028146785 -0.02409669 -0.058250442 -0.026096318
000250 7c 51 2f 3d 9a 08 ce bc 0e 26 47 bd db 7a 42 bd
       0.04280232 -0.025150586 -0.048620276 -0.047480445
000260 0f ba 32 bd 0e d9 ad ba 41 5f 8b bd 7f bf 80 3d
       -0.04363447 -0.001326354 -0.068052776 0.06286525
000270 cd 5e 38 bd a5 34 8b bd a9 3b 82 bd 8d cb 25 3d
       -0.045012284 -0.067971505 -0.063590355 0.040477324
000280 64 46 8a bd 34 f1 34 3d 16 85 f3 3c 02 56 61 3d
       -0.06751707 0.04417534 0.029726546 0.055013664
000290 78 33 a7 bc 20 ae ec 3b 61 8e 3f bc 14 ab 5f bd
       -0.020410284 0.0072229058 -0.011691661 -0.054606512
0002a0 18 dd 17 3d 2f 4e 3a bd 76 ab 76 3d 19 b4 89 bd
       0.037076086 -0.045484718 0.06022211 -0.06723804
0002b0 25 a7 53 bd a6 d4 89 bd 28 96 83 bd d7 88 87 3d
       -0.051673073 -0.067300126 -0.064251244 0.06617897
0002c0 89 e0 55 3d 24 74 5f bd 13 63 3f bd ce ce 8a bd
       0.052216087 -0.05455412 -0.046725344 -0.06777726
0002d0 3a 67 23 3d 35 63 8a bd 38 b9 2c 3d f0 29 8b bd
       0.039893366 -0.067572035 0.042168826 -0.06795108
0002e0 9b ac 89 3d 1e cc db bc c2 d8 23 3d 63 7f 8b bd
       0.06722375 -0.02683073 0.04000164 -0.068114065
0002f0 c7 d4 71 3d 66 12 a2 3b e6 af 8a bd 6c 95 3f 3d
       0.05904081 0.004946041 -0.06771831 0.04677336
000300 19 c0 56 3d 94 b3 cc 3d bb c4 ac 3d c6 cb 81 3d
       0.052429292 0.09995189 0.08435961 0.06337695
000310 be 23 cb 3d cd c4 cc 3d 36 03 17 bc 53 24 af 3b
       0.09918927 0.09998474 -0.009217074 0.0053449064
000320 8f cc cc 3d b9 fe a8 bd 0f 68 c6 bd 4c 3a ae 3d
       0.09999954 -0.082517095 -0.09687816 0.08507213
000330 ed 1c 02 3d cf 2a 1b bd 27 2c b6 bd 64 3d dc 3c
       0.031765867 -0.037882622 -0.0889514 0.026884742
000340 11 45 c9 bd e6 cc cc 3d be a1 25 bd 95 bf cc 3d
       -0.098276265 0.10000019 -0.040437452 0.09997479
000350 27 e4 c9 3d 0e e1 08 3d d3 7b 8e 3d 5b ca b7 bd
       0.0985797 0.033417754 0.06957211 -0.08974143
000360 2f 32 3f 3d 83 cb cc 3d 9f 5e d7 bc ed d0 25 3d
       0.04667872 0.09999754 -0.026290236 0.04048245
000370 65 98 3d bd 6d c8 b9 3d 7a 5a 19 bd 42 8e f9 bb
       -0.046287913 0.09071431 -0.0374398 -0.0076158354
000380 a8 64 07 bd d1 6c 36 bd 02 94 86 3d 43 b3 c9 3d
       -0.033054978 -0.04453737 0.06571199 0.098486446
000390 32 d4 2b bd 28 63 b3 bd 63 f3 98 3d fa db b8 3d
       -0.041950412 -0.08759147 0.07468297 0.09026332
0003a0 5e 64 4a 3d bd 5f e4 bc 95 27 cc 3d 19 27 81 bd
       0.049412124 -0.027877683 0.09968487 -0.063062854
0003b0 c3 7a c8 3c a3 cc cc 3d b6 2e aa 3c 5f aa 6d bd
       0.0244726 0.09999969 0.020774227 -0.058023807
0003c0 44 ba c1 3d 50 87 45 3d ed 10 16 3b e5 f4 ee 3c
       0.094593555 0.048224747 0.0022898272 0.02916951
0003d0 a3 0a ca 3d cb c7 cc 3d c4 ba 3d 3d 86 d3 38 3d
       0.0986531 0.09999045 0.04632069 0.0451236
0003e0 85 f5 63 3d 42 ad a5 3d ac 20 5b 3d 7d 08 5a bd
       0.055654068 0.08089687 0.053497955 -0.05323075
0003f0 01 66 b5 bd 42 93 ab 3c 9f b7 a1 bd e9 cc cc 3d
       -0.08857346 0.020944241 -0.07896351 0.10000021

16.b_w f4 [8, 1]
000000 00 00 00 c3 00 00 80 42 00 00 00 42 00 00 80 41
       -128.0 64.0 32.0 16.0
000010 00 00 00 41 00 00 80 40 00 00 00 40 00 00 80 3f
       8.0 4.0 2.0 1.0

19.weight f4 [10, 128]
000000 fa 2c cb 3d dc e2 b4 bc 61 51 5c bd 55 cf cc bd
       0.09920688 -0.022080831 -0.053788546 -0.10000483
000010 1e 1f 7b bd f5 ce cc bd 3a d1 cc 3d 39 ce cc bd
       -0.061308973 -0.100004114 0.10000844 -0.10000271
000020 83 67 cc bd 6d 24 59 bd 8e 8e ca 3d cb ce cc bd
       -0.09980681 -0.053013254 0.098904714 -0.1000038
000030 1c eb 33 3a 2a d0 cc bd 59 e1 cb 3d 29 ce cc bd
       0.0006863342 -0.10000642 0.09955091 -0.100002594
000040 d6 b3 b7 bc 64 3c 6b bd 59 cd cc bd 29 c2 cc bd
       -0.02242462 -0.05743064 -0.100001045 -0.099979706
000050 28 9d cc bd 4a fd a5 3d dc cb cc bd bc b2 ca 3d
       -0.09990913 0.08104952 -0.099998206 0.09897372
000060 e7 cc cc bd 3f da cc 3d 87 cc cc bd cd e0 bf bd
       -0.100000195 0.10002565 -0.09999948 -0.09369049
000070 50 b7 63 3d 96 d5 cc 3d 43 d1 cc bd 93 eb c2 3d
       0.055594742 0.10001676 -0.10000851 0.095175885
000080 17 2c ca 3d 44 8d cc bd 59 ab cc bd 4b ed a6 3b
       0.09871691 -0.09987882 -0.099936195 0.0050942055
000090 b5 96 cb 3d 1b de cc 3d 45 cb cb 3d da 9a cb 3d
       0.099408545 0.10003301 0.0995088 0.09941645
0000a0 8d eb cc 3d fa d7 cc 3d 4f ca cc bd 77 ab 3c bd
       0.10005865 0.10002132 -0.09999525 -0.04606196
0000b0 71 c9 cb 3d 72 93 68 bd 93 c3 cc bd aa 8d cc bd
       0.09950531 -0.05678124 -0.0999824 -0.09987958
0000c0 64 c1 68 bd 52 8e cb 3d 92 cd cc bd 0e 1b cc 3d
       -0.056825057 0.09939255 -0.10000147 0.09966098
0000d0 f0 c8 cc bd 1c 24 c1 bd 5b f2 ac bd 76 d0 9c 3d
       -0.09999263 -0.094307154 -0.08444663 0.07656948
0000e0 ce 63 bc bd b2 d7 cc 3d 15 cf cc bd 14 9d cc 3d
       -0.09198724 0.10002078 -0.10000435 0.09990898
0000f0 51 d9 cb 3d 4c 5e 22 bd 74 b3 cc 3d 37 90 cc bd
       0.09953559 -0.03964071 0.099951655 -0.09988444
000100 94 d0 51 bd 7b d3 cc 3d e1 99 cc 3d 99 d1 cc bd
       -0.051224306 0.10001274 0.099902876 -0.10000915
000110 ac 68 ca 3d 9d f0 8c bd 01 be cc bd 57 c2 cb 3d
       0.09883246 -0.06881831 -0.09997178 0.09949177
000120 56 ce cc bd 3d ce cc bd 9e da bd bd 68 87 b8 bd
       -0.10000293 -0.10000274 -0.092702135 -0.09010202
000130 7b a2 70 3d 64 4a cc 3d 70 cd cc bd a8 bb cb 3d
       0.058748703 0.099751264 -0.100001216 0.09947902
000140 1a a3 10 bd 73 5d 3c bb 17 31 5f 3d d1 cd cc bd
       -0.035311796 -0.0028742224 0.054490175 -0.10000194
000150 1b ce cc bd 24 4b cb 3d 3d 85 ca bc 26 86 cc bd
       -0.10000249 0.09926441 -0.024721736 -0.09986524
000160 88 06 cc 3d 0a 1a cb 3d 1b ce cc bd 38 57 ca 3d
       0.09962183 0.09917076 -0.10000249 0.09879917
000170 9b c3 cc bd 9e 8a cc bd e7 ce cc bd 86 e8 cb 3d
       -0.09998246 -0.09987377 -0.10000401 0.0995646
000180 0e ca c9 3d 0a c6 cb 3d 0c c6 cc 3d ca 42 17 3d
       0.09852992 0.09949882 0.09998712 0.03692893
000190 0c b0 cc bd 11 2c cb 3d e9 cb cc bd a7 a5 ac 3c
       -0.09994516 0.099205144 -0.0999983 0.021075083
0001a0 cb 46 1e bd a8 c1 cc 3d 37 03 03 bc 02 d4 cc 3d
       -0.038641732 0.099978745 -0.007996372 0.10001375
0001b0 45 24 b4 3d 25 ce cc bd eb 3d bc 3d c1 e0 cc 3d
       0.0879598 -0.100002564 0.091914974 0.10003806
0001c0 a7 d2 cc bd c1 a5 39 3d fe 87 cb 3d 18 b5 cc 3d
       -0.10001116 0.04532409 0.09938048 0.099954784
0001d0 96 a0 cc 3d 2b bd 8f bc 69 c9 cc 3d de df cc 3d
       0.09991567 -0.017546257 0.099993534 0.10003637
0001e0 b5 d5 ae bd 03 f6 ca bd db ce cc bd 65 37 cc bd
       -0.08536855 -0.09910204 -0.10000392 -0.09971503
0001f0 d4 ce cc bd 3c c1 16 bd 00 3f 53 bd 59 5c 94 bc
       -0.10000387 -0.036805376 -0.051573753 -0.018110441
000200 44 0f ca 3d b6 1e 73 3c 5c 4a 0d 3d 39 ca c9 3d
       0.09866193 0.014838865 0.034494743 0.09853024
000210 5a 42 bf 3d a7 cd cc bd 33 cc cc bd 81 31 a9 bd
       0.093388274 -0.100001626 -0.099998854 -0.08261395
000220 87 c4 cc bd 1a f6 c9 3d 31 ce cc bd ea 21 80 bd
       -0.09998422 0.09861393 -0.100002654 -0.062564686
000230 4a f5 c8 3d 6c cb cc bd c0 b8 cc bd d8 cd cc bd
       0.0981241 -0.09999737 -0.09996176 -0.10000199
000240 ca 4a be 3d ae 2b b0 bc f7 2b b1 bd ab c6 cc bd
       0.09291609 -0.021505203 -0.08650964 -0.099988304
000250 bd bc cc 3d 63 cb b4 bd a9 42 c7 bd 15 3a 4d bd
       0.099969365 -0.088278554 -0.09729511 -0.05010422
000260 91 bd cc bd 92 d0 cc bd 15 53 cb bd 54 a7 c9 3d
       -0.099970944 -0.10000719 -0.09927956 0.098463684
000270 d8 b0 8f 3c 26 ae 3e bd 43 af cb 3d 40 ca cc bd
       0.01754038 -0.0465528 0.09945538 -0.099995136
000280 f1 cf cc bd e5 34 cb 3d 06 a3 b0 bd 8b d0 cc bd
       -0.10000599 0.09922198 -0.08624844 -0.10000714
000290 dc d1 cc bd 0f cf cc bd e2 cf cc bd 24 6c c7 3d
       -0.10000965 -0.10000431 -0.10000588 0.09737423
0002a0 93 d0 cc bd 08 ae af 3c e6 cd cc bd fd ad cc bd
       -0.1000072 0.02144529 -0.100002095 -0.09994123
0002b0 42 c6 cc bd b5 a1 cc bd 5b fc 4f 3d 5b ba c6 3d
       -0.09998752 -0.09991781 0.050777774 0.09703513
0002c0 5d 5e 6f bd 8e cc cc bd 1e b4 cb 3d 37 cd cc bd
       -0.0584396 -0.09999953 0.09946464 -0.10000079
0002d0 1a ce cc bd f8 2a c9 3d a8 db ca 3d 97 c3 cc bd
       -0.10000248 0.09822649 0.09905177 -0.09998243
0002e0 a1 cd c9 3d c9 19 53 bd cd cb cc bd 7e cd cc bd
       0.09853674 -0.051538263 -0.099998094 -0.10000132
0002f0 e3 3c c9 3d b3 b2 ca 3d c5 c9 cc bd d7 8a cb 3d
       0.09826066 0.098973654 -0.09999422 0.09938591
000300 10 45 cc 3c 21 93 ca 3d 6a cd cc bd a3 4e a1 bd
       0.024935275 0.09891344 -0.10000117 -0.07876327
000310 ce ce cc bd 6e 2d c8 3d 74 50 cc 3d 45 be cc bd
       -0.10000382 0.0977429 0.09976283 -0.099972285
000320 93 5e cc bd 9e 43 cc bd 35 02 ca 3d fc b1 c7 3d
       -0.09978976 -0.099738345 0.09863702 0.09750745
000330 57 8c 97 3c b7 00 b2 3d 96 b9 cc bd 6d ca cc bd
       0.018499536 0.086915426 -0.09996335 -0.09999547
000340 6b 7c cc 3d 6f 46 fd bc 99 75 55 bb d3 02 ac bd
       0.09984668 -0.030917374 -0.0032571314 -0.08398976
000350 5a c2 cc bd bf b4 cc bd 0c e5 e0 3c 6c a7 cc bd
       -0.09998007 -0.09995412 0.027452968 -0.09992871
000360 00 cd cc bd 1d cf cc bd 50 7b c9 3d a2 cf cc bd
       -0.10000038 -0.10000441 0.09837973 -0.1000054
000370 aa e1 c7 3d 59 c0 c6 3d c4 8d cc bd 84 ec c7 3d
       0.09759839 0.09704656 -0.09987977 0.09761909
000380 ba 0a cb 3d f2 cc cc bd 82 d2 cc bd 34 d4 cb 3d
       0.09914155 -0.10000028 -0.10001089 0.09952584
000390 8a 97 aa bd da c0 cb 3d 1e d0 cb 3d fe d0 cc bd
       -0.08329685 0.09948893 0.099518046 -0.100007996
0003a0 53 f2 cb 3d 06 42 cb 3d 6c e3 ca 3d 2a ef 3f bd
       0.09958329 0.09924702 0.099066585 -0.046858944
0003b0 52 cf cc bd 68 12 c2 bd e5 cf cc bd 4f cf cc bd
       -0.10000481 -0.09476167 -0.1000059 -0.100004785
0003c0 49 55 cc 3d 72 a4 c8 3d 10 ce cc bd 14 cd cc bd
       0.09977204 0.097969905 -0.10000241 -0.10000053
0003d0 0f e5 b0 39 8d 2d b8 3d 6c c5 cc bd 55 cf cc bd
       0.00033739998 0.08993063 -0.09998593 -0.10000483
0003e0 43 7d 12 3d 4b 4d cb 3d 24 ba cc bd 26 a2 c9 3d
       0.03576399 0.09926852 -0.09996441 0.098453805
0003f0 3b 9c c8 3d 96 65 d0 3c 6b fa ca 3d 01 ab b3 3c
       0.097954236 0.025439065 0.09911045 0.021932127

19.b_w f4 [8, 1]
000000 00 00 00 c3 00 00 80 42 00 00 00 42 00 00 80 41
       -128.0 64.0 32.0 16.0
000010 00 00 00 41 00 00 80 40 00 00 00 40 00 00 80 3f
       8.0 4.0 2.0 1.0

momentum_buffer f4 [8]
000000 13 f8 c9 bd 3e f3 f2 3d 43 d8 be 3e 7c 0a d9 3c
       -0.098617695 0.11862801 0.3727437 0.026494257
000010 ac 71 13 3e 0e 58 e6 3c 44 a8 05 3e 50 e7 7b be
       0.14398831 0.02811816 0.1305247 -0.24599957

momentum_buffer f4 [8]
000000 24 f7 b2 bd c0 7e 48 3e 98 08 ba bc 50 4d 03 3e
       -0.087385446 0.19579601 -0.022709176 0.12822461
000010 6a 91 f4 bd fa aa de bd f0 53 c2 3d fa d0 2e 3e
       -0.11941798 -0.10872455 0.09488666 0.17071906

momentum_buffer f4 [8]
000000 b6 17 f4 bb f3 64 ac 3d c7 fb 96 bd 46 73 cd bc
       -0.0074491156 0.08417692 -0.073722415 -0.02507938
000010 08 e8 26 3c c8 fa 92 bd 51 fd 89 bd c4 55 9e 3d
       0.0101871565 -0.07176739 -0.067377694 0.07731202

momentum_buffer f4 [8]
000000 40 c0 86 3d 1c ca 40 3d e3 93 68 bd 1a c0 06 bd
       0.065796375 0.047067747 -0.05678166 -0.032898046
000010 36 0a 85 bd 2c f5 ae bc 34 2f 18 bd 72 a7 82 3e
       -0.06496088 -0.021357141 -0.03715439 0.25518376

momentum_buffer f4 [8]
000000 27 ec 5a bd 6c 2c fc 3b 32 a0 7f bd 16 7d 81 3d
       -0.05344787 0.007695725 -0.062408634 0.063226864
000010 5b 11 0c 3d 92 cf d0 bc 9a 4b 29 3d f8 b1 55 bb
       0.03419624 -0.025489602 0.041331865 -0.0032607298

momentum_buffer f4 [8]
000000 fe 89 7a bd 75 73 4e 3c 6c 0c af bc a2 0d a8 3d
       -0.061166756 0.012600769 -0.021368228 0.08205725
000010 d2 48 54 3c fd 97 7d bd 0a 82 be 3c 39 85 b2 bd
       0.012956815 -0.061912525 0.023255367 -0.087168165

momentum_buffer f4 [8]
000000 d0 96 e2 bc 30 3e 65 3d fc f5 2e bc 07 40 06 3e
       -0.027659804 0.05596751 -0.010678764 0.13110362
000010 0c 55 b2 bb 4f e1 dd bd 2a 0a 93 bc c8 57 d5 bc
       -0.0054422673 -0.1083399 -0.017949183 -0.026042834

momentum_buffer f4 [8]
000000 dc a6 40 bd 0c 0a b5 3d 40 49 57 bc e1 de b3 3d
       -0.04703413 0.08839807 -0.013140023 0.08782745
000010 7c 71 90 3d ac 79 31 bd f4 f6 1a bd f6 5b dc bd
       0.070528954 -0.043328926 -0.03783317 -0.10759728

momentum_buffer f4 [8]
000000 9c 3e 1a bd 53 ce 0e 3d 98 ea 2c bd 67 49 ca 3c
       -0.037657365 0.034864735 -0.042215914 0.024693204
000010 40 d5 16 bb a6 49 83 3c b9 d1 3b bb a0 33 3c 3d
       -0.002301529 0.01602633 -0.002865894 0.04594767

momentum_buffer f4 [8]
000000 85 e1 2f bd 80 c6 d8 39 fc 18 52 bc 1d 73 92 3c
       -0.04293968 0.00041346624 -0.01282334 0.017877156
000010 63 7f 00 3c b8 b5 52 3d 0e 4b 12 3d 06 5f 1c 3d
       0.007842871 0.05144283 0.03571611 0.03817656

momentum_buffer f4 [8]
000000 1b 32 e0 3c f0 3a af 3b 58 58 4e bc aa f7 82 bd
       0.027367642 0.005347602 -0.012594305 -0.063948944
000010 0d 56 8b 3d 0c ff bf bc 1a b0 e0 3d c7 2f b4 bd
       0.06803522 -0.023437046 0.10971089 -0.08798175

momentum_buffer f4 [8]
000000 72 41 55 3c 8e 0f 39 bd f7 53 8b bc 35 8a 69 bd
       0.013016092 -0.04518085 -0.017007811 -0.05701657
000010 92 80 83 3d 4e d2 e4 bc 25 05 be 3d e4 3a 50 bd
       0.06421007 -0.027932312 0.09278325 -0.050837412

momentum_buffer f4 [8]
000000 b3 be 5b 3d 46 db 0b 3b a7 28 78 3c d6 e9 3e 3d
       0.05364866 0.0021340414 0.015146411 0.046609722
000010 75 c9 8c 3b d5 d6 f5 3c cc 20 ae 3c 3c e3 38 3c
       0.0042964765 0.030009666 0.021255873 0.011284646

momentum_buffer f4 [8]
000000 4c 7f 90 3c f6 50 4a 3d 6e 82 92 bc 08 3c 20 3d
       0.017638825 0.049393617 -0.01788446 0.03911975
000010 5e 47 23 3d 5b 28 d2 3c 36 c3 21 3c 6c 62 e2 3a
       0.039862983 0.025654009 0.009873202 0.0017271764
