Securite/Model19/Result_bfa/clipping_0.1_0.01/model_best.pth.tar (torch, 533040 bytes, 118 tensors)

0.0.b_w f4 [8, 1]
0	0xc3000000	-128.0
1	0x42800000	64.0
2	0x42000000	32.0
3	0x41800000	16.0
4	0x41000000	8.0
5	0x40800000	4.0
6	0x40000000	2.0
7	0x3f800000	1.0

0.1.weight f4 [8]
0	0x3e6188a9	0.22024788
1	0x3ebbdc8b	0.36691698
2	0x3eb5a89b	0.35480198
3	0x3e25ba7c	0.1618442
4	0x3e6eb3b1	0.23310734
5	0x3e92fd73	0.2870899
6	0x3ec957d5	0.39324823
7	0x3e306b11	0.17228343

0.1.bias f4 [8]
0	0x3dd345e8	0.10316068
1	0xbe726f06	-0.23675165
2	0x3e9700b3	0.2949272
3	0xbd697ba0	-0.057002664
4	0x3d5178d5	0.051140625
5	0x3a84a85b	0.0010120975
6	0xbe8a561b	-0.27018818
7	0x3da9c83c	0.08290145

0.1.running_mean f4 [8]
0	0xbc255d22	-0.010093005
1	0xbde17089	-0.110077925
2	0xbd0fcf1e	-0.03510963
3	0xbd75e3cd	-0.0600317
4	0xba51d936	-0.0008005084
5	0x3dd31af0	0.10307872
6	0x3dc08e82	0.09402181
7	0x3c4f3197	0.0126461005

0.1.running_var f4 [8]
0	0x3d741885	0.059593696
1	0x3e9de8cf	0.3084168
2	0x3d6aa102	0.057282455
3	0x3e444703	0.19167714
4	0x3e0e55ac	0.13899869
5	0x3e7b38d0	0.24533391
6	0x3e87dcc5	0.2653562
7	0x3e6c055a	0.23048916

1.module.0.0.b_w f4 [8, 1]
0	0xc3000000	-128.0
1	0x42800000	64.0
2	0x42000000	32.0
3	0x41800000	16.0
4	0x41000000	8.0
5	0x40800000	4.0
6	0x40000000	2.0
7	0x3f800000	1.0

1.module.0.1.weight f4 [8]
0	0x3f50772d	0.8143185
1	0x3f154a98	0.58316946
2	0x3f361728	0.71129084
3	0x3f5db866	0.86609495
4	0x3f21cef5	0.63206416
5	0x3eea2b45	0.45736137
6	0x3ef1bf55	0.47216287
7	0x3ed61466	0.41812438

1.module.0.1.bias f4 [8]
0	0x3f2f67eb	0.6851794
1	0x3d2a6c6f	0.041607317
2	0xbe881965	-0.26581874
3	0xbeae340e	-0.3402409
4	0xbd823b87	-0.0635901
5	0xbe2ef18c	-0.1708433
6	0xbe800bf1	-0.2500911
7	0xbdc6cb22	-0.09706713

1.module.0.1.running_mean f4 [8]
0	0xbd163955	-0.03667577
1	0xbc24f581	-0.010068298
2	0xbc4f9f81	-0.012672306
3	0xbbf85d3e	-0.0075794747
4	0xbde9fb5d	-0.11424897
5	0x3cd86a89	0.026417987
6	0x3db486a9	0.08814747
7	0xbdf85ab4	-0.12126675

1.module.0.1.running_var f4 [8]
0	0x3c242017	0.010017416
1	0x3cb7318a	0.02236249
2	0x3c51563e	0.012776909
3	0x3c1697e6	0.009191489
4	0x3c9c3f66	0.0190732
5	0x3c30cde6	0.0107912775
6	0x3c906a8a	0.017628927
7	0x3c5ae6b3	0.013360667

1.module.1.0.b_w f4 [8, 1]
0	0xc3000000	-128.0
1	0x42800000	64.0
2	0x42000000	32.0
3	0x41800000	16.0
4	0x41000000	8.0
5	0x40800000	4.0
6	0x40000000	2.0
7	0x3f800000	1.0

1.module.1.1.weight f4 [8]
0	0x3f0dad58	0.55342627
1	0x3f47d0ae	0.78052795
2	0x3f51811b	0.81837624
3	0x3f2c7aef	0.6737508
4	0x3f26dfd8	0.6518531
5	0x3f2e3103	0.68043536
6	0x3f2b0342	0.66801846
7	0x3f14dd9e	0.5815066

1.module.1.1.bias f4 [8]
0	0xbbe06b55	-0.0068487325
1	0xbd96d047	-0.073639445
2	0xbe86bdc7	-0.26316664
3	0xbe4577e6	-0.19284019
4	0xbdb3af81	-0.08773709
5	0xbe329089	-0.17437948
6	0x3de501b8	0.111819685
7	0xbdef82a8	-0.116948426

1.module.1.1.running_mean f4 [8]
0	0xbe531fc3	-0.20617585
1	0xbe006416	-0.1253818
2	0xbd116330	-0.035494983
3	0xbc605b40	-0.013693631
4	0xbdb0ca06	-0.08632283
5	0xbcdb5515	-0.026773969
6	0xbda741eb	-0.0816687
7	0xbe6bb1d4	-0.23017055

1.module.1.1.running_var f4 [8]
0	0x3e00b9d9	0.12570895
1	0x3db57940	0.08861017
2	0x3d45874b	0.04822473
3	0x3d65630c	0.05600266
4	0x3dac80cc	0.084230036
5	0x3dbe58f9	0.09294314
6	0x3d57328d	0.052538443
7	0x3de1f4dc	0.11033031

1.module.2.0.b_w f4 [8, 1]
0	0xc3000000	-128.0
1	0x42800000	64.0
2	0x42000000	32.0
3	0x41800000	16.0
4	0x41000000	8.0
5	0x40800000	4.0
6	0x40000000	2.0
7	0x3f800000	1.0

1.module.2.1.weight f4 [8]
0	0x3f38954b	0.72102803
1	0x3edcd759	0.43133047
2	0x3f36dd99	0.7143188
3	0x3f12b878	0.57312727
4	0x3ef73d34	0.48288882
5	0x3f18ca9c	0.5968416
6	0x3f0f8e8d	0.5607689
7	0x3f1b8261	0.6074582

1.module.2.1.bias f4 [8]
0	0xbd84f453	-0.06491914
1	0xbda01ecc	-0.07818374
2	0xbda3979e	-0.07987903
3	0xbdd87d89	-0.10570819
4	0x3ac2afb3	0.0014853388
5	0x3c120807	0.008913047
6	0xbe6bc481	-0.23024179
7	0xbe6eb98f	-0.23312972

1.module.2.1.running_mean f4 [8]
0	0xbe9b262b	-0.30302557
1	0xbe62462d	-0.22097082
2	0xbe4b21d6	-0.19837126
3	0xbee731c8	-0.45155168
4	0xbde1eba8	-0.11031276
5	0xbe02da39	-0.12778558
6	0xbe46415b	-0.19360869
7	0xbe71e996	-0.23624262

1.module.2.1.running_var f4 [8]
0	0x3dc8ca05	0.09804157
1	0x3d8a2897	0.06746023
2	0x3d872c9c	0.066003054
3	0x3dbcc665	0.09217528
4	0x3d8d707c	0.0690622
5	0x3db48adb	0.08815547
6	0x3d8c5cad	0.06853614
7	0x3d8722aa	0.065984085

2.module.0.0.b_w f4 [8, 1]
0	0xc3000000	-128.0
1	0x42800000	64.0
2	0x42000000	32.0
3	0x41800000	16.0
4	0x41000000	8.0
5	0x40800000	4.0
6	0x40000000	2.0
7	0x3f800000	1.0

2.module.0.1.weight f4 [8]
0	0x3f35131c	0.70732284
1	0x3f349174	0.70534444
2	0x3f21b5b9	0.6316791
3	0x3f2a44c5	0.66511184
4	0x3f2052a0	0.62626076
5	0x3f53dbcd	0.82757264
6	0x3f293f88	0.66112566
7	0x3f12e412	0.5737926

2.module.0.1.bias f4 [8]
0	0x3cb7b5ba	0.022425521
1	0xbb9c4202	-0.004768611
2	0xbdb6bd27	-0.08922797
3	0xbe3bc673	-0.18337421
4	0xbde377cb	-0.11106833
5	0xbdc734d3	-0.09726872
6	0xbd69e01d	-0.057098497
7	0xbd2bb4c0	-0.041920424

2.module.0.1.running_mean f4 [8]
0	0xbe8946f7	-0.26811954
1	0xbea4e5a3	-0.3220645
2	0x3d5d9ddf	0.054105636
3	0xbd4025c9	-0.046911035
4	0xbe08e53c	-0.13368696
5	0x3c74dc6a	0.014945129
6	0xbe3040ca	-0.17212215
7	0x3e3d878b	0.18508737

2.module.0.1.running_var f4 [8]
0	0x3dc6c055	0.09704653
1	0x3d8de0a5	0.06927613
2	0x3d3ad719	0.04561529
3	0x3d678e7f	0.05653238
4	0x3d481f3e	0.04885792
5	0x3d866919	0.065630145
6	0x3d945eeb	0.07244667
7	0x3d2e1858	0.042503685

2.module.1.0.b_w f4 [8, 1]
0	0xc3000000	-128.0
1	0x42800000	64.0
2	0x42000000	32.0
3	0x41800000	16.0
4	0x41000000	8.0
5	0x40800000	4.0
6	0x40000000	2.0
7	0x3f800000	1.0

2.module.1.1.weight f4 [8]
0	0x3f33b44f	0.70197004
1	0x3f3ac4e2	0.7295667
2	0x3f347b36	0.70500505
3	0x3f266c0b	0.6500861
4	0x3f1a8420	0.60357857
5	0x3f22dc4b	0.6361739
6	0x3f25d4db	0.64777917
7	0x3f314a6f	0.692542

2.module.1.1.bias f4 [8]
0	0xbd3516a5	-0.04421105
1	0xbd1eb778	-0.03874919
2	0x3c5b82d9	0.013397896
3	0xbdbeb4b1	-0.09311808
4	0xbdd1b8a9	-0.10240299
5	0xbe5980eb	-0.21240585
6	0xbe0d714b	-0.13812749
7	0xbe4955be	-0.19661614

2.module.1.1.running_mean f4 [8]
0	0x3e2d2033	0.16906814
1	0xbe8b06f6	-0.27153748
2	0xbeb451dc	-0.35218704
3	0xbee8ceca	-0.45470268
4	0xbe9fb79b	-0.31194767
5	0x3e9c79de	0.30561727
6	0xbe80842d	-0.25100842
7	0xbcaf9843	-0.021434909

2.module.1.1.running_var f4 [8]
0	0x3da61e79	0.08111281
1	0x3e062461	0.13099815
2	0x3dbc67a6	0.09199457
3	0x3dce4efd	0.100736596
4	0x3db29e06	0.08721547
5	0x3dea03a4	0.11426476
6	0x3ddd4c44	0.10805562
7	0x3da62c88	0.081139624

2.module.2.0.b_w f4 [8, 1]
0	0xc3000000	-128.0
1	0x42800000	64.0
2	0x42000000	32.0
3	0x41800000	16.0
4	0x41000000	8.0
5	0x40800000	4.0
6	0x40000000	2.0
7	0x3f800000	1.0

2.module.2.1.weight f4 [8]
0	0x3f63e217	0.8901686
1	0x3f5e079d	0.86730367
2	0x3f5b4a3d	0.85660154
3	0x3f6a4673	0.91513747
4	0x3f642bee	0.8912953
5	0x3f5ae803	0.8551027
6	0x3f375412	0.71612656
7	0x3f4d228c	0.8013084

2.module.2.1.bias f4 [8]
0	0xbe8de43b	-0.2771319
1	0x3d8d09f4	0.06886664
2	0x3df323fc	0.11872098
3	0xbdfba7a6	-0.12287836
4	0xbd951a0d	-0.072803594
5	0xbe06e31f	-0.13172577
6	0xbda6e965	-0.08149985
7	0x3c9874e0	0.018610418

2.module.2.1.running_mean f4 [8]
0	0xbe938b3d	-0.28817168
1	0xbe50d4ff	-0.20393752
2	0xbd9088f9	-0.070573755
3	0xbe0960b1	-0.13415791
4	0xbe17d27c	-0.14826387
5	0xbd0804f1	-0.033207837
6	0x3d3b1ed0	0.045683682
7	0x3d13bf87	0.036071327

2.module.2.1.running_var f4 [8]
0	0x3da845e8	0.082164586
1	0x3e329c95	0.17442544
2	0x3df18b1f	0.11794113
3	0x3e158a91	0.1460364
4	0x3dd26024	0.102722436
5	0x3ddd761d	0.10813544
6	0x3d8d5db8	0.06902641
7	0x3d85e9ee	0.06538759

5.module.0.0.b_w f4 [8, 1]
0	0xc3000000	-128.0
1	0x42800000	64.0
2	0x42000000	32.0
3	0x41800000	16.0
4	0x41000000	8.0
5	0x40800000	4.0
6	0x40000000	2.0
7	0x3f800000	1.0

5.module.0.1.weight f4 [16]
0	0x3f2963bc	0.6616781
1	0x3f2a6c30	0.6657133
2	0x3f2a69cc	0.66567683
3	0x3f108946	0.5645946
4	0x3f31a0e3	0.6938612
5	0x3f1361f8	0.57571363
6	0x3f0c3d49	0.54781014
7	0x3f0a93bc	0.54131675
8	0x3f2471f6	0.6423639
9	0x3f1022b1	0.56302935
10	0x3f1dbbe7	0.6161484
11	0x3f3a540e	0.7278451
12	0x3f4b646c	0.79450107
13	0x3f2d15bc	0.6761129
14	0x3f41a098	0.7563567
15	0x3f577c7b	0.8417432

5.module.0.1.bias f4 [16]
0	0xbd4e464d	-0.050360013
1	0x3ca96576	0.020678263
2	0xbd72ee99	-0.059309576
3	0xbec75d8c	-0.38938558
4	0xbd6087fc	-0.054817185
5	0xbe642c3c	-0.22282499
6	0xbde1e199	-0.110293575
7	0xbdf443b8	-0.11926979
8	0xbe3b251c	-0.18275875
9	0xbe9cbe48	-0.30613923
10	0xbe4e12a2	-0.20124295
11	0x3c733ab8	0.014845543
12	0xbca6607c	-0.02030968
13	0xbc84a1d9	-0.016190456
14	0xbe35d897	-0.17758404
15	0x3dd46393	0.10370555

5.module.0.1.running_mean f4 [16]
0	0xbee9c82c	-0.45660532
1	0xbe2e0392	-0.1699355
2	0xbe7f8528	-0.24953139
3	0x3ecb3cbd	0.39694777
4	0xbef65e06	-0.4811861
5	0xbe984576	-0.29740494
6	0xbf03859c	-0.51375747
7	0x3dc6e192	0.09710993
8	0xbe8e5e21	-0.2780619
9	0x3effea29	0.49983338
10	0x3f382f4e	0.7194718
11	0xbf38e155	-0.7221883
12	0x3e4d3c34	0.20042497
13	0xbf6453d3	-0.89190406
14	0xbe8431b5	-0.25819173
15	0xbea65ed2	-0.32494217

5.module.0.1.running_var f4 [16]
0	0x3eef9f2d	0.4680113
1	0x3eb36d57	0.35044357
2	0x3ecdf223	0.40223798
3	0x3eb802bc	0.35939586
4	0x3edee173	0.4353138
5	0x3ef99b89	0.48751476
6	0x3ef54bdc	0.4790944
7	0x3ef5068b	0.47856554
8	0x3eb78252	0.35841614
9	0x3eff7145	0.49891105
10	0x3f244ce4	0.64179826
11	0x3eccae9e	0.39976972
12	0x3f0ec065	0.5576232
13	0x3ee992a3	0.45619687
14	0x3f0f3b14	0.5594952
15	0x3ee8e73f	0.45488927

5.module.1.0.b_w f4 [8, 1]
0	0xc3000000	-128.0
1	0x42800000	64.0
2	0x42000000	32.0
3	0x41800000	16.0
4	0x41000000	8.0
5	0x40800000	4.0
6	0x40000000	2.0
7	0x3f800000	1.0

5.module.1.1.weight f4 [16]
0	0x3f47a8a8	0.77991724
1	0x3f372f41	0.7155648
2	0x3f357c24	0.7089255
3	0x3f32d836	0.6986116
4	0x3f23e16c	0.6401584
5	0x3f344821	0.7042256
6	0x3f461871	0.77381045
7	0x3f251658	0.6448722
8	0x3f2a9390	0.6663141
9	0x3f3160d8	0.69288397
10	0x3f10d551	0.56575495
11	0x3f11900f	0.5686044
12	0x3f3a5dc8	0.7279935
13	0x3f0f89f9	0.56069905
14	0x3f27cdfd	0.6554869
15	0x3f2082b0	0.62699413

5.module.1.1.bias f4 [16]
0	0xbc681c3a	-0.014166886
1	0xbd10bc62	-0.035335906
2	0xbe3b79b4	-0.18308145
3	0xbe012121	-0.12610294
4	0xbdd17b99	-0.102286525
5	0xbc0d5d83	-0.008628252
6	0xbd8f596d	-0.069994785
7	0xbd7b9d7e	-0.061429493
8	0xbc80ae69	-0.015708165
9	0xbc0ec30e	-0.008713497
10	0xbdcfa095	-0.101380505
11	0xbe112745	-0.14175136
12	0x3bfc6f0c	0.0077036675
13	0xbe062c68	-0.13102877
14	0x3be1cb86	0.006890717
15	0xbde6c846	-0.11268668

5.module.1.1.running_mean f4 [16]
0	0xbed3ff8a	-0.41405898
1	0xbd36a52a	-0.044591106
2	0xbe33499b	-0.17508547
3	0xbdbe9e10	-0.09307492
4	0x3e219829	0.157807
5	0xbf2b7804	-0.66980004
6	0xbdd0372e	-0.10166775
7	0xbe1de5a9	-0.1541964
8	0xbe65e740	-0.22451496
9	0xbcfd9f27	-0.030959679
10	0x3e265440	0.16243076
11	0xbdfa961c	-0.12235662
12	0x3e1a3d3b	0.1506242
13	0xbe09d589	-0.13460363
14	0x3d5a8545	0.053349752
15	0xbe172551	-0.14760329

5.module.1.1.running_var f4 [16]
0	0x3e0de95e	0.13858554
1	0x3e1375a8	0.14400351
2	0x3e98c39c	0.29836738
3	0x3e02f7e7	0.1278988
4	0x3dd251c5	0.102695026
5	0x3e7a12ee	0.24421284
6	0x3e4e41af	0.20142244
7	0x3e02c562	0.12770608
8	0x3def407d	0.11682222
9	0x3dea4316	0.11438577
10	0x3e1e95f5	0.15486892
11	0x3dc5cbb7	0.09657996
12	0x3dbc2e69	0.091885395
13	0x3dd9847c	0.106209725
14	0x3e0324ca	0.12807003
15	0x3dabaf13	0.08383002

5.module.2.0.b_w f4 [8, 1]
0	0xc3000000	-128.0
1	0x42800000	64.0
2	0x42000000	32.0
3	0x41800000	16.0
4	0x41000000	8.0
5	0x40800000	4.0
6	0x40000000	2.0
7	0x3f800000	1.0

5.module.2.1.weight f4 [16]
0	0x3f28d72d	0.6595333
1	0x3f5f6282	0.87259686
2	0x3f242a0d	0.64126664
3	0x3f3d6dea	0.7399584
4	0x3f37b3f9	0.7175899
5	0x3f1b49c6	0.60659444
6	0x3f30e16e	0.6909398
7	0x3f3127e9	0.69201523
8	0x3f2f3812	0.6844493
9	0x3f07b60a	0.53012145
10	0x3f2a765f	0.6658687
11	0x3f462573	0.7740089
12	0x3f3c63f1	0.7359
13	0x3f2cc43b	0.67486924
14	0x3f11b626	0.5691856
15	0x3f13522a	0.5754725

5.module.2.1.bias f4 [16]
0	0xbd73e160	-0.059541106
1	0xbcb44b7d	-0.022008652
2	0xbda1807c	-0.078858346
3	0xbb8e11ba	-0.0043356093
4	0xbd379a16	-0.044824682
5	0xbe33f863	-0.17575221
6	0xbcb3faab	-0.021970114
7	0xbca0ed6b	-0.01964446
8	0xbd4de9c4	-0.050271764
9	0xbd46885b	-0.048469882
10	0xbd8b3ffe	-0.06799315
11	0xbd87e5ee	-0.066356525
12	0x3d0279ff	0.031854626
13	0x3cd4cb37	0.025975807
14	0xbd71d04d	-0.05903654
15	0xbe40604a	-0.18786731

5.module.2.1.running_mean f4 [16]
0	0xbdeaf684	-0.114728004
1	0x3d7a10e5	0.061051268
2	0xbc955735	-0.01823006
3	0xbed9b3a6	-0.42519873
4	0xbda9c17f	-0.082888596
5	0xbe17c12b	-0.14819781
6	0xbee4dfd6	-0.44702023
7	0xbe45397e	-0.19260213
8	0x3e6086c9	0.21926416
9	0xbba399b0	-0.004992686
10	0xbb2a5ad3	-0.0025994077
11	0xbd7ee972	-0.06223435
12	0xbec7ca3a	-0.39021474
13	0x3e4e9772	0.2017496
14	0xbe3b9a18	-0.18320501
15	0xbee1b7a0	-0.44085407

5.module.2.1.running_var f4 [16]
0	0x3dc2d972	0.09514131
1	0x3dd41d85	0.10357193
2	0x3df90b21	0.12160326
3	0x3e1520a1	0.14563228
4	0x3e104b7a	0.14091292
5	0x3db63dfe	0.08898543
6	0x3de91f57	0.11382931
7	0x3df1def8	0.11810106
8	0x3dfabf93	0.12243571
9	0x3db197f5	0.08671562
10	0x3e0f1d02	0.1397591
11	0x3d997f8b	0.0749503
12	0x3dae2f76	0.08505146
13	0x3dde54fb	0.108560525
14	0x3db55ed0	0.08855975
15	0x3ddf4695	0.10902134

6.module.0.0.b_w f4 [8, 1]
0	0xc3000000	-128.0
1	0x42800000	64.0
2	0x42000000	32.0
3	0x41800000	16.0
4	0x41000000	8.0
5	0x40800000	4.0
6	0x40000000	2.0
7	0x3f800000	1.0

6.module.0.1.weight f4 [16]
0	0x3f283918	0.6571212
1	0x3f33df37	0.70262474
2	0x3f3370b3	0.7009384
3	0x3f1a5b11	0.60295206
4	0x3f18f33f	0.59746164
5	0x3f3884c0	0.7207756
6	0x3f20146e	0.62531173
7	0x3f4184dc	0.7559335
8	0x3f357359	0.7087913
9	0x3f3b554b	0.7317702
10	0x3f276304	0.6538546
11	0x3f3cb5f7	0.73715156
12	0x3f186de7	0.595427
13	0x3f111fc2	0.56689084
14	0x3f31db0f	0.6947488
15	0x3f3087da	0.68957293

6.module.0.1.bias f4 [16]
0	0xbda2acf9	-0.07943148
1	0xbc02bb68	-0.007979251
2	0x3c9bc122	0.019012991
3	0xbd57ec84	-0.052715793
4	0xbd18ceb4	-0.037306502
5	0x3c94bb80	0.018155813
6	0xbcb66132	-0.022263143
7	0xbe03e7ce	-0.12881395
8	0xbe112289	-0.1417333
9	0xbcf6a909	-0.0301099
10	0xbd5ea687	-0.05435803
11	0xbcab42ad	-0.020905817
12	0xbdc70118	-0.097170055
13	0xbe70a190	-0.23499131
14	0xbde339ac	-0.110949844
15	0x3d7a1b23	0.061061036

6.module.0.1.running_mean f4 [16]
0	0x3d91466d	0.07093511
1	0xbe8329e0	-0.25617886
2	0x3c22ba49	0.009932109
3	0x3f2a124e	0.6643418
4	0x3dae0bba	0.084983304
5	0xbc52715e	-0.012844412
6	0xbd7c4699	-0.061590765
7	0xbf1378fc	-0.5760648
8	0xbe584606	-0.21120462
9	0xbe8f542c	-0.27993906
10	0xbe90507a	-0.281864
11	0xbe995e2b	-0.29954657
12	0xbf44c181	-0.76857764
13	0x3eb7c084	0.35889065
14	0xbed9161b	-0.42399678
15	0xbddc5512	-0.107584134

6.module.0.1.running_var f4 [16]
0	0x3e6f9318	0.23395956
1	0x3e5111b2	0.20416906
2	0x3e2b116c	0.16705865
3	0x3eba7192	0.36414772
4	0x3e38818f	0.18018173
5	0x3e8f0632	0.27934414
6	0x3e2f5674	0.17122823
7	0x3ea55ed7	0.3229892
8	0x3ee121f2	0.4397121
9	0x3e3419fd	0.17588039
10	0x3f0614da	0.52375567
11	0x3eb7524f	0.35804984
12	0x3ebae049	0.3649924
13	0x3ecf395a	0.40473443
14	0x3ecd1aac	0.40059412
15	0x3eb20501	0.34769443

6.module.1.0.b_w f4 [8, 1]
0	0xc3000000	-128.0
1	0x42800000	64.0
2	0x42000000	32.0
3	0x41800000	16.0
4	0x41000000	8.0
5	0x40800000	4.0
6	0x40000000	2.0
7	0x3f800000	1.0

6.module.1.1.weight f4 [16]
0	0x3f299752	0.6624652
1	0x3f2f4c11	0.68475443
2	0x3f0c5849	0.5482221
3	0x3f478140	0.77931595
4	0x3f2d6059	0.6772514
5	0x3f36bfd2	0.71386445
6	0x3f29e5b4	0.66366124
7	0x3f214f1a	0.63011324
8	0x3f2acc23	0.6671774
9	0x3f1cb79e	0.6121768
10	0x3f1f2868	0.6217103
11	0x3f29e6e0	0.6636791
12	0x3f1fa388	0.62358904
13	0x3f3fc0e3	0.74903697
14	0x3f36a549	0.71345955
15	0x3f2d2b6a	0.6764437

6.module.1.1.bias f4 [16]
0	0xbdf5d577	-0.12003606
1	0x3d22e1e8	0.039766222
2	0xbe2b567c	-0.1673221
3	0xbe4dc927	-0.20096265
4	0xbdc8d435	-0.098061
5	0x3d1ad2e6	0.037798785
6	0xbc7f27f6	-0.015573492
7	0xbd8c6943	-0.068560146
8	0xbdbb7920	-0.09153962
9	0xbd791cfc	-0.060818657
10	0xbda490c6	-0.08035426
11	0xbde40bc4	-0.111350566
12	0xbdd34bc8	-0.103171885
13	0xbe01fee2	-0.12694886
14	0xbce0b8bf	-0.027431844
15	0xbd3c876b	-0.046027582

6.module.1.1.running_mean f4 [16]
0	0x3e8cd6cd	0.2750763
1	0xbe435131	-0.19073941
2	0xbd423cae	-0.04742115
3	0xbf043f3f	-0.51659006
4	0xbd37db49	-0.04488686
5	0xbe8d18f9	-0.27558115
6	0xbdbe3122	-0.09286715
7	0xbe885574	-0.26627696
8	0xbe525b7b	-0.2054271
9	0x3e0208ed	0.12698717
10	0xbd4ae92f	-0.049538787
11	0xbe82d574	-0.25553477
12	0xbd7ef388	-0.06224397
13	0xbd5085f4	-0.050908998
14	0xbe9e5921	-0.30927375
15	0xbe17b5d8	-0.14815462

6.module.1.1.running_var f4 [16]
0	0x3df14135	0.117800154
1	0x3d80dd4c	0.06292209
2	0x3e1466c1	0.14492323
3	0x3e203c7f	0.15648077
4	0x3dd7ee91	0.1054355
5	0x3df3d577	0.119059496
6	0x3da48d98	0.08034819
7	0x3db1880b	0.08668526
8	0x3dacd3b2	0.08438815
9	0x3d6837c2	0.0566938
10	0x3db3c79a	0.08778305
11	0x3e0428ab	0.12906139
12	0x3e1c53ba	0.15266314
13	0x3de2efa4	0.11080864
14	0x3dc65bef	0.09685504
15	0x3d9730ec	0.07382378

6.module.2.0.b_w f4 [8, 1]
0	0xc3000000	-128.0
1	0x42800000	64.0
2	0x42000000	32.0
3	0x41800000	16.0
4	0x41000000	8.0
5	0x40800000	4.0
6	0x40000000	2.0
7	0x3f800000	1.0

6.module.2.1.weight f4 [16]
0	0x3f57d876	0.8431467
1	0x3f4cd1a0	0.8000736
2	0x3f492a9c	0.7858064
3	0x3f3bc012	0.7333995
4	0x3f4ba44d	0.7954758
5	0x3f547544	0.82991433
6	0x3f4b704d	0.7946823
7	0x3f3df4fc	0.7420194
8	0x3f4aa584	0.79158807
9	0x3f475ba4	0.7787421
10	0x3f4b40ac	0.79395556
11	0x3f347e1a	0.70504916
12	0x3f3d4695	0.73935825
13	0x3f580acb	0.8439147
14	0x3f4682b9	0.77543217
15	0x3f5b34fe	0.85627735

6.module.2.1.bias f4 [16]
0	0xbc948dcf	-0.018134026
1	0xbcae2094	-0.021255769
2	0xbd11ba98	-0.03557834
3	0xbd62edf7	-0.055402722
4	0xbd9a5c94	-0.07537189
5	0xbccddf2d	-0.025130833
6	0x3c63891a	0.013887668
7	0xbd9d801e	-0.07690452
8	0xbba5ea74	-0.0050633494
9	0xbb16e4a7	-0.002302447
10	0x3b9f8b59	0.0048689065
11	0xbdacd949	-0.08439881
12	0x3c7f868d	0.015596044
13	0xbcb685eb	-0.022280654
14	0x3c222b60	0.009898037
15	0xbcaf78d5	-0.021419922

6.module.2.1.running_mean f4 [16]
0	0xbe3348f6	-0.17508301
1	0x3c9c94cf	0.019113926
2	0x3d09a6a0	0.03360617
3	0x3e0faf7e	0.14031789
4	0xbdd060ec	-0.101747364
5	0x3e987735	0.29778448
6	0xbd2e0345	-0.042483587
7	0x3e2b6388	0.16737187
8	0xbe4e475e	-0.20144412
9	0x3e8dc2e8	0.27687764
10	0xbd00ad65	-0.031415362
11	0x3cf5625e	0.029954132
12	0x3e8ed64a	0.27897865
13	0x3e4de87b	0.20108216
14	0xbd9be8ed	-0.076127864
15	0x3ea13386	0.31484622

6.module.2.1.running_var f4 [16]
0	0x3db0e196	0.08636777
1	0x3d94536d	0.07242475
2	0x3da054e4	0.078286916
3	0x3e03557d	0.1282558
4	0x3de4db46	0.111746356
5	0x3e13f4c0	0.14448833
6	0x3e05f356	0.13081107
7	0x3e0c1432	0.13679579
8	0x3d7bd22b	0.06147973
9	0x3e2b5fcd	0.16735764
10	0x3db12f56	0.08651607
11	0x3da86b61	0.08223606
12	0x3dd7b4dc	0.10532543
13	0x3dd190d7	0.10232704
14	0x3dfcc27c	0.123417825
15	0x3e108c94	0.14116126

9.0.b_w f4 [8, 1]
0	0xc3000000	-128.0
1	0x42800000	64.0
2	0x42000000	32.0
3	0x41800000	16.0
4	0x41000000	8.0
5	0x40800000	4.0
6	0x40000000	2.0
7	0x3f800000	1.0

9.1.weight f4 [32]
0	0x3f3593e8	0.7092881
1	0x3f2f2df1	0.68429476
2	0x3f23c81c	0.6397722
3	0x3f28d1bc	0.6594503
4	0x3f314049	0.69238716
5	0x3f1a9fb0	0.60399914
6	0x3f110fd5	0.5666478
7	0x3f2ffdc9	0.6874662
8	0x3f38d4fe	0.722
9	0x3f257379	0.6462932
10	0x3f25671f	0.64610475
11	0x3f29cf00	0.6633148
12	0x3f2467b2	0.64220726
13	0x3f18630a	0.5952612
14	0x3f491d8f	0.7856073
15	0x3f2cc06a	0.674811
16	0x3f2e5e63	0.6811277
17	0x3f424344	0.7588389
18	0x3f33bc30	0.70209026
19	0x3f196cc0	0.59931564
20	0x3f1a186a	0.601935
21	0x3f33c42c	0.7022121
22	0x3f1fbd24	0.6239798
23	0x3f4069d4	0.7516148
24	0x3f12e163	0.5737516
25	0x3f2a109e	0.66431606
26	0x3f41c1f4	0.75686574
27	0x3f1d2323	0.6138174
28	0x3f163109	0.5866857
29	0x3f26e8d8	0.6519904
30	0x3f3d9734	0.7405884
31	0x3f27bd9f	0.65523714

9.1.bias f4 [32]
0	0xbe2fb831	-0.17160107
1	0xbc955d32	-0.018232916
2	0xbd5e6c51	-0.054302517
3	0xbe235c02	-0.15953067
4	0xbd471ff0	-0.048614442
5	0xbe1b0ed2	-0.15142372
6	0xbe1a70cd	-0.15082093
7	0xbd862e1d	-0.06551764
8	0xbdb2a743	-0.08723309
9	0xbd2457e3	-0.040122878
10	0xbdfe18a2	-0.12407042
11	0xbe09412f	-0.13403772
12	0xbd79375d	-0.060843814
13	0xbd69b4ce	-0.057057194
14	0x3dac0d11	0.0840093
15	0xbd66889e	-0.056282632
16	0xbe898f68	-0.26867223
17	0xbe484adf	-0.19559811
18	0x3c7a2e72	0.0152698625
19	0xbdfd7f03	-0.12377741
20	0xbda4de2a	-0.08050187
21	0xbe040362	-0.12891915
22	0xbd0d9e17	-0.034574594
23	0xbdecb42d	-0.11557803
24	0xbe047bf0	-0.12937903
25	0xbcc779fa	-0.024350155
26	0x3e21d9ce	0.15805742
27	0xbddc38fa	-0.10753055
28	0xbdca8eb1	-0.098904975
29	0xbd82d231	-0.06387747
30	0xbd852bb4	-0.06502476
31	0xbd37b077	-0.044846024

9.1.running_mean f4 [32]
0	0xbf1135a3	-0.5672247
1	0xbedbb6f8	-0.42913032
2	0x3e0af66d	0.13570566
3	0xbe82afe7	-0.25524828
4	0x3dc42109	0.095766135
5	0x3e9696e5	0.29411998
6	0xbe15494d	-0.14578743
7	0x3dd65f2f	0.104673736
8	0xbe55193f	-0.20810412
9	0xbe6adc5d	-0.22935624
10	0xbe916501	-0.28397372
11	0xbe000da2	-0.125052
12	0xbe8836fd	-0.26604453
13	0x3d63c0d5	0.05560382
14	0xbe5831ee	-0.21112797
15	0xbf003ecb	-0.50095814
16	0xbdf8bf20	-0.12145829
17	0xbf3bb610	-0.7332468
18	0x3e4a3ebc	0.19750494
19	0x3d5f28e6	0.054482363
20	0xbebe7cc2	-0.37204558
21	0xbf2584a8	-0.6465554
22	0xbe21084d	-0.15725823
23	0xbda4fcc4	-0.08056024
24	0x3d9e03eb	0.07715591
25	0xbf58d9dd	-0.84707433
26	0xbeecb8b9	-0.46234682
27	0xbe3069fe	-0.17227933
28	0xbe23f15d	-0.16010042
29	0xbddd030b	-0.10791596
30	0xbe47d33b	-0.19514172
31	0xbea55733	-0.3229309

9.1.running_var f4 [32]
0	0x3f7608ea	0.9610735
1	0x3f74555e	0.9544276
2	0x3f3f355b	0.7469079
3	0x3f5d9056	0.86548364
4	0x3f98a857	1.1926373
5	0x3ef2272f	0.4729552
6	0x3f057e97	0.52146286
7	0x40038558	2.0550137
8	0x3fb22190	1.3916492
9	0x3f36cdd2	0.71407807
10	0x3f2451d2	0.6418735
11	0x3f622484	0.8833697
12	0x3f4ce43d	0.80035764
13	0x3efff0dc	0.4998845
14	0x4008617c	2.13095
15	0x3f5b787c	0.8573072
16	0x3fe38ded	1.7777687
17	0x3fb1f0cc	1.390161
18	0x3f4d1eba	0.8012501
19	0x3f9fe495	1.2491633
20	0x3ee49fb3	0.4465309
21	0x3fb8de86	1.4442909
22	0x3f4a1626	0.78940046
23	0x3fafaf3c	1.3725352
24	0x3ef4dbd9	0.4782398
25	0x3f868dca	1.051202
26	0x3fb2bbd1	1.3963567
27	0x3edb5962	0.4284163
28	0x3effce25	0.49961963
29	0x3f95ad70	1.1693554
30	0x3f8e5c54	1.1121926
31	0x3f4092bb	0.7522389

10.0.b_w f4 [8, 1]
0	0xc3000000	-128.0
1	0x42800000	64.0
2	0x42000000	32.0
3	0x41800000	16.0
4	0x41000000	8.0
5	0x40800000	4.0
6	0x40000000	2.0
7	0x3f800000	1.0

10.1.weight f4 [32]
0	0x3f24f336	0.6443361
1	0x3f25d374	0.64775777
2	0x3f1a90fd	0.60377485
3	0x3f2085a7	0.6270394
4	0x3f1b2a79	0.60611683
5	0x3f1e331b	0.6179673
6	0x3f2f90bf	0.6858024
7	0x3f21394a	0.6297804
8	0x3f266d18	0.65010214
9	0x3f26481a	0.6495377
10	0x3f1cf869	0.61316544
11	0x3f26e36e	0.6519078
12	0x3f307d70	0.689414
13	0x3f2400e8	0.6406388
14	0x3f23a053	0.6391651
15	0x3f297faa	0.66210425
16	0x3f2465ea	0.6421801
17	0x3f228917	0.6349043
18	0x3f2124ff	0.62947077
19	0x3f2351aa	0.63796484
20	0x3f32e5ed	0.6988209
21	0x3f1acf3c	0.60472465
22	0x3f19205a	0.5981499
23	0x3f1bb79c	0.6082704
24	0x3f20f91e	0.6288012
25	0x3f213d39	0.62984043
26	0x3f2ae0ac	0.6674907
27	0x3f1f0dab	0.6213023
28	0x3f1b00af	0.6054792
29	0x3f1dcef7	0.6164393
30	0x3f196aed	0.5992878
31	0x3f2708b2	0.65247643

10.1.bias f4 [32]
0	0xbe83b547	-0.2572424
1	0xbe9b76ce	-0.30364078
2	0xbe2dfe07	-0.16991435
3	0xbe943aa4	-0.2895099
4	0xbe3e4ec6	-0.18584737
5	0xbe3d8350	-0.18507123
6	0xbe55013d	-0.20801254
7	0xbe88494e	-0.26618427
8	0xbe810d35	-0.2520539
9	0xbe26ca38	-0.16288078
10	0xbe8b8cf3	-0.27255973
11	0xbec5f4fc	-0.3866347
12	0xbe36cbee	-0.1785123
13	0xbe8008ee	-0.25006813
14	0xbe660004	-0.22460943
15	0xbe14f225	-0.14545496
16	0xbe8f7610	-0.28019762
17	0xbeb8020b	-0.3593906
18	0xbe3ec7c4	-0.18630892
19	0xbe6a9efb	-0.22912209
20	0xbea80494	-0.32815993
21	0xbe28c152	-0.16479996
22	0xbe1eac0e	-0.15495321
23	0xbe0761d5	-0.13220914
24	0xbe38d673	-0.18050556
25	0xbe8d4b22	-0.27596384
26	0xbe3cd455	-0.18440373
27	0xbe3f4a2d	-0.1868064
28	0xbe1eb106	-0.15497217
29	0xbe2b9268	-0.16755068
30	0xbe39ea14	-0.181557
31	0xbe461e93	-0.193476

10.1.running_mean f4 [32]
0	0xbe0322e1	-0.12806274
1	0xbe76db91	-0.24107195
2	0xbda3b8b7	-0.07994216
3	0xbe89b238	-0.26893783
4	0xbe0828e5	-0.1329685
5	0xbe2411d4	-0.16022426
6	0xbde9cd9b	-0.11416169
7	0xbdcd154c	-0.10013828
8	0xbda5e917	-0.08101099
9	0xbd149737	-0.036277022
10	0xbe858c79	-0.26083735
11	0xbe28e0e5	-0.1649204
12	0xbd91db21	-0.07121874
13	0xbde73415	-0.11289231
14	0xbe413fc6	-0.18871984
15	0xbe514d8d	-0.2043974
16	0xbe363de3	-0.17797045
17	0xbe9a4c76	-0.3013646
18	0xbe7de0a3	-0.24792723
19	0xbdf9bcb9	-0.12194199
20	0xbe4f1847	-0.20224105
21	0xbcc96ea7	-0.024588896
22	0xbd2f3eca	-0.04278449
23	0xbc50c33c	-0.01274186
24	0xbdf997dd	-0.12187169
25	0xbe5c4db2	-0.21514013
26	0xbde457dd	-0.11149571
27	0xbe242c5b	-0.16032545
28	0xbd9303fc	-0.07178494
29	0xbe1fd3e7	-0.15608178
30	0xbdccbf8e	-0.09997474
31	0xbc9f7c2c	-0.01946839

10.1.running_var f4 [32]
0	0x3dc12217	0.0943033
1	0x3db00afe	0.085958466
2	0x3de44ee6	0.11147861
3	0x3e1e8a14	0.1548236
4	0x3dfd5d78	0.123713434
5	0x3de77f6f	0.11303603
6	0x3dae8640	0.085217
7	0x3dae8772	0.08521928
8	0x3e108dce	0.14116594
9	0x3e2878bd	0.16452308
10	0x3ddcadf6	0.10775368
11	0x3dc2c78c	0.09510717
12	0x3defbcc7	0.11705928
13	0x3dbc8a28	0.09206039
14	0x3e008ec1	0.12554456
15	0x3ddad0f3	0.10684385
16	0x3dac2906	0.08406262
17	0x3e0e4518	0.13893545
18	0x3dc76584	0.097361594
19	0x3d87162e	0.06596027
20	0x3e30911f	0.1724286
21	0x3dd3b101	0.10336495
22	0x3e071020	0.13189745
23	0x3da101f8	0.07861704
24	0x3e066a8a	0.13126579
25	0x3da948cf	0.0826584
26	0x3dde2667	0.108471684
27	0x3de48176	0.11157505
28	0x3db31f7a	0.08746238
29	0x3df7451d	0.12073729
30	0x3e0954d3	0.13411264
31	0x3e35ead0	0.17765355

13.0.b_w f4 [8, 1]
0	0xc3000000	-128.0
1	0x42800000	64.0
2	0x42000000	32.0
3	0x41800000	16.0
4	0x41000000	8.0
5	0x40800000	4.0
6	0x40000000	2.0
7	0x3f800000	1.0

13.1.weight f4 [64]
0	0x3f7db244	0.99100137
1	0x3f8bf4bd	1.0934063
2	0x3f851179	1.0395957
3	0x3f7d57bf	0.98962015
4	0x3f880507	1.0626534
5	0x3f89da8f	1.0769824
6	0x3f7af0f0	0.9802389
7	0x3f75d40d	0.9602669
8	0x3f9c1e2e	1.219671
9	0x3f8140bf	1.0097884
10	0x3f87033d	1.0547863
11	0x3f7ff75f	0.99986833
12	0x3f7a47a2	0.97765553
13	0x3f86c2d1	1.0528203
14	0x3f70af95	0.94017917
15	0x3f869493	1.0514091
16	0x3f8682c8	1.0508661
17	0x3f871387	1.0552834
18	0x3f75a60d	0.959565
19	0x3f866a62	1.0501215
20	0x3f8bc53a	1.0919564
21	0x3f7ce884	0.9879229
22	0x3f82f7b6	1.0231845
23	0x3f8e3f0e	1.1112993
24	0x3f854eca	1.041467
25	0x3f83c495	1.0294367
26	0x3f83b7bc	1.0290446
27	0x3f90a36f	1.1299876
28	0x3f7a1907	0.9769444
29	0x3f811408	1.0084238
30	0x3f7b1e48	0.9809308
31	0x3f728d33	0.947467
32	0x3f7145c9	0.9424711
33	0x3f6ffb2c	0.9374263
34	0x3f78f4a5	0.972483
35	0x3f8d5345	1.1041037
36	0x3f88b781	1.0681001
37	0x3f706475	0.93903285
38	0x3f900443	1.12513
39	0x3f85a727	1.0441636
40	0x3f7c4602	0.98544323
41	0x3f7b584e	0.9818162
42	0x3f94b596	1.1617916
43	0x3f7139ad	0.9422863
44	0x3f8bc933	1.0920776
45	0x3f998a9f	1.1995429
46	0x3f7e9562	0.9944669
47	0x3f6f4836	0.9346956
48	0x3f7b7b3c	0.98234916
49	0x3f817feb	1.0117162
50	0x3f69277e	0.91075885
51	0x3f84f701	1.038788
52	0x3f84d6fd	1.0378109
53	0x3f9922e5	1.1963774
54	0x3f91f8e3	1.1404079
55	0x3f80a666	1.0050781
56	0x3f78eec5	0.97239333
57	0x3f81dd7c	1.0145717
58	0x3f884b7b	1.0648035
59	0x3f8576d2	1.0426886
60	0x3f796377	0.97417396
61	0x3f6eb3a2	0.9324285
62	0x3f84e119	1.0381194
63	0x3f8916df	1.0710105

13.1.bias f4 [64]
0	0x3e8973c1	0.26846126
1	0x3ea1b59d	0.31583872
2	0x3ea1f4c8	0.31632066
3	0x3ea7b7a2	0.32757288
4	0x3ea2e6ed	0.31816807
5	0x3e827ef5	0.25487486
6	0x3e74600f	0.23864768
7	0x3e8e84e8	0.27835774
8	0x3ece0e26	0.4024517
9	0x3e939327	0.28823206
10	0x3e98564e	0.29753345
11	0x3e4fcdab	0.202933
12	0x3e772dec	0.24138612
13	0x3ea17707	0.31536123
14	0x3e3ba75a	0.18325558
15	0x3ea97cef	0.3310313
16	0x3e9b6dfe	0.30357355
17	0x3ea05a86	0.31319064
18	0x3e94c01e	0.29052824
19	0x3e6f0eea	0.23345533
20	0x3e985a1b	0.29756245
21	0x3ea68354	0.3252207
22	0x3eabc001	0.33544925
23	0x3e99f9a7	0.30073282
24	0x3e886d61	0.2664595
25	0x3e7ddabb	0.2479047
26	0x3ea1bb8d	0.31588402
27	0x3ec616ba	0.38689214
28	0x3e4faa23	0.20279746
29	0x3e87f821	0.26556495
30	0x3e62cc82	0.22148326
31	0x3e79c70e	0.2439234
32	0x3e7954e4	0.2434879
33	0x3e8cb541	0.27482036
34	0x3e93c2bc	0.28859508
35	0x3e90a5fd	0.2825164
36	0x3e995eb0	0.29955053
37	0x3e5b6736	0.2142609
38	0x3ebc9aa9	0.36836746
39	0x3e82f456	0.2557704
40	0x3ea24781	0.31695178
41	0x3e814d2b	0.25254187
42	0x3eba9b37	0.36446545
43	0x3e81487f	0.25250623
44	0x3e98e491	0.29861882
45	0x3eb78d7b	0.3585013
46	0x3e799f6f	0.24377225
47	0x3e77cf96	0.24200282
48	0x3e8060cb	0.25073847
49	0x3e76c689	0.24099173
50	0x3e060d77	0.13091074
51	0x3e8e878a	0.27837783
52	0x3e61252c	0.21986836
53	0x3eb6f0fc	0.3573073
54	0x3ea93561	0.33048537
55	0x3e8ac246	0.27101344
56	0x3e999a15	0.30000368
57	0x3ea187ba	0.31548864
58	0x3e7d02ee	0.24708149
59	0x3e91d797	0.28484794
60	0x3e854502	0.2602921
61	0x3e24d181	0.16095544
62	0x3e970289	0.29494122
63	0x3ea52cc5	0.3226072

13.1.running_mean f4 [64]
0	0xbbd2ab10	-0.0064290836
1	0xbc114ce6	-0.008868432
2	0xbd937174	-0.07199374
3	0xbc9ae6c1	-0.01890886
4	0xbd802b88	-0.06258303
5	0x3dcafac8	0.09911114
6	0x3b7adec9	0.0038279763
7	0xbc84d68b	-0.016215583
8	0xbc96056d	-0.018313134
9	0xbe0d14c4	-0.13777453
10	0xbe677c5e	-0.22606036
11	0x3d2b1492	0.041767664
12	0xbd33aa38	-0.043863505
13	0xbe2b27f4	-0.1671446
14	0x3c40c117	0.011764786
15	0xbdaf0ae3	-0.08546998
16	0xbd902761	-0.07038761
17	0x3d78e93f	0.060769316
18	0xbdab69fa	-0.08369823
19	0x3e26f6a9	0.16305031
20	0xbc98cb21	-0.018651547
21	0xbd4c724a	-0.049913682
22	0xbe79ab88	-0.2438184
23	0x3d198b9f	0.03748667
24	0x3c86e47c	0.016466372
25	0xbdb7a679	-0.08967299
26	0x3e33fed2	0.17577675
27	0xbd645a4a	-0.05575017
28	0xbd32a9a6	-0.04361882
29	0xbd22909a	-0.039688684
30	0xbc0cbab2	-0.0085894335
31	0x3d966150	0.0734278
32	0xbdba0cee	-0.090844974
33	0x3d2da0db	0.04238973
34	0x3df06405	0.11737827
35	0xbe07dcb2	-0.13267782
36	0xbe6419b5	-0.22275431
37	0xbd0c5fce	-0.034271054
38	0x3c030bd9	0.00799843
39	0xbddf1956	-0.10893504
40	0xbdbc3bb6	-0.091910765
41	0x3bcbd4d5	0.00622044
42	0xbda17eb0	-0.07885492
43	0xbde95333	-0.11392822
44	0xbe123afd	-0.14280315
45	0x3d307082	0.043076046
46	0x3ac88142	0.0015297311
47	0xbe34e052	-0.17663696
48	0xbd8fd217	-0.07022493
49	0x3e1aab8d	0.15104504
50	0x3e233c01	0.15940858
51	0xbe59ad1a	-0.2125744
52	0x3e0bbe0d	0.13646717
53	0xbd9aacf3	-0.07552519
54	0x3c6db021	0.014507324
55	0x3dd114fc	0.102090806
56	0xbe2d318e	-0.16913435
57	0xbe31ee8c	-0.17376155
58	0x3d8d5cb1	0.06902445
59	0xbe2b4c40	-0.16728306
60	0x3cb64aed	0.022252524
61	0xbd590ce4	-0.05299081
62	0xbe935a6e	-0.2877993
63	0x3cc4a046	0.024002206

13.1.running_var f4 [64]
0	0x3e1b38d2	0.15158394
1	0x3e19559e	0.14974067
2	0x3e377998	0.17917478
3	0x3e3e43c6	0.18580541
4	0x3e5211e2	0.20514634
5	0x3e776227	0.24158536
6	0x3e23e838	0.16006553
7	0x3e22ddd6	0.15904936
8	0x3e85e148	0.26148438
9	0x3e2de06a	0.16980138
10	0x3e3f57e2	0.18685868
11	0x3e52ec11	0.20597865
12	0x3e11b351	0.1422856
13	0x3e46f984	0.1943112
14	0x3e52741e	0.20552108
15	0x3e337fd8	0.17529237
16	0x3e4e9bb5	0.20176585
17	0x3e7ae2dd	0.24500604
18	0x3e3b0812	0.18264797
19	0x3e19e13b	0.15027325
20	0x3e200cd4	0.15629894
21	0x3e4886ce	0.19582674
22	0x3e20cbf6	0.15702805
23	0x3e123f92	0.14282063
24	0x3e45169a	0.19246903
25	0x3e4e3b1c	0.20139736
26	0x3e311d09	0.17296232
27	0x3e18c654	0.14919406
28	0x3e162909	0.14664091
29	0x3e408846	0.18801984
30	0x3e1a550c	0.15071505
31	0x3e39e9b1	0.18155552
32	0x3de3b3df	0.11118292
33	0x3e505c9b	0.20347826
34	0x3e4f0023	0.20214896
35	0x3e51c3bc	0.20484823
36	0x3e339b6c	0.17539757
37	0x3df5fa12	0.12010588
38	0x3e86e621	0.2634745
39	0x3e09dda7	0.1346346
40	0x3e393ae0	0.18088865
41	0x3e42fec4	0.19042498
42	0x3e5a74e2	0.2133365
43	0x3e0d327e	0.13788792
44	0x3e3272ac	0.17426556
45	0x3e6f10a2	0.23346189
46	0x3e299fe7	0.16564904
47	0x3e2caede	0.16863582
48	0x3e1c43a8	0.15260184
49	0x3df075fa	0.11741252
50	0x3e59103f	0.21197604
51	0x3e58ad1d	0.21159787
52	0x3ded7cd6	0.11596076
53	0x3e0b85e0	0.13625288
54	0x3e635a43	0.22202401
55	0x3e20385d	0.15646501
56	0x3e534ccd	0.20634766
57	0x3e2913e6	0.16511497
58	0x3e761b19	0.24033774
59	0x3e14e55a	0.14540616
60	0x3e2db81a	0.1696476
61	0x3de68e1c	0.11257574
62	0x3e3ab297	0.18232189
63	0x3e8fa4b5	0.2805535

16.weight f4 [128, 64]
0	0x3d1ead13	0.038739275
1	0x3dccbfb2	0.099975005
2	0x3dcccd8b	0.10000142
3	0xbd48f426	-0.049060963
4	0x3dc3834f	0.095465295
5	0x3dcccd51	0.100000985
6	0x3dc13d43	0.09435513
7	0x3dcccdb1	0.1000017
8	0xbd5a4f58	-0.053298324
9	0x3dc6ecf7	0.09713166
10	0x3d5a49e2	0.053293116
11	0x3dcccd5a	0.10000105
12	0x3dccccd7	0.100000076
13	0xbdcccc44	-0.09999898
14	0xbdb3441b	-0.087532245
15	0x3dcccdcc	0.1000019
16	0xbd39c2b7	-0.04535171
17	0x3d19f9c8	0.037591726
18	0xbdccca4a	-0.09999521
19	0x3dbb24e6	0.09137897
20	0x3dcccd8b	0.10000142
21	0xbc9486ef	-0.018130748
22	0x3c96f33e	0.018426534
23	0xbd8aff3b	-0.067869626
24	0x3dcccd92	0.10000147
25	0xbb4ce09e	-0.0031261812
26	0x3d02d6f4	0.031943277
27	0xbdccccf2	-0.10000028
28	0x3cbe6959	0.023243593
29	0x3dcccd71	0.10000122
30	0xbce1e24a	-0.027573723
31	0x3dcc52c4	0.09976724
32	0x3d79f104	0.061020866
33	0x3c866ba4	0.016408749
34	0x3d6cda24	0.057825223
35	0xbc92d86e	-0.017925467
36	0x3c1cd90e	0.009573234
37	0xbd50d946	-0.050988458
38	0x3d6950cc	0.05696182
39	0x3d2eafa2	0.042647965
40	0xbdccc860	-0.09999156
41	0xbc339125	-0.010959898
42	0xbdbb6ed4	-0.09151998
43	0xbdcccd0a	-0.100000456
44	0xbd57331e	-0.052538984
45	0x3cf86c48	0.03032507
46	0x3cbaa38f	0.022783069
47	0x3dbd59d9	0.09245653
48	0x3dbd91d2	0.09256329
49	0x3dae5fa6	0.08514337
50	0x3dc6fc61	0.09716106
51	0x3b8735a4	0.0041262675
52	0x3d141840	0.03615594
53	0xbd5b6695	-0.053564627
54	0x3dcccd26	0.100000665
55	0x3cd8f004	0.026481636
56	0xbce03cd4	-0.027372755
57	0xbdccccbf	-0.0999999
58	0x3dcccd5d	0.100001074
59	0x3dcccd07	0.10000043
60	0x3d3b5697	0.045736875
61	0x3d88633b	0.06659552
62	0x3daa9cdc	0.083307
63	0x3dcccd5d	0.100001074
64	0x3d35a0ef	0.04434293
65	0xbcef02ab	-0.029176077
66	0xbd6a2452	-0.057163544
67	0x3d35dcfb	0.044400197
68	0x3d1cbf6f	0.038268503
69	0xbd1c2929	-0.03812519
70	0xbbe2ad00	-0.006917596
71	0xbc5c73e5	-0.013455366
72	0x3c8711a2	0.0164879
73	0xba60c4cb	-0.00085742463
74	0xbd86f535	-0.06589738
75	0x3d8f939a	0.07010575
76	0xbd119280	-0.035540104
77	0xbd4e5cbc	-0.050381407
78	0x3c03adba	0.008037025
79	0xbd2d14b6	-0.04225608
80	0x3d74362c	0.059621975
81	0xbd53ff98	-0.051757425
82	0x3d7aa3d3	0.06119139
83	0x3cc80e39	0.024420844
84	0x3caab252	0.020836983
85	0x3c537a39	0.012907558
86	0xbc855663	-0.016276544
87	0x3d9ee413	0.077583455
88	0x3c4a436c	0.012345176
89	0xbd555a17	-0.05208787
90	0xbda5e811	-0.08100904
91	0xbce6fddd	-0.028197223
92	0x3d48725b	0.048937183
93	0xbc89694f	-0.016773848
94	0x3d504ba3	0.050853383
95	0xbd054339	-0.03253481
96	0x3dbed352	0.0931765
97	0xbc9c4977	-0.019078
98	0x3d52d4ed	0.051472593
99	0x3cb68239	0.022278892
100	0xbb5dcce4	-0.0033844048
101	0x3d7fce94	0.062452868
102	0xbcf0e144	-0.02940429
103	0xbd7426a1	-0.059607152
104	0x3dae9e78	0.08526319
105	0x3c0d6322	0.008629592
106	0xbc5ff805	-0.013669972
107	0xbd88fd2b	-0.06688913
108	0xbd74bc08	-0.059749633
109	0xbd33c86d	-0.043892313
110	0xbb28f066	-0.0025778054
111	0xbd9117a7	-0.070845895
112	0x3d751982	0.05983878
113	0xbda5c685	-0.08094505
114	0x3d341c9e	0.043972604
115	0xbd0a57bf	-0.033775087
116	0xbd0831d8	-0.03325066
117	0xbd0ce8ac	-0.03440158
118	0x3c0748bf	0.00825709
119	0xbd97c652	-0.074108735
120	0x3d160e6f	0.03663486
121	0xbd1846a9	-0.03717676
122	0xbd862552	-0.06550087
123	0x3d611956	0.054955803
124	0x3cba8022	0.022766177
125	0x3bd02a82	0.0063527236
126	0xbd0905b0	-0.03345269
127	0xbd17fbf4	-0.037105516
128	0xbd8a35cf	-0.067485444
129	0xbd82e96d	-0.06392179
130	0x3d88b86b	0.066758
131	0x3cfb529c	0.03067904
132	0x3d8077c2	0.06272842
133	0xbd1056b6	-0.035238944
134	0xbd8b50b2	-0.06802501
135	0x3d891c02	0.06694795
136	0x3b4db66f	0.0031389256
137	0x3d3f85cf	0.04675847
138	0x3d5382b2	0.051638313
139	0x3ca6e4cb	0.020372769
140	0xbc8a2649	-0.016863959
141	0xbd8a323c	-0.06747863
142	0xbd338c3a	-0.043834902
143	0xbd1073cb	-0.03526668
144	0xbce79d3a	-0.028273214
145	0xbcc61dab	-0.024184069
146	0xbd6fab92	-0.05851323
147	0xbcd6b512	-0.026209388
148	0x3d302328	0.043002278
149	0xbccef7e2	-0.025264684
150	0xbd480a86	-0.04883816
151	0xbd4359b1	-0.04769296
152	0xbd338092	-0.043823786
153	0xbaacbd8c	-0.0013179048
154	0xbd8bfef1	-0.068357356
155	0x3d8154b1	0.06314982
156	0xbd3931b9	-0.045213435
157	0xbd8bcacc	-0.0682579
158	0xbd82d36b	-0.06387981
159	0x3d268ca6	0.040661477
160	0xbd8ae440	-0.067818165
161	0x3d35c3e9	0.044376288
162	0x3cf49e57	0.029860659
163	0x3d62643b	0.05527137
164	0xbca7f46b	-0.02050229
165	0x3bedc12c	0.007255694
166	0xbc4005f3	-0.011720168
167	0xbd609aa8	-0.05483499
168	0x3d188cd3	0.037243675
169	0xbd3b26f8	-0.04569146
170	0x3d77d5df	0.060506698
171	0xbd8a5254	-0.06753984
172	0xbd549891	-0.05190331
173	0xbd8a68e6	-0.06758289
174	0xbd842e5c	-0.06454155
175	0x3d8826e2	0.06648041
176	0x3d56e905	0.05246832
177	0xbd60740e	-0.05479818
178	0xbd403cee	-0.046933107
179	0xbd8b6d82	-0.06807996
180	0x3d2424c3	0.04007412
181	0xbd8afc99	-0.067864604
182	0x3d2d91a7	0.042375233
183	0xbd8bc8d4	-0.06825414
184	0x3d8a4abf	0.06752538
185	0xbcdcc8d0	-0.026951224
186	0x3d24a54d	0.040196706
187	0xbd8c1fa0	-0.068419695
188	0x3d72edc9	0.0593088
189	0x3ba2cebc	0.0049684923
190	0xbd8b4e65	-0.06802062
191	0x3d408b2b	0.04700772
192	0x3d592932	0.053017803
193	0x3dccbd34	0.09997025
194	0x3dac3ba8	0.08409816
195	0x3d81e030	0.063415885
196	0x3dcb1e71	0.099179156
197	0x3dccccd5	0.10000006
198	0xbc2016f9	-0.009771102
199	0x3ba453c5	0.005014869
200	0x3dccb8a2	0.099961534
201	0xbda767f5	-0.08174125
202	0xbdc48d57	-0.09597271
203	0x3dad7c62	0.0847099
204	0x3d0565b9	0.032567713
205	0xbd1a6028	-0.037689358
206	0xbdb6475e	-0.08900331
207	0x3cdaf17c	0.026726477
208	0xbdc8e87e	-0.09809969
209	0x3dccba13	0.09996428
210	0xbd2581aa	-0.04040686
211	0x3dcccd6e	0.1000012
212	0x3dca14c3	0.09867241
213	0x3d0968ff	0.033547398
214	0x3d8f6a9e	0.070027575
215	0xbdb82169	-0.089907475
216	0x3d3d3b0f	0.0461989
217	0x3dccb24c	0.09994945
218	0xbcdd3145	-0.027001033
219	0x3d2559f3	0.040368985
220	0xbd3cddaf	-0.04610985
221	0x3db9aaf1	0.090658076
222	0xbd18ceda	-0.037306644
223	0xbc00f912	-0.007871883
224	0xbd07ed69	-0.033185396
225	0xbd36b847	-0.044609334
226	0x3d86affc	0.06576535
227	0x3dc9831f	0.098394625
228	0xbd262ee4	-0.040572062
229	0xbdb376d7	-0.08762901
230	0x3d96d53e	0.073648915
231	0x3db98119	0.090578265
232	0x3d4cf390	0.050036967
233	0xbce3c765	-0.02780504
234	0x3dcb813c	0.09936759
235	0xbd8149fb	-0.06312939
236	0x3cc6a49b	0.024248412
237	0x3dccb552	0.099955216
238	0x3caf1c78	0.02137588
239	0xbd6a7370	-0.057238996
240	0x3dc1cf9e	0.09463428
241	0x3d427bfb	0.04748152
242	0x3ac386a5	0.0014917447
243	0x3cfab5a8	0.030604199
244	0x3dc8e64f	0.09809553
245	0x3dccaba4	0.09993675
246	0x3d3c7b04	0.046015754
247	0x3d388b42	0.04505468
248	0x3d65eaf2	0.056132264
249	0x3da72578	0.081614435
250	0x3d57db1f	0.052699205
251	0xbd556942	-0.052102335
252	0xbdb51c8e	-0.08843337
253	0x3cafe417	0.021471066
254	0xbd9f7cdc	-0.07787487
255	0x3dccbb08	0.09996611

16.b_w f4 [8, 1]
0	0xc3000000	-128.0
1	0x42800000	64.0
2	0x42000000	32.0
3	0x41800000	16.0
4	0x41000000	8.0
5	0x40800000	4.0
6	0x40000000	2.0
7	0x3f800000	1.0

19.weight f4 [10, 128]
0	0x3dccc656	0.09998767
1	0xbcb53578	-0.022120222
2	0xbd5d4d9f	-0.054029103
3	0xbdccc3c2	-0.09998275
4	0xbd79c94f	-0.060983
5	0xbdcca20e	-0.09991847
6	0x3dcccf5c	0.10000488
7	0xbdcccc9f	-0.09999966
8	0xbdcc19b2	-0.099658385
9	0xbd5a64e0	-0.05331886
10	0x3dccc4af	0.09998452
11	0xbdcca4f0	-0.09992397
12	0xba0e29fe	-0.00054231274
13	0xbdcc99e5	-0.099902906
14	0x3dcccd2e	0.100000724
15	0xbdccce9b	-0.10000344
16	0xbcc1c751	-0.023654612
17	0xbd6c49ec	-0.057687685
18	0xbdccc779	-0.09998984
19	0xbdcccd78	-0.100001276
20	0xbdcca8bf	-0.09993123
21	0x3d9e9cf8	0.07744783
22	0xbdcca102	-0.09991647
23	0x3dcc68c0	0.09980917
24	0xbdcc962e	-0.09989582
25	0x3dccd16a	0.1000088
26	0xbdcc9eb9	-0.099912114
27	0xbdbe8de1	-0.09304405
28	0x3d64befc	0.0558462
29	0x3dccd46e	0.10001455
30	0xbdcc8f26	-0.09988241
31	0x3dbf6e2d	0.09347186
32	0x3dccc23b	0.09997984
33	0xbdcc7c42	-0.09984638
34	0xbdcc7c13	-0.09984603
35	0x3b2766be	0.0025543417
36	0x3dc99e1c	0.0984461
37	0x3dcb2c4f	0.099205606
38	0x3dcca006	0.099914595
39	0x3dccc6d0	0.09998858
40	0x3dccc2c5	0.09998087
41	0x3dcccfcc	0.100005716
42	0xbdccbf96	-0.099974796
43	0xbd458e9b	-0.048231702
44	0x3dcc8359	0.0998599
45	0xbd6125c6	-0.054967664
46	0xbdcc8a62	-0.09987332
47	0xbdcca1dc	-0.0999181
48	0xbd64d73a	-0.05586932
49	0x3dcc6881	0.0998087
50	0xbdcc78fd	-0.09984014
51	0x3dccd4ab	0.10001501
52	0xbdcc492e	-0.099748954
53	0xbdc0de74	-0.094174296
54	0xbdae8358	-0.085211456
55	0x3d9b500b	0.07583626
56	0xbdb6e232	-0.08929862
57	0x3dccc999	0.09999389
58	0xbdccc827	-0.099991135
59	0x3dccc125	0.09997777
60	0x3dcccb3b	0.09999701
61	0xbd2b5053	-0.04182465
62	0x3dccd870	0.1000222
63	0xbdccb511	-0.09995473
64	0xbd52b0ec	-0.051438257
65	0x3dccca3f	0.09999513
66	0x3dcccff6	0.10000603
67	0xbdcc6f5a	-0.09982176
68	0x3dccb992	0.09996332
69	0xbd8cd17d	-0.06875894
70	0xbdcc6251	-0.0997969
71	0x3dccc5c4	0.09998658
72	0xbdccbede	-0.099973425
73	0xbdcc9af3	-0.09990492
74	0xbdbe1351	-0.09281028
75	0xbdb68cbc	-0.08913562
76	0x3d71b685	0.059011955
77	0x3dccc55f	0.09998583
78	0xbdccb2e5	-0.09995059
79	0x3dccd136	0.10000841
80	0xbd0ee90b	-0.034890216
81	0xbb3cf040	-0.0028829724
82	0x3d6032fd	0.054736126
83	0xbdccccac	-0.099999756
84	0xbdccbfe0	-0.09997535
85	0x3dccd059	0.10000677
86	0xbcb97a90	-0.02264145
87	0xbdcc7b8b	-0.099845015
88	0x3dca7b27	0.09886771
89	0x3dccd3b6	0.10001318
90	0xbdcc99be	-0.099902615
91	0x3dccc730	0.099989295
92	0xbdccd51a	-0.100015834
93	0xbdcc5cea	-0.099786595
94	0xbdccc63f	-0.0999875
95	0x3dcc4c5c	0.09975502
96	0x3dcc733c	0.09982917
97	0x3dccd2c0	0.10001135
98	0x3dcca677	0.09992688
99	0x3d1e4c6c	0.0386471
100	0xbdcc2789	-0.09968478
101	0x3dccc213	0.09997954
102	0xbdccd1df	-0.10000967
103	0x3c91b7ac	0.017787777
104	0xbd1bed5e	-0.038068168
105	0x3dcc8051	0.09985412
106	0xbc28d653	-0.010305005
107	0x3dcccf8e	0.100005254
108	0x3db0a341	0.08624888
109	0xbdccafd6	-0.099944755
110	0x3db7711a	0.08957119
111	0x3dccd1f8	0.10000986
112	0xbdccd030	-0.10000646
113	0x3d27c0b7	0.04095527
114	0x3dcc9dea	0.09991057
115	0x3dccc4d1	0.09998477
116	0x3dccd10b	0.10000809
117	0xbc9f193c	-0.019421212
118	0x3dc8a87e	0.09797762
119	0x3dccbd85	0.099970855
120	0xbdab8e6d	-0.08376775
121	0xbdcb2b38	-0.09920353
122	0xbdccce50	-0.100002885
123	0xbdcb62c2	-0.09930946
124	0xbdcca8e4	-0.09993151
125	0xbd1db0e1	-0.038498763
126	0xbd58d97e	-0.05294179
127	0xbc8bfd05	-0.017088423
128	0x3dcce4c8	0.10004574
129	0x3c710cec	0.0147125535
130	0x3d0df306	0.034655593
131	0x3dcccf90	0.10000527
132	0x3dbbea78	0.09175581
133	0xbdcc8c83	-0.09987738
134	0xbdccce73	-0.100003146
135	0xbdaa7278	-0.083226144
136	0xbdcc86d5	-0.09986655
137	0x3dc6ce1a	0.097072795
138	0xbdcc7e77	-0.09985059
139	0xbd68d2ee	-0.056841783
140	0x3dc9f96d	0.09862027
141	0xbdcc9795	-0.099898495
142	0xbdcccd3f	-0.10000085
143	0xbdccca8a	-0.09999569
144	0x3db3ef5b	0.08785888
145	0xbcb0f8c2	-0.021602992
146	0xbdb1c33c	-0.08679816
147	0xbdccb6ef	-0.09995829
148	0x3dcc0bd3	0.09963193
149	0xbdb3215f	-0.087465994
150	0xbdc75984	-0.097338706
151	0xbd533666	-0.05156555
152	0xbdcc926a	-0.09988864
153	0xbdcccb9f	-0.09999775
154	0xbdcbd00a	-0.0995179
155	0x3dcb137a	0.09915824
156	0x3c9054e8	0.017618611
157	0xbd3b2771	-0.04569191
158	0x3dcb72d7	0.09934013
159	0xbdccb74c	-0.099958986
160	0xbdccbb5e	-0.09996675
161	0x3dccd181	0.10000897
162	0xbdb020fe	-0.08600043
163	0xbdccd213	-0.10001006
164	0xbdcccfd2	-0.10000576
165	0xbdccc24f	-0.09997999
166	0xbdccb113	-0.09994712
167	0x3dc7980f	0.097458
168	0xbdcc8222	-0.09985758
169	0x3cbe6b89	0.023244636
170	0xbdcccd58	-0.10000104
171	0xbdcc7f31	-0.09985197
172	0xbdcccb3d	-0.09999702
173	0xbdcca451	-0.09992278
174	0x3d31ffc8	0.043456823
175	0x3dc91249	0.09817941
176	0xbd61456b	-0.054997843
177	0xbdcccd2e	-0.100000724
178	0x3dccd397	0.10001295
179	0xbdcccd69	-0.100001164
180	0xbdcc5f43	-0.09979107
181	0x3dcc5320	0.09976792
182	0x3dcc648f	0.099801175
183	0xbdcccd4a	-0.10000093
184	0x3dc867b1	0.097854026
185	0xbd523cd5	-0.051327545
186	0xbdcccd45	-0.100000896
187	0xbdccae08	-0.09994131
188	0x3dc9772d	0.09837184
189	0x3dcc02bf	0.09961461
190	0xbdcc9af5	-0.09990493
191	0x3dccd800	0.10002136
192	0x3cc8cadc	0.024510793
193	0x3dca7953	0.09886422
194	0xbdcccd7f	-0.10000133
195	0xbda27569	-0.079325505
196	0xbdcca9d2	-0.09993328
197	0x3dcc2150	0.09967291
198	0x3dcc4d14	0.09975639
199	0xbdcc9788	-0.0998984
200	0xbdcccccd	-0.1
201	0xbdcbb71d	-0.099470355
202	0x3dcbbb3f	0.09947824
203	0x3dcb312d	0.09921489
204	0x3c983c1a	0.018583346
205	0x3db968f6	0.09053223
206	0xbdcccdd2	-0.100001946
207	0xbdccd329	-0.10001213
208	0x3dccd54e	0.10001622
209	0xbcfe7747	-0.031062735
210	0xbb5661f5	-0.0032712196
211	0xbdadfbdd	-0.08495305
212	0xbdccba90	-0.099965215
213	0xbdcc9110	-0.09988606
214	0x3cd3af84	0.025840528
215	0xbdcba07e	-0.09942721
216	0xbdccc772	-0.09998979
217	0xbdcc797d	-0.099841096
218	0x3dcbf58b	0.09958943
219	0xbdcccf3a	-0.10000463
220	0x3dcc7eae	0.099851
221	0x3dca4989	0.09877307
222	0xbdcccdb0	-0.10000169
223	0x3dc57cbe	0.09642933
224	0x3dcc882c	0.0998691
225	0xbdccd160	-0.100008726
226	0xbdccd00a	-0.10000618
227	0x3dcb642a	0.09931214
228	0xbdaabbb0	-0.0833658
229	0x3dccd65c	0.10001823
230	0x3dccd9d2	0.100024834
231	0xbdccd163	-0.10000875
232	0x3dccd7b3	0.10002079
233	0x3dcc8a33	0.09987297
234	0x3dc6e2ec	0.09711251
235	0xbd3d37d0	-0.046195805
236	0xbdcca7d9	-0.09992952
237	0xbdc19359	-0.094519325
238	0xbdccce7e	-0.10000323
239	0xbdccc35e	-0.09998201
240	0x3dccd457	0.10001438
241	0x3dccd2e0	0.10001159
242	0xbdcca65b	-0.09992667
243	0xbdccb3b1	-0.09995211
244	0x3ba145bb	0.0049216426
245	0x3dbac153	0.09118905
246	0xbdcccd36	-0.100000784
247	0xbdccb03e	-0.09994553
248	0x3d13590c	0.035973594
249	0x3dccac34	0.09993783
250	0xbdcccd53	-0.100001
251	0x3dc75490	0.09732926
252	0x3dc9792b	0.09837564
253	0x3ccbf845	0.024898658
254	0x3dcadbb7	0.099051885
255	0x3cacdab6	0.021100383

19.b_w f4 [8, 1]
0	0xc3000000	-128.0
1	0x42800000	64.0
2	0x42000000	32.0
3	0x41800000	16.0
4	0x41000000	8.0
5	0x40800000	4.0
6	0x40000000	2.0
7	0x3f800000	1.0

momentum_buffer f4 [8]
0	0xbd8ecf5d	-0.06973145
1	0xbd5c2ede	-0.053755634
2	0x3e2150b2	0.15753439
3	0xbe9b30db	-0.3031071
4	0xbcde8c24	-0.027166434
5	0x3decab09	0.1155606
6	0xbd04344a	-0.03227643
7	0x3ddad280	0.10684681

momentum_buffer f4 [8]
0	0xbe103881	-0.14084055
1	0xbd8761d3	-0.06610455
2	0x3d18b03c	0.037277445
3	0xbeb02a50	-0.34407282
4	0xbdd9451a	-0.10608883
5	0x3e6aeeed	0.22942705
6	0xbd8cfe68	-0.06884462
7	0xbdeb9969	-0.1150387

momentum_buffer f4 [8]
0	0xbd2658e4	-0.040612116
1	0x3dbba192	0.091616765
2	0x3cc0441c	0.023469977
3	0x3ce9e588	0.028551832
4	0x3d135a3b	0.035974722
5	0xbe006f55	-0.1254247
6	0xbddcc85a	-0.107804015
7	0x3d1e4eaa	0.03864924

momentum_buffer f4 [8]
0	0x3b1c0872	0.0023808745
1	0xbd6052a4	-0.054766312
2	0x3c0db92c	0.008650105
3	0x3cfc0ba6	0.030767273
4	0x3c35cea4	0.01109663
5	0xbdf27df8	-0.11840433
6	0xbd89eabc	-0.06734225
7	0x3d26d166	0.04072704

momentum_buffer f4 [8]
0	0xbcd4bfee	-0.025970425
1	0xbc39b0e7	-0.011333681
2	0xbc7533d4	-0.01496597
3	0x3d836298	0.0641529
4	0x3da496ed	0.08036599
5	0x3d3b729f	0.045763608
6	0xbd3a0308	-0.045413047
7	0xbcd7e5ff	-0.026354788

momentum_buffer f4 [8]
0	0xbd810b15	-0.06300942
1	0x3d23dbcf	0.040004548
2	0x3cb31f08	0.021865383
3	0x3d6151e4	0.055009738
4	0x3e040259	0.1289152
5	0x3d2aaf18	0.04167089
6	0xbcb8f3fe	-0.022577282
7	0xbd432801	-0.047645573

momentum_buffer f4 [8]
0	0x3cd6b5ac	0.026209675
1	0x3d71eda4	0.059064522
2	0xbd8a7cdd	-0.06762097
3	0xbd81a536	-0.063303396
4	0x3c0066b4	0.007836986
5	0x3ca25621	0.01981646
6	0x3ca40694	0.020022668
7	0x3c80cfdc	0.015724115

momentum_buffer f4 [8]
0	0x3c73b39c	0.014874365
1	0x3d1ebaad	0.038752247
2	0xbd297ff4	-0.04138179
3	0xbdb7efda	-0.08981295
4	0x3c53ad80	0.012919784
5	0x3d1f3435	0.038868148
6	0xbc92053a	-0.017824758
7	0x3acfef90	0.0015864242

momentum_buffer f4 [8]
0	0xbd10971b	-0.035300355
1	0x3c8f0b73	0.017461514
2	0xbd40acfc	-0.04703997
3	0x3d830197	0.063967876
4	0x3d25fd76	0.040524922
5	0xbd09447e	-0.033512585
6	0x3d113934	0.035454944
7	0x3c0f1cab	0.008734862

momentum_buffer f4 [8]
0	0xbd770781	-0.06030989
1	0x3c8a0873	0.016849732
2	0xbcfd1e61	-0.030898275
3	0x3d92d93e	0.07170342
4	0xbbce34e8	-0.006292928
5	0x39636540	0.00021686126
6	0x3d961934	0.07329026
7	0xbb2f9d41	-0.0026796611

momentum_buffer f4 [8]
0	0xbd9b6343	-0.07587292
1	0xbc8c3d4e	-0.017119076
2	0xbb390ea0	-0.0028237477
3	0xbc6c562e	-0.014424844
4	0xbbfa690c	-0.007641917
5	0xbcdf3cd9	-0.027250694
6	0x3dfbb447	0.122902445
7	0x3d36b93b	0.044610243

momentum_buffer f4 [8]
0	0xbdd69c7a	-0.10479064
1	0xbd97411a	-0.07385464
2	0x3a806260	0.0009794943
3	0xbc83ca8a	-0.01608779
4	0xbcb042aa	-0.021516163
5	0xbd392ae0	-0.045206904
6	0x3db13c20	0.08654046
7	0x3d44898d	0.04798274

momentum_buffer f4 [8]
0	0xbc0bc5d0	-0.008531049
1	0x3cc8888e	0.024479177
2	0x3c337715	0.010953684
3	0x3d2b6188	0.04184106
4	0xbc900a5c	-0.017583065
5	0xba9c7f88	-0.0011939863
6	0xbbaa1830	-0.0051908717
7	0xbbb60ea4	-0.0055559445

momentum_buffer f4 [8]
0	0xbcab890e	-0.020939376
1	0x3d243dce	0.040098004
2	0x3becacc4	0.0072227437
3	0x3adaa280	0.0016680509
4	0xbbb4ec02	-0.0055212984
5	0xbbdf3eb0	-0.006812893
6	0x38ca60c0	9.650132e-05
7	0x3cc7e153	0.024399435

momentum_buffer f4 [16]
0	0xbc6b3c20	-0.014357597
1	0x3bab2727	0.005223173
2	0x3cd71515	0.02625517
3	0x3c1091bc	0.008823808
4	0x3cf7c53e	0.03024542
5	0x3c026a24	0.007959876
6	0x3cead794	0.028667249
7	0xbd876af1	-0.06612194
8	0xbc23d6aa	-0.00999991
9	0xbd2984b1	-0.04138631
10	0xbd484ab6	-0.048899375
11	0x3ac946e0	0.0015356205
12	0x3d7500f9	0.05981538
13	0x3c95adbf	0.018271325
14	0xbd1d717b	-0.0384383
15	0x3995cf60	0.00028574

momentum_buffer f4 [16]
0	0xbbf16675	-0.00736695
1	0x3bec7cdc	0.007217033
2	0x3c9daca9	0.01924737
3	0x39e455a0	0.00043551344
4	0x3a981f74	0.0011606053
5	0x3b4d99fa	0.0031372295
6	0x3cc791a5	0.02436144
7	0xbd57b03b	-0.0526583
8	0xbd2ca538	-0.042149752
9	0xbcd8ad10	-0.02644971
10	0xbd59c05b	-0.05316196
11	0xbbbd75ce	-0.0057818657
12	0x3c5ab0f8	0.013347857
13	0x3cec2cc6	0.028829943
14	0xbc1f2599	-0.009713554
15	0xbc73756d	-0.014859539

momentum_buffer f4 [16]
0	0x3b128273	0.0022355586
1	0xbc951b8a	-0.018201608
2	0xbce842df	-0.0283522
3	0x3d71bca5	0.059017796
4	0x3b598ed0	0.0033196695
5	0xbca11180	-0.019661665
6	0x3c7d0870	0.015443906
7	0xbaf66830	-0.0018799361
8	0xbaa11440	-0.001228936
9	0xbbd15f11	-0.0063895066
10	0x3c84482a	0.016147692
11	0x3d2e0cb2	0.042492576
12	0xbd237b70	-0.03991264
13	0x3c3394a9	0.010960736
14	0xbc1cd270	-0.009571657
15	0x3d228319	0.039675806

momentum_buffer f4 [16]
0	0x3cc2c4f5	0.023775557
1	0xbb736904	-0.0037141452
2	0x3cb4f65a	0.022090126
3	0x3c475fdb	0.01216885
4	0xbc2f6f9b	-0.010707761
5	0x3c2818c7	0.010259814
6	0x3b81a857	0.0039568353
7	0x3bcf29a6	0.0063221036
8	0x3ca6acc4	0.020346053
9	0xbbe8c1dd	-0.0071031884
10	0x3c0c4b13	0.008562821
11	0x3c813045	0.015770087
12	0xbcd14007	-0.025543226
13	0xbc613b68	-0.013747074
14	0xbab9cd38	-0.001417554
15	0x3cfc7606	0.030817997

momentum_buffer f4 [16]
0	0xbd070568	-0.03296414
1	0x3a9d4880	0.0011999756
2	0xbca8c1cf	-0.020600228
3	0xbbcaad88	-0.0061852373
4	0x3c91f52e	0.017817106
5	0x3d767334	0.06016846
6	0x3cd04c58	0.025427029
7	0xbc9156fc	-0.017741673
8	0xbb82a77b	-0.0039872504
9	0x3b9cef4d	0.004789269
10	0xbd30d68b	-0.043173354
11	0x3c837340	0.016046166
12	0x3c4b3e7f	0.012405037
13	0xbc2558b2	-0.010091947
14	0x3c3df7eb	0.011594753
15	0xbcb0dcf2	-0.02158973

momentum_buffer f4 [16]
0	0xbd1a6d85	-0.037702102
1	0xbc896baa	-0.016774971
2	0xbc8424a6	-0.016130757
3	0xbca606cd	-0.020266915
4	0x3cb47bdd	0.022031719
5	0x3d8c89df	0.06862234
6	0x3c1c289c	0.009531166
7	0xbc96882f	-0.018375484
8	0x3b3a132f	0.0028392782
9	0x3c27bd7f	0.0102380505
10	0xbd1f6dc0	-0.038923025
11	0x3c49f472	0.012326347
12	0x3acda520	0.001568947
13	0x3b8bd5b5	0.004267419
14	0x3bed0545	0.007233294
15	0xbce4b10c	-0.027916454

momentum_buffer f4 [16]
0	0xbbcb0af6	-0.006196375
1	0x3c0f89d9	0.008760893
2	0xba4c3f74	-0.00077914377
3	0xbcaf56fb	-0.02140378
4	0xbc520a88	-0.012819894
5	0xbd175444	-0.036945596
6	0xbb86fb29	-0.004119296
7	0x3d3a3fa4	0.04547085
8	0x3cbc48f2	0.022984002
9	0x3b6c93b2	0.0036098775
10	0x3cf571cc	0.02996149
11	0xbc9c6040	-0.019088864
12	0xbc06682a	-0.008203546
13	0x3d71419e	0.058900468
14	0xbca39cd5	-0.019972244
15	0xbb1821b3	-0.0023213446

momentum_buffer f4 [16]
0	0xbb2f4546	-0.002674417
1	0x3bf0a30a	0.0073436545
2	0xbc4bdc5a	-0.012442673
3	0xbd17e125	-0.03707995
4	0xbc6afe0c	-0.014342796
5	0xbcfc0ad0	-0.030766875
6	0xbc8c01e8	-0.017090753
7	0x3d143484	0.036182895
8	0x3caa7196	0.020806115
9	0x3c9b0e67	0.018927766
10	0x3c269f8f	0.010169878
11	0xbce04bcb	-0.02737989
12	0xbbca8d90	-0.0061814263
13	0xbc00e46c	-0.00786696
14	0xbd066b35	-0.032817084
15	0xbcfbeef2	-0.030753586
