Securite/Model19/Result_bfa/nominal_0.01/checkpoint.pth.tar (torch, 533040 bytes, 118 tensors)

0.0.b_w f4 [8, 1]
00000000: 0000 00c3 0000 8042 0000 0042 0000 8041
00000010: 0000 0041 0000 8040 0000 0040 0000 803f
-128.0 64.0 32.0 16.0 8.0 4.0 2.0 1.0

0.1.weight f4 [8]
00000000: d8c1 ab3e 2acf 833e c0ca 893e b8c0 e53e
00000010: 38b6 083f 5ad6 8c3e 95e6 ba3e 6598 b13e
0.3354633 0.2574399 0.26912498 0.44873595 0.53403044 0.27507287 0.36504045 0.3468658

0.1.bias f4 [8]
00000000: 1658 193e c250 cebc 7942 2e3d 45eb e1bd
00000010: 0ada 25be 39c3 d43d ba9f 3e3e 006a 433e
0.14975008 -0.025184993 0.042543862 -0.11031202 -0.16196457 0.10388798 0.18615618 0.19083405

0.1.running_mean f4 [8]
00000000: 05e4 36bd 6804 9bbd a341 0c3e 24e9 57bb
00000010: b4e3 7a3e ccf7 a7bd ff47 df3d 2b0c 673c
-0.04465105 -0.075692 0.13696913 -0.003294536 0.24500924 -0.082015604 0.10902404 0.014102022

0.1.running_var f4 [8]
00000000: aada b03f 98e1 6f3f 2265 733f d811 0b40
00000010: 9008 b23f ff8a 843f 5ca3 753f 217b 553f
1.3816731 0.93703604 0.9507619 2.172964 1.3908863 1.0354918 0.9595239 0.83391005

1.module.0.0.b_w f4 [8, 1]
00000000: 0000 00c3 0000 8042 0000 0042 0000 8041
00000010: 0000 0041 0000 8040 0000 0040 0000 803f
-128.0 64.0 32.0 16.0 8.0 4.0 2.0 1.0

1.module.0.1.weight f4 [8]
00000000: b2d5 293f 40bf 283f 1c5e 123f 4143 3e3f
00000010: b176 3f3f 67ea 8f3f a1d6 153f 8b02 343f
0.663417 0.65916824 0.5717485 0.7432137 0.74790484 1.1243409 0.5853062 0.7031638

1.module.0.1.bias f4 [8]
00000000: f57e 94be 9f0d 89bd 05b9 0fbc e68b cebe
00000010: c33d 10bd b383 35be 66ec 0abe dbb3 37bc
-0.2900311 -0.06692051 -0.008772139 -0.4034111 -0.03521515 -0.1772602 -0.13566741 -0.0112123145

1.module.0.1.running_mean f4 [8]
00000000: 7746 2a3e fc30 39be 7f57 c3be 95f3 b0be
00000010: c915 443c e8f1 1ebe deae 3f3d 8be8 a2be
0.16628443 -0.18085092 -0.38152692 -0.34560838 0.011968085 -0.15521967 0.046797626 -0.3181804

1.module.0.1.running_var f4 [8]
00000000: f67d ee3d 106e bb3d f2ad e33d 5c97 e63d
00000010: 1062 353e 3250 113f ca00 c53d 044b 7b3e
0.11645119 0.09151852 0.11117162 0.11259338 0.17713189 0.56762993 0.09619291 0.24540335

1.module.1.0.b_w f4 [8, 1]
00000000: 0000 00c3 0000 8042 0000 0042 0000 8041
00000010: 0000 0041 0000 8040 0000 0040 0000 803f
-128.0 64.0 32.0 16.0 8.0 4.0 2.0 1.0

1.module.1.1.weight f4 [8]
00000000: f546 413f 40b9 473f 7ac2 263f 6980 0a3f
00000010: ccf4 463f 6663 2c3f 54ec 2d3f 94bc 5c3f
0.75498897 0.78017044 0.651405 0.5410219 0.7771728 0.6733917 0.67938733 0.8622525

1.module.1.1.bias f4 [8]
00000000: 4329 9bbd bafa 0e3e b580 77bd 7eba 93bd
00000010: 3681 00be 81ee 4fbd 4544 0dbe d197 e8bd
-0.075762294 0.13962832 -0.06042548 -0.07213305 -0.1254929 -0.050764564 -0.13795574 -0.11357082

1.module.1.1.running_mean f4 [8]
00000000: 99f0 f6bd e50e 39be 8d2b 3dbe 2bc6 113f
00000010: 2248 30bf 85f1 c9be 03bc 13bf 62a2 72be
-0.12057609 -0.18072088 -0.18473645 0.56943005 -0.68860066 -0.39442077 -0.5770876 -0.23694757

1.module.1.1.running_var f4 [8]
00000000: 4e9c 623e 31a7 b13e 20f9 503e d636 7c3e
00000010: 0d12 0a3f 5224 953e 6c89 cb3e 0e7c 063f
0.22129938 0.3469787 0.20407534 0.24630293 0.53933793 0.29129273 0.39753282 0.5253304

1.module.2.0.b_w f4 [8, 1]
00000000: 0000 00c3 0000 8042 0000 0042 0000 8041
00000010: 0000 0041 0000 8040 0000 0040 0000 803f
-128.0 64.0 32.0 16.0 8.0 4.0 2.0 1.0

1.module.2.1.weight f4 [8]
00000000: 5b9f 1b3f 156f 2e3f 5217 3b3f d4d7 503f
00000010: 018c 1f3f 56e0 113f 302d 5c3f dbe0 1a3f
0.6079003 0.6813825 0.7308246 0.8157933 0.62323004 0.56982934 0.8600645 0.6049935

1.module.2.1.bias f4 [8]
00000000: c318 c73d 2fc8 63bd a145 b5bd a74e 68be
00000010: 1c64 70be c924 a3be b61e 8dbe 138e afbc
0.0972152 -0.05561083 -0.08851171 -0.22686253 -0.23475689 -0.31864002 -0.27562493 -0.021430051

1.module.2.1.running_mean f4 [8]
00000000: 3760 edbe 55a7 ecbd 9cc5 c8be e406 08bf
00000010: 46d4 43be e341 92be 8229 70be 743d 1d3d
-0.4636247 -0.115553536 -0.39213264 -0.53135514 -0.19123945 -0.28565893 -0.23453334 0.038388684

1.module.2.1.running_var f4 [8]
00000000: 5bc8 203e 66a1 743e b381 0d3e dc37 be3d
00000010: 402d 153e 40cb d63d 01b8 4b3e 1575 113e
0.1570143 0.23889694 0.13819008 0.09287998 0.14568043 0.104879856 0.1989441 0.1420482

2.module.0.0.b_w f4 [8, 1]
00000000: 0000 00c3 0000 8042 0000 0042 0000 8041
00000010: 0000 0041 0000 8040 0000 0040 0000 803f
-128.0 64.0 32.0 16.0 8.0 4.0 2.0 1.0

2.module.0.1.weight f4 [8]
00000000: b012 363f 2556 3d3f 6c5e 1e3f 3e2e fc3e
00000010: d384 2b3f ff03 403f 351e 2b3f 5e2e 453f
0.71122265 0.7395957 0.61862826 0.4925403 0.6699955 0.750061 0.6684297 0.77023876

2.module.0.1.bias f4 [8]
00000000: 9e16 523d 57d4 a83b 4f2b ccbc d1e0 37be
00000010: 7b2c 083c 4709 04be c345 103d ee31 b73d
0.0512911 0.005152266 -0.024922995 -0.17956854 0.008311386 -0.12894164 0.03522278 0.0894507

2.module.0.1.running_mean f4 [8]
00000000: feed 8cbf cbb2 13bf 8c83 afbe 032d cc3d
00000010: e16e fcbe 4906 37be 0e4f 973e 2c11 f63b
-1.101013 -0.5769469 -0.3428005 0.09969523 -0.49303344 -0.17873491 0.295525 0.0075093713

2.module.0.1.running_var f4 [8]
00000000: 6729 983e 053e 093e db55 a53d 947a 2d3e
00000010: 5dec 383e 9063 a33e dbef 493e 6759 463e
0.29719087 0.13402565 0.08073016 0.16941291 0.18058915 0.31911898 0.19720404 0.19370042

2.module.1.0.b_w f4 [8, 1]
00000000: 0000 00c3 0000 8042 0000 0042 0000 8041
00000010: 0000 0041 0000 8040 0000 0040 0000 803f
-128.0 64.0 32.0 16.0 8.0 4.0 2.0 1.0

2.module.1.1.weight f4 [8]
00000000: 2b15 393f 6ee6 203f b8c7 463f 5964 193f
00000010: e71b 273f 98b3 1d3f 5f14 253f 072e 313f
0.72297925 0.6285161 0.77648497 0.59918743 0.6527695 0.61602163 0.6448421 0.6921086

2.module.1.1.bias f4 [8]
00000000: 6672 56bd 78b1 7abe 46ab 023e 8a89 e3bc
00000010: 1d17 0fbe b3ee 08be 821e 103c 2e59 ca3c
-0.052355193 -0.24481761 0.12760648 -0.027775545 -0.13973661 -0.13372307 0.008796336 0.024700727

2.module.1.1.running_mean f4 [8]
00000000: fc3e e43b 75ed d4bd 3dbe 1c3c 3f24 cf3e
00000010: 017a c7be 5f63 87be 557c 24be f070 72be
0.006965516 -0.10396854 0.009566841 0.4045734 -0.3896027 -0.26443002 -0.16063054 -0.23675895

2.module.1.1.running_var f4 [8]
00000000: 2756 993e 4209 163e 0d13 753e 717a 0b3e
00000010: 45e8 623e 8146 f83d 0ea6 243e 5513 7a3d
0.29948542 0.14651969 0.23933049 0.13620926 0.22158916 0.121228226 0.1607897 0.061053593

2.module.2.0.b_w f4 [8, 1]
00000000: 0000 00c3 0000 8042 0000 0042 0000 8041
00000010: 0000 0041 0000 8040 0000 0040 0000 803f
-128.0 64.0 32.0 16.0 8.0 4.0 2.0 1.0

2.module.2.1.weight f4 [8]
00000000: e65e 4e3f 7375 4a3f 80e2 5c3f c929 373f
00000010: 3806 383f fe51 603f 847a 223f 87ed 553f
0.80613554 0.79085463 0.8628311 0.71548134 0.7188449 0.8762511 0.63468194 0.8356556

2.module.2.1.bias f4 [8]
00000000: f1a1 dfbc 1869 29bd ef96 0fbe 6382 7fbd
00000010: b426 38bd 5054 763d fc3d 0abe b97e a63d
-0.0272989 -0.04135999 -0.1402242 -0.062380206 -0.044958785 0.060139 -0.13500208 0.08129639

2.module.2.1.running_mean f4 [8]
00000000: ba8e 06bb afc0 d4be 7cad 923d 9711 463e
00000010: 22c5 593e 9bb5 8abe 6882 1a3e d37e bdbe
-0.002053185 -0.41553256 0.07161996 0.19342647 0.21266606 -0.2709168 0.15088809 -0.37010822

2.module.2.1.running_var f4 [8]
00000000: 6997 0f3e 85c7 593e 86a6 323e 5153 2e3e
00000010: 554d 203e cec2 6f3e f6b4 3b3e beff 253e
0.14022602 0.21267517 0.17446336 0.1702397 0.156545 0.23414156 0.1833075 0.16210839

5.module.0.0.b_w f4 [8, 1]
00000000: 0000 00c3 0000 8042 0000 0042 0000 8041
00000010: 0000 0041 0000 8040 0000 0040 0000 803f
-128.0 64.0 32.0 16.0 8.0 4.0 2.0 1.0

5.module.0.1.weight f4 [16]
00000000: e6ee 423f 46d8 413f 27f9 203f c468 333f
00000010: 49c8 483f 185d 193f 937b 4a3f 07e3 113f
00000020: 371e ff3e c329 293f 9d5f 3a3f fbb6 e53e
00000030: 11d7 1d3f 266c 473f ecf2 213f 9fa5 333f
0.7614578 0.7572063 0.62880176 0.70081735 0.7843061 0.59907675 0.7909481 0.5698704
0.4982774 0.6607935 0.72802144 0.44866166 0.6165629 0.77899396 0.63261294 0.7017459

5.module.0.1.bias f4 [16]
00000000: b824 3ebd c0ff c33d f011 7dbe 0dc2 a0bc
00000010: 1767 803d c347 83be b261 be3d 8c2d d1bd
00000020: cc41 a0bd 76b3 76be 1896 903b f7c5 02be
00000030: 248f 74be ff45 4cbb b651 90be 0702 13bd
-0.046421736 0.09570265 -0.24713874 -0.01962378 0.06269663 -0.25640687 0.09295978 -0.102137655
-0.0782505 -0.24091896 0.004412424 -0.1277083 -0.23882729 -0.003116965 -0.2818734 -0.035890605

5.module.0.1.running_mean f4 [16]
00000000: 4a06 7dbf 79db d5bf bee6 1a3f a7c8 afbf
00000010: 7ead 3fbf b930 323e 0c6b 4dbf b6e7 0fbe
00000020: 1cd7 353f 3bc4 893f 2798 36bf 3330 ab3f
00000030: 810a de3e 22d9 8cbf 24b2 a13f 15b8 a53f
-0.9883772 -1.6707603 0.60508335 -1.3733109 -0.74874103 0.17401399 -0.80241466 -0.14053234
0.71031356 1.076301 -0.71325916 1.3374084 0.4336739 -1.1003764 1.2632489 1.2946802

5.module.0.1.running_var f4 [16]
00000000: 04a1 ef3f 5c29 d63f 9c74 3540 aeb9 ec3f
00000010: ceb0 e13f 4434 e13f 1391 9f3f 7654 813f
00000020: 87de 1740 bc11 2340 846e 953f cee2 ac3f
00000030: 83cb f93f 1b80 8c3f 8e9c 3040 7c74 0e40
1.8721013 1.6731372 2.8352423 1.8494165 1.7632082 1.7594075 1.2466148 1.01039
2.372957 2.5479574 1.1674352 1.3506715 1.9515232 1.0976595 2.7595553 2.2258596

5.module.1.0.b_w f4 [8, 1]
00000000: 0000 00c3 0000 8042 0000 0042 0000 8041
00000010: 0000 0041 0000 8040 0000 0040 0000 803f
-128.0 64.0 32.0 16.0 8.0 4.0 2.0 1.0

5.module.1.1.weight f4 [16]
00000000: 0e40 4b3f ae0c 273f d9cb 3d3f c7c2 223f
00000010: bcf8 1a3f bab0 213f b5bb 333f 8e5d 0f3f
00000020: ac09 1f3f 534c 273f a258 353f 014f 3d3f
00000030: 7bbb 153f 55a0 4b3f ab5b 223f ca62 313f
0.79394615 0.6525372 0.7413917 0.63578457 0.6053579 0.6316029 0.70208293 0.5600213
0.62124133 0.65350837 0.7083837 0.73948675 0.584892 0.7954152 0.63421124 0.69291365

5.module.1.1.bias f4 [16]
00000000: d927 713d ded8 88bd 815a 06be e17a f5bc
00000010: 28c9 57bc 3e6e b3bd 8090 abbc 0818 ffbd
00000020: c17a d4bd 7893 ce3c 3e73 83bd 4ea6 a0bc
00000030: c5f8 0d3e 5e0f d1bc 9627 4ebd 16f3 193c
0.058875892 -0.06681989 -0.13120462 -0.02996582 -0.013170518 -0.087612614 -0.020942926 -0.124557555
-0.10374976 0.025216803 -0.06418465 -0.01961055 0.1386443 -0.025520023 -0.05033072 0.009396335

5.module.1.1.running_mean f4 [16]
00000000: f870 74be 5786 68bb bca7 293e 3a8b 85bd
00000010: dce6 52bd 4ff4 febe e23c 593e 33b6 a63e
00000020: 8297 083f a6c5 023f 7bc9 2cbf 1f29 673e
00000030: 1b0d b2be ea6e c2be aea3 91be fa00 eebe
-0.23871219 -0.0035480463 0.16567892 -0.06520696 -0.051489696 -0.49795768 0.21214631 0.32560882
0.5335618 0.5108284 -0.67494935 0.2257428 -0.34775624 -0.37975246 -0.2844519 -0.4648512

5.module.1.1.running_var f4 [16]
00000000: 875c 4a3e c408 2d3e 8331 6e3e e817 503e
00000010: e76e 673e ff67 093e a45a 0a3e cc33 0a3e
00000020: 0211 2e3e 7869 9f3e c09a 3c3e fb97 803e
00000030: 5d19 9b3e cb47 c23e 9df3 523e 3333 1f3e
0.19761859 0.16897875 0.23261075 0.2032162 0.226009 0.13418578 0.13511139 0.13496321
0.16998675 0.31135154 0.18418407 0.25115952 0.30292788 0.379454 0.20600744 0.15546875

5.module.2.0.b_w f4 [8, 1]
00000000: 0000 00c3 0000 8042 0000 0042 0000 8041
00000010: 0000 0041 0000 8040 0000 0040 0000 803f
-128.0 64.0 32.0 16.0 8.0 4.0 2.0 1.0

5.module.2.1.weight f4 [16]
00000000: b378 3c3f aa8c 5b3f 93bf 343f 7591 283f
00000010: a4b5 2f3f bb62 423f d286 203f 3273 293f
00000020: 3a0d 363f 7d03 1c3f 21b5 1f3f a247 2f3f
00000030: fe27 263f 1331 243f ce6c 293f 3d9d 333f
0.7362167 0.8576151 0.7060482 0.6584695 0.68636537 0.759319 0.6270572 0.661914
0.7111393 0.6094282 0.62385756 0.6846868 0.64904773 0.6413738 0.6618165 0.701618

5.module.2.1.bias f4 [16]
00000000: 0cfe fbbd 14b5 df3d 1649 93bd 62ab 03be
00000010: 8801 303c ef60 6b3d 8d82 32bd 00c6 a8bd
00000020: 4a3c f7bc 8d2b 2dbd 8b18 84bc 5733 8cbd
00000030: 6fc5 e63c dec9 b1bd 7dfb a2bd e244 813c
-0.12304315 0.1092321 -0.071916744 -0.12858346 0.010742553 0.05746549 -0.043581534 -0.082408905
-0.030180115 -0.04227786 -0.016124984 -0.0684573 0.028170316 -0.08681081 -0.07958124 0.015779916

5.module.2.1.running_mean f4 [16]
00000000: 207f e1be 4dc7 e73d c2c8 df3e cf14 b83e
00000010: 23b6 003f 9432 1a3d 94a7 203f 2ea0 493f
00000020: 9110 69be 4b05 913e eb56 54bd 3315 95bd
00000030: 3da2 e83d 17e3 0ebf 6e00 893e 37e3 b43e
-0.440423 0.113173105 0.43707854 0.35953376 0.5027792 0.03764589 0.62755704 0.7876004
-0.22760226 0.2832435 -0.051840704 -0.07279434 0.113590695 -0.5581526 0.2675814 0.353296

5.module.2.1.running_var f4 [16]
00000000: a218 c83e 319f c73e 5b58 483e 9f7e 933e
00000010: 2dc6 b23e bb1c 763e 7154 9d3e 85dc bc3e
00000020: ba5b 3e3e 3e7d 2b3e bbb7 8e3e 733c 0e3e
00000030: d17a 273e 10ad 163e 18db 803e 0234 4e3e
0.39081293 0.3898864 0.19564955 0.28807542 0.3491682 0.24034397 0.30728486 0.36886993
0.18589678 0.16746995 0.2787455 0.13890247 0.16355444 0.14714456 0.25167155 0.20137027

6.module.0.0.b_w f4 [8, 1]
00000000: 0000 00c3 0000 8042 0000 0042 0000 8041
00000010: 0000 0041 0000 8040 0000 0040 0000 803f
-128.0 64.0 32.0 16.0 8.0 4.0 2.0 1.0

6.module.0.1.weight f4 [16]
00000000: 6ec6 353f 3a31 263f 06d0 2f3f 5e9c 3f3f
00000010: 256c 203f 0be4 363f fd93 293f 7434 3f3f
00000020: 8434 213f aa80 123f c973 183f fc15 373f
00000030: d590 273f bb12 0e3f dc51 353f fa87 3d3f
0.71005905 0.64918864 0.68676794 0.7484797 0.62665015 0.71441716 0.6624144 0.7468941
0.6297076 0.57227576 0.59551674 0.7151792 0.6545537 0.5549733 0.7082803 0.7403561

6.module.0.1.bias f4 [16]
00000000: a64a d03d b5a5 09be 1e89 cb3c bcec 86bc
00000010: 6fad 32bd ef85 8ebc 95c5 2d3c cea7 f13d
00000020: abcb 22bd 83d0 31bd 4fb6 f6bc 097a 6bbd
00000030: 2b13 543c 3f80 9dbd 7995 77bd 3fc5 4abd
0.10170488 -0.13442118 0.024845656 -0.016470306 -0.04362243 -0.017397849 0.010606189 0.11799584
-0.039745014 -0.043411743 -0.030116228 -0.05748943 0.012944023 -0.076904766 -0.060445283 -0.049504515

6.module.0.1.running_mean f4 [16]
00000000: 2853 41bd c0ea 5c3e d167 53be f785 0abe
00000010: c87e 573d f54e 4abf a371 3d3e 42b9 07bf
00000020: 92fe 373e 4cf0 053f 47e4 353f 93e4 9abe
00000030: cc73 d3be 54cc fe3c a4db ecbe b1c8 0bbd
-0.047198445 0.21573925 -0.20645072 -0.13527666 0.052611142 -0.7902673 0.1850038 -0.53017056
0.17968205 0.5231979 0.7105145 -0.30252513 -0.41299284 0.03110329 -0.46261322 -0.03412694

6.module.0.1.running_var f4 [16]
00000000: 0729 8e3e 1994 2e3f dfb2 a83e fb52 af3e
00000010: 4284 703e 2d45 f83e a4ef 713e 0c30 e23e
00000020: 316a 8f3e 1917 d73e c70b d73e 4ef7 3b3f
00000030: ff06 ad3e e2c1 783e b322 2a3f e9e4 a53e
0.27765676 0.6819473 0.32948968 0.34242997 0.23487952 0.48490277 0.23626572 0.44177282
0.28010705 0.4200981 0.42001173 0.7342423 0.337944 0.2429271 0.66459197 0.32401207

6.module.1.0.b_w f4 [8, 1]
00000000: 0000 00c3 0000 8042 0000 0042 0000 8041
00000010: 0000 0041 0000 8040 0000 0040 0000 803f
-128.0 64.0 32.0 16.0 8.0 4.0 2.0 1.0

6.module.1.1.weight f4 [16]
00000000: 547e 2b3f 7a92 283f d41f 353f f424 263f
00000010: ec40 2a3f 4f10 2a3f b524 263f 2265 313f
00000020: 621f 2e3f 888a 233f 8166 233f 9d20 283f
00000030: c2a0 2d3f 8fbc 2f3f abcd 2f3f d078 253f
0.66989636 0.65848505 0.7075169 0.64900136 0.6650531 0.66431135 0.6489976 0.6929494
0.68016636 0.63883257 0.63828284 0.65674764 0.6782342 0.6864709 0.686732 0.6463747

6.module.1.1.bias f4 [16]
00000000: dc2f b5bd eab6 42be 0b4f f2bc 931e 84bd
00000010: 5134 38bd 7279 c5bc ea87 23bd ea47 dfbd
00000020: b706 b3bd 96ac e7bd 8502 8bbd bd07 c2bd
00000030: 1630 f63c 9d79 1fbe e6f4 17be ab4a bbbd
-0.08847019 -0.19015089 -0.029578706 -0.06451144 -0.044971768 -0.024105761 -0.03992454 -0.109023884
-0.08741515 -0.11312215 -0.0678759 -0.09474132 0.030052226 -0.15573736 -0.14839515 -0.09145101

6.module.1.1.running_mean f4 [16]
00000000: d9ef bcbe d983 473d 9557 debd ce4b 30be
00000010: 001d abbe bf9c 373e 9329 a3be 82a6 ebbd
00000020: abdd e0be f2b7 4cbe 42b1 44be 99db 7ebe
00000030: fe9d 7ebe 7cd4 98be a73f d1be 9616 acbe
-0.3690174 0.048709724 -0.10856549 -0.17216417 -0.33420563 0.17930888 -0.31867656 -0.11506368
-0.4391912 -0.19992045 -0.19208243 -0.24888457 -0.24864957 -0.29849613 -0.40868875 -0.33610982

6.module.1.1.running_var f4 [16]
00000000: f282 0f3e e2e5 733e ed87 b63d 382f eb3d
00000010: eef4 b83d d4d2 ad3d 41b9 ab3d d4e9 f63d
00000020: d700 e63d 65ae c83d 934e be3d 61fa d43d
00000030: 86e6 fc3d a745 213e 94f6 e83d e189 133e
0.14014795 0.23818162 0.089126445 0.11483616 0.09031092 0.08487478 0.08384944 0.12056318
0.11230629 0.09798888 0.092923306 0.103993185 0.12348656 0.15749227 0.11375156 0.14408065

6.module.2.0.b_w f4 [8, 1]
00000000: 0000 00c3 0000 8042 0000 0042 0000 8041
00000010: 0000 0041 0000 8040 0000 0040 0000 803f
-128.0 64.0 32.0 16.0 8.0 4.0 2.0 1.0

6.module.2.1.weight f4 [16]
00000000: 19fa 553f 7b1e 503f 632c 3e3f d443 4f3f
00000010: f14b 4d3f a4fe 473f a909 563f de45 413f
00000020: 27dd 513f 8d60 493f 6590 473f 5d2e 3c3f
00000030: 1b44 4e3f f39d 3c3f 95a5 523f a26f 393f
0.83584744 0.8129651 0.7428648 0.8096287 0.80194 0.78122926 0.8360849 0.75497234
0.81978077 0.7866295 0.77954704 0.73508245 0.8057267 0.7367851 0.8228391 0.72435963

6.module.2.1.bias f4 [16]
00000000: 16b4 223c ad36 003d 2c03 3dbd 0c2e 683d
00000010: 9126 543d 8cd8 963d e416 513c e0b3 76bd
00000020: 1c7f e43c b09f 41bc 2db4 28bd 9122 fcbc
00000030: af6b 87bd e0f0 a1bd 30cd 53bd 6197 eebc
0.009930631 0.031302143 -0.046145603 0.05668454 0.051794592 0.07365522 0.012761805 -0.060230136
0.027892642 -0.011817858 -0.041187454 -0.030778201 -0.06612336 -0.079072714 -0.051709354 -0.029124917

6.module.2.1.running_mean f4 [16]
00000000: 125b 853e 44b2 1ebe 00c9 863e 138f 323c
00000010: 8ef2 2ebe 865a 883c 78b0 ab3c 9220 15be
00000020: a723 adbd e946 a6bb 2061 9dbc 2ae7 cb3c
00000030: 2af3 50bc d3ef 603d 8e12 15be 78dd 3cbd
0.26046044 -0.1549769 0.26325226 0.010898369 -0.17084715 0.016644727 0.02095817 -0.14563206
-0.08454066 -0.005074371 -0.019211352 0.024890501 -0.012753287 0.054916214 -0.1455786 -0.046109647

6.module.2.1.running_var f4 [16]
00000000: 9640 263e 8567 b53d e3f7 0f3e 816a fa3d
00000010: 27d8 c63d 919f df3d cf0b 043e cf25 c83d
00000020: a9da 953d 250a f23d caf0 0c3e 54f9 023e
00000030: 7ac1 f53d 8960 f63d 0e9a d93d 59e7 7d3d
0.16235575 0.088576354 0.14059405 0.12227345 0.097091965 0.10919107 0.1289513 0.097728364
0.07317097 0.11818341 0.13763729 0.12790424 0.11999793 0.12030131 0.10625087 0.06198821

9.0.b_w f4 [8, 1]
00000000: 0000 00c3 0000 8042 0000 0042 0000 8041
00000010: 0000 0041 0000 8040 0000 0040 0000 803f
-128.0 64.0 32.0 16.0 8.0 4.0 2.0 1.0

9.1.weight f4 [32]
00000000: d3af 283f 5963 153f a64e 263f 0190 183f
00000010: 57be 3b3f 7dc8 2b3f 7a0b 2e3f 1aca 203f
00000020: 81dd 1e3f 4673 243f ac33 2c3f 0856 253f
00000030: 07ca 263f efc9 543f 2206 223f 44ea 353f
00000040: 9860 293f a380 2f3f b752 373f 828c 253f
00000050: 2df1 323f dade 463f 6f78 1c3f d701 413f
00000060: 06ae 1f3f ffc5 1d3f 8e82 303f c390 403f
00000070: c3b8 1f3f 2f8b 133f 2056 283f f700 223f
0.65893286 0.5835472 0.6496376 0.5959473 0.7333731 0.67102796 0.6798626 0.6280838
0.6205674 0.64238393 0.67266345 0.645844 0.6515202 0.83120626 0.6329061 0.71060586
0.66163015 0.6855566 0.7161059 0.6466752 0.69899255 0.77683794 0.6112127 0.7539343
0.62374914 0.61630243 0.6894921 0.7522089 0.623913 0.5763425 0.65756416 0.6328272

9.1.bias f4 [32]
00000000: 3484 8bbd 8b1a fcbd 92cd ddbc 8333 e8bd
00000010: a01c 1abe 28a6 b83b 2963 c4bc 4215 16bd
00000020: d284 9bbd 279a 4c3a 7a07 d4bb 4e90 bebd
00000030: c81c 5dbd 8e91 9b3d 3059 52bd f566 cabd
00000040: c122 e6bd 653c a5bd 94fd a6bd 40f2 e3bd
00000050: 7267 51bd 3d8a c33d c3f1 5ebd 5903 a0bd
00000060: 3df3 36bd fb27 f8bd 04ac 2dbd 70fd 0d3e
00000070: 32f2 e9bd 569e 1dbe 1d9a 8cbd 9a07 75bd
-0.06812325 -0.1230975 -0.027075563 -0.1133795 -0.15049982 0.0056350417 -0.023973064 -0.036641367
-0.07593693 0.0007804953 -0.006470618 -0.09304868 -0.053982526 0.07596122 -0.051354587 -0.09882919
-0.112370975 -0.0806816 -0.08153835 -0.1113019 -0.051124044 0.09547851 -0.05442978 -0.078131385
-0.044665564 -0.12117001 -0.042400375 0.1386621 -0.11423148 -0.15392432 -0.06865332 -0.059821703

9.1.running_mean f4 [32]
00000000: b730 39bd 2b79 a8be fc78 f43d 5b6c a7be
00000010: 6bdc c7be 6a5f cbbe b33e d9be 04d4 a7be
00000020: 5304 d83a 94e4 50bf b145 05be 124b 66bd
00000030: 6b54 4cbe e959 23bf eb96 88be 7f3c 993e
00000040: 1569 10bf a28d 18be ade4 cbbe 0701 c5be
00000050: c59d babe 81a0 f43c 5098 59be d428 4cbf
00000060: e098 b83d 17f6 3f3e 5248 98be 67a7 31bf
00000070: 1ccc 46bd 6817 4b3e 2e98 8ebe 8af7 81be
-0.045212474 -0.32904944 0.119371384 -0.32699856 -0.39035353 -0.39721233 -0.42430648 -0.32778943
0.0016480781 -0.8159878 -0.13014866 -0.056223936 -0.19954078 -0.63809067 -0.2667764 0.29928967
-0.5641034 -0.14897779 -0.39822903 -0.38477346 -0.36448494 0.02986169 -0.21249509 -0.797498
0.090135336 0.1874622 -0.29742676 -0.6939606 -0.048534498 0.19833148 -0.2785048 -0.2538417

9.1.running_var f4 [32]
00000000: 6f86 403f cb03 133f 81af 823f c023 103f
00000010: ff93 f23f d65d 2a3f 14bb 3d3f a889 2e3f
00000020: eef0 6a3f afef 9c3f 5301 573f a3e0 ae3f
00000030: 9025 5e3f 375c 5a40 0af9 8a3f 7a9e e13f
00000040: 8b87 893f c0b3 893f 8ae6 fd3f c75a 1d3f
00000050: b1a4 8f3f c2bf 9140 39c1 f13e f6cf c83f
00000060: e63e 923f faa4 7a3f 65d6 7f3f dd7e 2d40
00000070: c1be 943f 1745 7e3f 2d96 773f 70a9 113f
0.7520513 0.5742766 1.020981 0.5630455 1.8951415 0.6654943 0.74113584 0.68178797
0.9177388 1.2260646 0.83986396 1.3662304 0.86776066 3.4118783 1.0857251 1.7626488
1.074449 1.075798 1.983598 0.6146664 1.1222135 4.554658 0.4721773 1.5688465
1.1425445 0.97907984 0.99936515 2.7108681 1.1620713 0.9932417 0.96713525 0.56899166

10.0.b_w f4 [8, 1]
00000000: 0000 00c3 0000 8042 0000 0042 0000 8041
00000010: 0000 0041 0000 8040 0000 0040 0000 803f
-128.0 64.0 32.0 16.0 8.0 4.0 2.0 1.0

10.1.weight f4 [32]
00000000: 7e94 243f 279a 223f 0e19 223f 52f6 2a3f
00000010: 52af 2b3f 5ee1 293f d6ef 1e3f 73d8 273f
00000020: eda8 1c3f ccf2 263f 5753 193f 4d7d 1e3f
00000030: 658c 233f eb1a 1f3f 5705 293f 34e1 203f
00000040: 974e 253f e1c1 233f c851 233f f7f6 253f
00000050: 6671 253f 2f71 173f 3821 253f 9b95 2d3f
00000060: 7fad 2a3f d5f0 363f 1a69 1e3f d10d 2a3f
00000070: e725 253f 7c73 1e3f 44f9 293f bd42 303f
0.6428908 0.6351647 0.6331948 0.66782105 0.6706439 0.6635951 0.6208471 0.6556465
0.6119526 0.6521423 0.5989279 0.61909944 0.638861 0.6215045 0.6602377 0.6284363
0.64573044 0.6396771 0.63796663 0.64829963 0.6462616 0.5915708 0.6450381 0.67806405
0.66670984 0.7146123 0.6187912 0.6642733 0.6451096 0.61894965 0.66395974 0.68851835

10.1.bias f4 [32]
00000000: 6178 07be 2ace e5bd 23ed 40be ec45 85be
00000010: 8d47 98be 972e 58be 08a3 31be df7f 11be
00000020: 4666 25be 7739 45be 72b5 49be ef54 32be
00000030: 9b5c 2abe 1b19 14be 1dc8 22be e8f9 1fbe
00000040: 0b3b 1abe 5d87 29be 95d0 5ebe 4e84 a6be
00000050: 843a 61be 3c11 00be 5011 d4bd 4532 0cbe
00000060: 60f3 32be 19fa 96be af32 44be e958 4ebe
00000070: 165e 28be a006 14be 0f34 96be 9ad5 34be
-0.13229515 -0.11220963 -0.1884046 -0.2602991 -0.2974209 -0.21111523 -0.17347348 -0.14208935
-0.16152295 -0.19260202 -0.19698122 -0.17415212 -0.16636889 -0.14462702 -0.1589665 -0.15622675
-0.15061586 -0.16555543 -0.21759255 -0.32522815 -0.21994978 -0.12506574 -0.103548646 -0.13691051
-0.17475653 -0.29487684 -0.1915996 -0.20151104 -0.16442141 -0.14455652 -0.29336593 -0.17659608

10.1.running_mean f4 [32]
00000000: 509a fb3d 7fe4 aa3e e0a2 f93c 4032 51be
00000010: 9cc2 6bbe 1b2d 293d f2b3 983e 520e 34be
00000020: 63b2 cd3e 567a 1cbe 7da9 f7bd 3688 bf3e
00000030: 4e11 53be bdbe 0abe d796 b3bd 8393 f33c
00000040: a1e7 22bd 10ad 13be 6270 8cbe a652 76be
00000050: 6e29 02be 9d96 39bd 9148 17be ac75 adbd
00000060: 6676 76be 1068 52be 6680 6abe d565 263d
00000070: abe7 223d 784f 9ebd 57bd 9cbd c5b5 e63c
0.12285292 0.33377454 0.030473173 -0.20429325 -0.23023456 0.04130278 0.29824787 -0.17583588
0.4017516 -0.15281042 -0.12092874 0.37408608 -0.2061207 -0.13549323 -0.08769005 0.029733425
-0.03977168 -0.14421487 -0.2742949 -0.24054965 -0.12711117 -0.04530965 -0.14773776 -0.0846971
-0.24068603 -0.20547509 -0.22900543 0.04062446 0.039771717 -0.07730001 -0.07653301 0.028162846

10.1.running_var f4 [32]
00000000: 1377 dc3d 3ecc 7b3e 2407 e33d 6dec 823e
00000010: 3833 e03d 1d82 1e3e 2717 473e d77e 213e
00000020: 5a64 813e cdfb fd3d b088 e53d 09b2 643e
00000030: 220c fb3d 02d2 1d3e 10fd 343e a9f9 143e
00000040: efff ed3d 2f0f f93d 20de 113e 9e4d 7b3e
00000050: 9a5f 163e 69a0 083e eb15 ed3d f1ca ce3d
00000060: 1c80 1c3e 621b cb3d 88c1 2e3e 13c6 1d3e
00000070: ba24 863e e43e f83d 3910 033e de3d 793e
0.10764899 0.24589631 0.11085346 0.25571004 0.10947269 0.15479322 0.19442426 0.15771042
0.25271875 0.12401543 0.11207712 0.2233354 0.122581735 0.15412143 0.1767466 0.14548363
0.11621081 0.12161099 0.1424489 0.24541327 0.14684907 0.13342442 0.11576446 0.10097302
0.15283245 0.09917332 0.17066014 0.1540759 0.26199895 0.121213704 0.12799157 0.24340007

13.0.b_w f4 [8, 1]
00000000: 0000 00c3 0000 8042 0000 0042 0000 8041
00000010: 0000 0041 0000 8040 0000 0040 0000 803f
-128.0 64.0 32.0 16.0 8.0 4.0 2.0 1.0

13.1.weight f4 [64]
00000000: 2f42 623f 9bfc 853f acd8 593f f677 4e3f
00000010: 480e 4f3f 5488 573f d53d 663f 1db0 5c3f
00000020: 8bf2 5d3f 8d0a 813f 18a1 683f b3c5 803f
00000030: 0ac7 7c3f 56a3 7a3f 9159 643f b2b1 5e3f
00000040: 5e0b 623f 67cf 5f3f 34fd 833f 990e 853f
00000050: c95b 643f 25ea 6a3f 3558 693f f1d2 7a3f
00000060: ff77 643f 0baa 5f3f 7b3a 743f 5c89 583f
00000070: dfaf 7b3f 9702 773f d52c 703f fe08 563f
00000080: c36c 7b3f 37e2 4d3f 4a78 763f fc75 783f
00000090: 0eed 5d3f 5a66 643f ce9c 7e3f f172 563f
000000a0: ff61 593f d87c 753f aebd 713f 1d5d 643f
000000b0: 7bac 4f3f 4ae8 563f 8c11 743f 3a48 623f
000000c0: c825 663f d2b2 4f3f 4b3f 5a3f 8f7b 5d3f
000000d0: 78ce 673f 217f 713f bb91 503f 85a9 633f
000000e0: 06e6 583f 652e 693f 2ae6 593f cd8a a73f
000000f0: 51ba 693f 963e 783f 09e2 5f3f a14b 5a3f
0.8838224 1.0467714 0.8509624 0.80651796 0.80881166 0.84192395 0.899381 0.8620623
0.86698216 1.0081345 0.9087081 1.0060333 0.9874121 0.9790548 0.8919917 0.8698989
0.88298595 0.87425846 1.0311646 1.039508 0.89202553 0.91763526 0.9115022 0.9797812
0.892456 0.8736884 0.95401734 0.84584594 0.98315233 0.96488327 0.9381841 0.8360747
0.9821283 0.804233 0.96277297 0.9705503 0.8668984 0.89218676 0.99458015 0.83769137
0.84915155 0.9589362 0.94430053 0.8920458 0.8112256 0.83948195 0.95339274 0.8839146
0.899014 0.81132233 0.8525283 0.8651666 0.9054942 0.9433461 0.8147237 0.8893054
0.8472599 0.9108642 0.8511683 1.3089234 0.9129992 0.969705 0.8745428 0.8527165

13.1.bias f4 [64]
00000000: 42bf 473e 54e3 893e 3afb 1e3e 00f9 bb3d
00000010: 4a3a 943d 2bf3 c73d 9dd1 2b3e b97b 113e
00000020: 565c 313e 525c 103e 4534 513e ed01 7d3e
00000030: 1495 353e 6439 f33d f03d 4c3e 43a8 053e
00000040: be81 f43d 7ce6 033e c2a5 233e c0a5 2c3e
00000050: 7334 153e 8336 4a3e fc25 603e db16 593e
00000060: 0d2f 253e 6006 d23d f6a7 1c3e 0de4 db3d
00000070: 9b77 693e c71f 2c3e df88 613e 7ab3 573e
00000080: 0e58 513e d4c4 c53d 7420 5f3e 4cec f43d
00000090: 5f7e 423e 04a0 433e 7d77 963e 1d1c e83d
000000a0: 1c3a 083e 122a cb3d 4521 3e3e cb51 043e
000000b0: 3dbf d43d caa3 023e 9f22 5a3e 8389 243e
000000c0: 18f4 363e 006c c43d a6d5 f43d 358b e53d
000000d0: 6942 283e d64c 503e da96 1a3e c342 2b3e
000000e0: 22bd fa3d 89e7 313e fcac 103e ec65 a43e
000000f0: 74e1 333e fd83 3c3e b3cc e53d 3731 2e3e
0.19506553 0.2693125 0.15525523 0.09178352 0.0723768 0.097631775 0.1677918 0.14207353
0.1732038 0.14097717 0.20430095 0.24707766 0.1773265 0.11876181 0.19945502 0.13052468
0.11938809 0.12880892 0.159812 0.16860104 0.14570789 0.19747357 0.2188949 0.21200125
0.1613123 0.10255122 0.15298447 0.107368566 0.22799532 0.16808997 0.22024868 0.21064559
0.20443746 0.096566826 0.21789724 0.119591326 0.18993519 0.1910401 0.29388037 0.11333487
0.13303417 0.09920134 0.18567379 0.12921827 0.10388038 0.12757793 0.2130227 0.16068082
0.17866552 0.09590912 0.11954813 0.11208192 0.16431583 0.2034181 0.15096608 0.16724686
0.122431055 0.1737348 0.14128488 0.3210901 0.17566472 0.18409725 0.11220684 0.17010961

13.1.running_mean f4 [64]
00000000: 0815 18be e51d 3dbe f620 16bc c2df 873d
00000010: bb8c 25bd baea a2bc 4221 693c 8a13 12bc
00000020: b42b 423d 11a7 a3bc f1ce 52bd af68 80be
00000030: 29c7 8ebd 34fc c3be 50b0 6cbe b78e 5e3e
00000040: 4a6d 13bc 828d 50bd 8568 9abe 6b76 aabd
00000050: 1912 70be 9772 1cbe 78b0 98bc 45df 18be
00000060: 7ea3 663e a2da 503e 1eb6 13bd cd2e 9bbd
00000070: 53a9 12be df06 d5bd c8e2 36be f382 bdbd
00000080: 970c 72bc bb64 0e3e c82b 5cbc b406 4dbe
00000090: c5b6 dabd d52a 9ebd 603f 0abe fea6 0bbc
000000a0: 9c29 093d b0f5 39be 8c8b 283d 1d5a 663e
000000b0: 886b 0dbe eb05 bebd 6bd5 57bc 2358 513d
000000c0: 4d3c 4bbd fd0b 1a3e a2f3 a83d 3b07 a9be
000000d0: 6ef8 f6bd 931e 3abe e7c7 e6bd bbfd 09bc
000000e0: eb81 0cbd 6248 aabd 3e9a aa3c f8f7 84be
000000f0: 898a ebbd 66c1 23be 8c49 44be 3415 2dbd
-0.14851773 -0.18468435 -0.009163132 0.06634475 -0.040417414 -0.019887317 0.014229121 -0.008915791
0.04740496 -0.019977124 -0.051466886 -0.25079867 -0.069715805 -0.38278353 -0.23114133 0.21734129
-0.0089982245 -0.050916202 -0.30157867 -0.08323368 -0.23444404 -0.15278088 -0.018638834 -0.1492892
0.22523305 0.20395902 -0.036062352 -0.07577286 -0.14322405 -0.10401701 -0.17859948 -0.09253492
-0.014773509 0.13905613 -0.013438173 -0.20022088 -0.10679392 -0.07723013 -0.13500738 -0.008523701
0.033486947 -0.18160129 0.041148707 0.22495313 -0.13810551 -0.092784725 -0.013173441 0.051109444
-0.049618054 0.15043636 0.08249594 -0.3301333 -0.12059103 -0.18175726 -0.11268597 -0.00842231
-0.034303587 -0.08314587 0.020825502 -0.25970435 -0.11501033 -0.15991744 -0.19168681 -0.04225655

13.1.running_var f4 [64]
00000000: 5c46 703e e3c3 9d3e c225 453e 4a6a e93d
00000010: ce0a 5d3e 97b6 1a3e 831f 433e e80b c23d
00000020: fad4 293e e801 843e a642 1f3e f477 613e
00000030: a01e 323e cd80 753e bd9e 7a3e 7aef 313e
00000040: f445 643e 507a 223e b909 b83e f627 503e
00000050: 63e5 573e 9102 593e 883b 5f3e d0f3 873e
00000060: 0771 3c3e 64d6 223e fd2f 273e 84fa 053e
00000070: 826b a83e ee90 163e cb22 9a3e 64b8 563e
00000080: 60cd 483e 0f04 0c3e 12d4 6a3e 0199 913e
00000090: 6e45 783e 7836 da3d c3d2 a23e cb80 2b3e
000000a0: 53ed eb3d 046e 453e 581b 253e aa4c 2e3e
000000b0: 80c5 eb3d 33bc bc3d 7371 303e aa37 f63d
000000c0: 76b8 083e a40b 1e3e 7bd6 ee3d ed3a 3d3e
000000d0: d60f 4f3e 3fd4 2d3e 41b9 3d3e ec05 043e
000000e0: ed03 2e3e 5d22 223e 1db1 443e d493 123f
000000f0: 855e 583e 993d 993e dc74 173e b29e 093e
0.2346434 0.30813512 0.19252685 0.11397226 0.21586153 0.15108715 0.1905499 0.09474927
0.1658515 0.25782704 0.15552768 0.22018415 0.17394495 0.23974915 0.24474616 0.1737651
0.2229231 0.15866971 0.35944918 0.20327744 0.21083598 0.21192385 0.21800053 0.26553202
0.18402492 0.15902096 0.163269 0.13083845 0.32894522 0.14703724 0.3010467 0.20968777
0.19609594 0.13673423 0.22932461 0.28437045 0.24245235 0.1065492 0.31801423 0.1674835
0.115198754 0.19280249 0.16123712 0.17021433 0.115122795 0.09215584 0.17230777 0.12022336
0.13351616 0.15434128 0.11662003 0.1847951 0.20220885 0.16975497 0.185277 0.12892884
0.16993685 0.15833421 0.19208188 0.5725682 0.21129806 0.29929808 0.14790672 0.13439444

16.weight f4 [128, 64]
00000000: ed30 923d a0b3 0dbd af3d 97bd 1da9 11bd
00000010: 411d 79bd deec b9bd a0e8 063e a33f d7bc
00000020: 131f c0bd 4f5c 25bd 2003 4e3d 23dd 073e
00000030: 9f45 69bd f715 823d b9f3 f23d 82fd 833d
00000040: 30cb 20bd 1ae5 22bd fa1e 7a3a 6936 9bbd
00000050: 78bf 283e 84b5 8fbd 04a6 b7bd ceb4 e13c
00000060: 5d58 cf3d 0f7e 833d e692 8d3c 6e7e 933c
00000070: 0efd a83c f9bc 21bd eb3c 1b3c c458 223e
00000080: 0aba 9d3d e097 c73d 099f 293e 0b52 b63d
00000090: 33ec 693d ccaa 0dbd 558e 83bc 4ace 9bbd
000000a0: f934 5f3d 1c30 da3d 7369 143d a8e3 a03d
000000b0: c8a7 df3d e4da 17bc 5657 3abd e925 7f3d
000000c0: 0760 d8bd 560a bf3c 5e62 7dbd 300b 153e
000000d0: 8e5d 78bd 4b3d 313e 7ac1 3e3d e9f8 943d
000000e0: 81e4 04bd a462 e43d 0624 e3bd f0ba 3e3c
000000f0: 9dc8 c03b a966 a7bd bea7 a83d 27ed 8fbd
00000100: 79fb 283e 804f 563e ee7a 37bd 605a 2fbd
00000110: 5e76 d9bb 4a95 52bd 55d6 db3c 66dd 533c
00000120: ff25 ae3c 9038 703d 7ac5 0dbc 2a32 83bd
00000130: 51bd 443e a107 d7bd aa8a a23d 39ec 47bd
00000140: 6711 95bd a423 8c3d ba47 dbbd e3a8 ac3d
00000150: 955e 27bc cd1d 003e 75fa 2b3d 15b3 173e
00000160: 5fa1 c23c b7d4 4d3d 19db 2d3e 166f 9bbd
00000170: ed71 443e db88 e03d 9797 e53d 9549 a23d
00000180: 2225 1b3e 262c d3b9 e0f0 3cbc fea5 54bd
00000190: 22c9 c83d 9ed3 14bd 3c4c 4f3e eb72 1abc
000001a0: f2ae 023d a47a dcbd ebd3 6fbd 1724 803d
000001b0: 74d7 a4bd 3513 933c bea4 52bc fa28 ae3d
000001c0: b909 313d 209f c13c 2b6f 21bd 2a83 9c3b
000001d0: 88f7 243e 4113 133c 1900 2a3e 0002 983d
000001e0: a1e1 3fbd 46ff 363d 83e4 833c 61a2 2dbc
000001f0: 2611 ea3d eb74 4b3d b702 babd 432f 953c
00000200: 02fb aebd bfe1 023d 86aa 413d 9c57 b2bc
00000210: c151 02bd 3f7b c7bd 18cf 733d 2c05 bfbd
00000220: 7a35 bbbd 2aae d7bd 6ad1 2f3e 484f 423e
00000230: f1f7 9abd 7d1d 353e 3929 e03d f107 973d
00000240: 4fc1 093d 7e9a 943c d36c d43d bf6b 4f3d
00000250: 9ea3 e83d 1ea2 2d3c b354 28bd 2e99 1e3d
00000260: 0785 a7bc fbe3 873d 073a bebc 0c60 15bd
00000270: 15cb 64bd 3ee4 5e3c 615f 96bd e131 05bb
00000280: bc71 c33c 05f1 fcbc fcb4 623d 4000 9f3d
00000290: 7057 98bd 479a 51bd ff3b fcbc 5258 e3bd
000002a0: 9077 4c3d 3cb6 763d 62ce 45bd 9a80 9f3c
000002b0: 339e 303d 65f5 ac3b 9b92 8ebd 5fe0 583c
000002c0: dae3 1fbc a077 08bd a989 66bd 2387 443e
000002d0: 7955 3fbd bdad 273e 5715 a33c dd27 e3b9
000002e0: 9c5c 83bd f01d 0d3e 9432 f3bd 5903 40bd
000002f0: db0e be3d 4af2 a3bd cfb2 853d 0035 f53c
00000300: 3fa8 4dbd 34fb af3c 9e0a b03d 338c 143e
00000310: 30d1 203e 618a aa3d d0f4 403d 641f 533e
00000320: a025 3b3e 7988 263e e483 56bd 55f8 e9bd
00000330: 9c1a f73d 9384 a1bd dbb8 37bd 859d 023e
00000340: 77eb df3d bf39 12bc e6d5 8fbd 90e7 013e
00000350: e7f0 a1bd 2fd9 743d 6f56 ea3d af94 bebd
00000360: e67c 723d 2b85 9c3d d24c 4cbb c9de 943d
00000370: 4dd2 d8bd c99f 163e f9f6 1dbd c8c5 a03c
00000380: 8159 843d 832c a53d ff9a b6bb 187a 4aba
00000390: 89b6 e13c 5418 183e bf49 f1bd acac 413e
000003a0: 37c9 853d 9bd7 edbb 8184 123e bee2 1b3e
000003b0: ffe0 61bd 7745 dc3d 039b 6d3d 96d9 1a3d
000003c0: 1062 7e3d 6d33 0a3d f55b f93d 78a5 103d
000003d0: 8bfe 953d db89 aabc cde2 c7bd de10 17bd
000003e0: 4088 133e 30b8 563d 84a4 ea3c 60d9 6a3d
000003f0: f571 89bd f716 8bbd 60bb 85bc deef 453e
0.07138238 -0.034595132 -0.07384812 -0.03556167 -0.060818914 -0.09078382 0.13174677 -0.026275462
-0.09380927 -0.040371235 0.05029595 0.1326795 -0.05695116 0.06351846 0.11862893 0.06444837
-0.039256275 -0.03976927 0.0009541359 -0.07578737 0.1647929 -0.07017043 -0.08967212 0.027552035
0.10124276 0.06420528 0.01728196 0.018004622 0.020628478 -0.03948686 0.009474973 0.15854174
0.077015 0.09745765 0.16564573 0.08902367 0.057110023 -0.034586713 -0.01605908 -0.07607706
0.054493878 0.106537074 0.036233377 0.07855922 0.109206736 -0.009268496 -0.045493446 0.062292013
-0.10565191 0.023320358 -0.06186139 0.14555049 -0.060636096 0.17308538 0.046571232 0.07274038
-0.03244448 0.11151627 -0.11090855 0.011641249 0.00588329 -0.08173878 0.08235119 -0.07027655
0.16502179 0.20928764 -0.04479497 -0.042810798 -0.006636425 -0.051411904 0.0268356 0.0129312035
0.021258352 0.058647692 -0.008653039 -0.064060524 0.19212843 -0.10499502 0.07936604 -0.048809264
-0.0727871 0.068427354 -0.1070704 0.0843065 -0.010215421 0.12511368 0.0419869 0.14814408
0.023758588 0.05025169 0.1697811 -0.07589547 0.19184084 0.10963603 0.11210554 0.07924191
0.15150884 -0.0004027795 -0.011532038 -0.051916115 0.09803988 -0.036334626 0.20243925 -0.009426813
0.031905122 -0.10765579 -0.05855171 0.062568836 -0.08048907 0.017953495 -0.01285666 0.085039094
0.043222163 0.023635447 -0.03941266 0.004776378 0.1611005 0.008976758 0.166016 0.074222565
-0.046846036 0.04467704 0.016100174 -0.010597796 0.11429052 0.04967205 -0.09082549 0.018211013
-0.0854397 0.03195357 0.047281764 -0.021770291 -0.031816248 -0.09740304 0.059523672 -0.09327158
-0.09141059 -0.10531266 0.17169729 0.18975556 -0.07566822 0.1768703 0.109453626 0.073745616
0.03363162 0.018140074 0.10372319 0.050639864 0.113593325 0.010597734 -0.0410964 0.038720302
-0.020449175 0.06635281 -0.023221029 -0.03646855 -0.055857737 0.013604222 -0.07342411 -0.002032392
0.023857944 -0.030876646 0.05534838 0.077637196 -0.074385524 -0.05117252 -0.030790327 -0.1110083
0.04991871 0.060232386 -0.048292525 0.019470502 0.04311962 0.0052782767 -0.069615565 0.013237088
-0.009758914 -0.03331721 -0.056283627 0.19192176 -0.046712372 0.1637487 0.019907637 -0.00043326514
-0.06414148 0.13780951 -0.118748814 -0.046878193 0.09280177 -0.08005197 0.06528246 0.029932499
-0.05020928 0.021482088 0.08595775 0.14506607 0.15704799 0.08327175 0.04710847 0.20617443
0.18276072 0.16262998 -0.052371874 -0.11424319 0.12065622 -0.07886615 -0.044854026 0.12755401
0.10933583 -0.008924901 -0.0702322 0.1268599 -0.079072766 0.059777435 0.11442267 -0.09305703
0.059201144 0.07642587 -0.0031173718 0.072690554 -0.10586987 0.1470939 -0.03856561 0.01962556
0.06462384 0.080651306 -0.005572676 -0.0007723882 0.02755286 0.1485303 -0.11781644 0.18913525
0.06532519 -0.007258368 0.14308359 0.15223214 -0.055146214 0.10755437 0.05800916 0.037805162
0.06210524 0.03374045 0.121757425 0.035314053 0.07323941 -0.020817688 -0.09760056 -0.03688132
0.14407444 0.05242175 0.0286429 0.05733621 -0.06711189 -0.067914896 -0.016324699 0.19329783

16.b_w f4 [8, 1]
00000000: 0000 00c3 0000 8042 0000 0042 0000 8041
00000010: 0000 0041 0000 8040 0000 0040 0000 803f
-128.0 64.0 32.0 16.0 8.0 4.0 2.0 1.0

19.weight f4 [10, 128]
00000000: da1b 4b3e 3495 bebe b732 9f3e ddf6 84be
00000010: e450 523d 491f 44be a372 923e 9827 19be
00000020: f4c9 63bd a649 afbe d4d6 9abe f96d 8cbe
00000030: 9e5a 91bd 76e0 c13d fc94 c4bc b8e5 4a3e
00000040: d528 d33d 069f 00be c9a4 14be 635e 3c3d
00000050: f199 553e 4e26 cfbd 2654 14bd 2380 5c3e
00000060: ccb8 6abe 9a82 48be 84bf 2cbe 007f 2a3d
00000070: b6aa a83e bac2 86bd 99e7 8dbe b414 1dbe
00000080: 686c 3e3d b593 753d e987 553d 0282 60be
00000090: cd11 3f3e b640 30bc 89bd 8fbe a9c7 563d
000000a0: f000 603e 3bfe 2dbe 0cf2 1abd 3cc7 3f3e
000000b0: 1b00 523d 8895 3c3e 1671 8e3e a400 d0bd
000000c0: 8b86 fcbd 358f 20bd 390a a33c bfe8 80be
000000d0: 2f80 c9bc e56a e8bc c60d 0d3e b6f5 a43e
000000e0: 2e40 6b3e 7a52 843e 88cd 933e d31f d8bc
000000f0: 5bb3 b0be 588b 8dbd 86b8 2ebd cfde c4bc
00000100: 9418 553a 75fc 10be b028 55bd dfa4 a03e
00000110: e399 1dbe 10ad 2a3e 7d16 7c3d d61d b4be
00000120: cd60 aa3c d4f0 85be 05c7 0e3c 5965 983e
00000130: 4a27 4f3c 3b43 55bb f915 0f3e 715c 0ebe
00000140: c7a9 2dbe 4779 6a3e d1e6 1a3d bce4 893e
00000150: ee8d 9a3c 289b 96be e943 31be 327d 40be
00000160: e7f9 8b3e d8a5 8cbc 0f14 c93d b26c 69bd
00000170: 5343 893d 1698 bebd e472 293e d486 23be
00000180: 052e 843c f937 7b3e e96a 8a3d 2234 2bbe
00000190: 5120 13bd b3b8 ed3d b822 c13d e0fa 00be
000001a0: bd1e 50be 29f0 953d de25 78be 354b 2a3d
000001b0: 4c5e a3bc c57f 7fbe 0a2b 053c 635b 91bd
000001c0: 8230 2b3e ae0f 6b3e 5536 9abd 4ff8 2ebe
000001d0: 131d 1f3e b8f2 43bc 5e1d 723e 4330 383c
000001e0: 466e f43d c068 64be d2f0 23be e4bb 943c
000001f0: 106d 54be 11c9 223e bd30 72be da0f 13bc
00000200: 3db0 0bbe 77f4 f0bd 7633 0dbe 0c77 983e
00000210: 6553 f03c 7405 fbbd cf86 70bc aa87 9c3e
00000220: beb8 2cbd e7c1 88be b4ec 4f3e 4caf 933e
00000230: c9e8 103e 6fb5 6e3e dfff a4bc 1e35 90be
00000240: dd96 d0be 63aa 813e f635 33bd 988d 17bd
00000250: 923f afbe 83a2 553e f0b4 26bd 423c 6f3d
00000260: 724e 3d3e 759e 7cbd 4205 9d3e 5d09 76bc
00000270: 1beb 84bd f44d 833e 3776 ad3e 6fea 54bb
00000280: 80ca 5cbc 9294 aebd e9dd 36be d149 3a3e
00000290: 0905 8cbe 468e 5e3d e82a a13e b330 823b
000002a0: 6a10 f63d a773 21be 6241 013c a316 85be
000002b0: 675f adbd a3cb a03d 80bd 38be 22bb 3cbe
000002c0: a2bc 993e c721 6c3e 3853 fd3d b47a 5e3b
000002d0: 8abf 7ebd 5005 533e 9704 e0bd e882 99be
000002e0: 28fe 3b3e bf1b 6cbe ad0c b7bd dff1 61bd
000002f0: eaea 1fbe 9adb 16be bfc9 31be 1dc1 33bd
00000300: beaf fcbc 2428 8ebd 2037 82bd bad3 523e
00000310: ce24 49be 03cf 073e 703b a9bd f888 ffbd
00000320: 4d7e 2b3d b305 cebd aaac 3c3e c94f 3fbe
00000330: 3aa5 093d fd01 7e3c a0c5 733e f48b 8c3e
00000340: 6b91 25be 3c94 8abe 883a 1c3d 4a29 83be
00000350: 46bf 3f3d 0583 37be aa81 e13d aa8a 8e3e
00000360: 483e a63d d9ae 593d 07bc c3bd 706c 29be
00000370: 7a04 77bd f54d 10be d753 0bbc 8ed0 2b3e
00000380: 505c 8fbc 7e44 d1bd 7533 debc 1638 003e
00000390: 49a9 a33c 214d 213e 51b9 acbd 6ac3 d23d
000003a0: 88ea a33e 09f9 3dbe 4bd6 1bbe 363c e13b
000003b0: d7ac 443e 2a07 14be 249b 1d3d bf12 85be
000003c0: 7f63 7a3e a7ae d63d c36c 8c3e f836 5c3e
000003d0: 2501 57bd ef68 cb3c adff 3fbe 0ff3 ac3e
000003e0: c43b 1b3e 2281 433e 2899 ef3d bb31 903e
000003f0: 5f29 57bd f432 a8be 998b 37bd 90ca b4bd
0.19834843 -0.37223208 0.3109338 -0.25969592 0.051346675 -0.1915256 0.28603086 -0.1495651
-0.05561252 -0.34235877 -0.30242026 -0.27427652 -0.07097362 0.09466641 -0.023996823 0.19814193
0.103105225 -0.12560663 -0.14515986 0.04598845 0.20859505 -0.10114728 -0.036213063 0.21533255
-0.22922057 -0.1958107 -0.16869932 0.041625023 0.32942742 -0.0658011 -0.27715757 -0.15339929
0.046490103 0.059955318 0.052131567 -0.21924594 0.18659134 -0.010757616 -0.2807429 0.052436505
0.21875358 -0.16991512 -0.03782849 0.18728346 0.05126963 0.18416417 0.27820653 -0.10156372
-0.123303495 -0.039199073 0.019902335 -0.2517757 -0.024597256 -0.028371284 0.13774785 0.32218713
0.22973701 0.25844175 0.28867745 -0.026382362 -0.34511837 -0.06911343 -0.042656444 -0.024032025
0.00081289676 -0.14158805 -0.052040756 0.31375787 -0.15390734 0.1666758 0.061544884 -0.35179013
0.020798111 -0.261603 0.008714442 0.29764822 0.012643645 -0.0032541293 0.13973226 -0.13902451
-0.16959296 0.22897826 0.03781778 0.26932323 0.018866505 -0.2941525 -0.17311062 -0.18797758
0.27339098 -0.017168924 0.09818279 -0.056988426 0.06702294 -0.09306352 0.16547734 -0.15969402
0.016135225 0.2453307 0.06758673 -0.16719106 -0.03591949 0.11607494 0.0943045 -0.12595701
-0.20324226 0.073211975 -0.24233195 0.04157563 -0.019942425 -0.24951084 0.008127937 -0.07097509
0.16717723 0.229552 -0.07529894 -0.1708691 0.15538435 -0.011959724 0.23644015 0.011241975
0.119350955 -0.22305584 -0.16009834 0.018156 -0.20744729 0.15897013 -0.23651405 -0.008975947
-0.13641448 -0.11765378 -0.13789162 0.29778326 0.02933664 -0.122568995 -0.014680578 0.30572253
-0.04216837 -0.26710436 0.20305139 0.28844678 0.141513 0.23311399 -0.02014154 -0.28165525
-0.407401 0.25325307 -0.043752633 -0.03700027 -0.34228188 0.20862775 -0.0406999 0.058407076
0.18486956 -0.061674554 0.30668074 -0.015016881 -0.06490155 0.2564541 0.33879253 -0.0032488366
-0.013476014 -0.08524431 -0.1785809 0.18192221 -0.27347592 0.0543349 0.31478047 0.0039730906
0.120148495 -0.15766774 0.007889124 -0.25993833 -0.08465462 0.078513406 -0.18041039 -0.1843076
0.30026728 0.2305976 0.12369388 0.0033947648 -0.062194385 0.20607495 -0.109383754 -0.29982686
0.18358672 -0.2305746 -0.089379646 -0.055162307 -0.15616956 -0.14732209 -0.17362116 -0.04388534
-0.03084552 -0.0694125 -0.063581705 0.2058858 -0.19642946 0.13262562 -0.0826329 -0.124772966
0.041868497 -0.10059681 0.18425241 -0.1868278 0.033604838 0.015503404 0.23805857 0.27450526
-0.16168754 -0.2706622 0.038141757 -0.2561744 0.046813272 -0.17921074 0.110110596 0.27840167
0.08117348 0.053145263 -0.09557348 -0.16545272 -0.060307004 -0.14092238 -0.008503876 0.16778776
-0.017500073 -0.10218142 -0.027124146 0.12521395 0.019978182 0.15752079 -0.08433784 0.102911785
0.3201487 -0.1855203 -0.15218465 0.006873633 0.19206558 -0.14455858 0.03847803 -0.25990865
0.24452017 0.10482531 0.2742673 0.21505344 -0.052491326 0.02483031 -0.18749876 0.3377919
0.15159518 0.19092229 0.11699134 0.2816294 -0.05252969 -0.32851374 -0.044810865 -0.08827698

19.b_w f4 [8, 1]
00000000: 0000 00c3 0000 8042 0000 0042 0000 8041
00000010: 0000 0041 0000 8040 0000 0040 0000 803f
-128.0 64.0 32.0 16.0 8.0 4.0 2.0 1.0

momentum_buffer f4 [8]
00000000: f075 aa3e 947b 4fbc a099 913d 1361 653d
00000010: 1ec9 b5bd 8c83 b93c aafd 973d bb62 1fbe
0.33293104 -0.012663741 0.0710938 0.05600078 -0.08876251 0.022645734 0.074214295 -0.15565006

momentum_buffer f4 [8]
00000000: 84a5 ab3e 11e4 0abe 389b 73be 9692 0f3d
00000010: f6af 70be e1db 9a3d 46fe de3d fe5a 5ebe
0.33524716 -0.13563563 -0.2378968 0.035051905 -0.23504624 0.0756147 0.108883426 -0.21714398

momentum_buffer f4 [8]
00000000: 5802 c53b e25a f23d 0976 1ebd 7ea1 65be
00000010: 0c74 a6bc 7bca 3dbd 2812 1bbd 4914 0c3e
0.0060122423 0.11833741 -0.038686786 -0.22424886 -0.020319007 -0.04633568 -0.037859112 0.13679613

momentum_buffer f4 [8]
00000000: c09b 1eba 398f ca3d e1a0 8d3d 5446 41be
00000010: 10fb 843b 0514 88be bb7e 9a3c 173b e43d
-0.000605043 0.09890599 0.06915451 -0.18874484 0.0040582493 -0.26577774 0.018859258 0.11144083

momentum_buffer f4 [8]
00000000: 8482 c1bc 3368 923d 66dd a03c dc35 fdbc
00000010: e137 ddbc e9a2 05be 7089 c2bd c739 af3d
-0.023621805 0.07148781 0.019636821 -0.030909471 -0.027004184 -0.13050427 -0.094988704 0.08555942

momentum_buffer f4 [8]
00000000: 7666 1ebe 9ab8 953e 2952 973c bab7 26be
00000010: d1f8 2f3d f93a 93bd 6194 19be 6c5f 503d
-0.15468773 0.29242402 0.018471794 -0.16281024 0.0429619 -0.071889825 -0.14998008 0.05087225

momentum_buffer f4 [8]
00000000: a8df 813d 369c 3a3d fe39 66bd e1e1 10be
00000010: 82f8 89bd 8357 8f3d d4ee 7c3b 2829 2c3d
0.06341487 0.04555913 -0.05620765 -0.14148666 -0.06736852 0.069991134 0.00385945 0.042031437

momentum_buffer f4 [8]
00000000: 1407 9a3d 7815 6b3d c3af e9bd bcf8 f3bd
00000010: 0c50 69bd 9cdb ea3d c608 593d 8a03 453b
0.07520881 0.05739352 -0.11410477 -0.11912677 -0.056961104 0.114676684 0.052986883 0.0030061924

momentum_buffer f4 [8]
00000000: ca2a be3d fe2b d43d c72c e33b bb4d b23d
00000010: 03d0 16bd b918 18be b1b7 52bd 603a 8f3a
0.09285505 0.10359953 0.006932828 0.08706232 -0.03681947 -0.14853181 -0.051444713 0.0010927431

momentum_buffer f4 [8]
00000000: fcaf de3d a1de c43d 6841 eb3c 7b5d 8e3d
00000010: 69ff 1abd a552 52bd f562 7fbd 07e7 91bd
0.1087341 0.096127756 0.028717712 0.06951424 -0.037841234 -0.051348347 -0.062350232 -0.07124143

momentum_buffer f4 [8]
00000000: 829e 89bd 1715 84bc 30ba 253c 30b9 b53c
00000010: ffce a73c a821 403b 8216 123c d4cd 593d
-0.06719686 -0.016123338 0.010115191 0.02218303 0.020484446 0.0029316936 0.008916499 0.05317481

momentum_buffer f4 [8]
00000000: 866d 873d 6844 bebc 4d9a 3ebd 0a53 b23c
00000010: be7f 6b3c 11c5 e43c 428d 5d3b 65b7 023d
0.06612687 -0.023225978 -0.04653387 0.021768112 0.014373718 0.027926 0.003380612 0.03191318

momentum_buffer f4 [8]
00000000: 8453 6f3b 6a50 e53c c901 723c b137 253d
00000010: bb9f 43bd d7bc 403c 6fb7 d2bc a7ab 993d
0.0036518285 0.027992446 0.014770933 0.040336315 -0.047759753 0.011763773 -0.025722234 0.07503443

momentum_buffer f4 [8]
00000000: 433a 1f3d 809f e73c 928c 0c3b dcfb eb3c
00000010: 2316 27bc 8e7f 8abb e76c b53c 427e 183d
0.038873922 0.028274298 0.002144609 0.02880662 -0.010198149 -0.0042266315 0.022146655 0.037229784

momentum_buffer f4 [16]
00000000: 2a3c 633d 3981 083c cedd 0a3e 389f 2e3c
00000010: a667 453d 572e 92bd da0e 79bc 933a 05bd
00000020: 8aa6 23be d6c5 f83d 60ff 5a3d 26a8 c3bc
00000030: 814a 4bbd aa91 bebb 4ea5 6dbd 4f72 a0bc
0.0554773 0.00833159 0.13561174 0.010658078 0.04819455 -0.07137745 -0.015201295 -0.032526564
-0.15981498 0.12147109 0.0534662 -0.02388389 -0.0496316 -0.0058157044 -0.058018975 -0.019585757

momentum_buffer f4 [16]
00000000: 21e7 81bb 756a 0dbd a23d a83d e1e2 563d
00000010: 50c2 8f3b 59a1 3abd ed66 85bc 3478 c9bc
00000020: d24c 70bd 0f2c a83d d4f3 cf3c 219c 18bc
00000030: 3cdd fbbc ce15 823c f4c3 253d 0a55 7cbd
-0.0039643203 -0.034525353 0.082148805 0.052462462 0.0043871775 -0.04556403 -0.01628443 -0.02459345
-0.05866701 0.082115285 0.025384821 -0.009314568 -0.030745141 0.015879538 0.04047008 -0.061604537

momentum_buffer f4 [16]
00000000: 3567 88bc 6757 c33b 38c8 6e3d 5941 c7bd
00000010: b66b 6fbd a931 1f3d 8ea8 b6bb 17e1 3cbd
00000020: f845 e3bc eccf 6e3d e693 8e3c ce5c 90bc
00000030: bb15 9c3d 7ee7 d83c 4b30 c8bc 6d8e 3e3c
-0.016650775 0.005961347 0.058296412 -0.09729261 -0.05845233 0.03886572 -0.0055742925 -0.0461131
-0.027743325 0.05830376 0.017404508 -0.017622378 0.07621332 0.026477572 -0.02443709 0.011630637

momentum_buffer f4 [16]
00000000: ec78 cbbc 5ced 16bc 182c c6ba 1d8d acbd
00000010: dea3 39bd 5228 813c 1e34 33bc 507b 1bbd
00000020: 502f c0bc b3f3 3a3d ba5e 993c 8a8a 9bbc
00000030: 5c0e 8f3c ce0d e33b 497d 7ebc f4a0 163c
-0.024837933 -0.009211864 -0.0015119342 -0.08425353 -0.04532229 0.015766297 -0.010937719 -0.037959397
-0.02346006 0.045642566 0.018721927 -0.018986959 0.017462902 0.006929136 -0.0155328 0.009193648

momentum_buffer f4 [16]
00000000: acef 22bd 4460 9dbc 7644 f93b f047 2c3d
00000010: 2157 d9bc 8f85 743c ac29 d0bb 1856 eabc
00000020: 3400 01bd f683 e03c a1a5 8bbd 16dc 5d3d
00000030: 9230 493d 887f e0bc 0bcb 00bd e749 7f3d
-0.03977935 -0.019210942 0.007607038 0.042060792 -0.026530804 0.014924421 -0.006352624 -0.028605506
-0.031494334 0.027406674 -0.068187006 0.05416497 0.049118586 -0.027404562 -0.031443637 0.06232634

momentum_buffer f4 [16]
00000000: 2eab 4bbd 4d30 c5bc 1407 dabb eaeb 703c
00000010: c6f4 94bb 7eda 713c cd19 b1bb 7429 9fbc
00000020: 720c 3dbd 7ad7 6cbb ce1d 05bd 5987 3b3d
00000030: be54 573d 9e4d 9abb 0e0b 6fbc ce4b 473c
-0.049723797 -0.024070883 -0.006653676 0.014704684 -0.004545781 0.014761565 -0.005404687 -0.019428946
-0.046154447 -0.0036139176 -0.032499127 0.045783374 0.05257105 -0.0047089597 -0.014590038 0.012164069

momentum_buffer f4 [16]
00000000: 0a0c cfbc 763c 413d da5f 26bd a791 f7ba
00000010: 580a bc3a 3755 d23c 5caf 1c3c 2d23 a7bc
00000020: 1221 82bb a898 a63b 4d9c 27bd 87d8 d93c
00000030: 5acb f43b c205 9d3c 144d 623c 6785 023d
-0.025274295 0.0471768 -0.040618755 -0.0018888012 0.0014346344 0.0256754 0.009563293 -0.020402515
-0.0039712274 0.005084116 -0.040920544 0.026592506 0.0074705305 0.019167785 0.013812322 0.031865504

momentum_buffer f4 [16]
00000000: fc5b 47bd 5c35 c93c 584f 50bc 0a5f f1bb
00000010: e223 10bc 9e5b edbc 3ca6 d7b9 5c42 f2bc
00000020: bc02 9c39 c3ba 82bc d4a4 433b b700 813d
00000030: 9a43 793b 66f1 f23b 1aa7 5d3c 447c 373c
-0.048671708 0.024561577 -0.0127142295 -0.007366066 -0.008797618 -0.02897435 -0.0004113185 -0.029572658
0.00029756676 -0.015958196 0.0029852884 0.062989645 0.0038034678 0.007414031 0.01352861 0.011199061

momentum_buffer f4 [16]
00000000: 003d 5abc 92a6 0f3d 4af1 38bc 7c21 a43c
00000010: 7d87 5dbb 5834 3abb af21 53bc f210 233b
00000020: 95ac cbbc 7f93 1e3d f65c 383b 969d 15bd
00000030: 9b87 c4bb c02f 2a3d e0ec 943b 7c62 833a
-0.013320208 0.035070963 -0.011287997 0.020035498 -0.003380268 -0.0028412547 -0.012886449 0.0024881926
-0.024862567 0.038714882 0.002813158 -0.03652724 -0.0059976107 0.041549444 0.0045448393 0.0010023857

momentum_buffer f4 [16]
00000000: 3d7d 07bd a560 173d 7a96 78bc 3f2d 45bc
00000010: 3fd1 00bc bebb 0abb f031 6cbc a2d5 28bc
00000020: 36fc b93b ece3 883c 3e09 1c3c d9ac efbc
00000030: 3053 ecbb 261c 8cbb 4e05 87bb a24d d73b
-0.03307842 0.0369574 -0.015172595 -0.012034713 -0.007862388 -0.0021169032 -0.014416203 -0.01030484
0.005675818 0.016710244 0.009523688 -0.029257225 -0.007212065 -0.0042758165 -0.0041205054 0.006570534

momentum_buffer f4 [16]
00000000: 2889 0abc 5b91 33bd 086a 6339 d36f 82ba
00000010: fe22 163d 1113 f5bc 93cd 94bb 6cac 553a
00000020: 42d9 8abc a0d3 4739 3444 89bc b40b e7ba
00000030: 116d 8cbc bdb4 99bc 94b4 66bb b36a 023c
-0.008455552 -0.043839794 0.00021687907 -0.0009951539 0.036654465 -0.029916318 -0.004541108 0.0008150998
-0.0169493 0.00019056955 -0.016756155 -0.0017627389 -0.01714185 -0.01876294 -0.0035202848 0.007960009

momentum_buffer f4 [16]
00000000: 9a7f 5bbc ba3a 3ebd f6df f9bb fbcf 823b
00000010: 5a91 393d fdde bebc 7eef 6ebc 68a7 10bc
00000020: d874 dabc 9878 29bc c4ef 70bc 346f 703c
00000030: b392 94bc 3023 e0bc 4006 9fb9 f267 66bc
-0.013397122 -0.046442725 -0.007625575 0.0039920784 0.045304634 -0.023299688 -0.014583467 -0.008828975
-0.026667044 -0.010343693 -0.014705602 0.01467495 -0.018136358 -0.027360529 -0.000303315 -0.014062868

momentum_buffer f4 [32]
00000000: 8442 6fbc c2dd ef3a 0e14 343b 9021 8b3b
00000010: aea5 2d3d 8517 413c 4b38 f83c e928 883b
00000020: 22f0 7e3b ea22 1c3d 7e12 963c 3690 823c
00000030: 45a5 463b d5e7 a3bc d3d5 953c c476 e9bb
00000040: f432 19bd b149 6f3c 30ba 57bc 9e1d 043c
00000050: e22e eb3b 30f7 4a39 f031 313c 5366 79bd
00000060: dd3b 9d3b 5bd4 ab3b a632 043c 59ef b7bc
00000070: 0850 193c 9898 67bb e09e 763b 562d 963b
-0.014603261 0.0018300342 0.0027477774 0.0042459443 0.042394333 0.011785393 0.03030028 0.0041552675
0.0038900455 0.038119234 0.018319365 0.015937906 0.003031091 -0.020008007 0.018290436 -0.0071247537
-0.03740211 0.014604972 -0.013166949 0.008063702 0.0071772197 0.00019356306 0.010815129 -0.0608886
0.004798396 0.0052438206 0.008068716 -0.022452997 0.00935746 -0.0035338756 0.0037631318 0.004583041
