Securite/Model19/Result_bfa/nominal_0.01/model_best.pth.tar (torch, 533040 bytes, 118 tensors)

0.0.b_w f4 [8, 1]
-128.0 64.0 32.0 16.0 8.0 4.0 2.0 1.0
00000000: 0000 00c3 0000 8042 0000 0042 0000 8041
00000010: 0000 0041 0000 8040 0000 0040 0000 803f

0.1.weight f4 [8]
0.3343157 0.26995814 0.29507974 0.46757093 0.54663426 0.26873207 0.37721023 0.3703308
00000000: 6d2b ab3e f437 8a3e b114 973e 7565 ef3e
00000010: 39f0 0b3f 4097 893e b321 c13e 009c bd3e

0.1.bias f4 [8]
0.14084311 -0.0137511045 0.033668354 -0.103419594 -0.1485907 0.11464053 0.17410995 0.17975402
00000000: 2d39 103e 504c 61bc d4e7 093d a7cd d3bd
00000010: 2928 18be a7c8 ea3d e149 323e 7011 383e

0.1.running_mean f4 [8]
-0.03964783 -0.10440268 0.12606916 0.002670621 0.25695726 -0.0853181 0.12520808 -0.006126877
00000000: c365 22bd 13d1 d5bd 4618 013e 9605 2f3b
00000010: e78f 833e 42bb aebd 8c36 003e f8c3 c8bb

0.1.running_var f4 [8]
1.3945384 1.0961912 0.9636527 2.2097304 1.5479383 1.0821358 1.0551699 0.82645166
00000000: 3c80 b23f fe4f 8c3f f1b1 763f 396c 0d40
00000010: d822 c63f 6d83 8a3f cf0f 873f 5692 533f

1.module.0.0.b_w f4 [8, 1]
-128.0 64.0 32.0 16.0 8.0 4.0 2.0 1.0
00000000: 0000 00c3 0000 8042 0000 0042 0000 8041
00000010: 0000 0041 0000 8040 0000 0040 0000 803f

1.module.0.1.weight f4 [8]
0.67298746 0.6614814 0.567846 0.75453675 0.7456922 1.1289533 0.58676827 0.72116226
00000000: e848 2c3f d856 293f 5b5e 113f 5229 413f
00000010: afe5 3e3f 8b81 903f 7236 163f 179e 383f

1.module.0.1.bias f4 [8]
-0.29067 -0.084297106 -0.008370083 -0.407725 -0.04324771 -0.17073943 -0.1164885 0.0054021273
00000000: b3d2 94be f6a3 acbd ac22 09bc 55c1 d0be
00000010: 8324 31bd 51d6 2ebe 8691 eebd 5404 b13b

1.module.0.1.running_mean f4 [8]
0.18719287 -0.16071914 -0.39237875 -0.39451674 0.020538965 -0.16089647 0.042348966 -0.3317426
00000000: 7daf 3f3e 8f93 24be dee5 c8be 19fe c9be
00000010: 5541 a83c 0bc2 24be 1c76 2d3d 2bda a9be

1.module.0.1.running_var f4 [8]
0.12223704 0.09330367 0.11990427 0.12254997 0.19476144 0.5863295 0.10412966 0.26332653
00000000: 6a57 fa3d ff15 bf3d 5f90 f53d 7bfb fa3d
00000010: 8b6f 473e b119 163f ee41 d53d bcd2 863e

1.module.1.0.b_w f4 [8, 1]
-128.0 64.0 32.0 16.0 8.0 4.0 2.0 1.0
00000000: 0000 00c3 0000 8042 0000 0042 0000 8041
00000010: 0000 0041 0000 8040 0000 0040 0000 803f

1.module.1.1.weight f4 [8]
0.75894964 0.7868487 0.6507989 0.5307505 0.7832929 0.68318313 0.68677795 0.8740797
00000000: 864a 423f eb6e 493f c29a 263f 44df 073f
00000010: e285 483f 17e5 2e3f aed0 2f3f b0c3 5f3f

1.module.1.1.bias f4 [8]
-0.07793344 0.13000907 -0.07303251 -0.08728983 -0.12834999 -0.06390989 -0.12983136 -0.10777632
00000000: 919b 9fbd 1921 053e 1292 95bd 03c5 b2bd
00000010: 2e6e 03be 30e3 82bd 83f2 04be d5b9 dcbd

1.module.1.1.running_mean f4 [8]
-0.11206964 -0.13596945 -0.17022073 0.59403735 -0.6980822 -0.42719084 -0.5780476 -0.20289439
00000000: c484 e5bd 933b 0bbe 584e 2ebe d512 183f
00000010: 84b5 32bf c2b8 dabe edfa 13bf 8cc3 4fbe

1.module.1.1.running_var f4 [8]
0.2233372 0.3650737 0.20294647 0.24643382 0.558669 0.30233294 0.4249337 0.5396735
00000000: 82b2 643e f1ea ba3e 33d1 4f3e 2659 7c3e
00000010: ee04 0f3f 62cb 9a3e e990 d93e 0b28 0a3f

1.module.2.0.b_w f4 [8, 1]
-128.0 64.0 32.0 16.0 8.0 4.0 2.0 1.0
00000000: 0000 00c3 0000 8042 0000 0042 0000 8041
00000010: 0000 0041 0000 8040 0000 0040 0000 803f

1.module.2.1.weight f4 [8]
0.6138986 0.69374865 0.71921366 0.82001567 0.62530464 0.5732154 0.86610645 0.6132015
00000000: 7528 1d3f 8399 313f 631e 383f 8cec 513f
00000010: f713 203f 3fbe 123f 27b9 5d3f c6fa 1c3f

1.module.2.1.bias f4 [8]
0.09920213 -0.06444933 -0.09897956 -0.23423304 -0.23797488 -0.32214782 -0.27838382 -0.023734393
00000000: 7d2a cb3d 03fe 83bd ccb5 cabd c9da 6fbe
00000010: b0af 73be 8ff0 a4be 5388 8ebe a16e c2bc

1.module.2.1.running_mean f4 [8]
-0.43657708 -0.094766 -0.41642103 -0.54248595 -0.18592992 -0.3030929 -0.21159266 0.05896491
00000000: 0887 dfbe ad14 c2bd 2335 d5be 5ce0 0abf
00000010: 6a64 3ebe fe2e 9bbe bfab 58be 3185 713d

1.module.2.1.running_var f4 [8]
0.1594354 0.25322458 0.13467002 0.0981279 0.14736229 0.12010198 0.20010556 0.1532742
00000000: 0943 233e a7a6 813e f0e6 093e 48f7 c83d
00000010: 24e6 163e 07f8 f53d 79e8 4c3e e9f3 1c3e

2.module.0.0.b_w f4 [8, 1]
-128.0 64.0 32.0 16.0 8.0 4.0 2.0 1.0
00000000: 0000 00c3 0000 8042 0000 0042 0000 8041
00000010: 0000 0041 0000 8040 0000 0040 0000 803f

2.module.0.1.weight f4 [8]
0.72127414 0.74589616 0.62058735 0.49301237 0.6692024 0.7586934 0.6803909 0.7728241
00000000: 6ca5 383f 0df3 3e3f d0de 1e3f 1e6c fc3e
00000010: d950 2b3f bb39 423f 192e 2e3f cdd7 453f

2.module.0.1.bias f4 [8]
0.043612257 0.0118455645 -0.024806513 -0.18257189 0.020053588 -0.12185169 0.03066455 0.07826353
00000000: c4a2 323d e613 423c 0737 cbbc 20f4 3abe
00000010: 6c47 a43c 618d f9bd 3934 fb3c a148 a03d

2.module.0.1.running_mean f4 [8]
-1.0933096 -0.60730064 -0.3491595 0.116336904 -0.48709688 -0.18928646 0.32510063 0.02226225
00000000: 92f1 8bbf 0e78 1bbf 09c5 b2be 0b42 ee3d
00000010: c364 f9be 4fd4 41be 9773 a63e 525f b63c

2.module.0.1.running_var f4 [8]
0.30874085 0.14635614 0.09066661 0.18563274 0.21898611 0.33290377 0.24926506 0.21452875
00000000: 4813 9e3e 62de 153e 6aaf b93d 8216 3e3e
00000010: e53d 603e 5d72 aa3e 573f 7f3e 6dad 5b3e

2.module.1.0.b_w f4 [8, 1]
-128.0 64.0 32.0 16.0 8.0 4.0 2.0 1.0
00000000: 0000 00c3 0000 8042 0000 0042 0000 8041
00000010: 0000 0041 0000 8040 0000 0040 0000 803f

2.module.1.1.weight f4 [8]
0.737859 0.6298026 0.77780396 0.6056288 0.65392476 0.6167496 0.6502526 0.69864774
00000000: 54e4 3c3f be3a 213f 291e 473f 7d0a 1b3f
00000010: 9d67 273f 4de3 1d3f f476 263f 94da 323f

2.module.1.1.bias f4 [8]
-0.05489531 -0.2504569 0.12540951 -0.019631075 -0.13793907 -0.13878548 0.016475284 0.027303018
00000000: e8d9 60bd e33b 80be 5a6b 003e 59d1 a0bc
00000010: e63f 0dbe c81d 0ebe 2df7 863c 94aa df3c

2.module.1.1.running_mean f4 [8]
0.03641251 -0.12506153 0.008477711 0.40814385 -0.40143093 -0.24525194 -0.16860265 -0.24176803
00000000: 4925 153d 2110 00be 19e6 0a3c 3bf8 d03e
00000010: 5b88 cdbe 5323 7bbe 2ca6 2cbe 0a92 77be

2.module.1.1.running_var f4 [8]
0.30271736 0.15214027 0.28049454 0.1467015 0.21448186 0.12094338 0.17744185 0.064092904
00000000: c5fd 9a3e a9ca 1b3e fb9c 8f3e eb38 163e
00000010: 22a1 5b3e 2ab1 f73d 51b3 353e 2443 833d

2.module.2.0.b_w f4 [8, 1]
-128.0 64.0 32.0 16.0 8.0 4.0 2.0 1.0
00000000: 0000 00c3 0000 8042 0000 0042 0000 8041
00000010: 0000 0041 0000 8040 0000 0040 0000 803f

2.module.2.1.weight f4 [8]
0.8041484 0.79454386 0.86174536 0.7209365 0.72178894 0.8829646 0.6402727 0.828632
00000000: abdc 4d3f 3a67 4b3f 589b 5c3f 4b8f 383f
00000010: 29c7 383f f809 623f e9e8 233f 3a21 543f

2.module.2.1.bias f4 [8]
-0.033813097 -0.04401766 -0.1431071 -0.060425475 -0.05435356 0.05434625 -0.13631316 0.07836213
00000000: 9a7f 0abd dd4b 34bd ab8a 12be b480 77bd
00000010: d7a1 5ebd 2c9a 5e3d ad95 0bbe 537c a03d

2.module.2.1.running_mean f4 [8]
-0.0006534927 -0.4117603 0.084771916 0.15727215 0.23959449 -0.30448857 0.13503103 -0.41574287
00000000: 274f 2bba 3fd2 d2be e69c ad3d f30b 213e
00000010: 4258 753e ede5 9bbe 9345 0a3e 40dc d4be

2.module.2.1.running_var f4 [8]
0.15506783 0.22999266 0.19881107 0.1735744 0.17446983 0.24880247 0.18585506 0.17864221
00000000: 1aca 1e3e 3283 6b3e 2195 4b3e 7dbd 313e
00000010: 38a8 323e 13c6 7e3e ca50 3e3e fced 363e

5.module.0.0.b_w f4 [8, 1]
-128.0 64.0 32.0 16.0 8.0 4.0 2.0 1.0
00000000: 0000 00c3 0000 8042 0000 0042 0000 8041
00000010: 0000 0041 0000 8040 0000 0040 0000 803f

5.module.0.1.weight f4 [16]
0.7658464 0.7659882 0.6384242 0.70652246 0.786363 0.595536 0.7938491 0.57523704
0.50747395 0.660053 0.7340448 0.44846362 0.6245583 0.7778834 0.64723825 0.70639825
00000000: 820e 443f cd17 443f c56f 233f a8de 343f
00000010: 164f 493f 0c75 183f b239 4b3f bc42 133f
00000020: d0e9 013f 3cf9 283f 5cea 3b3f 069d e53e
00000030: 0ee3 1f3f 5e23 473f 68b1 253f 84d6 343f

5.module.0.1.bias f4 [16]
-0.0460085 0.10450972 -0.24467885 -0.015076014 0.059426684 -0.2686396 0.096844845 -0.10395634
-0.08557884 -0.24537417 0.0068159155 -0.1293604 -0.24285878 -0.0020310588 -0.27579883 -0.045466773
00000000: 6973 3cbd 3109 d63d 188d 7abe 6301 77bc
00000010: 6569 733d 218b 89be 9756 c63d 10e7 d4bd
00000020: f543 afbd 5e43 7bbe 0b58 df3b 0d77 04be
00000030: f9af 78be 831b 05bb 8135 8dbe 5e3b 3abd

5.module.0.1.running_mean f4 [16]
-0.87992924 -1.7512991 0.72320765 -1.3719909 -0.8008341 0.083043076 -0.84843594 -0.13264297
0.7254908 1.058685 -0.7439996 1.3802851 0.5291622 -1.1345346 1.1526448 1.1430162
00000000: 0b43 61bf 922a e0bf 2324 393f 669d afbf
00000010: 7703 4dbf 7d12 aa3d 1933 59bf 8fd3 07be
00000020: c4b9 393f fd82 873f c276 3ebf 2fad b03f
00000030: 2d77 073f 6e38 91bf dd89 933f 5b4e 923f

5.module.0.1.running_var f4 [16]
1.8671947 1.8062491 2.9464974 1.9961509 2.0138981 1.9246699 1.4231875 1.0383859
2.7688205 2.4396887 1.2478498 1.3911495 1.998784 1.1524915 2.6947856 2.3370397
00000000: 3c00 ef3f 2c33 e73f 6a93 3c40 df81 ff3f
00000010: b5e3 0040 955b f63f 022b b63f d4e9 843f
00000020: 5b34 3140 dc23 1c40 8bb9 9f3f 3011 b23f
00000030: 27d8 ff3f d784 933f 5e77 2c40 0f92 1540

5.module.1.0.b_w f4 [8, 1]
-128.0 64.0 32.0 16.0 8.0 4.0 2.0 1.0
00000000: 0000 00c3 0000 8042 0000 0042 0000 8041
00000010: 0000 0041 0000 8040 0000 0040 0000 803f

5.module.1.1.weight f4 [16]
0.7989471 0.65640473 0.75340736 0.6362998 0.60647047 0.6354557 0.7031981 0.565607
0.6312957 0.6581377 0.7097273 0.74366385 0.59018695 0.8072768 0.6368384 0.6997936
00000000: cc87 4c3f 240a 283f 4edf 403f 8be4 223f
00000010: a641 1b3f 3aad 223f ca04 343f 9fcb 103f
00000020: 989c 213f b67b 283f b0b0 353f c160 3e3f
00000030: 7e16 173f b1a9 4e3f d707 233f ac25 333f

5.module.1.1.bias f4 [16]
0.060220953 -0.07157286 -0.12508117 -0.035642903 -0.014254792 -0.08581944 -0.022108512 -0.124912925
-0.09999002 0.025723448 -0.06540041 -0.025448099 0.13660781 -0.024878975 -0.056686968 0.0047539165
00000000: 3faa 763d cb94 92bd 4715 00be 4bfe 11bd
00000010: ee8c 69bc 1ac2 afbd e91c b5bc 59d2 ffbd
00000020: 91c7 ccbd fbb9 d23c a6f0 85bd 8878 d0bc
00000030: ebe2 0b3e fece cbbc 9830 68bd bec6 9b3b

5.module.1.1.running_mean f4 [16]
-0.20853433 -0.014137702 0.182199 -0.07241974 -0.047738604 -0.51240623 0.18053976 0.2977967
0.5355485 0.5142706 -0.6739441 0.21745586 -0.3523798 -0.3581096 -0.3136339 -0.47278088
00000000: 068a 55be d2a1 67bc 6092 3a3e cd50 94bd
00000010: 8e89 43bd 0e2d 03bf 6adf 383e cf78 983e
00000020: b519 093f 3da7 033f 9a87 2cbf c0ac 5e3e
00000030: 206b b4be 245a b7be 9f94 a0be 5610 f2be

5.module.1.1.running_var f4 [16]
0.20935884 0.17748176 0.2444517 0.21143863 0.2380744 0.13502043 0.13719353 0.14417703
0.17529552 0.30536306 0.1765053 0.26302838 0.31723803 0.3976673 0.21302918 0.15787204
00000000: 2a62 563e c7bd 353e 8c51 7a3e 5e83 583e
00000010: c7c9 733e cc42 0a3e 767c 0c3e 25a3 133e
00000020: ab80 333e 8c58 9c3e cebd 343e a8ab 863e
00000030: 066d a23e 0c9b cb3e 5224 5a3e 35a9 213e

5.module.2.0.b_w f4 [8, 1]
-128.0 64.0 32.0 16.0 8.0 4.0 2.0 1.0
00000000: 0000 00c3 0000 8042 0000 0042 0000 8041
00000010: 0000 0041 0000 8040 0000 0040 0000 803f

5.module.2.1.weight f4 [16]
0.7416778 0.86859983 0.714243 0.6691633 0.70125216 0.7621388 0.63880336 0.66685814
0.7214966 0.6206097 0.6316532 0.6934375 0.6572953 0.6433037 0.6721235 0.71348774
00000000: 99de 3d3f 8f5c 5e3f a1d8 363f 494e 2b3f
00000010: 4385 333f 871b 433f 9e88 233f 37b7 2a3f
00000020: 00b4 383f 47e0 1e3f 06b4 213f 1f85 313f
00000030: 8144 283f 8daf 243f 4910 2c3f 22a7 363f

5.module.2.1.bias f4 [16]
-0.12758619 0.12032065 -0.07067682 -0.121139966 0.017052824 0.06062609 -0.039467648 -0.08182253
-0.025010504 -0.04383667 -0.022991177 -0.060347576 0.036188252 -0.08895651 -0.07770472 0.021081474
00000000: f4a5 02be ac6a f63d 02bf 90bd 3b18 f8bd
00000010: 5db2 8b3c 1053 783d d4a8 21bd 9292 a7bd
00000020: d4e2 ccbc 158e 33bd fe57 bcbc 052f 77bd
00000030: 223a 143d d52e b6bd a723 9fbd 0eb3 ac3c

5.module.2.1.running_mean f4 [16]
-0.44264162 0.09553642 0.4535534 0.35853764 0.4986906 0.0014951504 0.61324036 0.8039465
-0.22715996 0.28692004 -0.016209027 -0.06482334 0.09314407 -0.5410913 0.30576617 0.35901484
00000000: eca1 e2be 99a8 c33d 2738 e83e 3f92 b73e
00000010: 6054 ff3e ecf8 c33a 52fd 1c3f 70cf 4d3f
00000020: 9f9c 68be 2fe7 923e cbc8 84bc 19c2 84bd
00000030: 51c2 be3d f684 0abf 628d 9c3e cbd0 b73e

5.module.2.1.running_var f4 [16]
0.4035266 0.42402783 0.21212046 0.28857473 0.38006473 0.2534892 0.3055999 0.4005577
0.19557126 0.17866674 0.30658925 0.14610441 0.17388415 0.1560986 0.27886072 0.21172798
00000000: 0a9b ce3e 2d1a d93e 1b36 593e 11c0 933e
00000010: d897 c23e 56c9 813e 9777 9c3e e615 cd3e
00000020: d543 483e 6af4 363e 44f9 9c3e 659c 153e
00000030: b00e 323e 50d8 1f3e d5c6 8e3e 38cf 583e

6.module.0.0.b_w f4 [8, 1]
-128.0 64.0 32.0 16.0 8.0 4.0 2.0 1.0
00000000: 0000 00c3 0000 8042 0000 0042 0000 8041
00000010: 0000 0041 0000 8040 0000 0040 0000 803f

6.module.0.1.weight f4 [16]
0.7130734 0.65700775 0.68814087 0.7520624 0.63371533 0.72127736 0.6647805 0.75153035
0.6385204 0.5796202 0.60048753 0.71895367 0.65966463 0.5588089 0.7167375 0.74352455
00000000: fa8b 363f a931 283f 002a 303f 2987 403f
00000010: 2b3b 223f a2a5 383f 0e2f 2a3f 4b64 403f
00000020: 1376 233f fd61 143f 8db9 193f 590d 383f
00000030: c8df 283f 1a0e 0f3f 1c7c 373f a057 3e3f

6.module.0.1.bias f4 [16]
0.09926422 -0.13344382 0.022781044 -0.019155419 -0.040825587 -0.025733616 0.009077107 0.12026112
-0.0355249 -0.03817403 -0.03557161 -0.05961269 0.013462622 -0.07774266 -0.061706934 -0.050648462
00000000: 0a4b cb3d 7fa5 08be 509f ba3c d3eb 9cbc
00000010: bb38 27bd 4ecf d2bc 25b8 143c 764b f63d
00000020: 8f82 11bd 5f5c 1cbd 89b3 11bd 702c 74bd
00000030: 5492 5c3c 8b37 9fbd 69c0 7cbd c374 4fbd

6.module.0.1.running_mean f4 [16]
-0.13127391 0.3327209 -0.16885492 -0.099057645 0.015926193 -0.8300677 0.2290055 -0.4250015
0.22793388 0.6082958 0.7533838 -0.42198053 -0.47258973 0.083058566 -0.2978485 -0.12145929
00000000: ab6c 06be 655a aa3e 4ee8 2cbe bcde cabd
00000010: a677 823c 517f 54bf 6b80 6a3e cc99 d9be
00000020: 8067 693e 46b9 1b3f c3dd 403f d50d d8be
00000030: 48f7 f1be 9c1a aa3d 997f 98be a6bf f8bd

6.module.0.1.running_var f4 [16]
0.31566042 0.7930139 0.3310225 0.3744405 0.2622462 0.5559906 0.28410146 0.45107272
0.30598727 0.47321913 0.4760311 0.8415414 0.40347585 0.26200026 0.6771658 0.3951659
00000000: 3e9e a13e f502 4b3f c87b a93e aab6 bf3e
00000010: 2245 863e 6655 0e3f bf75 913e 01f3 e63e
00000020: 5daa 9c3e c749 f23e 59ba f33e 426f 573f
00000030: 6394 ce3e e624 863e bd5a 2d3f 2f53 ca3e

6.module.1.0.b_w f4 [8, 1]
-128.0 64.0 32.0 16.0 8.0 4.0 2.0 1.0
00000000: 0000 00c3 0000 8042 0000 0042 0000 8041
00000010: 0000 0041 0000 8040 0000 0040 0000 803f

6.module.1.1.weight f4 [16]
0.6736892 0.66586876 0.71106905 0.65838933 0.670675 0.6715868 0.6562328 0.69698334
0.68002236 0.6461091 0.6408672 0.65927446 0.6847552 0.6918368 0.689872 0.65536237
00000000: e576 2c3f 6076 2a3f 9f08 363f 348c 283f
00000010: 5bb1 2b3f 1ded 2b3f dffe 273f 806d 323f
00000020: f215 2e3f 6867 253f df0f 243f 36c6 283f
00000030: 1e4c 2f3f 371c 313f 749b 303f d4c5 273f

6.module.1.1.bias f4 [16]
-0.09284302 -0.18633063 -0.031811915 -0.058735877 -0.046158593 -0.027627759 -0.0374645 -0.106282055
-0.08848694 -0.11059448 -0.06648777 -0.09784173 0.029336035 -0.1573877 -0.14323223 -0.08829989
00000000: 7b24 bebd 75cd 3ebe 364d 02bd 0895 70bd
00000010: cb10 3dbd 9c53 e2bc 6074 19bd 68aa d9bd
00000020: a438 b5bd 5c7f e2bd bd2a 88bd 3f61 c8bd
00000030: 2052 f03c 3e2a 21be 78ab 12be 93d6 b4bd

6.module.1.1.running_mean f4 [16]
-0.38473207 0.06364009 -0.12397108 -0.16743177 -0.34038922 0.18396161 -0.32197288 -0.10708823
-0.44607517 -0.1893105 -0.18029132 -0.24444313 -0.2463387 -0.28287908 -0.41949955 -0.30680665
00000000: 9afb c4be bc55 823d 8de4 fdbd 3c73 2bbe
00000010: 7f47 aebe 6f60 3c3e a1d9 a4be 1351 dbbd
00000020: f763 e4be 9dda 41be 4a9e 38be 4d4f 7abe
00000030: 3640 7cbe 87d5 90be a5c8 d6be c315 9dbe

6.module.1.1.running_var f4 [16]
0.14412542 0.26917246 0.094411306 0.12895906 0.09519354 0.086407125 0.0914134 0.1304047
0.11410509 0.09369969 0.10560853 0.12119649 0.12595893 0.18333773 0.13353753 0.15953803
00000000: 9d95 133e f9d0 893e b75a c13d d80d 043e
00000010: d5f4 c23d 38f6 b03d f336 bb3d cf88 053e
00000020: eeaf e93d a0e5 bf3d 4949 d83d de35 f83d
00000030: 61fb 003e e3bc 3b3e 10be 083e f05d 233e

6.module.2.0.b_w f4 [8, 1]
-128.0 64.0 32.0 16.0 8.0 4.0 2.0 1.0
00000000: 0000 00c3 0000 8042 0000 0042 0000 8041
00000010: 0000 0041 0000 8040 0000 0040 0000 803f

6.module.2.1.weight f4 [16]
0.8411627 0.80653834 0.74441487 0.8136464 0.80460155 0.7859054 0.83677137 0.76099277
0.8249184 0.7861632 0.78551644 0.73666507 0.80458 0.7419859 0.82977116 0.7239124
00000000: 7056 573f 4c79 4e3f f991 3e3f 214b 503f
00000010: 5efa 4d3f 1931 493f a636 563f 6cd0 423f
00000020: da2d 533f fe41 493f 9b17 493f 1596 3c3f
00000030: f4f8 4d3f caf2 3d3f e26b 543f 5352 393f

6.module.2.1.bias f4 [16]
0.012318929 0.02740718 -0.04970856 0.05879106 0.052527104 0.07677699 0.013361395 -0.06154593
0.03356104 -0.017103055 -0.03957858 -0.031266503 -0.07123522 -0.080380924 -0.047257908 -0.028261947
00000000: 55d5 493c 0685 e03c 349b 4bbd e5ce 703d
00000010: a926 573d 413d 9d3d c1e9 5a3c 9617 7cbd
00000020: 4d77 093d b51b 8cbc 261d 22bd 4e11 00bd
00000030: c5e3 91bd c19e a4bd 8291 41bd 9985 e7bc

6.module.2.1.running_mean f4 [16]
0.2739947 -0.14731652 0.26699144 0.0035279384 -0.18257225 0.0126757715 0.012340402 -0.14171635
-0.10419171 0.0038416504 -0.014115702 0.04317041 0.0010742192 0.0662602 -0.14472939 -0.06804328
00000000: 0949 8c3e 24da 16be 1ab3 883e fc34 673b
00000010: 38f4 3abe 0aae 4f3c 662f 4a3c 171e 11be
00000020: 7762 d5bd 33c4 7b3b 8c45 67bc 75d3 303d
00000030: d1cc 8c3a 6eb3 873d f133 14be 465a 8bbd

6.module.2.1.running_var f4 [16]
0.16577655 0.092424035 0.14876974 0.12254919 0.10267911 0.10806333 0.13387762 0.10554536
0.07186822 0.14325115 0.1571454 0.12541096 0.13716836 0.13154721 0.10065431 0.05963881
00000000: 54c1 293e d048 bd3d 1857 183e 12fb fa3d
00000010: 6d49 d23d 4f50 dd3d 3717 093e 2a28 d83d
00000020: a52f 933d 6eb0 123e b9ea 203e bb6b 003e
00000030: dd75 0c3e 50b4 063e d923 ce3d d347 743d

9.0.b_w f4 [8, 1]
-128.0 64.0 32.0 16.0 8.0 4.0 2.0 1.0
00000000: 0000 00c3 0000 8042 0000 0042 0000 8041
00000010: 0000 0041 0000 8040 0000 0040 0000 803f

9.1.weight f4 [32]
0.6639465 0.5870052 0.6552414 0.60248804 0.7393987 0.6759063 0.6819515 0.63304234
0.6268947 0.64228636 0.68011135 0.6503502 0.65501416 0.83639574 0.6356814 0.71510273
0.6673683 0.6928534 0.7226218 0.65145385 0.7042094 0.78903943 0.6164389 0.75928706
0.62828624 0.6208048 0.6906426 0.75682324 0.63416517 0.58245414 0.66051066 0.6394115
00000000: 66f8 293f f945 163f e6bd 273f a83c 1a3f
00000010: 3c49 3d3f 3208 2d3f 6094 2e3f 100f 223f
00000020: 2c7c 203f e16c 243f c71b 2e3f 5a7d 263f
00000030: 02af 273f 081e 563f 04bc 223f f910 373f
00000040: a6d8 2a3f d75e 313f befd 383f aec5 263f
00000050: 1147 343f 7dfe 493f f1ce 1d3f a360 423f
00000060: 5ed7 203f 10ed 1e3f f4cd 303f 2bbf 413f
00000070: a658 223f b71b 153f 3a17 293f 79b0 233f

9.1.bias f4 [32]
-0.06783635 -0.1245591 -0.02479383 -0.111246385 -0.1446459 0.0044860467 -0.024523843 -0.036185645
-0.07506299 -0.0040677977 -0.005444611 -0.09216611 -0.05229979 0.08025427 -0.051198617 -0.08993057
-0.11224204 -0.07841912 -0.080676146 -0.10738778 -0.048397847 0.09189664 -0.054845605 -0.080893695
-0.043115675 -0.12451987 -0.046120256 0.14307839 -0.11101816 -0.1524519 -0.06683276 -0.061796017
00000000: c9ed 8abd d718 ffbd 6e1c cbbc 25d5 e3bd
00000010: 0e1e 14be b0ff 923b 3ae6 c8bc 6637 14bd
00000020: a0ba 99bd 294b 85bb b568 b2bb 96c1 bcbd
00000030: 4e38 56bd 5a5c a43d a4b5 51bd 852d b8bd
00000040: 28df e5bd 349a a0bd 8939 a5bd 20ee dbbd
00000050: d23c 46bd 4e34 bc3d c9a5 60bd 98ab a5bd
00000060: 109a 30bd 4604 ffbd 98e8 3cbd 2483 123e
00000070: 7d5d e3bd 5a1c 1cbe 9ddf 88bd d21d 7dbd

9.1.running_mean f4 [32]
-0.041318152 -0.34270933 0.121861055 -0.3382229 -0.42841163 -0.42976797 -0.51736134 -0.36533213
-0.0565127 -0.8591858 -0.17463908 -0.079921275 -0.18045086 -0.73725545 -0.31613094 0.33881998
-0.6398462 -0.17184094 -0.4677301 -0.41629496 -0.41974097 0.024052927 -0.20788929 -0.90062416
0.13286452 0.1684434 -0.32988828 -0.81927407 -0.054477844 0.22755119 -0.33412448 -0.26684314
00000000: 393d 29bd 9977 afbe 4a92 f93d 8d2b adbe
00000010: c558 dbbe 8c0a dcbe cb71 04bf d00c bbbe
00000020: dc79 67bd 9af3 5bbf 96d4 32be c4ad a3bd
00000030: 1cc8 38be c6bc 3cbf eadb a1be d079 ad3e
00000040: f6cc 23bf 12f7 2fbe 527a efbe 9d24 d5be
00000050: 4ae8 d6be a50a c53c eee0 54be 4e8f 66bf
00000060: a30d 083e 6d7c 2c3e 1ee7 a8be f2bb 51bf
00000070: 2924 5fbd 2e03 693e 5d12 abbe aa9f 88be

9.1.running_var f4 [32]
0.8104981 0.5918815 1.0671729 0.58619326 1.9277517 0.7054984 0.8201444 0.7522694
1.0245738 1.386855 0.93462396 1.534139 0.85075265 3.572159 1.1396173 1.9163245
1.1707627 1.2120336 2.1891487 0.6413653 1.1617883 4.9230065 0.4881225 1.7212902
1.2965045 1.0826268 1.0982904 2.9044142 1.3192104 1.0467656 1.0778464 0.61213803
00000000: ce7c 4f3f 8c85 173f 1f99 883f c310 163f
00000010: 91c0 f63f 8b9b 343f fcf4 513f ba94 403f
00000020: 3c25 833f 7784 b13f 8443 6f3f ab5e c43f
00000030: edca 593f 419e 6440 fbde 913f 1f4a f53f
00000040: 8ddb 953f eb23 9b3f 031b 0c40 8430 243f
00000050: 7bb5 943f 4589 9d40 31eb f93e 3d53 dc3f
00000060: dcf3 a53f 8493 8a3f c894 8c3f ece1 3940
00000070: e3db a83f 6afc 853f dff6 893f 14b5 1c3f

10.0.b_w f4 [8, 1]
-128.0 64.0 32.0 16.0 8.0 4.0 2.0 1.0
00000000: 0000 00c3 0000 8042 0000 0042 0000 8041
00000010: 0000 0041 0000 8040 0000 0040 0000 803f

10.1.weight f4 [32]
0.645789 0.6371921 0.6377136 0.6729255 0.68351686 0.6718458 0.622671 0.6625867
0.6164997 0.66259176 0.60906106 0.6251772 0.6467664 0.62701184 0.6678538 0.632955
0.6481596 0.6479552 0.64492494 0.64825016 0.6597772 0.59924513 0.65551376 0.6850245
0.6770316 0.7214759 0.628871 0.67284226 0.64992183 0.625425 0.6717591 0.69677854
00000000: 6e52 253f 051f 233f 3341 233f d844 2c3f
00000010: f6fa 2e3f 16fe 2b3f 5e67 1f3f 489f 293f
00000020: edd2 1d3f 9d9f 293f 6deb 1b3f 9d0b 203f
00000030: 7c92 253f d983 203f 77f8 2a3f 5709 223f
00000040: caed 253f 64e0 253f cd19 253f b9f3 253f
00000050: 29e7 283f 2168 193f c0cf 273f c45d 2f3f
00000060: f151 2d3f a5b2 383f b1fd 203f 643f 2c3f
00000070: 4761 263f da1b 203f 68f8 2b3f 1460 323f

10.1.bias f4 [32]
-0.13003857 -0.1163023 -0.18545425 -0.2568575 -0.28034368 -0.20403928 -0.17932974 -0.13999334
-0.1634081 -0.18157957 -0.18513556 -0.17415133 -0.16082759 -0.13795103 -0.14788836 -0.15601604
-0.14734901 -0.16080312 -0.21056375 -0.3298647 -0.20818843 -0.12114651 -0.09676359 -0.13384958
-0.16899976 -0.28759333 -0.18201914 -0.19289985 -0.15984745 -0.1338023 -0.27816918 -0.17031905
00000000: d528 05be e62f eebd b8e7 3dbe d482 83be
00000010: 3589 8fbe acef 50be 37a2 37be 6a5a 0fbe
00000020: 7454 27be ffef 39be 2d94 3dbe ba54 32be
00000030: fdaf 24be 0943 0dbe 0c70 17be abc2 1fbe
00000040: a9e2 16be 93a9 24be 069e 57be 07e4 a8be
00000050: 592f 55be a91b f8bd fd2b c6bd dd0f 09be
00000060: 460e 2dbe 6f3f 93be 3a63 3abe 8a87 45be
00000070: 0daf 23be 7803 09be 316c 8ebe 1e68 2ebe

10.1.running_mean f4 [32]
0.12952314 0.37253356 0.03003829 -0.22141103 -0.2567147 0.072199166 0.33135793 -0.20122564
0.42952767 -0.1496727 -0.13657142 0.4207988 -0.21653426 -0.1336773 -0.062352687 0.05448203
-0.077278756 -0.14614911 -0.30394554 -0.27468154 -0.13465904 -0.048389204 -0.14823894 -0.07237756
-0.23531629 -0.19936989 -0.2292602 0.045325305 0.044073544 -0.09592051 -0.086087756 0.061939556
00000000: b7a1 043e b8bc be3e dc12 f63c 93b9 62be
00000010: 1c70 83be 28dd 933d bfa7 a93e 180e 4ebe
00000020: 0deb db3e cd43 19be 61d9 0bbe f172 d73e
00000030: 28bb 5dbe b4e2 08be 8865 7fbd 8d28 5f3d
00000040: 5344 9ebd 1da8 15be c09e 9bbe 0fa3 8cbe
00000050: 0fe4 09be c233 46bd f3cb 17be b03a 94bd
00000060: c1f6 70be 9f27 4cbe 30c3 6abe 07a7 393d
00000070: 7686 343d f971 c4bd c74e b0bd 55b4 7d3d

10.1.running_var f4 [32]
0.10544549 0.26657042 0.118410096 0.25156167 0.118044905 0.15720212 0.21407373 0.16315322
0.25816324 0.14098985 0.121881366 0.23835501 0.13010821 0.16973695 0.18532848 0.15383579
0.13080046 0.12946375 0.16104192 0.23974174 0.1589842 0.14039649 0.12113617 0.10334439
0.16338672 0.10808856 0.18254937 0.15475678 0.27289 0.125387 0.14309284 0.24841686
00000000: cef3 d73d eb7b 883e fe80 f23d b1cc 803e
00000010: 87c1 f13d 98f9 203e 2536 5b3e a311 273e
00000020: f92d 843e a55f 103e f09c f93d 5613 743e
00000030: 163b 053e 86cf 2d3e c0c6 3d3e 2187 1d3e
00000040: 8ef0 053e 2592 043e 2ce8 243e dc7e 753e
00000050: c1cc 223e 19c4 0f3e 3e16 f83d 39a6 d33d
00000060: d94e 273e 895d dd3d 39ee 3a3e 9078 1e3e
00000070: 3db8 8b3e 7365 003e ee86 123e fd60 7e3e

13.0.b_w f4 [8, 1]
-128.0 64.0 32.0 16.0 8.0 4.0 2.0 1.0
00000000: 0000 00c3 0000 8042 0000 0042 0000 8041
00000010: 0000 0041 0000 8040 0000 0040 0000 803f

13.1.weight f4 [64]
0.88515544 1.0474932 0.8525824 0.8085297 0.810834 0.8437173 0.8991582 0.8625325
0.869135 1.0080657 0.9072669 1.0052778 0.98674595 0.97844213 0.8940139 0.87069774
0.884076 0.8749935 1.03185 1.037905 0.8920978 0.9176491 0.9135299 0.9787558
0.8926872 0.8746554 0.9535824 0.8477673 0.98298633 0.9641543 0.9380133 0.83768964
0.9818284 0.805897 0.9610771 0.9714427 0.8696907 0.89390105 0.995445 0.8395847
0.85118616 0.9591655 0.94474787 0.8922257 0.81309 0.8416949 0.9545203 0.8838941
0.8992205 0.8130963 0.8531647 0.86657685 0.90774643 0.9437349 0.8167724 0.8893619
0.8485998 0.91171724 0.85320944 1.3080192 0.91378856 0.9690519 0.8757633 0.85428745
00000000: 8c99 623f 4214 863f d742 5a3f cdfb 4e3f
00000010: d192 4f3f dbfd 573f 3b2f 663f eece 5c3f
00000020: a27f 5e3f 4c08 813f a542 683f f1ac 803f
00000030: 629b 7c3f 2f7b 7a3f 18de 643f 0ce6 5e3f
00000040: ce52 623f 93ff 5f3f a913 843f 12da 843f
00000050: 8560 643f 0deb 6a3f 18dd 693f bd8f 7a3f
00000060: 2687 643f 6be9 5f3f fa1d 743f 4707 593f
00000070: fea4 7b3f d1d2 763f a421 703f d472 563f
00000080: 1b59 7b3f 444f 4e3f 2609 763f 78b0 783f
00000090: 0da4 5e3f b3d6 643f 7cd5 7e3f 06ef 563f
000000a0: 56e7 593f df8b 753f ffda 713f e768 643f
000000b0: ab26 503f 5179 573f 715b 743f e246 623f
000000c0: 5133 663f 1427 503f 0069 5a3f fbd7 5d3f
000000d0: 1262 683f 9c98 713f ff17 513f 39ad 633f
000000e0: d63d 593f 4d66 693f ef6b 5a3f 2c6d a73f
000000f0: 0cee 693f c913 783f 0632 603f 95b2 5a3f

13.1.bias f4 [64]
0.19408621 0.26963696 0.15416795 0.090846136 0.07276137 0.09645799 0.16220848 0.14051676
0.17240497 0.14126138 0.20235229 0.24465786 0.17802627 0.12023825 0.20040073 0.12596902
0.11882694 0.12916449 0.16104212 0.16926031 0.1439729 0.1921614 0.21717413 0.2055131
0.15677834 0.09912576 0.15451653 0.10621896 0.2235387 0.16832075 0.21629742 0.20738831
0.20508511 0.092873715 0.21079603 0.12086314 0.18993574 0.18733588 0.29246676 0.11220826
0.13165104 0.09988903 0.18213184 0.1263513 0.10134454 0.12543455 0.20972237 0.15499286
0.17549801 0.09395817 0.11681781 0.1125969 0.16507694 0.20363235 0.14879794 0.16752173
0.12179915 0.16936061 0.13975872 0.3224084 0.17715093 0.1779847 0.11198556 0.16765246
00000000: 89be 463e db0d 8a3e 34de 1d3e 8a0d ba3d
00000010: ea03 953d c48b c53d fb19 263e a0e3 0f3e
00000020: ee8a 303e d3a6 103e 7035 4f3e 9787 7a3e
00000030: 854c 363e 793f f63d d935 4d3e 06fe 003e
00000040: 8a5b f33d b243 043e 3ae8 243e 9352 2d3e
00000050: a26d 133e f5c5 443e e562 5e3e 0772 523e
00000060: 808a 203e 7202 cb3d 9539 1e3e 5389 d93d
00000070: 54e7 643e 465c 2c3e 127d 5d3e 9a5d 543e
00000080: d501 523e 9334 be3d eada 573e 1887 f73d
00000090: 847e 423e fad4 3f3e 34be 953e 72cd e53d
000000a0: 88cf 063e 9f92 cc3d c580 3a3e 3c62 013e
000000b0: ba8d cf3d ea71 003e 76c1 563e 73b6 1e3e
000000c0: c0b5 333e 246d c03d 2d3e ef3d 3499 e63d
000000d0: ee09 293e 0085 503e 7d5e 183e d18a 2b3e
000000e0: d571 f93d de6c 2d3e e91c 0f3e b712 a53e
000000f0: 0e67 353e 9f41 363e af58 e53d 16ad 2b3e

13.1.running_mean f4 [64]
-0.16320154 -0.20328553 -0.019687032 0.0710374 -0.046181098 -0.011387481 -0.002793579 -0.006318388
0.055095892 -0.017731195 -0.086241186 -0.28663984 -0.08835173 -0.38815698 -0.23778796 0.21876335
-0.008088632 -0.07538759 -0.29456383 -0.09792822 -0.23879135 -0.15399191 -0.017961513 -0.14450234
0.23257324 0.2096369 -0.05867896 -0.07884725 -0.14757341 -0.121773034 -0.18521138 -0.117282085
-0.039984964 0.13157651 -0.038366243 -0.19002622 -0.123644635 -0.06685898 -0.16036136 -0.0030148013
0.04156601 -0.17139097 0.051512744 0.23520236 -0.14765738 -0.077948384 -0.008269726 0.039133895
-0.033892654 0.15526287 0.10029862 -0.3424594 -0.13538261 -0.20761691 -0.124815054 -0.036422852
-0.032074943 -0.091838494 0.036479004 -0.25969487 -0.14418903 -0.15534315 -0.19053966 -0.031189019
00000000: 4e1e 27be 152a 50be b346 a1bc 0e7c 913d
00000010: 6428 3dbd 8f92 3abc 7a14 37bb 7b0a cfbb
00000020: 3bac 613d 0341 91bc 389f b0bd 75c2 92be
00000030: c0f1 b4bd 83bc c6be b07e 73be 8003 603e
00000040: 2e86 04bc cf64 9abd 12d1 96be 978e c8bd
00000050: b885 74be 0eb0 1dbe 0624 93bc 6cf8 13be
00000060: ae27 6e3e 0eab 563e 5959 70bd ab7a a1bd
00000070: 7c1d 17be 2464 f9bd 0da8 3dbe 9731 f0bd
00000080: 46c7 23bd febb 063e ec25 1dbd 3c96 42be
00000090: 6639 fdbd 5ced 88bd c535 24be f993 45bb
000000a0: 1f41 2a3d 1d81 2fbe 07ff 523d e3d8 703e
000000b0: 7f33 17be 67a3 9fbd bf7d 07bc dd4a 203d
000000c0: 06d3 0abd 3bfd 1e3e 5d69 cd3d d756 afbe
000000d0: bda1 0abe 8799 54be 099f ffbd 2130 15bd
000000e0: 0461 03bd d215 bcbd 026b 153d baf6 84be
000000f0: 4aa6 13be 4612 1fbe d41c 43be 1d80 ffbc

13.1.running_var f4 [64]
0.2507709 0.33571625 0.19068328 0.11961787 0.22017054 0.16784899 0.19907866 0.10593136
0.1760805 0.27384698 0.16881554 0.23998608 0.20077911 0.24215439 0.24508148 0.1685292
0.23300235 0.17035063 0.35371357 0.22476457 0.23241065 0.22401668 0.23532565 0.2685419
0.18001743 0.15710326 0.17724474 0.1410327 0.34579897 0.16892253 0.31579202 0.21897782
0.21475944 0.13428709 0.23228072 0.28384364 0.26403394 0.121212624 0.34739363 0.17241699
0.123504974 0.20399138 0.1693507 0.16764122 0.121186055 0.107284285 0.17730054 0.12567927
0.14918178 0.1527782 0.13070095 0.18926483 0.22728546 0.17944574 0.19571687 0.13538724
0.17782292 0.16407952 0.21025333 0.5729851 0.22611745 0.309347 0.15907328 0.1476005
00000000: 0b65 803e 00e3 ab3e 7a42 433e 37fa f43d
00000010: 6374 613e 9be0 2b3e 47db 4b3e 8af2 d83d
00000020: 724e 343e ac35 8c3e fbdd 2c3e e9be 753e
00000030: 0a99 4d3e 52f7 773e a4f6 7a3e eb92 2c3e
00000040: 2b98 6e3e 6570 2e3e f219 b53e af28 663e
00000050: 0ffd 6d3e a164 653e 35f9 703e 537e 893e
00000060: 7d56 383e addf 203e a57f 353e e06a 103e
00000070: 900c b13e 07fa 2c3e 7eaf a13e b93b 603e
00000080: e6e9 5b3e 8e82 093e ffda 6d3e f453 913e
00000090: 752f 873e 533e f83d 94dd b13e 148e 303e
000000a0: 2df0 fc3d 1ee3 503e 456a 2d3e 24aa 2b3e
000000b0: 6530 f83d ddb7 db3d 468e 353e 11b2 003e
000000c0: 1cc3 183e e371 1c3e 78d6 053e a4ce 413e
000000d0: 85bd 683e a0c0 373e 016a 483e f4a2 0a3e
000000e0: 3617 363e 7604 283e a64c 573e 27af 123f
000000f0: 558b 673e bb62 9e3e 1be4 223e 9624 173e

16.weight f4 [128, 64]
0.07200227 -0.034674138 -0.072930455 -0.034798715 -0.06064374 -0.09016945 0.1301592 -0.024906002
-0.09304125 -0.039512124 0.04770134 0.1311609 -0.057065275 0.06389952 0.11842264 0.06396519
-0.038244072 -0.04083748 0.0013248696 -0.07594009 0.16471739 -0.07025278 -0.088555135 0.027720235
0.101242624 0.06407264 0.01726782 0.018535886 0.020565853 -0.03885935 0.009419549 0.15746501
0.0766755 0.09732949 0.16469093 0.09021452 0.056751102 -0.033372063 -0.017333701 -0.07535864
0.055788744 0.107967615 0.036767267 0.07873838 0.10894968 -0.008436303 -0.04556263 0.061394658
-0.1049768 0.023358615 -0.0620598 0.14616413 -0.060963005 0.1718693 0.0463592 0.071547545
-0.031258292 0.11093957 -0.110281095 0.012467943 0.0043650577 -0.08234309 0.08257626 -0.06909908
0.1651918 0.2096406 -0.044304173 -0.04285148 -0.005613542 -0.05080273 0.027061602 0.012934257
0.022248283 0.060186777 -0.008805607 -0.06397907 0.19290785 -0.104750834 0.07995707 -0.04937069
-0.07236866 0.06832224 -0.106522806 0.08467412 -0.009377937 0.12534058 0.043257896 0.14830036
0.023942787 0.050563484 0.17045838 -0.07515427 0.19216493 0.10992692 0.1118455 0.07971265
0.15189092 -0.000743608 -0.011762899 -0.0510417 0.09772206 -0.036105968 0.20257857 -0.008528629
0.03232759 -0.10674528 -0.058754005 0.06325052 -0.08036803 0.018372864 -0.012670022 0.08562744
0.04345852 0.023933383 -0.03872786 0.005556545 0.16148323 0.009081436 0.16637205 0.07415941
-0.046438094 0.04552306 0.017237581 -0.009266794 0.114858456 0.04909184 -0.09028345 0.01886398
-0.08584523 0.032344133 0.04855106 -0.021812981 -0.031068204 -0.09662823 0.05917987 -0.09347739
-0.09126405 -0.10428537 0.17159742 0.18899387 -0.07668017 0.17600232 0.108366236 0.07490321
0.035246383 0.017298464 0.10414111 0.050429482 0.11257721 0.011261417 -0.040371988 0.039558776
-0.020169036 0.067311294 -0.024160126 -0.036112785 -0.055757158 0.01363786 -0.07362479 -0.0027860268
0.022873355 -0.030454211 0.05583045 0.0785708 -0.07544567 -0.050777983 -0.031424776 -0.11035429
0.050358392 0.06069852 -0.048647303 0.019831138 0.04261854 0.005089937 -0.07039803 0.013664472
-0.009583769 -0.033213798 -0.055060115 0.19134752 -0.047082134 0.16298105 0.020298917 -0.001710086
-0.06340914 0.13815966 -0.11821101 -0.047451463 0.09195747 -0.080078155 0.06517834 0.031143477
-0.050876766 0.020951632 0.0847807 0.14520942 0.15736026 0.08250183 0.04711641 0.20553342
0.18272457 0.16235413 -0.051712822 -0.1136607 0.12000473 -0.07759427 -0.044757515 0.12699531
0.108234584 -0.009196929 -0.070054755 0.12612322 -0.079017706 0.060626086 0.11360945 -0.09315236
0.05836441 0.075568736 -0.0041193436 0.07299171 -0.10629631 0.14612447 -0.03845043 0.019965082
0.06471517 0.08036074 -0.0055653825 -0.0007380442 0.027909735 0.1499473 -0.1178851 0.18905811
0.06451522 -0.0066447333 0.1437277 0.15152882 -0.05609225 0.10859196 0.059138108 0.037170097
0.061416816 0.033287983 0.121386334 0.03696328 0.072898716 -0.019267268 -0.0978305 -0.036431167
0.14302364 0.05216459 0.027613563 0.057290133 -0.06717856 -0.06786912 -0.015673235 0.19285545
00000000: ed75 933d 7806 0ebd 905c 95bd 1989 0ebd
00000010: 9265 78bd c3aa b8bd 7448 053e ac07 ccbc
00000020: 698c bebd 77d7 21bd 7b62 433d 0b4f 063e
00000030: 47bd 69bd c0dd 823d 9287 f23d 2e00 833d
00000040: d1a5 1cbd 3445 27bd 3fa7 ad3a 7a86 9bbd
00000050: adab 283e b1e0 8fbd 655c b5bd 8c15 e33c
00000060: 4b58 cf3d 8438 833d 3e75 8d3c 92d8 973c
00000070: b879 a83c fb2a 1fbd 7454 1a3c 823e 213e
00000080: 0b08 9d3d af54 c73d bda4 283e 64c2 b83d
00000090: d873 683d 25b1 08bd 68ff 8dbc a155 9abd
000000a0: bd82 643d 201e dd3d 4699 163d 9641 a13d
000000b0: 0321 df3d 6b38 0abc e19f 3abd f778 7b3d
000000c0: 14fe d6bd 915a bf3c 6b32 7ebd 0dac 153e
000000d0: 58b4 79bd 81fe 2f3e 25e3 3d3d 8587 923d
000000e0: b208 00bd 4934 e33d 0edb e1bd 5846 4c3c
000000f0: c208 8f3b 7ea3 a8bd be1d a93d d283 8dbd
00000100: 0a28 293e 07ac 563e 4b78 35bd 0985 2fbd
00000110: cef1 b7bb 8616 50bd 4bb0 dd3c 35ea 533c
00000120: 0842 b63c 6986 763d 6545 10bc 7507 83bd
00000130: a389 453e 9b87 d6bd 88c0 a33d ec38 4abd
00000140: 0536 94bd 88ec 8b3d a128 dabd a069 ad3d
00000150: eba5 19bc 4859 003e 312f 313d 0ddc 173e
00000160: aa23 c43c a81b 4f3d a48c 2e3e 7bea 99bd
00000170: e2c6 443e 5d21 e13d 410f e53d 6340 a33d
00000180: 4b89 1b3e b0ee 42ba 2db9 40bc 1a11 51bd
00000190: 8122 c83d dae3 13bd c270 4f3e aabb 0bbc
000001a0: ef69 043d 459d dabd 0aa8 70bd 7d89 813d
000001b0: fe97 a4bd b082 963c ed95 4fbc 705d af3d
000001c0: 9001 323d f10f c43c 1ba1 1ebd ae13 b63b
000001d0: dc5b 253e 4eca 143c 6f5d 2a3e e4e0 973d
000001e0: df35 3ebd 6376 3a3d d435 8d3c c0d3 17bc
000001f0: e93a eb3d 8614 493d 88e6 b8bd a288 9a3c
00000200: a0cf afbd 487b 043d 7add 463d 23b1 b2bc
00000210: bf82 febc 05e5 c5bd 9766 723d 1371 bfbd
00000220: a5e8 babd 9193 d5bd 3cb7 2f3e 9c87 413e
00000230: 7e0a 9dbd f439 343e 1eef dd3d db66 993d
00000240: 835e 103d 82b5 8d3c ef47 d53d 258f 4e3d
00000250: e18e e63d ce81 383c 195d 25bd 6208 223d
00000260: 8939 a5bc 81da 893d 75eb c5bc 00eb 13bd
00000270: 9e61 64bd 5571 5f3c 98c8 96bd c695 36bb
00000280: e760 bb3c 1c7b f9bc 78ae 643d bae9 a03d
00000290: 4283 9abd 93fc 4fbd 44b7 00bd 6e01 e2bd
000002a0: 9a44 4e3d 039f 783d 6542 47bd e974 a23c
000002b0: c790 2e3d 7cc9 a63b d82c 90bd f3e0 5f3c
000002c0: 3e05 1dbc 310b 08bd b786 61bd 9bf0 433e
000002d0: 32d9 40bd 81e4 263e ea49 a63c f724 e0ba
000002e0: a7dc 81bd ba79 0d3e 9d18 f2bd 775c 42bd
000002f0: 3354 bc3d 0400 a4bd 397c 853d 9b20 ff3c
00000300: 2864 50bd c2a2 ab3c 81a1 ad3d c7b1 143e
00000310: 0c23 213e b8f6 a83d 23fd 403d 5a77 523e
00000320: 261c 3b3e 2940 263e d3d0 53bd f1c6 e8bd
00000330: 0ac5 f53d bfe9 9ebd a853 37bd 0f0b 023e
00000340: 18aa dd3d b7ae 16bc de78 8fbd 7226 013e
00000350: 09d4 a1bd 0f53 783d 12ac e83d aac6 bebd
00000360: 850f 6f3d c8c3 9a3d 8ffb 86bb ad7c 953d
00000370: e1b1 d9bd a7a1 153e 337e 1dbd d08d a33c
00000380: 6389 843d 2c94 a43d d05d b6bb 4f79 41ba
00000390: f5a2 e43c c98b 193e be6d f1bd 7398 413e
000003a0: 8e20 843d 10bc d9bb 5b2d 133e 5f2a 1b3e
000003b0: fdc0 65bd 7665 de3d cd3a 723d ac3f 183d
000003c0: 3390 7b3d fb58 083d 6699 f83d cf66 173d
000003d0: ec4b 953d 64d6 9dbc 5b5b c8bd d938 15bd
000003e0: ca74 123e 8aaa 553d d735 e23c 0fa9 6a3d
000003f0: ea94 89bd f7fe 8abd 2865 80bc e67b 453e

16.b_w f4 [8, 1]
-128.0 64.0 32.0 16.0 8.0 4.0 2.0 1.0
00000000: 0000 00c3 0000 8042 0000 0042 0000 8041
00000010: 0000 0041 0000 8040 0000 0040 0000 803f

19.weight f4 [10, 128]
0.19832668 -0.37225303 0.31071675 -0.258974 0.05189238 -0.18994911 0.28144476 -0.15042602
-0.055750623 -0.3421989 -0.29937094 -0.27386755 -0.070923634 0.09018438 -0.02421512 0.19804612
0.10115126 -0.12482422 -0.14438961 0.046586663 0.20652029 -0.09997112 -0.03649377 0.21094927
-0.22983922 -0.19481525 -0.17039648 0.041941673 0.32465076 -0.0665504 -0.2773069 -0.15401421
0.04684204 0.061170995 0.05170814 -0.22021146 0.18291563 -0.010837041 -0.27976155 0.052957065
0.2165676 -0.16932437 -0.03640489 0.1907746 0.05330626 0.18352497 0.27798367 -0.09965049
-0.12038006 -0.03929331 0.02168777 -0.24819987 -0.022935418 -0.026216574 0.13670555 0.3194298
0.22850801 0.25979763 0.2866222 -0.026582379 -0.34481353 -0.067818604 -0.045736834 -0.023810295
0.0011085363 -0.14014453 -0.0514782 0.31386444 -0.15276517 0.1685058 0.062066544 -0.35151052
0.020987632 -0.26174465 0.0063706017 0.29491112 0.012739127 -0.00018338759 0.13499478 -0.13973191
-0.16954428 0.22885863 0.03622649 0.26855397 0.019167017 -0.29356763 -0.17265657 -0.1888543
0.2745705 -0.01743519 0.0975941 -0.056484498 0.066533305 -0.092194185 0.1589444 -0.15936518
0.016256297 0.24510817 0.06630679 -0.16516608 -0.03618892 0.112352766 0.09191308 -0.12415064
-0.20429173 0.07210105 -0.240779 0.04243423 -0.021444893 -0.24865603 0.008197504 -0.06759365
0.1652857 0.22892924 -0.07647165 -0.16992348 0.15184157 -0.012046236 0.2350806 0.006754499
0.11475426 -0.22046445 -0.15762874 0.017239304 -0.20801198 0.15760937 -0.23702955 -0.008944923
-0.1364181 -0.11695201 -0.13889568 0.29370904 0.029599708 -0.1219842 -0.014785628 0.30727002
-0.041502777 -0.26795268 0.20382985 0.28896722 0.1401069 0.23240604 -0.020256888 -0.28210637
-0.40583524 0.2529193 -0.04289732 -0.037376788 -0.34136856 0.20786427 -0.041005954 0.057501357
0.18348096 -0.061127927 0.30468413 -0.015130153 -0.064759605 0.25462082 0.33769163 -0.0021124843
-0.01358489 -0.08518764 -0.17872208 0.17930523 -0.27449048 0.054744683 0.31288058 0.0041008713
0.119446404 -0.15714914 0.008765445 -0.25882196 -0.08275604 0.077766865 -0.1792298 -0.18432386
0.30114967 0.22784245 0.123549715 0.0058059576 -0.062155757 0.20393236 -0.108809635 -0.29958245
0.18182416 -0.2287392 -0.08915832 -0.05557925 -0.15624921 -0.14698792 -0.17513807 -0.043489218
-0.030757302 -0.068337984 -0.06266559 0.2061572 -0.19736256 0.13532232 -0.08197781 -0.12504655
0.042232748 -0.100513965 0.18247765 -0.18548445 0.03385642 0.017224815 0.23904407 0.2726007
-0.16222717 -0.26868758 0.03847547 -0.25441244 0.046812393 -0.17946817 0.10723916 0.27624223
0.08033809 0.05354893 -0.09534491 -0.16468501 -0.059457343 -0.14087118 -0.008579432 0.16497448
-0.01763038 -0.10080663 -0.027028915 0.124626465 0.020145534 0.15712687 -0.085170075 0.10068898
0.31987262 -0.18288481 -0.15168518 0.007397958 0.19180845 -0.14507677 0.03782017 -0.26019052
0.24481145 0.10344225 0.27160436 0.21333565 -0.05283372 0.025029156 -0.18519352 0.33713368
0.15006298 0.19059582 0.115766436 0.27938774 -0.051403403 -0.32749483 -0.045079134 -0.08835348
00000000: 2616 4b3e f397 bebe 4416 9f3e 3d98 84be
00000010: 1b8d 543d 0582 42be 8719 903e 4709 1abe
00000020: c45a 64bd b234 afbe 2647 99be 5e38 8cbe
00000030: 6940 91bd 97b2 b83d ca5e c6bc 9acc 4a3e
00000040: 6428 cf3d d7a3 ffbd dfda 13be a8d1 3e3d
00000050: 0e7a 533e a9bd ccbd 7e7a 15bd 1603 583e
00000060: f95a 6bbe a67d 47be 6a7c 2ebe 08cb 2b3d
00000070: a038 a63e 934b 88bd 2cfb 8dbe e7b5 1dbe
00000080: 70dd 3f3d 708e 7a3d eacb 533d 1d7f 61be
00000090: 3c4e 3b3e d88d 31bc e83c 8fbe 82e9 583d
000000a0: e6c3 5d3e 5e63 2dbe 4b1d 15bd 6b5a 433e
000000b0: aa57 5a3d f8ed 3b3e e053 8e3e 8e15 ccbd
000000c0: d289 f6bd 06f2 20bd 8daa b13c 1b28 7ebe
000000d0: 0fe3 bbbc 24c4 d6bc 8afc 0b3e 4e8c a33e
000000e0: 01fe 693e 3204 853e 25c0 923e 4ac3 d9bc
000000f0: 668b b0be 7be4 8abd 8c56 3bbd cf0d c3bc
00000100: 4e4c 913a 0c82 0fbe ceda 52bd d7b2 a03e
00000110: 796e 1cbe c98c 2c3e 7d39 7e3d 30f9 b3be
00000120: 41ee ab3c 6503 86be 7bc0 d03b 97fe 963e
00000130: c5b7 503c bb4b 40b9 123c 0a3e e215 0fbe
00000140: 049d 2dbe eb59 6a3e 3a62 143d e87f 893e
00000150: 2604 9d3c 7f4e 96be e2cc 30be 0663 41be
00000160: 8194 8c3e 3ed4 8ebc 6adf c73d 4a5c 67bd
00000170: 9d42 883d 4ed0 bcbd 52c2 223e a030 23be
00000180: ed2b 853c a3fd 7a3e dbcb 873d 4c21 29be
00000190: d53a 14bd 3519 e63d ed3c bc3d b142 febd
000001a0: da31 51be b7a9 933d c58e 76be 84cf 2d3d
000001b0: 33ad afbc b09f 7ebe d34e 063c 8a6e 8abd
000001c0: a840 293e 6d6c 6a3e 2b9d 9cbd 6c00 2ebe
000001d0: 5b7c 1b3e 935d 45bc f8b8 703e d854 dd3b
000001e0: 4804 eb3d 6fc1 61be 6e69 21be 7139 8d3c
000001f0: 1801 55be 5a64 213e e0b7 72be ba8d 12bc
00000200: 30b1 0bbe 8984 efbd ab3a 0ebe 0861 963e
00000210: 167b f23c dad2 f9bd 6b3f 72bc 7f52 9d3e
00000220: d1fe 29bd 1831 89be c6b8 503e 83f3 933e
00000230: 2f78 0f3e d9fb 6d3e c6f1 a5bc 3f70 90be
00000240: a3c9 cfbe a37e 813e 1ab5 2fbd 6718 19bd
00000250: dcc7 aebe 5fda 543e dcf5 27bd 8b86 6b3d
00000260: 6fe2 3b3e 4761 7abd 8fff 9b3e 76e4 77bc
00000270: afa0 84bd a95d 823e ebe5 ac3e 9b71 0abb
00000280: 2993 5ebc db76 aebd ec02 37be ca9b 373e
00000290: 048a 8cbe f63b 603d e231 a03e 9a60 863b
000002a0: 51a0 f43d b4eb 20be f19c 0f3c 5084 84be
000002b0: 007c a9bd 3c44 9f3d 0488 37be 65bf 3cbe
000002c0: 4a30 9a3e 884f 693e a207 fd3d e73f be3b
000002d0: 0997 7ebd a5d3 503e 96d7 debd df62 99be
000002e0: 1d30 3a3e 9c3a 6abe a398 b6bd 11a7 63bd
000002f0: cbff 1fbe 0084 16be 6557 33be c021 32bd
00000300: bdf6 fbbc c9f4 8bbd d156 80bd df1a 533e
00000310: 6919 4abe ef91 0a3e fbe3 a7bd 340c 00be
00000320: 3ffc 2c3d 44da cdbd 6cdb 3a3e a3ef 3dbe
00000330: 08ad 0a3d 0e1b 8d3c f8c7 743e 5292 8b3e
00000340: e11e 26be 6b91 89be 7498 1d3d 5942 82be
00000350: 5abe 3f3d 81c6 37be 34a0 db3d 9f6f 8d3e
00000360: 4c88 a43d 1f56 5b3d 3144 c3bd 30a3 28be
00000370: 8b89 73bd 8940 10be bf90 0cbc 12ef 283e
00000380: 966d 90bc b573 cebd be6b ddbc 293c ff3d
00000390: 3f08 a53c dee5 203e a66d aebd 0636 ce3d
000003a0: 58c6 a33e 2846 3bbe 5c53 1bbe 926a f23b
000003b0: 6f69 443e 018f 14be 53e9 1a3d b137 85be
000003c0: daaf 7a3e 88d9 d33d ba0f 8b3e a974 5a3e
000003d0: 2c68 58bd f209 cd3c 5fa3 3dbe c99c ac3e
000003e0: 1caa 193e 8d2b 433e f416 ed3d e90b 8f3e
000003f0: 608c 52bd 67ad a7be e6a4 38bd abf2 b4bd

19.b_w f4 [8, 1]
-128.0 64.0 32.0 16.0 8.0 4.0 2.0 1.0
00000000: 0000 00c3 0000 8042 0000 0042 0000 8041
00000010: 0000 0041 0000 8040 0000 0040 0000 803f

momentum_buffer f4 [8]
-0.14309761 -0.026251838 0.07273442 -0.14859591 -0.17857194 0.010241744 0.15331513 -0.13368282
00000000: 2e88 12be 180e d7bc c9f5 943d 8729 18be
00000010: 90db 36be fdcc 273c a4fe 1c3e 26e4 08be

momentum_buffer f4 [8]
0.17841402 -0.08690754 -0.18151641 -0.11251399 -0.39986914 -0.040066205 0.003866678 -0.15257606
00000000: 2ab2 363e 95fc b1bd 70df 39be bc6d e6bd
00000010: a6bb ccbe 761c 24bd 1868 7d3b e63c 1cbe

momentum_buffer f4 [8]
-0.025280576 0.07797994 -0.039242245 -0.048219554 0.100552656 -0.08367016 0.018381778 0.02101772
00000000: 3619 cfbc f2b3 9f3d 7abc 20bd de81 45bd
00000010: 8dee cd3d 435b abbd 6295 963c 5b2d ac3c

momentum_buffer f4 [8]
-0.09061833 0.08689043 0.058938988 -0.035142597 0.15046597 -0.038477916 0.015768101 -0.094976515
00000000: 1a96 b9bd 9cf3 b13d 026a 713d aff1 0fbd
00000010: c013 1a3e 059b 1dbd 1b2c 813c 0c83 c2bd

momentum_buffer f4 [8]
-0.11281165 -0.012198297 0.039130706 0.057566054 -0.03257925 0.031630047 0.0179616 0.05556709
00000000: cb09 e7bd 5edb 47bc 8547 203d 62ca 6b3d
00000010: d271 05bd 828e 013d 3524 933c 519a 633d

momentum_buffer f4 [8]
-0.06158542 0.08963074 -0.0056252833 0.056163814 0.06185467 0.052116558 -0.0029754005 0.0665156
00000000: fe40 7cbd 5290 b73d 4c54 b8bb 070c 663d
00000010: 535b 7d3d 2c78 553d f0fe 42bb 5539 883d

momentum_buffer f4 [8]
-0.0069492026 -0.06394218 0.054489244 -0.010076844 0.08291258 -0.0060422868 0.08877399 0.0534985
00000000: 23b6 e3bb 1ef4 82bd 1d30 5f3d 5919 25bc
00000010: 12ce a93d 60fe c5bb 23cf b53d 3e21 5b3d

momentum_buffer f4 [8]
0.0109977815 -0.059886865 0.09756924 -0.0791956 0.025222763 -0.021526296 0.027162924 0.02264034
00000000: 0a30 343c ee4b 75bd 62d2 c73d 4d31 a2bd
00000010: f89f ce3c ea57 b0bc c884 de3c 3c78 b93c

momentum_buffer f4 [8]
-0.08142681 0.026237829 -0.032688197 -0.06898109 0.035998255 -0.03420033 0.0070473477 0.11108888
00000000: 19c3 a6bd b7f0 d63c 0fe4 05bd f545 8dbd
00000010: e872 133d a515 0cbd 70ed e63b 9182 e33d

momentum_buffer f4 [8]
-0.0673361 0.061052084 0.002636197 -0.04199615 0.016319633 -0.020690361 0.023325086 0.08631738
00000000: 82e7 89bd c011 7a3d 0cc4 2c3b 2804 2cbd
00000010: c0b0 853c d57e a9bc 4014 bf3c 2bc7 b03d

momentum_buffer f4 [8]
-0.023427792 -0.018567735 0.0348706 0.004387647 -0.058011524 0.011725569 0.049922466 -0.010681099
00000000: a4eb bfbc 5d1b 98bc 79d4 0e3d 40c6 8f3b
00000010: 7e9d 6dbd 9a1c 403c 807b 4c3d c7ff 2ebc

momentum_buffer f4 [8]
-0.03069417 -0.031244196 -0.0096397735 0.014537389 -0.04311244 -0.008713812 0.05051541 -0.00014362182
00000000: 5772 fbbc d4f3 ffbc 24f0 1dbc 3b2e 6e3c
00000010: ab96 30bd 60c4 0ebc 3fe9 4e3d 3099 16b9

momentum_buffer f4 [8]
-0.017084192 -0.0247156 0.08824375 -0.057957616 0.03482452 0.024581855 0.017512929 -0.043556664
00000000: 26f4 8bbc 5f78 cabc 24b9 b43d f764 6dbd
00000010: 28a4 0e3d e35f c93c 4677 8f3c 7968 32bd

momentum_buffer f4 [8]
-0.008787083 -0.012408135 0.032017156 -0.029739767 -0.012539166 0.043472357 -0.006377656 -0.026728071
00000000: b3f7 0fbc 7e4b 4bbc 6c24 033d d0a0 f3bc
00000010: 1371 4dbc 1210 323d a8fb d0bb d4f4 dabc

momentum_buffer f4 [16]
0.011117641 0.021404816 0.052818347 0.008154861 -0.030968195 -0.053083684 0.004845163 -0.0048141344
-0.069362916 -0.02304174 0.025333349 0.043045767 -0.013094103 -0.01624512 -0.034733515 0.028619474
00000000: c426 363c 2759 af3c 0d58 583d f79b 053c
00000010: 03b1 fdbc 476e 59bd 2cc4 9e3b e3bf 9dbb
00000020: 250e 8ebd 08c2 bcbc e287 cf3c c250 303d
00000030: a688 56bc 7c14 85bc bb44 0ebd 6373 ea3c

momentum_buffer f4 [16]
0.02794247 0.037929498 0.0035622308 -0.014047844 -0.018535951 -0.03552226 0.027507665 -0.025263974
-0.12767434 -0.0340825 0.02104641 0.005023813 -0.02315296 -0.00268183 -0.03446303 0.026478183
00000000: 9be7 e43c f65b 1b3d 5174 693b ee28 66bc
00000010: b5d8 97bc ca7f 11bd c157 e13c 65f6 cebc
00000020: 10bd 02be 179a 0bbd 8569 ac3c cc9e a43b
00000030: 47ab bdbc a4c1 2fbb 1b29 0dbd c6e8 d83c

momentum_buffer f4 [16]
-0.02644601 0.021897309 0.040663324 0.030417476 0.04920699 -0.013158239 -0.009061789 -0.07802414
0.010058951 -0.036309104 0.026109228 -0.024497326 0.0015143305 0.045886688 0.0464617 -0.034295365
00000000: 4ea5 d8bc fc61 b33c 968e 263d 122e f93c
00000010: 458d 493d a895 57bc e677 14bc 1fcb 9fbd
00000020: 4cce 243c dbb8 14bd 05e3 d53c 9eae c8bc
00000030: 807c c63a aef3 3b3d a04e 3e3d 4c79 0cbd

momentum_buffer f4 [16]
-0.030369475 0.02442079 0.04696942 0.011999056 0.002171638 -0.002974262 -0.018463504 -0.034341037
0.018361753 0.0050432673 0.010864427 -0.022789361 -0.07197493 0.05696969 0.006097163 -0.028784897
00000000: 68c9 f8bc 1c0e c83c 0263 403d b097 443c
00000010: 0a52 0e3b d6eb 42bb c640 97bc 30a9 0cbd
00000020: 636b 963c fe41 a53b b600 323c c1b0 babc
00000030: 9867 93bd 0d59 693d b6ca c73b 4ece ebbc

momentum_buffer f4 [16]
-0.0039099287 0.05072212 0.009995956 -0.029621024 0.040379472 0.010251844 -0.044244178 -0.042593077
0.0025608211 0.01318671 0.059413493 -0.06873367 0.0039776154 -0.0034364087 -0.0005664363 0.013293568
00000000: dc1e 80bb ffc1 4f3d 14c6 233c caa7 f2bc
00000010: f264 253d 5af7 273c 6239 35bd 1476 2ebd
00000020: 73d3 273b 120d 583c 905b 733d 3dc4 8cbd
00000030: a856 823b 5f35 61bb e67c 14ba 44cd 593c

momentum_buffer f4 [16]
-0.015869958 0.055211995 -0.0011447053 -0.025184847 0.059340376 0.015438678 -0.04971228 -0.043797214
-0.011251762 0.0132193845 0.009303657 -0.04587034 0.0014559303 -0.008110896 -0.0039513893 0.020246683
00000000: b701 82bc f925 623d f009 96ba 7450 cebc
00000010: e50e 733d 82f2 7c3c 1b9f 4bbd b564 33bd
00000020: 4f59 38bc 1e96 583c 5e6e 183c 8ae2 3bbd
00000030: ead4 be3a 90e3 04bc a87a 81bb 5fdc a53c

momentum_buffer f4 [16]
0.0049554007 -0.0032010917 0.013218972 -0.015818957 0.0306977 -0.017138079 -0.016976994 0.008810106
-0.0019498781 0.014227229 -0.000646798 -0.027598906 0.011192884 0.011538891 6.112084e-05 0.026287634
00000000: ea60 a23b 68c9 51bb 6394 583c c296 81bc
00000010: be79 fb3c 2865 8cbc 5613 8bbc 4358 103c
00000020: 0d93 ffba 5319 693c e18d 29ba 1a17 e2bc
00000030: 5c62 373c 9e0d 3d3c 002e 8038 2a59 d73c

momentum_buffer f4 [16]
0.03099316 -0.006719791 -0.006841655 -0.033435553 0.015891291 -0.0008086404 -0.013447357 0.00837475
0.009610884 0.0074282773 0.014058512 -0.023884373 0.0111615965 0.02565269 0.040641982 -0.0029944396
00000000: 5ee5 fd3c b131 dcbb f62f e0bb b8f3 08bd
00000010: 742e 823c f0fa 53ba 4e52 5cbc 3f36 093c
00000020: f876 1d3c e868 f33b ac55 663c 29a9 c3bc
00000030: 21df 363c 9725 d23c 3578 263d 5c3e 44bb

momentum_buffer f4 [16]
0.0035533234 0.04127866 -0.025217455 0.020883566 0.020229412 0.016644644 -0.063002445 0.06869861
-0.04038533 -0.044879008 0.006630422 -0.011093948 0.021241348 0.02098791 -0.0015181038 0.0072179358
00000000: e0de 683b d013 293d d694 cebc 0314 ab3c
00000010: 27b8 a53c 595a 883c 6d07 81bd dbb1 8c3d
00000020: 166b 25bd 0dd3 37bd 0344 d93b 64c3 35bc
00000030: 5602 ae3c d6ee ab3c 1cfb c6ba 6f84 ec3b

momentum_buffer f4 [16]
0.01456859 0.016096156 -0.010055955 0.021632023 0.011542996 0.015581043 -0.03400241 0.06368937
-0.016584706 -0.033015274 -0.003144012 -0.008213776 0.012172348 0.0126472395 0.004721156 0.0033293068
00000000: 18b1 6e3c 16dc 833c bbc1 24bc a435 b13c
00000010: d61e 3d3c a247 7f3c 1c46 0bbd 936f 823d
00000020: a6dc 87bc 063b 07bd c50b 4ebb 1393 06bc
00000030: 876e 473c 5e36 4f3c edb3 9a3b 8030 5a3b

momentum_buffer f4 [16]
0.012915813 0.016215064 -0.0022946012 -0.022620592 0.018108405 0.0134872375 0.021066844 -0.018751392
0.0034367582 -0.010886507 0.019397737 -0.014730432 -0.023481272 -0.011773075 -0.023671411 0.013155252
00000000: d99c 533c 74d5 843c 0561 16bb d24e b9bc
00000010: 1458 943c 93f9 5c3c 6094 ac3c 859c 99bc
00000020: 3c3b 613b 525d 32bc 01e8 9e3c e957 71bc
00000030: cc5b c0bc dbe3 40bc 8cea c1bc 2089 573c

momentum_buffer f4 [16]
0.014393613 0.023943223 -0.0026445691 -0.0048372513 0.030223921 0.004402563 0.0125071425 -0.01797306
-0.008285937 -0.0024868676 0.008323585 -0.030955143 -0.0005879849 -0.013452252 -0.011985023 0.02571597
00000000: 30d3 6b3c 9424 c43c 8250 2dbb ce81 9ebb
00000010: 2898 f73c 6043 903b c2ea 4c3c 3d3c 93bc
00000020: bdc1 07bc b7fa 22bb a55f 083c a495 fdbc
00000030: 0023 1aba d666 5cbc d45c 44bc 4caa d23c

momentum_buffer f4 [32]
-0.009936297 -0.00010233559 0.03163042 -0.0019585576 -0.0042941878 -0.016526377 -0.011362215 0.010350317
-0.013522885 -0.038358543 -0.015149392 -0.020861529 -0.0028395527 0.008118189 -0.010921676 0.029273212
0.028131902 0.004967735 -0.002917165 0.018067019 0.0017565548 0.03529653 -0.00018505054 0.028270269
0.005236239 -0.028996222 -0.019942248 0.014306293 -0.0066654887 0.019488238 0.012369382 0.01840983
00000000: dacb 22bc 009d d6b8 e68e 013d 255b 00bb
00000010: 42b6 8cbb 5362 87bc 9528 3abc 6094 293c
00000020: 178f 5dbc d91d 1dbd 2835 78bc cce5 aabc
00000030: ca17 3abb 2702 053c d4f0 32bc 60ce ef3c
00000040: e074 e63c 62c8 a23b e82d 3fbb 4901 943c
00000050: 333c e63a 1893 103d 200a 42b9 0d97 e73c
00000060: c294 ab3b 7c89 edbc ed5d a3bc f164 6a3c
00000070: 2c6a dabb cca5 9f3c f3a8 4a3c 36d0 963c
