Securite/Model2/Result_bfa/clipping_0.2_0.01/checkpoint.pth.tar (torch, 404714 bytes, 25 tensors)

features.0.weight f4 [32, 3, 3, 3]
00000000: 2f42 01bd 89d0 43be e1c3 4bbe d839 9c3d
00000010: a822 48be 63b9 323e 42e3 3a3e 0fce f23d
00000020: d883 c13d 40de d4bd cdf8 4d3d 2d2a 493e
00000030: 4fa0 10be 982d 2abe 952c 473e 9c5c 6abc
00000040: 0398 3abe d954 1d3e cf79 203e 053b 373e
00000050: 94ea 5ebd db3e a1bd c02e 03be 6ba3 483e
00000060: 103b 0fbe 4b5f 43be d508 94bc 0f7a 2d3e
00000070: 0d91 2d3e 1cd6 333e e8f1 4b3e e2fd 5bbd
00000080: c59e 49be 41c0 4d3d f7b3 d8bd 0cbe 1fbe
00000090: 1d57 13bd 7b1a 45be 064b 04be 2201 4c3e
000000a0: 132c 43be 441a 49be 5ecf 343e f82f 6fbd
000000b0: f37b 9b3d 187d 0ebd 8522 30be 7ade ffbd
000000c0: a886 423e 8afb 25bc bae2 47be 6269 203e
000000d0: 09b8 253e bf21 973d cbe3 473e cd4d 1bbe
000000e0: 9d6c 04be 2a89 af3d 552b 48be a0e0 48be
000000f0: 7718 3c3d 2fe2 4c3e 6001 f2b9 0bdd db3d
00000100: 6e44 1dbe 8093 3d3e 87c9 21be 0375 643d
00000110: b809 6b3c 12bd 28be f8da 4c3e 0046 373e
00000120: cf87 023e c522 1bbc c191 66bd 78e7 1fbe
00000130: 0b23 dabd 6659 a93d 4f8b 3abe 17e4 4c3e
00000140: de77 093e 3126 e23b e511 313e 714a 87bd
00000150: 72de 9d3c fdf4 4c3e 4950 4b3e 0eaa 22be
00000160: 153e 76bd 975d 45be 37a2 37be 3681 473e
00000170: 55a8 29be dfd9 30be 10c6 4c3e 6f18 4a3e
00000180: ca53 49be 63f5 02be cd03 4cbe 13e3 363d
00000190: 1a04 493e c851 1fbe 738b 1e3e 73c4 4c3e
000001a0: 2984 4a3e 7765 49be 0a6c 7b3c 616f 4bbe
000001b0: e414 423e c40c 433e daa4 113e 5127 c4bd
000001c0: 3744 4bbe 1a66 453e 9676 22be 069b 34be
000001d0: b6ec b03b 809a 253e 194d 2d3e 54b2 00be
000001e0: b0e4 32be 43b8 4cbe 0d04 303e d693 a13d
000001f0: 2105 24be f712 013e 75b4 dc3c a982 d1bd
00000200: f037 34be 7c32 08be 4976 44be 6a40 043e
00000210: f1f7 473e 20f3 4cbc e420 de3d dc32 483e
00000220: 7e8f fbbc b44b 863d 1fda 4a3e 2eb9 62bd
00000230: b208 40be b540 423e 35bd 49be 8f9d 49be
00000240: e35d 4a3e d614 f13d 2391 ee3d 078c 463e
00000250: 4f76 a23d db67 853c 6d30 943c 3e0e 37be
00000260: 9349 3f3d 0daa 32be 712a 49be e360 89bc
00000270: d71b 42be 83b7 c9bd b227 bd3d bf43 41be
00000280: 49b3 40be 038f 213e 32ce 41be 7b64 40be
00000290: 13b8 243c 4c97 3b3e 7e49 463e 2e76 48be
000002a0: e6eb 97bd d276 313e d308 453e 373e 9ebd
000002b0: 3ce7 f33c 5259 15bd 579d 403e 3a88 453e
000002c0: 2afc 4bbe 8ce4 d8bd 24a0 b03c fc59 3ebe
000002d0: 2ffb 513d 2b4c 8dbc eb51 183e 7221 4a3e
000002e0: 656b 483e e4b8 30be 69e7 1cbe 0ec7 10be
000002f0: 3573 8dbd ae3d 383e b99b 4c3e b1a4 81bd
00000300: c030 6cbd f17b 4c3e e040 223e e96d 21be
00000310: cb5e 32be 68ca 393d 1634 44be 2d10 42be
00000320: c5c5 45be 18a1 44be 50f9 463e da56 143e
00000330: b958 21be c775 6dbc 87ff 1e3e cb75 333d
00000340: 1ff9 3bbe 5125 41be b9eb febd bd36 483e
00000350: 76bf 273c 2aff 053c fde5 293e 4c8d 1f3e
00000360: d84e 56bd b445 383e c2b8 273e a2fe 3b3e
00000370: 0b16 de3d 7f63 3fbe 162a b83d 2512 48be
00000380: 79cf 45be 528f 2bbe fbe4 3e3e bb9e ec3d
00000390: 7391 4a3e cf80 303d b3f1 40be 857c 27bd
000003a0: f686 43be 0a0a 3ebe 9e35 30be 99ef 433e
000003b0: 7926 f73d e953 453e 5974 043e aeba 3cbe
000003c0: 615a d83d e7c0 a4bd b61c 3fbe cbce 15bd
000003d0: b6c3 49be 2eed 44bd ab6c 2fbc 8bad 873d
000003e0: 4400 13be 000c c73d 13ec b83a 7f7b 41bc
000003f0: 0950 aabd 983d 4bbe 8e3b d33c b550 79bd
-0.03155726 -0.19122519 -0.1989894 0.0762822 -0.1954447 0.17453532 0.18250754 0.11855709
0.09448975 -0.10393953 0.050286103 0.19644995 -0.14123653 -0.16618955 0.194506 -0.014304306
-0.1822205 0.15364398 0.15671466 0.17893608 -0.05442293 -0.07873317 -0.12810802 0.19593589
-0.13987374 -0.1907932 -0.018070618 0.16941093 0.16949864 0.17562145 0.19916499 -0.05370892
-0.19689472 0.050232176 -0.105812006 -0.15599841 -0.03597175 -0.19248383 -0.12919244 0.19922307
-0.19059782 -0.19638926 0.1765723 -0.058395356 0.07592001 -0.034787267 -0.17200668 -0.12493606
0.1899668 -0.010130772 -0.19520083 0.156652 0.16183485 0.073794834 0.1952049 -0.15166397
-0.12932058 0.08571084 -0.1954778 -0.19616938 0.04592177 0.20008157 -0.0004615886 0.1073552
-0.15358135 0.18513298 -0.15799533 0.055775654 0.014345579 -0.16478375 0.20005405 0.17897797
0.1274712 -0.009468739 -0.056291346 -0.15615642 -0.10651215 0.082690045 -0.18217205 0.20008884
0.13424632 0.0069015254 0.17291982 -0.066059954 0.01927111 0.2001533 0.19854845 -0.15885183
-0.0601178 -0.19273983 -0.17932974 0.19482884 -0.1656812 -0.17270611 0.1999743 0.19735883
-0.19660869 -0.1278892 -0.19923325 0.04465015 0.19630471 -0.15558541 0.15482883 0.19996814
0.19776978 -0.19667612 0.015345583 -0.19866706 0.18953282 0.19047838 0.14223042 -0.095778115
-0.1985024 0.1927723 -0.1586555 -0.17637262 0.005399312 0.16172218 0.16923942 -0.12568027
-0.1747005 -0.19992165 0.17189045 0.078895256 -0.16017582 0.12604891 0.026941517 -0.102299996
-0.17599463 -0.13300508 -0.19185747 0.12915197 0.19528176 -0.012509137 0.10846117 0.19550651
-0.03070807 0.06557408 0.19809769 -0.055352382 -0.18753317 0.18969996 -0.19701083 -0.1968901
0.19762377 0.11771552 0.116487764 0.19389354 0.07932722 0.016284874 0.018089497 -0.17876527
0.046701025 -0.17447682 -0.19645096 -0.016769832 -0.18955933 -0.09849455 0.09236087 -0.188735
-0.18818392 0.15777211 -0.18926314 -0.1878833 0.010053652 0.18319434 0.19363973 -0.19576332
-0.07418041 0.17330483 0.19241647 -0.0772671 0.029773347 -0.036462136 0.1881002 0.19290248
-0.19920412 -0.10590467 0.021560736 -0.18589014 0.051264938 -0.017248234 0.14874999 0.19739321
0.19572218 -0.1725803 -0.15322651 -0.14138433 -0.069067396 0.17992279 0.19981278 -0.063302405
-0.05766368 0.19969155 0.1584506 -0.15764584 -0.17418973 0.045359045 -0.19160494 -0.18951483
-0.19313724 -0.19202077 0.19431043 0.14486256 -0.15756501 -0.014493412 0.15527163 0.043813508
-0.18356751 -0.18861891 -0.12447304 0.19552131 0.010238519 0.008178512 0.1659164 0.15581244
-0.052321285 0.1799534 0.16379073 0.18358853 0.10844048 -0.18690298 0.08992402 -0.19538172
-0.19317426 -0.16753891 0.18642037 0.11553713 0.19782047 0.04309159 -0.18842201 -0.040890235
-0.19094452 -0.18558517 -0.17207953 0.19134368 0.12067885 0.1927029 0.12935008 -0.18430588
0.105641134 -0.08044606 -0.18663296 -0.036574166 -0.19703564 -0.048077755 -0.010707061 0.066248976
-0.1435557 0.09719086 0.0014108442 -0.011809229 -0.08316047 -0.19847715 0.025785234 -0.060867984

features.0.bias f4 [32]
00000000: beac 833e 6e0a 8bbc 4b57 9e3e d01b 93be
00000010: d1a9 113e f190 cbbe 4591 2d3e 7b36 173e
00000020: ab73 6ebe 8344 173c 2a7a c3bc 5e1c 5e3e
00000030: 4273 4dbc 8bad 04bf a667 133e be25 4d3e
00000040: 84ee bfbe 3f12 c03c 0a41 22bf a2bf 3abe
00000050: cdc0 29bc 1e84 59be affd b3be 30fd 37bf
00000060: 7429 493e 05a0 68bc 029f 8dbe fa22 82be
00000070: d7bd 973d 90ed f6be b70f e7be 6d5c ab3e
0.2571773 -0.016972747 0.30925974 -0.28732157 0.14224936 -0.3975902 0.16949947 0.14766876
-0.23286311 0.009232643 -0.023861963 0.21690509 -0.012539687 -0.51827306 0.14395007 0.20033929
-0.3748666 0.0234462 -0.6338049 -0.18237165 -0.010360909 -0.21241805 -0.35154483 -0.7187071
0.1964472 -0.014198308 -0.27660376 -0.2541731 0.07409256 -0.4822812 -0.45129177 0.33468953

features.0.b_w f4 [8, 1]
00000000: 0000 00c3 0000 8042 0000 0042 0000 8041
00000010: 0000 0041 0000 8040 0000 0040 0000 803f
-128.0 64.0 32.0 16.0 8.0 4.0 2.0 1.0

features.2.weight f4 [32, 32, 3, 3]
00000000: f1a7 95bc 15e5 923d 52d1 0c3e 255a 9abc
00000010: e328 0a3e 9f36 033e cfd9 0abe b5f1 f4bd
00000020: 899d afbd 3dd0 1bbd 2474 ffbd f3ad dfbd
00000030: f39b 643c 03aa 09be 9619 a7bd 0e5f 3c3e
00000040: 3aa5 c93d 5b1d 9b3d f3f7 593d 01b3 943d
00000050: 191e b53d 0c25 1dbe f569 01be 52ff 33bd
00000060: 10fe 52bd 8a54 823c 8636 60bd d724 0abc
00000070: 4dbf cebb 8c3a 803d 4e09 afbc cefa 743d
00000080: 44a0 abbd 383a bb3d c39c 0c3e 79f2 583d
00000090: 05ee acbb dcad b2bc e97a 503d a2d5 3dbd
000000a0: b760 80bd 5b41 c9bd 803a 333d 24bf 8a3d
000000b0: 0b4d c8bc 653c 4abd 0db9 fbba e14d 373d
000000c0: 8143 18be 42c1 b7bd f926 19bd c7ac 01be
000000d0: 366d 00be 5cf4 f8bd 3c7c 27bd f980 813c
000000e0: 1ae3 ccbd 2593 bc3d 7ea4 cb3d 7fa3 8a3c
000000f0: b7bb 9fbd eeee 07be 3923 49be 784c 8abd
00000100: 2301 a1bd 3789 17be 4452 6abd 34e2 123d
00000110: 3319 c5bd 839c 7f3d 0741 c43d f50c d33c
00000120: ee7d 23bd fa14 733d 765d 5f3d 2eb8 15be
00000130: 241c 30bc e02a a83d a3de d33d 0a6b c33c
00000140: e3e0 07bd f3b9 323d ffe9 473c c9d9 e63c
00000150: f5a3 5e3d 659a 873d 8bee ff3c dab2 48be
00000160: c39e 48be 1137 4bbe 784c 18be 9bd6 f8bd
00000170: a25d 00be 140f c7bd 9482 7ebd 21ab 65bd
00000180: 6cea b2bd c218 0abc 5e75 49bd 3c8b f03c
00000190: 0d87 5cbd 60d8 bfbc a678 673d 2549 38bd
000001a0: e739 57bd 3d21 763d 766b 6fbd 2248 8a3c
000001b0: 152a 49be 7d73 47be dc86 4abe 4a39 92bd
000001c0: 5ba2 bebd 0903 1abe ba16 51bd e400 e33c
000001d0: 1531 9fbc cb39 af3b 0860 6bbd 6b45 04bd
000001e0: 5bb3 213d 6781 caba 4a67 0bba b831 cc3d
000001f0: fa9c 2e3c d3db 0ebd a58b 583c c259 6fbc
00000200: a0f2 1b3d 5122 033d a88e 9f3c 5de4 37bd
00000210: b6f9 17bd 9486 53bd db87 2cbe 3763 39bd
00000220: 100b c83d d5ea 63bb a749 f8bd 3466 14bd
00000230: 7339 96bd a23c 43bc cbe8 303d 73fe 453d
00000240: ccc1 523d 1e4f 9c3c 4245 163d 79e0 7dbd
00000250: 9c3a 69bd 580d f2bd e567 043d 895f 843c
00000260: 963e dfbc 31d2 1bbc 6bad a9bc 9f98 00bd
00000270: a003 943d cd98 b33d bc9f c4bc e221 d3bd
00000280: 1cda 8dbd 5a8e babd b989 173c 6861 4c3c
00000290: 8310 aeba 6df6 95bd 9c90 abbc 12fb 6bbb
000002a0: 91ea 08bd 9cf2 72bd 5667 92bd 218c b0bb
000002b0: b575 013d 3bdf 1d3d 698d bcbd c3c3 1f3d
000002c0: 6d0a 9fbc ab97 e53c 2173 393d b867 143d
000002d0: e6a4 093e 0956 c03d 4e40 aabd c870 1e3e
000002e0: c723 113e fc42 313c 0344 22be 8ee5 3cbe
000002f0: 2b49 4bbe f090 853b d9af 043d 0ce0 bdbb
00000300: b2cb 4ebc e0a3 da3a 0c9a 83bc f76f 84bd
00000310: 8733 a7bd 8b84 60bb 4fc2 03be ef4a 0abe
00000320: 2340 e1bd cdb9 d9ba a718 c03b 8e24 27bd
00000330: b668 ff3d 401c da3d ce4f 973d 8a3d edbd
00000340: 7dbf 8ebd 9a4b c7bd 89ee d33c 71d4 1d3d
00000350: 802a ad3b 1622 8c3d 2cb7 a93d 35c4 9a3d
00000360: 8d5b 2ebd 91aa d13a 5a6e 86bd 9e0b 8cbd
00000370: 7e0a 44bd d46b adbd 3714 d93d 1ca3 3c3e
00000380: b730 9e3d 2307 fabd b5e0 5bbd 20bc 4bbd
00000390: c780 3e3d 8aa2 523d 9425 843d 44ca 483e
000003a0: 433f 183e 14e3 553d 95fb cebd 6c4e fcbd
000003b0: 25ed 15be 69b5 673d cceb c33d 3e4a 933d
000003c0: 3ad7 9e3d bdf0 483e 60e5 073e 9588 7d3b
000003d0: ffff 83bd 0862 2dbd 3b94 243b fe61 46bd
000003e0: f914 3bbd e47a 10bc 04ab 2abe 3753 28be
000003f0: 786c 2a3c 9629 87bd e327 883d cff4 f03d
-0.018268557 0.071726 0.13751724 -0.018841812 0.1349216 0.12813805 -0.1355965 -0.119601645
-0.08574969 -0.03804039 -0.12473324 -0.1092185 0.013953197 -0.1344376 -0.08159177 0.18395635
0.098459676 0.075739585 0.05321498 0.07260705 0.08843631 -0.15346164 -0.12638076 -0.043944664
-0.051511824 0.015909452 -0.054739498 -0.008431635 -0.006309426 0.06261167 -0.021366742 0.0598095
-0.083801776 0.09141964 0.13731675 0.052965615 -0.0052773976 -0.021811418 0.050898466 -0.046346314
-0.06268447 -0.09826919 0.04375696 0.067747384 -0.0244508 -0.049374003 -0.001920493 0.044752005
-0.148695 -0.08972408 -0.037390683 -0.12663566 -0.1254166 -0.12155983 -0.040889964 0.01580857
-0.10004254 0.09207753 0.09943484 0.016923664 -0.07799476 -0.13274738 -0.19642343 -0.067528665
-0.07861545 -0.14798437 -0.05720736 0.035860255 -0.09623947 0.06240512 0.095827155 0.025763014
-0.039915018 0.059346177 0.05453249 -0.1462104 -0.010748897 0.08211303 0.10345199 0.023854751
-0.033173453 0.043634366 0.012201785 0.02818002 0.05435558 0.06621245 0.031241676 -0.19599476
-0.19591813 -0.19845225 -0.1487292 -0.12150308 -0.12535718 -0.09719673 -0.062136248 -0.056071404
-0.08736119 -0.008428754 -0.049184196 0.029363267 -0.053839732 -0.023418605 0.056511544 -0.04499163
-0.052545454 0.060090292 -0.058452092 0.016880099 -0.1964496 -0.19477649 -0.19778007 -0.07139833
-0.093083106 -0.1504022 -0.051047064 0.027710386 -0.019432584 0.0053474656 -0.05746463 -0.032292765
0.039477687 -0.0015449942 -0.00053178205 0.099704206 0.010657543 -0.03487761 0.013216888 -0.014608802
0.038073182 0.03201515 0.019477203 -0.04489552 -0.037103377 -0.051642016 -0.168487 -0.045260634
0.09767735 -0.0034777422 -0.12123423 -0.03623028 -0.07335176 -0.011916311 0.04319076 0.048338365
0.05145435 0.019080695 0.036687143 -0.061981652 -0.05694066 -0.11818951 0.032325644 0.016158836
-0.027251523 -0.009510563 -0.020712575 -0.03139555 0.07227254 0.08769379 -0.024001949 -0.10309197
-0.06926367 -0.09109183 0.009249144 0.012474395 -0.0013280067 -0.073223926 -0.020942979 -0.0036007804
-0.033426825 -0.0593134 -0.07148616 -0.0053877984 0.031606395 0.038542967 -0.09206659 0.039005052
-0.019414151 0.028026422 0.04527581 0.036231726 0.1344181 0.0939141 -0.083130464 0.1547271
0.14173804 0.010819193 -0.15846257 -0.18446943 -0.1985213 0.004076116 0.032394264 -0.0057945307
-0.012621807 0.0016680919 -0.016064666 -0.06466668 -0.08164125 -0.003425869 -0.12867092 -0.13505147
-0.10998561 -0.0016611159 0.005862314 -0.040806346 0.12471144 0.106499195 0.073882684 -0.11584003
-0.06970117 -0.09731217 0.025870578 0.038532678 0.0052846074 0.06842439 0.082868904 0.07556955
-0.04256778 0.0015996267 -0.06564017 -0.06838153 -0.04786157 -0.08467832 0.10599559 0.18421596
0.07724135 -0.122083925 -0.053681094 -0.049739957 0.04650953 0.05142454 0.0645248 0.19608408
0.14867882 0.05221851 -0.10106579 -0.12319645 -0.14641245 0.05656949 0.09566459 0.07191895
0.07755895 0.19623084 0.13271093 0.0038686146 -0.06445312 -0.042329818 0.0025112766 -0.048433296
-0.045674298 -0.008818362 -0.166668 -0.16437994 0.0104018375 -0.06599729 0.06648233 0.117654435

features.2.bias f4 [32]
00000000: dc3a c5bd a7a8 823d 94f2 debd 654e 463d
00000010: dce0 90bc 2566 60be a005 d6bd c365 3fbe
00000020: 107d a8bb 49a8 67be f32e 813d 9fd1 373e
00000030: 5a44 b8bb da24 45be ca4c 5cbd 6037 db3c
00000040: d1ac d5bd daaf 06be 53de 6d3e 86ca 9cbd
00000050: 95f0 30bd 2b2e a4bd 9ac2 cbbd 8271 8a3c
00000060: 7e28 f23d e9cf 253e ad52 3a3e ac3f 083e
00000070: 6729 363e fd52 2c3a 6245 b43d a5c8 9cbb
-0.09630367 0.06379824 -0.10886112 0.048414607 -0.017685346 -0.21913965 -0.10450292 -0.18691163
-0.0051418617 -0.2262279 0.06307783 0.17951058 -0.0056233825 -0.19252339 -0.05378417 0.026759803
-0.10433353 -0.1315302 0.23229341 -0.07655816 -0.043198187 -0.08016618 -0.09949227 0.016899828
0.118241295 0.16192593 0.18195601 0.13305539 0.17789231 0.00065736455 0.08802296 -0.004784661

features.2.b_w f4 [8, 1]
00000000: 0000 00c3 0000 8042 0000 0042 0000 8041
00000010: 0000 0041 0000 8040 0000 0040 0000 803f
-128.0 64.0 32.0 16.0 8.0 4.0 2.0 1.0

features.6.weight f4 [32, 32, 3, 3]
00000000: 3629 223d 610a c73d baa5 903d 77ad 593d
00000010: c32b 99bc 10cd 39bd c9cf 44bd a8c9 4abd
00000020: dc10 5fbb 5e49 f33d 36f6 433e d014 0c3e
00000030: 5865 f8bd d6e1 bfbd 93d7 21be e1db 41be
00000040: d0ed 4abe 2a29 43be e068 ed3d 5a30 903b
00000050: 0b01 a0bc 279f ae3d e54c 0f3e c533 bb3c
00000060: e3a4 37be ab44 e6bd 4261 703d 8bfb 8a3d
00000070: 4547 2c3e 56e4 2d3e aaed 053c a7ab 6d3d
00000080: 2867 08bd adbc 2ebe c93d a2bd 43a3 48be
00000090: 6f70 293e dbc5 463e 7a0a 373e 7977 ebbd
000000a0: 6403 24be 1d5d 1cbe 9794 29be c707 48be
000000b0: d1ea 47be 3a20 d2bc a1c3 383d c779 2e3d
000000c0: 0ba4 60bc 1617 87bc 43a5 ebbc 8f79 2d39
000000d0: 8674 52bd bd10 673c 8e13 e73d d2f5 f23c
000000e0: eb10 92bd 32b9 44bb a27d a23c 1794 6d3c
000000f0: b403 56bd ceea 8dbc 0138 bb3c 7339 223d
00000100: 3802 3038 3611 8b3d 359f 693b 9a5e 293e
00000110: 43a4 ec3b e013 8cbd 4b16 bdbc c4d3 db3d
00000120: d8de f53d 71f6 333e ae01 c13d 84c3 82bd
00000130: 2ba7 033e 469e 2ebd 9435 4abe 18af 4bbe
00000140: f18e 23be c779 5abd 0083 1f3d 278c 8dbc
00000150: dd14 a8ba f687 1d3e 27df 863d cf11 bfbd
00000160: 80bb d0bd 1991 adbc 5809 a93c 4b1b 013e
00000170: 9284 d33c acb2 96bd 71dd 9f3d 323d cd3c
00000180: e553 06be 10ce c7bd c77b e93c 165a 25bb
00000190: b05d a0ba 9579 4b3d 7549 7f3d eacb 813c
000001a0: 73ec c8bd 0e3c c73d ada0 ae3d 7b6f 52bb
000001b0: 27de f03c f789 ae3d a4a6 cd3d 1f98 e33c
000001c0: 1a88 12bd 2b75 b53d 509b 493c b000 79bb
000001d0: 054a e2bc 2496 d3bb 4543 cd3d e2d7 373d
000001e0: 3ede 89bd 76c5 e23c 3993 a6bc 47d2 c33b
000001f0: 7f2a 8cbd 9870 a4bd e3c5 df3d 6bcc edbb
00000200: be99 90bd 6224 7cbd 1b17 ccbb 2667 973d
00000210: c738 4bbe a9db 4abe 0696 7bbd b488 8b3d
00000220: 2d15 053e 0cef ef3d c47c e6bd befc 26be
00000230: c30c 40bd 49ee 3abe 36c3 4abe 3d7f 4abe
00000240: b814 04bc 033d 9c3c d8d2 a13c 25d5 dcbc
00000250: 5688 c83d fc56 d7ba cfea a0bd 94b8 35bd
00000260: 9ed5 1a3e 2d63 d23c ab1e eabb c542 e23c
00000270: f477 16be 359b 8a3d 0369 763d 1a63 013e
00000280: 90b9 12bd f6b3 06be b360 4e3d 3bb5 0cbd
00000290: 22cf 803c 605f 873c ea4e 70bc d7dd 88bd
000002a0: 5c41 953b 8b67 1ebd 3f63 e2bd 06a4 013e
000002b0: da89 a13d 1b55 f4bb 0cbc 00be 644d a13d
000002c0: 99ab 303e 3955 5dbd 1f4f 2fbe bf93 4bbd
000002d0: b71c 043e 4cc8 303e be9e 913d 64d6 3abe
000002e0: c694 943b 6f97 5c3d 3705 3fbe f1e1 48be
000002f0: 4d6a 37be b9be 733d 691b 823a 02e8 00bd
00000300: 929c 833d 5e69 003e 4460 08bd 2a74 bfbc
00000310: 2d9c 49bc 02da ba3d 3663 af3d 58c9 aa3d
00000320: a127 e3bc 61f9 9ebd 324a 063e b048 99bd
00000330: 99df 113d a7d4 83bb 5d66 6fbd 9219 a73d
00000340: 33a1 413d 839e 103e 5b4d 26be c032 a43c
00000350: f2c0 223e 5899 08bd ebda 41bd 7c5b 0bbd
00000360: 717a 803d aed1 e83b 8c35 da3c 65b2 3dbd
00000370: b141 a1bd 5fd4 413d 0f94 24bd 01c0 f9bd
00000380: 21cb c7bd 2cf5 ab3c 3345 8ebc 5774 cfbd
00000390: e33a b7bd f101 a53a a6c5 113d 58ec 98bd
000003a0: 864a d4bc 7f90 543d 4f9f 863d 3631 2e3d
000003b0: e5d7 033d 732e 523d ba3d 40bd 0c42 113d
000003c0: 4e9b f7bc bf5d 3fbd 3e09 9fbb 6aab 523d
000003d0: 7794 853b 236c 983b 04c6 4cbe 5703 33bd
000003e0: 4d47 1e3c 9034 f5bb be03 05bd 5089 253d
000003f0: fb9c 8f3c 1057 4dbd d73d 90bd a657 0bbd
0.039590083 0.097187765 0.0706286 0.053143945 -0.018697625 -0.04536158 -0.048049722 -0.04950872
-0.0034037149 0.11879228 0.19136891 0.13679814 -0.12128705 -0.09369247 -0.15804891 -0.18931533
-0.19817281 -0.19058672 0.11592269 0.004400295 -0.019531747 0.0852645 0.13994177 0.022851834
-0.17933993 -0.11243566 0.058686502 0.06786259 0.16824062 0.16981634 0.008174339 0.05802503
-0.033301502 -0.17064162 -0.07921941 -0.1959353 0.16546796 0.19411413 0.1787509 -0.11497397
-0.16016918 -0.15269895 -0.16560589 -0.19534217 -0.19523169 -0.025650132 0.04510844 0.042596605
-0.013710986 -0.0164905 -0.028765326 0.0001654385 -0.051380657 0.014103112 0.11283027 0.029658232
-0.07132133 -0.0030017612 0.019835297 0.014500639 -0.052249625 -0.017323878 0.022853853 0.03960557
4.1963736e-05 0.06790392 0.0035647873 0.16539994 0.00722173 -0.06839728 -0.02308192 0.107337505
0.12005395 0.17574479 0.094241485 -0.06384948 0.12856738 -0.04263141 -0.19747001 -0.19891012
-0.15972497 -0.053338792 0.03894329 -0.017278744 -0.00128236 0.15383896 0.06585532 -0.093295686
-0.10192013 -0.021187352 0.020634338 0.12608068 0.02582005 -0.07358298 0.078059085 0.025053594
-0.1311794 -0.097561 0.028501404 -0.0025230697 -0.0012234952 0.049676497 0.062325913 0.015844304
-0.09810724 0.097282514 0.0852674 -0.0032109905 0.029402805 0.085224085 0.1004155 0.027782498
-0.035774328 0.08860239 0.012305096 -0.0037994795 -0.027623186 -0.006457107 0.10022596 0.044883616
-0.067318425 0.027682047 -0.020333873 0.0059759947 -0.06844043 -0.08029288 0.10926416 -0.0072570345
-0.07060574 -0.061558135 -0.0062283403 0.07392721 -0.19845878 -0.19810356 -0.06142237 0.068131834
0.12996359 0.117155164 -0.11254266 -0.16307351 -0.04688717 -0.18254961 -0.1980103 -0.197751
-0.00806158 0.019072061 0.019753858 -0.026957104 0.09791629 -0.0016429122 -0.07857286 -0.04436548
0.15120551 0.025682056 -0.007144769 0.027619729 -0.14694196 0.06767885 0.06015874 0.1263546
-0.035821497 -0.13154587 0.05038519 -0.034352522 0.015723769 0.01652497 -0.014667252 -0.066829376
0.0045549106 -0.038672965 -0.11054086 0.12660226 0.07887621 -0.0074564344 -0.12571734 0.07876089
0.1725296 -0.054036353 -0.17120026 -0.04970145 0.12901579 0.17263907 0.07110356 -0.18245846
0.0045343367 0.053855356 -0.18654333 -0.1961744 -0.17911644 0.05950806 0.0009926382 -0.03147126
0.06426348 0.12540194 -0.03329493 -0.023370821 -0.012305302 0.09123613 0.08563845 0.083391845
-0.027728857 -0.07762409 0.13114241 -0.07484567 0.03561363 -0.004023153 -0.05844723 0.08159174
0.047272872 0.14122967 -0.16240446 0.02004373 0.15893915 -0.033349365 -0.047327917 -0.034022793
0.06273354 0.007105074 0.026636861 -0.04631271 -0.07873858 0.047321673 -0.040180262 -0.12194825
-0.09755541 0.02099093 -0.017366981 -0.10129612 -0.089467786 0.001258908 0.035588883 -0.07466954
-0.025914442 0.051895615 0.065733545 0.0425274 0.032188315 0.05131383 -0.046933867 0.035463378
-0.030225422 -0.046720263 -0.0048533967 0.051433004 0.0040765363 0.004651563 -0.19997412 -0.043704357
0.009660554 -0.0074830726 -0.032474272 0.040414155 0.017530909 -0.050131857 -0.07043045 -0.034019135

features.6.bias f4 [32]
00000000: 8326 5abd 6b96 113f 07ea 873e 2761 4e3e
00000010: 423b c5be eb6c 9b3e 9fae fc3e 384b 48bd
00000020: b9e7 893e 6d02 813e 444a 2c3e bea1 673e
00000030: bd89 693d 7016 e73e 5eb3 aa3d 64c2 6337
00000040: 5786 b23e 0872 86bc f0bb a43e aea7 bd3d
00000050: 42eb 13bf b9f1 083f 2ece 3b3e 4db2 e33e
00000060: 53a6 5c3e 7245 dd3e f9c9 83be 8a7a e43e
00000070: 89e0 573f a2c8 193e fd33 bf3e b90c 313e
-0.053259384 0.56870145 0.26545736 0.20154248 -0.38521773 0.30356535 0.49351975 -0.04889986
0.26934603 0.25197163 0.16825205 0.22620293 0.057016123 0.45134306 0.08334993 1.35755145e-05
0.34868118 -0.016411796 0.32174635 0.09260498 -0.5778085 0.5349384 0.1834037 0.4447197
0.21547823 0.43217045 -0.2574003 0.4462474 0.8432699 0.15017942 0.3734435 0.1729001

features.6.b_w f4 [8, 1]
00000000: 0000 00c3 0000 8042 0000 0042 0000 8041
00000010: 0000 0041 0000 8040 0000 0040 0000 803f
-128.0 64.0 32.0 16.0 8.0 4.0 2.0 1.0

features.8.weight f4 [32, 32, 3, 3]
00000000: 4edc e4bc 052d 05bd 416d a8bc dff8 a8bc
00000010: 7ef4 7abd 3ac5 adbd 9aaf 0f3b 2acf e1bd
00000020: f498 fcbd 1d3f 94bc 4b4e 43bd 488a edbd
00000030: bf02 c93d 4531 943d a306 a6bd 6bad a3bd
00000040: 9fb9 b13c a711 2fbe 003e 613b cd4b 9a3d
00000050: f0a7 213e 7bd1 7d3d 9261 8b3c 3294 303d
00000060: eb49 81bc 9199 0d3d c343 413d cc56 f13d
00000070: 51df 643d dcc4 d8bd f440 193e db77 c6ba
00000080: e4e8 c93b ab75 a43c 50bc 32bd 0f33 403d
00000090: 0110 cc3c c943 33be e040 41be 72b6 5c3d
000000a0: a944 0abe 00b0 31be 7f1a 48bd a854 643c
000000b0: 9fed bcbd 9686 1dbd 3df0 95bd 3487 8ebc
000000c0: a48a e33d d8f5 7fbd 8c68 9abc 03bb 1f3e
000000d0: 74ce 353e 3870 5ebd e403 c93d 8ea6 ea3c
000000e0: 1388 31bc dfd4 d73c 0903 063e a507 473e
000000f0: 267d 6bbd 3b22 923d 683e 753c bc2d 72bd
00000100: 0390 553c 3967 143c 6298 cdbd 0997 d63b
00000110: a620 ba3d 609e 8e3d 6346 c73c f399 08bc
00000120: 4797 06bd b067 fc3c 83f3 483d 9669 f6bc
00000130: 1e92 36bd 9d17 8e3d 9dc5 0a3c b9c2 9a3d
00000140: f73a 3a3b 3056 b9bd df86 103d 5f35 103e
00000150: ae6e 00be 0de8 4b3d 694a 87bb 6e10 65bc
00000160: 5ad0 21bc cec8 0cbd 355b f33d d109 b73d
00000170: 7769 6ebc f467 e83d f551 fa3d e486 cfbb
00000180: c6e6 87bd 5059 88bc 8af5 003e 5e58 06bd
00000190: 8f87 babc bf4e f5bb bcc0 8bbd 3568 d6bc
000001a0: 375d c9bb 514c a13c f9b9 9cbc 400d 8c3b
000001b0: 8327 913c bc32 993b ce60 e03a 718d 0c3e
000001c0: feb7 dbbc 6009 91bd 9ced 5ebc 65e6 8dbd
000001d0: 7f83 babc aeb9 aebc 4310 adbc d680 afbd
000001e0: 93f7 04bd 5621 2abd 55fa 76bd 64bd cd3c
000001f0: 4346 84bc 0178 e4bb 5f55 40be 39e0 f4bd
00000200: b36a eebc b5c7 9fbd cc6c 703b aa70 d53b
00000210: e526 c4bc 1912 85bd e4b3 39bd f702 90bc
00000220: 6843 9ebc f67e a4bd e71f 263d 54d8 413c
00000230: bf39 c0bd 4343 0c3d 7f75 163d 94c5 55bd
00000240: 6718 3bbe 285b e03c fa9d c83d 6ede 41be
00000250: f45f 08be 5d88 bdbc 763c a0bd 13e5 b5bd
00000260: c720 d5bd ed55 3b3c be71 adbc fbd1 a2bc
00000270: 9b3f 43bd e277 6dbc 6db8 54bc 1ea3 95bc
00000280: a878 013c b74b 773d 8ee3 85bd 01d2 223d
00000290: b812 2e3d 31b3 90bc 2bd9 abbd d05a a53c
000002a0: 0dcc 90bc 9c48 dbbd 29eb abbc 1f39 84bd
000002b0: aa6f 8cbb 5c4e f73c cf49 29bd 8c3c b0bc
000002c0: fe60 253d bba8 c0bc d9f2 33bd d558 46bb
000002d0: d9fe a8bc d79e 89bd e45d 87bd c479 29bd
000002e0: 2c86 11ba 7c6d 593c da99 e3bb ec43 b0bc
000002f0: 775d 2b3d c17e 02be 1961 a23d 547e 213e
00000300: 1cee 88bd c4e6 d43c 7d08 dd3d 6f21 d03c
00000310: 5cc3 84bc 3228 4b3d 8cc6 8e3c 92b4 cbbd
00000320: 89e7 b13b 01aa a63d 7b82 fb3d 41d1 5e3d
00000330: 1c5b 6cbd 0c7b 973c d46d 4c3d 6f69 41bd
00000340: 4ae4 3abd 3dbb a3bc 2a6e 5b3d f15a 563c
00000350: fb63 6f3d 0ce6 913d 362f cd3c deb3 423c
00000360: 3ab6 b03c ed93 04bd ab0e a8bd 3fa2 9a3d
00000370: 463e d4bc f83a 90bd b253 853d 5e36 8f3d
00000380: 5272 a639 2f9e 5fbd 82ac cc3c 3f0a 2b3e
00000390: 8596 1abe e5c7 1fbd a48c 3d3e e8bb 28be
000003a0: ccaf 9bbd ecab d93c 3dae a0bb 9285 bf3c
000003b0: b3da be3d 82dd b9bd e89b 9bbd 5e46 82bc
000003c0: 41be bc3d 75e9 18bc 36c2 77bc 953c b6bd
000003d0: b046 213c 7460 aebd 211c 1fbd 0075 653c
000003e0: 178d ffbc bb76 133d e822 a1bc 0dbc c3bd
000003f0: 6e90 5ebd 3652 233e ad10 e23d 803e 48be
-0.02793708 -0.032513637 -0.020559909 -0.020626483 -0.061268322 -0.084848836 0.0021924735 -0.110258415
-0.12333861 -0.018096501 -0.047682088 -0.11598641 0.09814977 0.0723596 -0.081067346 -0.07992061
0.021694956 -0.17096578 0.003436923 0.07533989 0.1578672 0.061967354 0.017014299 0.04311008
-0.015782317 0.03457028 0.047183763 0.11784133 0.055877034 -0.10584423 0.14966184 -0.0015141921
0.006161796 0.02007564 -0.04363662 0.046923693 0.024909975 -0.17506327 -0.18872404 0.05388493
-0.13502754 -0.17352295 -0.048853394 0.013936199 -0.0922501 -0.03845843 -0.073212124 -0.017398454
0.11110428 -0.062490314 -0.01884868 0.15598683 0.17754537 -0.05430624 0.09815195 0.028643873
-0.010835665 0.026346622 0.13087095 0.1943651 -0.057492398 0.07135435 0.014968492 -0.059125647
0.013034823 0.009057813 -0.1003883 0.0065487665 0.090882584 0.069638014 0.024325555 -0.008337486
-0.032859113 0.03081116 0.049060356 -0.030079644 -0.044572942 0.069380976 0.008469966 0.07556672
0.0028416493 -0.09049642 0.035284873 0.1408286 -0.12542221 0.049781848 -0.0041287434 -0.013980968
-0.009876335 -0.03437119 0.11882631 0.08937419 -0.014551512 0.113479525 0.12222663 -0.006333219
-0.066358134 -0.01664415 0.12593666 -0.032799117 -0.022769717 -0.007486194 -0.068238705 -0.026172737
-0.0061451453 0.01968971 -0.019131647 0.0042740405 0.017719036 0.0046752375 0.0017118694 0.1372583
-0.026821133 -0.07081866 -0.013606455 -0.0692871 -0.02276778 -0.021328773 -0.021125918 -0.085694954
-0.032462668 -0.041535698 -0.06029733 0.025114723 -0.016146785 -0.0069723134 -0.18782566 -0.119568296
-0.029103613 -0.07801763 0.0036685942 0.0065136747 -0.023944328 -0.064975925 -0.045337573 -0.017579539
-0.019319251 -0.080320284 0.04055777 0.011831362 -0.09386014 0.034243833 0.036733147 -0.05219038
-0.18271028 0.027387217 0.09795757 -0.18932506 -0.13317853 -0.023136312 -0.07824032 -0.08881583
-0.104066424 0.0114340605 -0.0211724 -0.019875517 -0.04766808 -0.014493914 -0.012983424 -0.018266257
0.007902302 0.06037494 -0.06537543 0.039751057 0.04249832 -0.01766357 -0.08391031 0.020184904
-0.017675424 -0.107072085 -0.020986157 -0.064562075 -0.0042857723 0.030188732 -0.041330155 -0.021513246
0.040375702 -0.023517957 -0.04393277 -0.003026535 -0.020629333 -0.067197494 -0.06609705 -0.04137589
-0.0005551304 0.013270732 -0.006945831 -0.021516763 0.041837182 -0.12743665 0.07928676 0.15770847
-0.06686041 0.025988944 0.10792635 0.025406567 -0.016206436 0.04959888 0.017428659 -0.099465504
0.0054292125 0.081378944 0.122807465 0.05439878 -0.057704076 0.01849129 0.049909428 -0.04721969
-0.04562787 -0.019986743 0.053571858 0.013083206 0.05844496 0.07123956 0.025046926 0.011883704
0.021571267 -0.032367636 -0.08205923 0.07550477 -0.0259086 -0.070424974 0.06510104 0.069927916
0.00031747163 -0.054594215 0.024984602 0.16703127 -0.15096481 -0.039008994 0.18510681 -0.1647793
-0.0760189 0.026571237 -0.0049035833 0.023379121 0.09319057 -0.090754524 -0.07598096 -0.015902694
0.092159756 -0.009333004 -0.015121987 -0.08898274 0.009843513 -0.08514491 -0.038845185 0.014004946
-0.031195207 0.036001902 -0.019669965 -0.09557352 -0.054336958 0.1594933 0.11038337 -0.19555092

features.8.bias f4 [32]
00000000: bb65 6bbe 8e1f 6dbd ee97 403e 6b4e 483e
00000010: 836c 17be f46b 5d3e 4d06 1a3f c4fe 2c3f
00000020: 130c 98bd bcbb 233e 135d 123e d201 9f3e
00000030: 61be 863e 04d3 6ebd 3ff6 a13e f0e5 563f
00000040: 7484 6a3e 23a9 4b3e c275 8bbc 4477 ca3e
00000050: 8881 48bd 290d 4a3d bff6 273e 30c2 d13e
00000060: 2b45 a53e ace7 c43e 9708 123e 73bf 1f3e
00000070: cd77 0d3f 0637 c13d 5760 bfbd 1c4c 003f
-0.22988026 -0.05789142 0.18807957 0.19561164 -0.14787488 0.21623212 0.60165864 0.6757624
-0.07424178 0.15989584 0.14293317 0.31056076 0.26317123 -0.05830671 0.31633183 0.83944607
0.2290209 0.1988874 -0.017023925 0.39544117 -0.048951656 0.049328957 0.1640272 0.40968466
0.32279333 0.38458002 0.1426109 0.15600376 0.55260926 0.09434323 -0.09344547 0.50116134

features.8.b_w f4 [8, 1]
00000000: 0000 00c3 0000 8042 0000 0042 0000 8041
00000010: 0000 0041 0000 8040 0000 0040 0000 803f
-128.0 64.0 32.0 16.0 8.0 4.0 2.0 1.0

classifier.0.weight f4 [10, 2048]
00000000: cee9 9fbc 8ffd d9bc 59ac cb3d c708 d03d
00000010: afac e73d 7e44 0b3d ae13 5d3c 29e7 babd
00000020: d284 393d e454 3b3d 5ce7 3c3e a70f b43d
00000030: ac6f 993d 8a2b 043d 582f 36bc f307 0dbb
00000040: a7d3 c33d e717 bb3d 2fa6 0b3e ea43 843d
00000050: c0b5 4abc e7f0 2d39 d51f 87ba dc12 813b
00000060: f010 ce3c f0c9 a73d 137e ea3d 9027 4b3c
00000070: 49d6 c9bb 28ca 5bbc c9a8 10bd f619 943c
00000080: 93de 063d ca98 443d 1740 4f3d c7ec 81bb
00000090: 45a7 febc b4ac 52bd fa95 07bd 41e3 3c3c
000000a0: 6b5a 3e3c 2ec4 53bc 9cb8 ffbc 4228 d0bc
000000b0: 9026 45bd ec93 d3bc 03c9 06bc a791 29bc
000000c0: b584 4b3d d2fb e7bc 0165 87bd 499c 1ebd
000000d0: 3c7f 48bd e3d6 acbb 95d1 b6bc 138e 7bbc
000000e0: 21f3 acbc 17ca 6b3c 35d9 1cbd ce15 b539
000000f0: 9dea 9fbc 8858 313c d9fa 96ba 70ad 713b
00000100: b014 843c 791e 723d dded 0e3d 782f 7d3b
00000110: 2dfc 4f3d 5ef7 363d ca0a 5d3c 6ea1 fbba
00000120: fa15 8dbc dbaa 91bb 794e 8fbd b725 b7bd
00000130: 697a 9ebd 9031 a1bd 45eb 53bc dcd9 0b3d
00000140: 4aeb 77bc d7d7 5b3d 6171 2e3c 71e8 34bd
00000150: f496 8fbd 8926 4dbd 9ab9 cb3c e423 b73b
00000160: 1f89 c9bc b2c1 9b3d 3ef0 903c 636c 603c
00000170: 7681 32bd 7f9c abbc 3e62 28bc f26b 253d
00000180: 1c0f 0b3c 6654 3e3d 2b37 fd3c 5b90 7bbb
00000190: 2b89 11bd 6d6f 0bbd ef5b 4e3d fcd4 453d
000001a0: 4514 d83c d692 853d d3a8 5a3d 5fa6 003d
000001b0: 71f9 fe3c 9f68 2fbd 29c9 143c 2bc4 603c
000001c0: 78b3 3b3c 1208 ab3d ca9f 6e3d 719e ad3d
000001d0: 49f3 323c d9a5 6abd 977b 0e3d 8ee7 6c3d
000001e0: e364 babc 0471 5d3d 0947 403d 655d ed3c
000001f0: 1af3 3d3c d3a1 76bb 2623 833c b88a 06bc
00000200: c472 debd 20fa 6c3c 08ae db3a 09db a03c
00000210: e179 3fbc 1a88 783d 3fe7 4cbc 5643 febb
00000220: d064 08bd 8116 28bd 6cfb b9bb ec40 693b
00000230: df1a f93b b187 203c 53e8 5d3c 20df 46ba
00000240: 4c81 8cbd 4b0d 153d 2286 be3c faed ec3c
00000250: 99d3 303d 8dc9 cd3d 8e85 a43d f353 b23c
00000260: 8ef2 7dbd ce39 563d f374 c23d 6078 b53d
00000270: f226 ce3d 6c27 ae3d 982b 9d3d ff13 873d
00000280: 6cb6 14bd 9413 e43d b7e5 023e 6c23 e33d
00000290: 445f a63d cb05 053d e5dd 083d 2448 a23d
000002a0: 1a27 9dbc cdb6 a53d 4e3c b13d 35fc 823d
000002b0: 53ff 003d 6d7c 353d 4246 e33b 8ff6 d03c
000002c0: 92bf 00bd 860e c33d f0bd 8f3d b413 453d
000002d0: d6cb 163c 6218 ba3c b3db 1e3c 74bd 2fbd
000002e0: 3a0b 10bd 9658 693c 17e8 013d daa6 253b
000002f0: f793 943b ec93 403d ca47 cfbc b9a7 13bd
00000300: fc38 963d bfc7 2a3d c310 503d dc4e 7a3d
00000310: 585c cd3c 2556 e0bc 58f3 903c 237b 783d
00000320: 1027 633d d7d1 883c b404 8c3d 8b41 873d
00000330: eb62 513d 0236 873a 7d1b 6aba 2ef5 c0bc
00000340: 3231 243d aa02 583d 0c89 4f3d e101 663d
00000350: 8622 4c3d f3a6 b83c 645e 05bc f5cf c6bc
00000360: 5922 1b3c fed5 21bd 8aff 4abc fc2e 54bd
00000370: 320c 4ebd e9f1 c6bd 11d5 f1bc 632f 8abd
00000380: 0a7a 513c 22c8 abbc 6ddb 7fbd 712f 0cbd
00000390: 1c3a 66bd a03d a2bd 89ce f9bc c9a1 78bd
000003a0: 4bc5 903d 286c 613d 4387 a23d 7996 ff3d
000003b0: f932 d93d 1a2d 7e3d 2af7 2f3d b448 99bc
000003c0: 0620 733d 3100 bb3c 7fe6 56bc 54a5 53bc
000003d0: 0aa3 533b 7753 333c 81ca 96ba 077c bfbc
000003e0: 0698 b53c c3e7 1ebb 48ce 2d3c 6a4d 5339
000003f0: d9fd 40bc 3d49 44bc a83d 21bd 699a 6ebd
-0.019520666 -0.026610164 0.09944982 0.10157924 0.11312234 0.034000866 0.013493462 -0.091261216
0.045292683 0.045735255 0.18447632 0.08792048 0.07492003 0.032268085 -0.011119686 -0.002151963
0.09561854 0.091354184 0.13637613 0.06458266 -0.012372434 0.00016588309 -0.0010309169 0.003939016
0.02515456 0.081928134 0.11449828 0.012399569 -0.006159578 -0.013414897 -0.035317216 0.018078785
0.032927107 0.047997274 0.05059823 -0.0039649936 -0.03108562 -0.051434234 -0.033102013 0.011528791
0.011618237 -0.012925191 -0.031215958 -0.025409821 -0.04813248 -0.02582737 -0.008226636 -0.010349668
0.049687106 -0.02831832 -0.06611062 -0.038723264 -0.048949465 -0.00527464 -0.022316733 -0.015353697
-0.021112027 0.014391444 -0.038293082 0.00034539256 -0.019521052 0.01082433 -0.001151885 0.0036877058
0.016123146 0.059111092 0.034894813 0.003863303 0.050777603 0.0446695 0.013491342 -0.001919789
-0.017222393 -0.0044454164 -0.06997389 -0.089427404 -0.07738192 -0.078707814 -0.012934511 0.034143314
-0.015131781 0.053672638 0.010647149 -0.044166986 -0.07011214 -0.050085578 0.024868775 0.0055889953
-0.024601517 0.07605304 0.017692681 0.013697716 -0.043580495 -0.020948647 -0.010277329 0.040386148
0.008487489 0.046467207 0.030910095 -0.0038385603 -0.035531204 -0.03404181 0.050380643 0.04829882
0.026376853 0.06522147 0.05338366 0.031408664 0.031124802 -0.042824384 0.009081163 0.013718645
0.011456363 0.08351149 0.058257855 0.08477486 0.0109222615 -0.05728707 0.034785833 0.057838015
-0.022753185 0.05406286 0.046942744 0.028975198 0.011593604 -0.0037633076 0.016007971 -0.008211784
-0.108617336 0.014463931 0.0016760239 0.019635694 -0.011686773 0.06067667 -0.012506305 -0.007759492
-0.033299267 -0.041037086 -0.005675724 0.0035591675 0.0076020802 0.009797976 0.01354416 -0.0007586349
-0.06860599 0.03638963 0.023257319 0.02892207 0.043170545 0.100482084 0.08033286 0.021768546
-0.061998896 0.05230122 0.094949625 0.0886085 0.10066022 0.08503613 0.076743305 0.06595611
-0.036306784 0.11136547 0.12782942 0.110907406 0.08123639 0.032476228 0.03341474 0.07923916
-0.019183684 0.08091507 0.0865408 0.06395761 0.031493496 0.044308115 0.0069358656 0.025508193
-0.031432696 0.095242545 0.070186496 0.048114493 0.009203872 0.022716705 0.009695935 -0.042905286
-0.035166956 0.014242312 0.03171548 0.0025276453 0.0045342403 0.04701607 -0.025302786 -0.036048625
0.07335088 0.0416944 0.050797235 0.061110362 0.025068447 -0.027384827 0.01769416 0.060664307
0.055457175 0.016701622 0.068368345 0.06604298 0.051119726 0.0010315778 -0.00089304877 -0.02355441
0.04008598 0.052736916 0.050667807 0.056154136 0.04983761 0.022540545 -0.00814018 -0.024269084
0.009468638 -0.03951072 -0.012390027 -0.05180262 -0.0503046 -0.097141095 -0.029520543 -0.067473195
0.012785444 -0.020969454 -0.06246512 -0.03422493 -0.05620776 -0.0792191 -0.030493991 -0.060701165
0.07068881 0.055034786 0.079359554 0.12479872 0.106054254 0.06205473 0.042960323 -0.018711425
0.05935671 0.02282724 -0.013116478 -0.012917835 0.0032293224 0.010945193 -0.0011504443 -0.02337457
0.022167217 -0.0024247027 0.010608263 0.00020151367 -0.011779272 -0.011980352 -0.03936544 -0.058252726

classifier.0.bias f4 [10]
00000000: 957e 55be 6c41 f3be 88d7 49be 190b 043e
00000010: 962d ac3e 1dd5 873d 35c9 0a3f 439b 81be
00000020: 7671 683e 95d8 1cbe
-0.20849068 -0.4751085 -0.19711125 0.12894858 0.3362853 0.06632445 0.5421327 -0.25313768
0.22699532 -0.15316994

classifier.0.b_w f4 [8, 1]
00000000: 0000 00c3 0000 8042 0000 0042 0000 8041
00000010: 0000 0041 0000 8040 0000 0040 0000 803f
-128.0 64.0 32.0 16.0 8.0 4.0 2.0 1.0

momentum_buffer f4 [32, 3, 3, 3]
00000000: 38be d53d 7fce c53d 02ad 8c3d 5590 1a3d
00000010: 3806 783d 5e23 7d3d 5346 eabd 70bd afbd
00000020: be70 ddbd 0170 e43d bb19 e23d b2f9 a93d
00000030: 7949 993c 0198 253d 9f9b 423d 7f24 30be
00000040: c531 0cbe 3653 16be 7e4d 063e 30a0 143e
00000050: e462 f83d 2c70 2a3d 165f 773d 860b 823d
00000060: 2ad2 f4bd 67d0 d9bd 40c7 00be 8758 09be
00000070: b0b6 01be 5910 2abe 3f72 f3bd 8eb6 c8bd
00000080: 8fa8 c9bd 988e c4bc 0c71 efbc fba1 09bd
00000090: 430f 06be 0915 f9bd dfea 24be 7c45 cdbd
000000a0: 4729 abbd b026 bbbd 2898 663c 3034 caba
000000b0: 6627 67bc e757 8ebd ea35 98bd 5d0b e9bd
000000c0: 0482 28bd 5b59 04bd 01ca 34bd 6942 6c3d
000000d0: 60bb 3f3d 988a 073d acfe b1bb 9638 35bd
000000e0: a0f2 913c f783 c6bc db7c 73bc b224 2c3d
000000f0: 89cb a3bd a0e1 6fbd 72fc 25bd 2e15 b03c
00000100: e604 86bc 76e6 0d3d 3d80 19bc 41eb 803b
00000110: b4a1 843d 34d4 99bd 6047 46bd a592 5cbc
00000120: a62c d43b 61c6 36bd 845f 273c 0e18 26bd
00000130: bc8f 3fbd 1944 b33c e60f c6bd 162d b6bd
00000140: c2d0 51bd 3549 cbbd 5db6 18be fc59 18be
00000150: 7d35 e1bd aa31 1abe cd4f 1abe 2cbb 1cbd
00000160: 62c9 19bd c380 54bd fa96 c9bc e6fe 9ebd
00000170: 8194 bbbd c033 18bd caaa a3bd 1040 b8bd
00000180: c1c8 023d 1cd5 e53c d008 133c 0867 99bc
00000190: 6500 74bd 82cf 98bd 3a59 a0bc 1561 54bd
000001a0: 53ff 84bd 24a4 d73c 2e14 fa3c 9df2 263c
000001b0: 64b1 6ebd dab1 88bd 5678 d4bd 1264 aebd
000001c0: 3ca1 b0bd 4930 a7bd dff6 04be b920 b5bd
000001d0: 3202 abbd 10bd cc3c f81d 463c 1840 11bd
000001e0: 4046 4d3b c00a 943a c0db 7d3b 76b4 57bd
000001f0: 201c bcbb 0000 9437 ed93 ae3d 3e3f 963d
00000200: d034 e63c 0dd7 b03d 2fad a03d 6670 943d
00000210: 68e9 fe3c d06f 8d3d ee1c 823d a056 2e3b
00000220: 047c d63c a342 643d c074 913a ddfe c63c
00000230: c88f 1d3d 3438 17bd 4c2f 7fbc 39f5 43bc
00000240: 3d67 213c 5bd4 123d 0e4d a03d 6e1f 423c
00000250: 64fc 143d 3f96 803d 62ee a1bc 60f6 cd39
00000260: d73d 4d3c d202 d33c 9e6d 2a3d 7ee6 a93d
00000270: 39c2 e73c 6943 273d ff34 873d cc43 db3b
00000280: 46b1 593c 68e4 d23c 641e 3d3e 2f5c 503e
00000290: 3840 3c3e c1b5 0d3e 8661 043e 7054 143e
000002a0: d363 ed3d 7692 903d 8630 893d 3b80 2c3e
000002b0: c26d 493e 8a23 3b3e 7d0b 063e 75d3 f73d
000002c0: 0449 063e 28dc dd3d b17a 7c3d 0692 6d3d
000002d0: 8d58 1d3e ea33 3c3e 33ec 453e 7b56 fe3d
000002e0: 2a27 073e 5f2e 243e 27cc d73d 7c0e b63d
000002f0: 73c6 ca3d ccf7 2ebd 3f6a eebd c362 b6bd
00000300: 743b 28bd 98d0 9fbd fc47 7abd a57c 76bd
00000310: 2a66 94bc d256 e2bc dea0 a03c 6867 49bd
00000320: 132b dbbc 1333 053d a0cb e6ba 426b 803c
00000330: 5b53 e13b f698 383d ed5e 373d b87a 2c3b
00000340: 8525 83bd 5214 40bd 26af 703c f231 c8bc
00000350: 5cd8 80bc fd60 47bc 4279 083c 647f be3b
00000360: 84e6 a8bc e055 733c 1814 d1bb 1631 27bd
00000370: da98 f0bc 4e1e a5bd 0e98 a6bd 58b8 71bd
00000380: 1690 b8bd cd4a 3ebd 205c 81bc 1c2d 26bd
00000390: 5dca 3abd 8969 1fbd 2839 c4bd 7456 98bd
000003a0: 0aba 63bd 7dfb bbbd 4862 7ebd 9ea9 2bbd
000003b0: 801e 67bd bde7 39bd f67e 45bd 4cd2 bbbd
000003c0: 3406 6dbd c3a3 4ebd 7a7a 9fbd b650 353c
000003d0: 9ad7 543d 5cf4 aa3d d26a 35bd ee1f 18bc
000003e0: ec16 883d 604b 37bd b415 28bc 7257 863d
000003f0: bfab bb3c d0d8 9e3d a012 f43d 696c ebbc
0.10436672 0.09658527 0.06868936 0.037735302 0.060552806 0.061801307 -0.114391945 -0.08581054
-0.108125195 0.111541755 0.11040064 0.08299579 0.018711792 0.040428165 0.047511693 -0.17201422
-0.1369086 -0.1468018 0.13115498 0.14514232 0.12128237 0.04161088 0.060393415 0.06349854
-0.11954148 -0.10635453 -0.12576008 -0.13412677 -0.12667346 -0.16607799 -0.11887025 -0.098004445
-0.09846603 -0.023993775 -0.02922871 -0.033601742 -0.1309176 -0.12162215 -0.16105221 -0.10023019
-0.083574824 -0.091382384 0.014074363 -0.001542693 -0.014108514 -0.0695036 -0.07432158 -0.113791205
-0.041139618 -0.03231178 -0.04413796 0.05768052 0.046809554 0.033091158 -0.0054319706 -0.044243418
0.017815888 -0.024232848 -0.014861311 0.042027183 -0.079978056 -0.058564782 -0.040523954 0.021494474
-0.016359758 0.034643613 -0.009368953 0.0039342945 0.06476155 -0.07511178 -0.048407912 -0.013462697
0.006475049 -0.044622783 0.010215644 -0.040550284 -0.046767935 0.021883057 -0.09671001 -0.08895318
-0.051224478 -0.099260725 -0.14913316 -0.14878076 -0.1099653 -0.15058008 -0.15069504 -0.03826444
-0.03754557 -0.05188061 -0.024608124 -0.07763462 -0.09159184 -0.037158728 -0.0799156 -0.08996594
0.031929735 0.02805572 0.008974269 -0.018725887 -0.05957069 -0.07461454 -0.019573797 -0.051850397
-0.06494012 0.026323386 0.0305272 0.010189679 -0.05827464 -0.066745475 -0.10374515 -0.08515181
-0.08624503 -0.081635065 -0.12984799 -0.08844132 -0.08350028 0.024992496 0.012092106 -0.035461515
0.003132239 0.0011294708 0.0038735718 -0.052662335 -0.0057406574 1.7642975e-05 0.08524308 0.07336281
0.028101355 0.08634768 0.07845532 0.07248001 0.031117156 0.06906092 0.06353174 0.0026601925
0.026182182 0.055727612 0.0011097416 0.02429145 0.0384672 -0.036918834 -0.015575241 -0.011960321
0.009851274 0.03584705 0.07827197 0.011848314 0.03637351 0.06278657 -0.01976699 0.0003928421
0.012526951 0.02575818 0.041608445 0.08295916 0.028290855 0.04083577 0.06601905 0.0066914316
0.013286894 0.025743678 0.18468624 0.20347665 0.18383873 0.13838865 0.12927827 0.14485335
0.115913056 0.07059185 0.06698708 0.16845791 0.19670776 0.18275276 0.1309032 0.12100879
0.13113791 0.10833007 0.061640445 0.058000587 0.1536581 0.18379179 0.19328384 0.124188386
0.13198534 0.16033314 0.10536986 0.088894814 0.099011324 -0.042716786 -0.116413586 -0.08905556
-0.041072324 -0.07803458 -0.061103806 -0.060177464 -0.018115122 -0.02762929 0.019607957 -0.04917088
-0.026753938 0.03251941 -0.0017608292 0.015676145 0.006876392 0.04506775 0.044768263 0.0026318263
-0.06403641 -0.04689438 0.014690196 -0.024437878 -0.015728168 -0.01216912 0.008329691 0.005813526
-0.02061773 0.014852017 -0.006380569 -0.040818296 -0.02936976 -0.08062421 -0.08134471 -0.059013695
-0.09011857 -0.046458054 -0.015790999 -0.040570363 -0.045603145 -0.038919006 -0.09581214 -0.074383646
-0.055597343 -0.09178827 -0.062105447 -0.041909806 -0.05642557 -0.04538702 -0.048216783 -0.0917097
-0.057867244 -0.050449144 -0.077870324 0.011066606 0.051963426 0.08347389 -0.044291325 -0.009284956
0.06644997 -0.044749618 -0.010259081 0.065596476 0.022909043 0.077561975 0.11917615 -0.028738217

momentum_buffer f4 [32]
00000000: a876 6dbd 95c6 023e a8a6 0fbe 5191 6bbd
00000010: c017 2dbe 7e5a 11bd ef94 a63d e2af a9bd
00000020: 48e4 1f3e bc93 273d 9626 213d e9eb 993d
00000030: 5446 1d3e 6653 aabd 69a7 a53d 73de 2bbe
00000040: 7052 fa3b a475 8cbd 92f9 1b3d 6b2b a4bd
00000050: a353 8dbd 1661 92bd 06a5 c63d b6f9 633c
00000060: 9c8f 48be d730 0d3d 5ada f0bd b622 903d
00000070: 4a2a 073d 7ed8 ddbc 1f72 12be 811e 1dbd
-0.057974488 0.12771066 -0.14028418 -0.05751163 -0.16903591 -0.03548669 0.081338756 -0.082855
0.15614426 0.040912375 0.03934344 0.075156994 0.1535886 -0.08316688 0.080885716 -0.16784076
0.007639222 -0.06858376 0.038079806 -0.08016094 -0.06900718 -0.07147424 0.096994445 0.013914516
-0.19586033 0.034470405 -0.11760397 0.070378706 0.032999314 -0.02708077 -0.14301346 -0.03835917

momentum_buffer f4 [32, 32, 3, 3]
00000000: 9825 8fbc a32d 8bbc d47d 10bc 5764 c9bc
00000010: ac40 8fbc a887 ebba eedb 0dbd 7412 b9bc
00000020: 1012 dfba 0c07 083d c8fd c2bb e63d 4abc
00000030: 0a7f 123d 3078 01bb 726f 24bc 6d03 3f3d
00000040: a0fd 223c 62e9 8cbb a1d3 1cbd ca6d 04bd
00000050: 0fe0 ecbc 8df8 cabc b81f e9bc e816 a5bc
00000060: 7027 3bbb d081 45bc bc92 e6bb 2f40 15bb
00000070: fc1e 74bc 6acf c8bb ca28 19bd c879 10bd
00000080: c599 dabc fdc3 f0bc b6eb 23bd 7cd8 5dbc
00000090: 67a1 8cbb 9504 dfbb 6e72 083b f898 8bbc
000000a0: 6134 16bc 2d57 b53b 097d 1dbd c235 bdbc
000000b0: e6dc f2bb fe49 a33c 908e b73a 13b5 fdb9
000000c0: 86ed 8a3c fa58 9b3a 1bc8 33bb fc52 a33c
000000d0: 4cd4 00ba 4462 bfbb 146e e1bc ed70 e7bc
000000e0: 37e0 f3bc 1c0a ddbc e346 11bd 42e0 e4bc
000000f0: 5042 4dbc 0493 aabc d923 9fbc fc36 0cbd
00000100: 3044 ccbc 96a8 1dbc 145e bbbc da9d 65bc
00000110: ffa4 173c 6a49 58bc 7198 9bbc 304f bcba
00000120: f643 653b 79dd 59bc bd11 5dbc 19e5 fbbb
00000130: 5985 bebc 574e d3bc 292b 7ebc 86b8 ffbc
00000140: 2b21 ecbc 526c 65bd 12b9 5fbd 5a1e 63bd
00000150: 6cc2 1bbd dd83 17bd 4653 14bd 4889 e6bc
00000160: 789b bcbc 673d babc b905 e3ba b01c 8038
00000170: e47f 9f3a 1818 f93a 72d6 223b ead3 5c3b
00000180: 2c88 a33b faca c93b 2c4b fd3b c4e4 f73b
00000190: bcd9 8bbc fc3c 28bc 2521 183c 9c7d 37bc
000001a0: 8655 04bc 7638 1f3c a904 8dbb 807a 3dbc
000001b0: 08d0 62ba 5c98 cebb 5d31 87bb 6482 243a
000001c0: dacb b2ba a0d4 25ba d6ef bc3b 42ba ec3b
000001d0: 7884 a73b 0456 ea3c 6898 3939 ed6d 0fbc
000001e0: 15a4 083d 7560 cf3b 4c86 2ebc c7f7 903c
000001f0: 3023 f2ba a048 67bc 5c60 0dbd 0aef 0cbd
00000200: 67cc ffbc 91ea 8cbc dc82 fbbc 77d8 90bc
00000210: 50f2 c6bb 7f90 92bc 7e6d 2bbc d95f f6bb
00000220: 6c43 c2bc e70b 64bc 6a4f afbb 25d3 bdbc
00000230: c582 1cbc f88e 193c 0e1e a7bb 523d 3e3c
00000240: 6634 bbbb 4351 7bbc 8bb9 e7bb e241 093c
00000250: da71 9f3a e022 9d3b 1d65 d43c d154 9e3c
00000260: 8978 b03c f2e9 abbc cafc c0bc e6a9 b5bc
00000270: 1940 b5bc 9efb c9bc 1197 59bc 0bb5 7ebc
00000280: 90e3 b2bc 861e 52bc a752 bd3c 73fe 8dbb
00000290: 57b1 94bb a425 cb3c 3124 03bb ed4b 3b3b
000002a0: 7862 033d 7014 29ba 38a4 6d3b 9579 1bbc
000002b0: d457 91bc f864 153c fdf1 0bbc 8c54 1dbc
000002c0: 51d4 9d3c 9fcd 27bc 3c72 fcbb b701 b63c
000002d0: 59b1 a5bc 6af5 73bc 8eca dcbb 943d c8bc
000002e0: 2f49 a2bc c533 47bc 3439 1abd ecd8 ffbc
000002f0: 8548 b8bc 3777 28bc 897b 77bc 5a84 63bc
00000300: c090 55bb d4cd ffbb b02e 70bb c75f b03b
00000310: 88cc 503b 9447 1c3c dc07 3ebc 563f 6cbc
00000320: c26a f2bb 7782 3cbd 3821 febc 4a1d 5bbc
00000330: 7e74 44bd c4bc 2abd fca1 a0bc e3de 0fbc
00000340: 7ce5 283b 4228 4d3c 1c54 a3bb f842 5d3b
00000350: c572 413c b19e 533c b3b5 913c 8b49 ca3c
00000360: 5e91 e9bc 2e39 35bd b1bc f8bc 1539 07bd
00000370: 2515 53bd d23d 15bd c35f f4bc 7709 47bd
00000380: 0a5f ffbc dd53 2fbd e84e 40bd 4371 3abd
00000390: c5ba 5fbd 59f8 74bd a566 50bd a018 88bd
000003a0: aeeb 8dbd c6bc 68bd 28bd 28bc 1843 36bc
000003b0: 4e49 dabb b2e9 18bc 533f 79bc fca4 67bc
000003c0: dbe4 8abc 3445 b2bc fe37 a0bc 9ce6 ec3b
000003d0: 3a3c 75bb 4590 d0bb 75ba 8b3c 48ed c03b
000003e0: bf53 be39 c5fd 8fbb 4eb3 09bb 6347 7bbb
000003f0: 5677 b5bc 7785 f8bc af0c a8bc 53b4 a3bb
-0.01747398 -0.016989535 -0.008819062 -0.024583979 -0.017486893 -0.0017969506 -0.03463357 -0.022591807
-0.0017018933 0.033209845 -0.0059506632 -0.012343859 0.035765685 -0.0019755475 -0.010036336 0.046634126
0.009948164 -0.0043002823 -0.038287763 -0.032331266 -0.028915433 -0.024776721 -0.028457507 -0.020152524
-0.0028557442 -0.0120548755 -0.007036535 -0.0022773852 -0.014899965 -0.0061282413 -0.037392415 -0.03527239
-0.026684651 -0.02939033 -0.040019713 -0.013540383 -0.0042917016 -0.006805966 0.0020820159 -0.017040715
-0.009167762 0.005534074 -0.03844932 -0.023096923 -0.007411587 0.019932743 0.0014004279 -0.0004839083
0.016958963 0.0011852079 -0.0027432505 0.019937031 -0.0004914447 -0.0058405716 -0.02751831 -0.02825209
-0.02977 -0.02698236 -0.035467993 -0.027938966 -0.012528017 -0.020822056 -0.019426273 -0.034232125
-0.024934858 -0.009622714 -0.022872008 -0.0140146855 0.009255647 -0.013201097 -0.018993588 -0.0014366861
0.0034983135 -0.013297432 -0.013492999 -0.0076872227 -0.023256944 -0.025794191 -0.01551322 -0.031215917
-0.02882441 -0.056011505 -0.054619856 -0.055448867 -0.038027212 -0.03699099 -0.03621223 -0.028141633
-0.023023352 -0.022734357 -0.0017320431 6.108859e-05 0.0012168852 0.0019004373 0.0024847058 0.0033695647
0.004990598 0.00615823 0.0077299085 0.007565113 -0.017071597 -0.010268446 0.009285246 -0.011199381
-0.008077031 0.009718051 -0.004303534 -0.011564851 -0.0008652215 -0.0063047837 -0.0041257576 0.0006275533
-0.0013641075 -0.0006325934 0.0057658954 0.007224352 0.005112227 0.028605469 0.0001769975 -0.008754236
0.033359606 0.0063286372 -0.010652136 0.017696274 -0.0018473621 -0.014116436 -0.034515724 -0.034407653
-0.031225396 -0.017201694 -0.030702047 -0.017681343 -0.0060713664 -0.017891167 -0.010463117 -0.00751875
-0.02371379 -0.013918853 -0.005350043 -0.02317197 -0.009552662 0.009372465 -0.0051000183 0.0116113
-0.0057130335 -0.0153391985 -0.007071679 0.008377524 0.0012164668 0.004795417 0.02592712 0.019327553
0.02154185 -0.020985577 -0.02355804 -0.02217574 -0.02212529 -0.024656113 -0.013280646 -0.015546094
-0.021837026 -0.01282466 0.0231107 -0.004333311 -0.004537742 0.024798222 -0.0020010585 0.002857919
0.03207633 -0.0006449884 0.0036261212 -0.009489437 -0.017742075 0.009118311 -0.008541581 -0.009602677
0.01926628 -0.010241895 -0.0077040475 0.022217615 -0.020226168 -0.014890054 -0.0067380136 -0.024443425
-0.019810287 -0.012158339 -0.03765221 -0.031231366 -0.022495518 -0.010282329 -0.015105137 -0.013886536
-0.0032587498 -0.007806519 -0.0036648922 0.0053825113 0.0031860191 0.00953855 -0.0115985535 -0.014419397
-0.0073979804 -0.04602286 -0.0310217 -0.013373682 -0.047962658 -0.041683927 -0.01960849 -0.008781168
0.002577155 0.012521805 -0.004984392 0.003376184 0.011807148 0.012916253 0.017786836 0.024693271
-0.0285117 -0.044243984 -0.030363413 -0.033013422 -0.051533837 -0.03643591 -0.029830819 -0.04859301
-0.031173248 -0.042804588 -0.04695025 -0.04551817 -0.054621477 -0.059807155 -0.05087914 -0.06645322
-0.06929718 -0.056820653 -0.010299005 -0.011124395 -0.0066615706 -0.009333061 -0.015212852 -0.014138456
-0.01695483 -0.021761514 -0.01955795 0.007229639 -0.003741993 -0.0063648545 0.017056683 0.005887661
0.0003630202 -0.0043942654 -0.0021011415 -0.003834211 -0.02215163 -0.030337078 -0.02051386 -0.0049958616

momentum_buffer f4 [32]
00000000: 8260 a0bd f839 35be 1e5a 19be bacb e23d
00000010: 12a4 70bd e0a1 6a3a a034 2a3d d28b 1bbd
00000020: 90d4 78bc d161 233d 9e6e 2e3e c6b2 153c
00000030: 00c0 ecba bdab 8ebd 142f 31bd 88af bdbd
00000040: 9af2 2bbd 0e3b 9ebc 209f 2d3d fb5f 823d
00000050: 14cd 0cbe f4be f03c eb2e 763d a4bf a6bd
00000060: 1048 ecbc baa3 a3bd 449a ad3d 2c40 b13c
00000070: bc41 ec3d 45bf 3abd 287f 7f3d 3cc2 0c3c
-0.078309074 -0.17697895 -0.14975783 0.11074014 -0.05875022 0.0008950513 0.041554093 -0.03797514
-0.015187398 0.039888207 0.17034385 0.009136861 -0.0018062592 -0.0696635 -0.043257788 -0.092619956
-0.04197941 -0.019315269 0.04238808 0.06365963 -0.13750106 0.029387929 0.06010334 -0.08142021
-0.028842956 -0.07990213 0.084766895 0.021637045 0.11535975 -0.045592565 0.062377125 0.008591231
