Securite/Model2/Result_bfa/randbet_0.2_0.01_10_-1/checkpoint.pth.tar (torch, 404714 bytes, 25 tensors)

features.0.weight f4 [32, 3, 3, 3]
0.04533721 -0.10385164 0.18524855 0.00040475753 0.1979131 0.19732563 -0.184685 -0.08944681
0.09721822 -0.16107415 -0.18957296 0.17259075 -0.18958393 -0.13725804 0.18779752 -0.18372755
-0.17824689 0.062874034 -0.19056019 -0.180452 0.16709983 -0.18166043 0.15750454 0.18290722
-0.09120895 0.19657518 0.13619736 0.1968362 0.022983756 -0.16559839 0.19710633 -0.19527401
-0.17442271 0.16465993 -0.19923297 0.014853895 0.19696864 -0.18638963 -0.18070923 0.19346274
-0.19973446 -0.10678924 -0.08309399 -0.19999275 -0.1539159 0.0008681198 0.12811379 0.1586801
0.18666914 -0.1591473 0.17149988 -0.1824187 -0.18333471 0.18935989 0.1703717 -0.16235553
0.13616014 0.19337003 -0.084313326 0.18346274 -0.18927088 -0.105896324 -0.19392999 0.05676006
-0.18706441 -0.14593346 0.17837246 -0.16122171 0.18611003 -0.19151035 0.18467386 0.18714352
0.19678858 -0.16271463 -0.18439104 0.19661084 -0.059826408 0.05884014 0.0015021709 0.0860861
-0.16950607 0.18547992 0.18484686 0.1671189 0.18647404 0.043588236 -0.13765174 0.19705684
-0.12655799 -0.16086327 -0.16839738 -0.19033554 0.1473569 -0.14727879 -0.19749531 -0.19351661
0.19591655 -0.024507452 -0.13566431 -0.1621145 -0.15643623 -0.025926031 -0.17843139 -0.10125114
-0.10430612 0.1797727 0.13191865 0.07734775 0.0015881727 0.15943749 0.025743052 -0.19640705
-0.1967348 0.17185806 0.1086659 -0.18547735 0.18422516 0.12911329 0.032735538 -0.1721291
-0.19463931 -0.19853374 0.17942518 0.19395429 -0.1930432 0.15948552 0.18893641 0.16873908
-0.1360855 -0.091247626 -0.19103031 0.1282431 0.19404083 -0.1864257 -0.04665889 -0.12922798
0.18887384 -0.050852124 0.06612004 0.19776696 -0.19318877 -0.16201058 0.13541713 0.1531216
-0.055625837 0.18036404 -0.036296036 -0.09205873 0.19812417 -0.18946654 -0.13193038 -0.023491113
0.037745334 -0.023140049 0.19854236 0.18885222 -0.18488249 0.19894442 -0.18718559 -0.19392076
0.009433378 0.037747957 -0.17815846 -0.17473929 0.1727939 -0.13018458 -0.18819368 0.008918887
-0.099789344 -0.14603646 -0.18471566 0.029261429 -0.03525595 -0.031307258 0.15306012 0.09032849
0.1883643 -0.18715501 -0.03265808 -0.19538736 0.19540611 0.06995355 -0.13966338 0.19651191
0.19534075 0.19782348 0.09436456 0.1949148 0.018646806 0.17026997 0.01460022 -0.13352108
-0.024380716 -0.18650618 -0.19414279 -0.038200323 0.19264811 -0.12786573 -0.04228087 -0.06847528
0.19508092 -0.08531057 -0.051463112 0.07500785 0.011423377 0.19859427 0.19811666 0.09480677
-0.0977578 0.16898529 -0.11959107 -0.19083755 -0.08063094 -0.15388016 0.19135663 0.16301139
-0.11046783 -0.025821133 -0.06506314 -0.14214104 -0.029350968 -0.087176 0.005952941 -0.1949386
-0.14791633 0.19663534 0.19576675 0.19673777 0.19718556 0.19684845 0.19595966 0.1965274
0.1959002 0.19461636 -0.11426802 -0.19456306 -0.17754783 -0.1633434 -0.19939068 -0.17075568
-0.04726454 -0.19294704 0.041485194 0.16549064 0.08148903 -0.11453806 -0.19407003 0.19768731
0.1738469 -0.19729854 0.04656264 -0.17050444 0.17959784 -0.04385076 -0.18222044 -0.19267505
00000000: 83b3 393d 2bb0 d4bd ccb1 3d3e a335 d439
00000010: bba9 4a3e bb0f 4a3e 111e 3dbe e42f b7bd
00000020: 591a c73d 9ff0 24be 6a1f 42be a1bb 303e
00000030: 4a22 42be 5f8d 0cbe fe4d 403e 1323 3cbe
00000040: 5a86 36be 1ac4 803d 3622 43be 69c8 38be
00000050: 381c 2b3e 3105 3abe df48 213e 084c 3b3e
00000060: c2cb babd 014b 493e 5277 0b3e 6e8f 493e
00000070: 6e48 bc3c a092 29be 3ed6 493e e9f5 47be
00000080: de9b 32be 9d9c 283e ba03 4cbe c05d 733c
00000090: 26b2 493e ecdc 3ebe d70b 39be 191b 463e
000000a0: 3187 4cbe 51b4 dabd 2f2d aabd e6ca 4cbe
000000b0: 219c 1dbe 8992 633a 4330 033e 097d 223e
000000c0: 3226 3f3e 83f7 22be aa9d 2f3e f8cb 3abe
000000d0: 18bc 3bbe 8fe7 413e eb75 2e3e 8740 26be
000000e0: 906d 0b3e cb02 463e 77ac acbd a8dd 3b3e
000000f0: 3ad0 41be 2ce0 d8bd 9595 46be 3d7d 683d
00000100: d08d 3fbe 956f 15be 45a7 363e 4e17 25be
00000110: a193 3e3e 4a1b 44be 251b 3d3e 8da2 3f3e
00000120: f282 493e aa9e 26be 01d1 3cbe 5a54 493e
00000130: 890c 75bd 5c02 713d 7ee4 c43a e94d b03d
00000140: 0093 2dbe 73ee 3d3e 7f48 3d3e 3821 2b3e
00000150: 0df3 3e3e 9489 323d 94f4 0cbe 45c9 493e
00000160: 6b98 01be 57b9 24be 5d70 2cbe 52e7 42be
00000170: bae4 163e 40d0 16be 363c 4abe 3829 46be
00000180: 599e 483e dac3 c8bc 96eb 0abe 5801 26be
00000190: d230 20be d462 d4bc b8b6 36be c25c cfbd
000001a0: 729e d5bd 5616 383e af15 073e 7f68 9e3d
000001b0: 3c2a d03a 9543 233e 18e3 d23c ee1e 49be
000001c0: d974 49be 8ffb 2f3e 3a8c de3d c6ed 3dbe
000001d0: 85a5 3c3e 4636 043e b315 063d 9c42 30be
000001e0: 874f 47be 6e4c 4bbe 3cbb 373e f49b 463e
000001f0: 1ead 45be 2c50 233e 8c78 413e f0c9 2c3e
00000200: ff59 0bbe 09e0 babd 739d 43be 2952 033e
00000210: a4b2 463e 61e6 3ebe 641d 3fbd 5754 04be
00000220: 2568 413e 514a 50bd f269 873d 6c83 4a3e
00000230: 47d3 45be 1ae6 25be caaa 0a3e e9cb 1c3e
00000240: ebd7 63bd 5ab1 383e 27ab 14bd 4a89 bcbd
00000250: 10e1 4a3e 8403 42be c218 07be 6f70 c0bc
00000260: da9a 1a3d 3390 bdbc b04e 4b3e 7a62 413e
00000270: d651 3dbe 16b8 4b3e 94ad 3fbe 2a93 46be
00000280: 758e 1a3c 9a9d 1a3d 2c6f 36be dbee 32be
00000290: e2f0 303e 1b4f 05be d8b5 40be 8620 123c
000002a0: 5b5e ccbd 958a 15be 1a26 3dbe aab5 ef3c
000002b0: 8b68 10bd 0a3c 00bd cbbb 1c3e 25fe b83d
000002c0: 92e2 403e 90a5 3fbe 7bc4 05bd a013 48be
000002d0: 8a18 483e cf43 8f3d eb03 0fbe 6b3a 493e
000002e0: 6807 483e 3d92 4a3e 3542 c13d bf97 473e
000002f0: 30c1 983c 405b 2e3e c335 6f3c c0b9 08be
00000300: 11ba c7bc 7afb 3ebe 5ecd 46be f177 1cbd
00000310: 8c45 453e 3cef 02be b52e 2dbd c53c 8cbd
00000320: 4bc3 473e 4fb7 aebd fcca 52bd b79d 993d
00000330: 1e29 3b3c 4c5c 4b3e 18df 4a3e 0d2a c23d
00000340: 3e35 c8bd 7b0a 2d3e 2aec f4bd eb6a 43be
00000350: d621 a5bd c392 1dbe fef2 433e 75ec 263e
00000360: f53c e2bd d786 d3bc d33f 85bd 6c8d 11be
00000370: 7171 f0bc 5589 b2bd e310 c33b fc9d 47be
00000380: 6177 17be c65a 493e 1477 483e a075 493e
00000390: 03eb 493e a492 493e a6a9 483e 7b3e 493e
000003a0: 109a 483e 8349 473e 5a05 eabd 8a3b 47be
000003b0: 19cf 35be 7e43 27be 122d 4cbe 94da 2ebe
000003c0: 7698 41bd e993 45be 61ec 293d 6176 293e
000003d0: b8e3 a63d ee92 eabd 4bba 46be 8b6e 4a3e
000003e0: ec04 323e a108 4abe 78b8 3e3d b798 2ebe
000003f0: 7fe8 373e db9c 33bd ff97 3abe 9c4c 45be

features.0.bias f4 [32]
-0.20184115 -0.539516 0.25886744 -0.3994116 0.17112745 -0.009907187 -0.102489755 0.25141758
0.039112948 0.23902664 -0.24260244 -0.50176406 0.117865995 -0.2898247 0.13911481 0.09208237
-0.24724807 -0.5794474 0.12864417 0.18505222 -0.43379316 0.17191714 0.1740883 -0.06004417
0.08115774 0.03942678 -0.5874103 0.1861003 -0.59276503 0.24394774 -0.4235534 0.088473454
00000000: 72af 4ebe b81d 0abf 468a 843e ad7f ccbe
00000010: 093c 2f3e c151 22bc 26e6 d1bd ceb9 803e
00000020: e634 203d 66c3 743e c66c 78be 9c73 00bf
00000030: ba63 f13d e763 94be 1d74 0e3e ae95 bc3d
00000040: 992e 7dbe aa56 14bf 4cbb 033e 547e 3d3e
00000050: 231a debe 0c0b 303e 3444 323e e0f0 75bd
00000060: 0736 a63d fa7d 213d 8560 16bf 1491 3e3e
00000070: 73bf 17bf 70cd 793e fedb d8be 9231 b53d

features.0.b_w f4 [8, 1]
-128.0 64.0 32.0 16.0 8.0 4.0 2.0 1.0
00000000: 0000 00c3 0000 8042 0000 0042 0000 8041
00000010: 0000 0041 0000 8040 0000 0040 0000 803f

features.2.weight f4 [32, 32, 3, 3]
-0.09311526 -0.035007015 0.078008376 0.00029961648 -0.04907879 0.037544813 -0.024712255 -0.09780605
-0.04244747 0.14449066 -0.027270366 -0.025193831 0.12311553 0.032101564 0.011525506 0.0023103617
-0.04324724 -0.096660264 -0.18681145 -0.17391519 -0.017333804 0.009081988 -0.1162576 -0.11019575
0.118454374 0.05616175 0.029776905 0.05365006 0.023750287 -0.1523943 0.028077746 0.1637718
0.01940162 -0.07551693 0.0034713333 0.14853826 0.006002218 0.077528745 0.014623682 -0.13740648
-0.059923436 0.18812338 -0.06232633 -0.10551991 -0.012931352 -0.06174622 -0.111023545 0.07918596
-0.0013379207 -0.022202963 -0.022159813 0.0039473255 0.07596022 0.002960993 0.001512735 0.120293364
0.18895103 -0.073818155 -0.032894336 0.04006361 -0.012300842 -0.10993169 -0.053204864 0.014896089
-0.03819841 -0.05409417 0.009267392 0.0060732407 -0.09701586 -0.009136505 0.06435095 0.034281302
0.09474597 0.004628349 -0.009954755 0.0743198 -0.0022267066 -0.1213405 0.1996412 0.046910785
-0.124805294 -0.101282604 -0.0654404 -0.05534507 -0.050127696 -0.057200108 -0.004837683 0.13544393
0.05434943 0.026846526 -0.12738104 -0.0097009 -0.01354752 -0.07289815 -0.03599988 -0.041273326
-0.019379606 -0.067919776 -0.08216459 -0.07594901 -0.12819913 -0.15541719 0.059819974 0.10697499
-0.10185973 0.012120171 0.1315845 0.08413876 -0.12476166 -0.13193297 0.034553222 0.07173776
0.071288295 0.037706792 -0.031563472 0.011744428 0.15600224 0.08283739 0.07145182 0.0672533
0.026060458 0.0643646 0.061393067 -0.119396105 -0.122474276 -0.047932804 -0.05177379 -0.0005321969
-0.10720919 -0.109007865 0.078341715 0.07788753 -0.031146074 -0.022719946 0.01085574 -0.0315542
-0.15089245 -0.07818274 0.07028872 0.034058977 -0.06704037 0.19765252 0.11477051 0.041001543
0.15650994 0.11780245 -0.06902216 -0.053352218 0.12330143 0.0059635034 -0.17330623 -0.049117766
-0.09221377 -0.0822877 -0.093232445 -0.04356746 -0.049802992 -0.12816927 -0.097603105 -0.112492725
-0.04610966 -0.05090087 0.0052201366 0.02486615 -0.011511533 -0.008799504 0.0299274 0.04279741
-0.034141768 -0.04530566 -0.045980126 0.05487473 0.034826882 0.072523154 0.03670299 0.036090005
0.06924998 -0.06461949 -0.07957649 0.010486715 0.162415 0.023900423 -0.117195584 0.012614547
0.009265599 -0.028470395 -0.0376753 -0.12599792 -0.0480865 -0.0014419683 -0.0699978 -0.056553025
0.011889221 0.07191573 0.05003395 -0.039061412 -0.061853483 0.16753638 -0.043374974 -0.11715948
-0.025673823 0.07098701 -0.039552733 -0.11512115 0.045642696 0.027037952 -0.030720029 -0.0046742004
-0.034207705 -0.1174737 -0.11396985 0.09802938 0.09430852 -0.035107557 -0.0031159343 0.08869642
0.06013588 0.16387834 0.07315879 -0.114869185 -0.00060057215 0.117784806 -0.07137016 -0.17229466
-0.06381126 0.058168933 -0.052155346 -0.019285506 -0.05787319 0.09953378 0.045255534 -0.10119906
-0.09463313 0.18020843 -0.048610907 -0.051541045 0.008513473 -0.061516244 -0.08642802 -0.048040453
-0.16956979 -0.1385282 -0.15080641 -0.07798398 0.09924336 0.083744116 -0.08944576 -0.019922012
-0.00047715113 0.015798252 -0.028042478 -0.05029386 0.024417542 0.10382442 0.039321642 0.008442819
00000000: 37b3 bebd 8463 0fbd dbc2 9f3d d815 9d39
00000010: d706 49bd 97c8 193d 5b71 cabc 8a4e c8bd
00000020: 66dd 2dbd 5cf5 133e 1a66 dfbc 4b63 cebc
00000030: ff23 fc3d ee7c 033d 7ad5 3c3c 7069 173b
00000040: 0524 31bd d1f5 c5bd 804b 3fbe d316 32be
00000050: 9fff 8dbc 9ecc 143c 7718 eebd 4fae e1bd
00000060: 3598 f23d dd09 663d b2ee f33c 2ac0 5b3d
00000070: f68f c23c 400d 1cbe 4d03 e63c cbb3 273e
00000080: 25f0 9e3c 9fa8 9abd 4f7f 633b 6a1a 183e
00000090: 41ae c43b 64c7 9e3d 2b98 6f3c 49b4 0cbe
000000a0: 4772 75bd 6aa3 403e e549 7fbd d31a d8bd
000000b0: 05de 53bc 9be9 7cbd 5060 e3bd 402c a23d
000000c0: 2b5d afba fde2 b5bc 7f88 b5bc 9158 813b
000000d0: 0891 9b3d 380d 423b f746 c63a 5e5c f63d
000000e0: 617c 413e f92d 97bd 36bc 06bd bd19 243d
000000f0: 7989 49bc de23 e1bd 58ed 59bd ba0e 743c
00000100: f075 1cbd d991 5dbd 42d6 173c 0902 c73b
00000110: 40b0 c6bd 48b1 15bc 6eca 833d 8d6a 0c3d
00000120: 2d0a c23d 68a9 973b 4519 23bc fb34 983d
00000130: f0ed 11bb 5e81 f8bd be6e 4c3e 8625 403d
00000140: eb99 ffbd 416d cfbd 9e05 86bd 83b1 62bd
00000150: b352 4dbd a94a 6abd 6d85 9ebb d0b1 0a3e
00000160: 829d 5e3d 3fed db3c 2d70 02be 86f0 1ebc
00000170: 6bf6 5dbc a04b 95bd 9c74 13bd 380e 29bd
00000180: fbc1 9ebc 8619 8bbd e945 a8bd 288b 9bbd
00000190: a246 03be af25 1fbe ca05 753d b415 db3d
000001a0: d69b d0bd af93 463c 16be 063e f150 ac3d
000001b0: 0b83 ffbd 7019 07be ae87 0d3d 3feb 923d
000001c0: 99ff 913d 7072 1a3d b348 01bd b46b 403c
000001d0: 0dbf 1f3e a6a6 a93d 5555 923d 19bc 893d
000001e0: be7c d53c 96d1 833d 4c77 7b3d f285 f4bd
000001f0: cbd3 fabd 3055 44bd c110 54bd 2183 0bba
00000200: 7e90 dbbd 843f dfbd 9f71 a03d 7f83 9f3d
00000210: 0d26 ffbc 2e1f babc 46dc 313c fa3e 01bd
00000220: 8d83 1abe 461e a0bd 88f3 8f3d 6d81 0b3d
00000230: 764c 89bd 6c65 4a3e cd0c eb3d 3cf1 273d
00000240: 2444 203e 6942 f13d 7d5b 8dbd db87 5abd
00000250: 7685 fc3d 7e69 c33b 3077 31be b62f 49bd
00000260: 93da bcbd 7486 a8bd a7f0 bebd cb73 32bd
00000270: 39fe 4bbd ce3e 03be 23e4 c7bd 9662 e6bd
00000280: 7cdd 3cbd 6e7d 50bd ae0d ab3b 19b4 cb3c
00000290: de9a 3cbc cb2b 10bc 4f2a f53c 564c 2f3d
000002a0: 3dd8 0bbd 6e92 39bd a855 3cbd 53c4 603d
000002b0: a2a6 0e3d 0587 943d e055 163d 1dd3 133d
000002c0: efd2 8d3d 3957 84bd 00f9 a2bd 78d0 2b3c
000002d0: 1e50 263e d2ca c33c 3d04 f0bd 3fad 4e3c
000002e0: bdce 173c bf3a e9bc 6a51 1abd 9905 01be
000002f0: 5af6 44bd 6d00 bdba 025b 8fbd 25a4 67bd
00000300: 02cb 423c 8e48 933d 66f0 4c3d dcfe 1fbd
00000310: 145a 7dbd a88e 2b3e f5a9 31bd 4ff1 efbd
00000320: e951 d2bc a361 913d 0c02 22bd a3c4 ebbd
00000330: d6f3 3a3d b27e dd3c 92a8 fbbc 092a 99bb
00000340: 611d 0cbd 0d96 f0bd 0669 e9bd a1c3 c83d
00000350: d324 c13d f1cc 0fbd b434 4cbb 78a6 b53d
00000360: 0a51 763d b9cf 273e 47d4 953d 8940 ebbd
00000370: b76f 1dba 2939 f13d 852a 92bd 036e 30be
00000380: 7aaf 82bd 8c42 6e3d d8a0 55bd a3fc 9dbc
00000390: 700c 6dbd 5ed8 cb3d de5d 393d 7441 cfbd
000003a0: 04cf c1bd 8f88 383e 3b1c 47bd b41c 53bd
000003b0: 187c 0b3c 75f8 7bbd 2c01 b1bd 11c6 44bd
000003c0: b4a3 2dbe 56da 0dbe ff6c 1abe 11b6 9fbd
000003d0: 1a40 cb3d 0982 ab3d 572f b7bd 7d33 a3bc
000003e0: 242a fab9 566b 813c 57b9 e5bc ef00 4ebd
000003f0: 4c07 c83c e6a1 d43d bb0f 213d c053 0a3c

features.2.bias f4 [32]
-0.28339437 0.142136 0.01670669 0.18787915 -0.13081418 0.06758864 0.09154976 -0.092533514
0.24691916 -0.072119474 -0.20058697 0.024936978 -0.044542797 0.07955801 -0.04660317 0.023383472
-0.015962362 0.0679418 0.09699361 0.053725865 0.047387064 0.12152749 -0.051938716 0.044451516
0.21450455 0.17896786 -0.04759452 -0.11428802 0.09977879 -0.09967676 -0.17962307 -0.109012306
00000000: 1119 91be 198c 113e 78dc 883c 6463 403e
00000010: 27f4 05be ea6b 8a3d 717e bb3d 3682 bdbd
00000020: 60d8 7c3e 60b3 93bd ac66 4dbe a248 cc3c
00000030: 8272 36bd 4fef a23d f7e2 3ebd b28e bf3c
00000040: 80c3 82bc 1225 8b3d 96a4 c63d a70f 5c3d
00000050: f018 423d 68e3 f83d b1bd 54bd cb12 363d
00000060: 15a7 5b3e 5a43 373e 79f2 42bd d60f eabd
00000070: d258 cc3d 5423 ccbd 1cef 37be d841 dfbd

features.2.b_w f4 [8, 1]
-128.0 64.0 32.0 16.0 8.0 4.0 2.0 1.0
00000000: 0000 00c3 0000 8042 0000 0042 0000 8041
00000010: 0000 0041 0000 8040 0000 0040 0000 803f

features.6.weight f4 [32, 32, 3, 3]
-0.066507444 -0.13213864 0.08548029 -0.023585364 -0.15821303 0.07503685 0.05880225 -0.103889465
0.13691173 -0.16278055 -0.18834 -0.08436007 -0.13146597 -0.19450532 -0.115378484 -0.103414714
-0.17894293 -0.101123236 0.054971877 -0.025758298 0.06709793 0.023503438 -0.16865411 -0.12699069
-0.021805659 -0.17782907 -0.10362289 -0.10884268 -0.0031122945 0.006895242 -0.0351983 -0.09809397
0.010598924 -0.0510295 -0.14912441 -0.049672566 0.08716959 -0.034262825 0.0385876 -0.011505081
-0.113452636 -0.007784973 0.063363396 -0.052447237 0.1089208 -0.023967408 0.053315494 0.049641985
0.0074848114 0.013653491 0.118224435 0.0062998924 -0.05533631 0.018804768 -0.07187786 0.023005335
-0.025416192 0.04368457 -0.011022933 0.038673162 0.04667026 -0.010331553 0.016963711 -0.03099675
-0.0028648688 0.0646372 -0.12505545 -0.17863269 -0.0601333 -0.07152502 -0.14133216 -0.04786648
0.031458806 -0.02577729 0.07995956 -0.020455625 0.0090431385 0.13048713 -0.08609137 -0.06158857
0.06877172 0.081089236 -0.020752257 -0.040836647 0.108084746 -0.18630569 -0.037961174 0.02973947
-0.0948132 0.03441301 -0.087098375 -0.084769264 0.15060364 -0.10733285 -0.1227834 0.06090699
-0.0021830888 -0.038844157 0.083563745 -0.092484005 -0.04351231 0.028973999 -0.13537906 -0.043696593
0.09035824 -0.049851038 0.0469925 0.058036126 -0.08383246 -0.07385064 0.02832282 -0.10068202
-0.057062592 0.037529647 -0.033162676 -0.0212413 0.017183237 -4.0915565e-05 0.038644925 0.0117419455
0.043310307 0.068256795 0.12505643 0.15490977 0.089446135 0.10073868 -0.0061030104 -0.006726431
-0.040093575 -0.08152472 -0.06588536 -0.020591967 -0.049363296 -0.01799314 0.015404276 -0.03392605
0.0058014668 -0.07532028 -0.0706573 0.012911918 -0.043353252 -0.0012870913 0.049374364 -0.016491724
-0.1242123 -0.11339619 0.11848626 -0.1077521 -0.19440588 -0.027876714 0.015935913 -0.049215328
0.07825047 -0.040997107 0.12661591 0.098954104 -0.07012113 -0.025723936 0.09221782 -0.13416922
0.030095072 0.11961909 -0.051525444 -0.0773242 -0.01983835 0.043504026 0.085607864 0.11188173
-0.12094366 -0.013276239 -0.04369207 0.054346908 -0.06991254 -0.101418965 0.015769195 -0.026929041
-0.13371946 0.052396532 0.10485906 -0.082458496 -0.025216142 -0.11363001 0.013931711 -0.02667203
-0.14177915 0.012310114 -0.07712586 -0.06967382 0.028412227 0.03249935 0.094017275 0.012502026
0.003319349 0.035845384 -0.06844994 0.10438014 -0.06684883 -0.10319605 -0.16492608 -0.04682565
-0.0020429695 -0.007671444 0.033985443 0.13503906 -0.14931092 -0.02377133 0.061548732 -0.12646902
-0.13938174 -0.0076484694 -0.15924895 -0.19614789 -0.018479565 0.07572665 -0.030460507 0.12700188
-0.0719715 -0.036564704 0.020855034 0.009792306 0.022605468 0.082709864 0.08324061 0.023841364
0.0072768624 -0.13084252 -0.14915943 -0.00014354331 -0.1953156 -0.19974749 -0.13183478 0.04530432
-0.033863697 0.02269601 -0.008674865 0.11609487 0.10885768 -0.114454016 0.052738097 0.04493513
-0.088414095 0.05463314 0.03671435 0.014698184 -0.19296212 -0.04710409 0.014803394 -0.16102077
-0.04534765 0.08784578 0.057933524 0.0012809811 0.020336753 -0.10141738 -0.016335782 0.060966462
00000000: 0e35 88bd 5a4f 07be 4a10 af3d 1836 c1bc
00000010: 9902 22be ecac 993d a1da 703d 00c4 d4bd
00000020: 9732 0c3e f2af 26be 33dc 40be f9c4 acbd
00000030: 049f 06be 672c 47be 8e4b ecbd 18cb d3bd
00000040: d13c 37be b319 cfbd 312a 613d 1103 d3bc
00000050: a46a 893d 488a c03c aab3 2cbe d909 02be
00000060: c8a1 b2bc d318 36be 3d38 d4bd e9e8 debd
00000070: a3f7 4bbb 7bf1 e13b 182c 10bd 7ee5 c8bd
00000080: 1ca7 2d3c 4f04 51bd 12b4 18be 7675 4bbd
00000090: f885 b23d 2d57 0cbd 080e 1e3d cf7f 3cbc
000000a0: db59 e8bd 1619 ffbb abc4 813d ead2 56bd
000000b0: de11 df3d 4c57 c4bc 5961 5a3d 6555 4b3d
000000c0: 2643 f53b e4b2 5f3c a71f f23d 546f ce3b
000000d0: 54a8 62bd 750c 9a3c b334 93bd af75 bc3c
000000e0: 9e35 d0bc 97ee 323d 8899 34bc c067 1e3d
000000f0: 5129 3f3d ad45 29bc 7bf7 8a3c e5ec fdbc
00000100: 86c0 3bbb 8260 843d 890e 00be 7deb 36be
00000110: 564e 76bd b67b 92bd 61b9 10be a40f 44bd
00000120: f3da 003d e52a d3bc d6c1 a33d 8e92 a7bc
00000130: ac29 143c 6b9e 053e ac50 b0bd 4c44 7cbd
00000140: 30d8 8c3d 1d12 a63d a300 aabc 5444 27bd
00000150: 895b dd3d ebc6 3ebe 2d7d 1bbd 30a0 f33c
00000160: 6c2d c2bd a8f4 0c3d a260 b2bd 829b adbd
00000170: d737 1a3e 53d1 dbbd dd75 fbbd 9c79 793d
00000180: 2712 0fbb 0d1b 1fbd 7823 ab3d 4168 bdbd
00000190: f739 32bd e15a ed3c cfa0 0abe 33fb 32bd
000001a0: be0d b93d 9a30 4cbd 357b 403d 4ab7 6d3d
000001b0: 5ab0 abbd 013f 97bd 4205 e83c 6032 cebd
000001c0: 77ba 69bd b0b8 193d 96d5 07bd 3c02 aebc
000001d0: dcc3 8c3c c19c 2bb8 244a 1e3d 4a61 403c
000001e0: 2666 313d 38ca 8b3d cb0e 003e aba0 1e3e
000001f0: 892f b73d 1550 ce3d c3fb c7bb 6569 dcbb
00000200: 2939 24bd 6ff6 a6bd e7ee 86bd 7cb0 a8bc
00000210: 2b31 4abd 5966 93bc 3762 7c3c 0bf6 0abd
00000220: 3b1a be3b 8541 9abd c6b4 90bd 828c 533c
00000230: 2e93 31bd 9eb3 a8ba c63c 4a3d a719 87bc
00000240: 0563 febd 433c e8bd eda8 f23d 22ad dcbd
00000250: 5612 47be b55d e4bc 088c 823c 0396 49bd
00000260: c841 a03d 95ec 27bd 9aa7 013e 73a8 ca3d
00000270: ab9b 8fbd 01bb d2bc b2dc bc3d a863 09be
00000280: f189 f63c dafa f43d 580c 53bd 265c 9ebd
00000290: 0984 a2bc 4731 323d 2d53 af3d 4022 e53d
000002a0: 4fb1 f7bd 9584 59bc 75f6 32bd dd9a 5e3d
000002b0: 4e2e 8fbd bfb4 cfbd 662e 813c 4b9a dcbc
000002c0: c1ed 08be bf9d 563d 59c0 d63d 00e0 a8bd
000002d0: 1592 cebc dab6 e8bd d541 643c 4d7f dabc
000002e0: 8e2e 11be 5cb0 493c 2af4 9dbd 26b1 8ebd
000002f0: c2c0 e83c 0a1e 053d 218c c03d 4cd5 4c3c
00000300: 6f89 593b 9cd2 123d 7b2f 8cbd 41c5 d53d
00000310: 0ae8 88bd 7358 d3bd 62e2 28be 41cc 3fbd
00000320: 57e3 05bb bd60 fbbb 5234 0b3d ae47 0a3e
00000330: f6e4 18be 18bc c2bc 861a 7c3d 1881 01be
00000340: 16ba 0ebe 03a0 fabb 2812 23be feda 48be
00000350: 7562 97bc 9316 9b3d 5088 f9bc c80c 023e
00000360: cb65 93bd dfc4 15bd 2dd8 aa3c e96f 203c
00000370: 1a2f b93c ca63 a93d 0e7a aa3d f74e c33c
00000380: bf72 ee3b 95fb 05be 40bd 18be 1d84 16b9
00000390: d000 48be 9b8a 4cbe b2ff 06be 0691 393d
000003a0: a9b4 0abd fcec b93c 0521 0ebc 26c3 ed3d
000003b0: c6f0 de3d de66 eabd e703 583d e60d 383d
000003c0: 7312 b5bd 00c7 5f3d c961 163d a7d0 703c
000003d0: dd97 45be 38f0 40bd ef89 723c a1e2 24be
000003e0: 75be 39bd 7de8 b33d b44b 6d3d 98e6 a73a
000003f0: 4399 a63c eab3 cfbd 9ed2 85bc f8b7 793d

features.6.bias f4 [32]
0.25975564 0.16695936 0.50154555 0.33483863 0.45706204 0.06334791 0.52819246 -0.0148929935
0.07510531 0.16244389 0.5594643 -0.3044747 0.06818554 0.5900118 0.52062106 0.15763256
0.039783724 0.41043794 0.5376373 0.046211783 -0.15783195 0.5327452 -0.4217055 0.1693785
0.42422372 -0.04888462 0.20245963 0.3353768 -0.024480946 0.43865 0.30227298 0.19071864
00000000: b1fe 843e 65f7 2a3e 4a65 003f f86f ab3e
00000010: 0904 ea3e 8dbc 813d 9f37 073f be01 74bc
00000020: d0d0 993d b157 263e 0d39 0f3f 1ce4 9bbe
00000030: dca4 8b3d 030b 173f 6c47 053f 6e6a 213e
00000040: 42f4 223d ec24 d23e 99a2 093f 9148 3d3d
00000050: b39e 21be fd61 083f c9e9 d7be 8f71 2d3e
00000060: da33 d93e 3d3b 48bd 9451 4f3e 82b6 ab3e
00000070: 448c c8bc bc96 e03e 86c3 9a3e bf4b 433e

features.6.b_w f4 [8, 1]
-128.0 64.0 32.0 16.0 8.0 4.0 2.0 1.0
00000000: 0000 00c3 0000 8042 0000 0042 0000 8041
00000010: 0000 0041 0000 8040 0000 0040 0000 803f

features.8.weight f4 [32, 32, 3, 3]
0.058946785 0.022637343 -0.16067594 0.07201376 0.07778162 0.051560804 0.021593204 0.06455962
0.078906685 -0.13814588 -0.05462277 -0.13374451 -0.09101027 -0.08401839 -0.07402458 -0.09336226
-0.01806318 -0.021704668 0.101221316 0.08871308 -0.12735216 0.12734184 0.09345582 -0.07694086
0.07512559 0.109514855 0.054971907 -0.1971063 -0.07492898 0.10445312 -0.20001768 -0.11412778
0.1676851 -0.13207862 0.004879436 -0.043375112 0.10313433 0.045091886 -0.072870925 0.0777755
0.09979089 0.027666412 0.017041173 0.07960139 0.013512597 -0.030452304 -0.10109477 -0.042644657
-0.010651544 -0.03379178 -0.10172623 0.018316397 -0.0040055257 -0.06266346 -0.0535619 -0.0032428824
-0.13676004 0.0020094567 0.17890215 0.023033092 0.13640463 0.08856972 -0.056627452 -0.045616943
0.09523783 0.07057659 -0.12519921 -0.14849329 -0.1958553 -0.12970187 -0.17937092 -0.18128556
0.05255255 0.06507342 0.0030968916 0.025542391 0.028973727 -0.031539094 0.036345817 -0.13487875
-0.17276493 0.036860555 0.07510751 0.03145799 -0.018832263 0.06420357 0.1673661 0.023980673
0.05135858 0.043144077 0.035060473 -0.01152728 -0.032387063 0.009601391 0.043926843 0.123676784
0.029784381 0.06547041 0.053161338 0.064102456 0.029282203 0.16215268 -0.105903536 -0.03489382
0.06401087 -0.045366425 0.018783437 0.08391546 -0.10158595 -0.048272386 0.03479486 -0.103995554
-0.047272913 -0.11316232 -0.08613572 -0.13930732 -0.1490334 -0.06535367 -0.027167514 -0.19822112
0.09155504 -0.007547699 -0.15364902 0.062308647 0.053825174 -0.13192566 -0.03384213 -0.12024146
-0.19093853 0.0831901 0.012086811 -0.0011209295 -0.0024305321 -0.029731868 -0.03164638 0.031054744
-0.09244855 -0.100529775 0.0075523425 -0.009424022 -0.028354784 -0.012650735 -0.03762836 -0.13951875
-0.038188454 0.010937853 -0.11776782 -0.03346101 -0.026855083 -0.07189245 -0.09457723 -0.08146299
-0.058926515 0.005325167 -0.02477372 -0.059492446 -0.04546518 0.029157529 -0.06332564 -0.008436708
0.07110415 0.0013230371 -0.061440684 0.010840882 -0.033456046 0.034558862 0.10139729 0.054367125
-0.010473964 -0.022401234 -0.056158077 0.0022619679 0.009777581 0.0067046373 -0.037464995 -0.06067295
-0.099388264 -0.037490807 -0.09739121 -0.19733189 -0.047711052 -0.023561433 0.033216257 -0.041972604
-0.066186614 -0.008426314 -0.054540183 -0.10806546 -0.021731952 0.010028392 -0.042231627 -0.027247742
-0.014155938 0.08095473 -0.00043589316 0.032665484 0.13968419 0.06748539 -0.050417773 -0.047006857
0.0037969917 -0.052013326 0.027026545 -0.08918408 -0.025593482 -0.024427207 -0.040893614 0.083178066
0.03255859 0.03414908 -0.0002644212 0.13537088 0.029967302 -0.02485989 -0.05652711 -0.027731122
-0.033091046 -0.09012242 -0.18130535 0.038371105 0.043184366 0.0145205455 0.005533082 0.08384415
0.11679876 -0.04522651 0.1776012 0.1436778 -0.14818043 0.16828856 0.19671378 -0.1952735
-0.12049861 -0.022604506 0.022906408 -0.024415474 -0.09212426 0.014666675 0.01807858 0.02058319
0.0045433855 -0.10286262 0.0040529454 -0.057083443 0.09476503 0.026978891 0.021760868 0.027463472
-0.03382114 -0.035939865 -0.034541067 -0.06673783 -0.11465115 -0.068381086 -0.007710502 -0.040877886
00000000: 2f72 713d f371 b93c 3c88 24be f37b 933d
00000010: f84b 9f3d 6c31 533d 3be4 b03c d637 843d
00000020: d499 a13d 1d76 0dbe 20bc 5fbd 52f4 08be
00000030: 9863 babd d511 acbd 339a 97bd b634 bfbd
00000040: 3cf9 93bc fdcd b1bc 1f4d cf3d 34af b53d
00000050: 9b68 02be e665 023e c465 bf3d 2b93 9dbd
00000060: 72db 993d 5349 e03d 392a 613d 3cd6 49be
00000070: 5d74 99bd 84eb d53d 6fd1 4cbe d3bb e9bd
00000080: a5b5 2b3e 9e3f 07be ade3 9f3b 1aaa 31bd
00000090: 1738 d33d 45b2 383d 5a3d 95bd c348 9f3d
000000a0: 2b5f cc3d aca4 e23c ee99 8b3c 0e06 a33d
000000b0: f163 5d3c 1c77 f9bc c60a cfbd 2aac 2ebd
000000c0: d083 2ebc 4069 0abd d755 d0bd 450c 963c
000000d0: c940 83bb b355 80bd b963 5bbd 8a86 54bb
000000e0: d30a 0cbe 17b1 033b 2032 373e e5af bc3c
000000f0: a8ad 0b3e 0b64 b53d 30f2 67bd d5d8 3abd
00000100: 0d0c c33d 768a 903d 3934 00be a00e 18be
00000110: 4b8e 48be 91d0 04be 03ad 37be eca2 39be
00000120: 5841 573d 3745 853d 38f5 4a3b 473e d13c
00000130: 4f5a ed3c 232f 01bd 5adf 143d a81d 0abe
00000140: 4ae9 30be 18fb 163d f7d1 993d 18da 003d
00000150: 1e46 9abc 297d 833d 0562 2b3e 1e73 c43c
00000160: 605d 523d d8b7 303d 929b 0f3d ebdc 3cbc
00000170: 4ca8 04bd 274f 1d3c a2ec 333d 414a fd3d
00000180: 60fe f33c 5a15 863d b4bf 593d 2648 833d
00000190: 3be1 ef3c 5a0b 263e f4e3 d8bd d2ec 0ebd
000001a0: 2218 833d 25d2 39bd b9df 993c dedb ab3d
000001b0: 4b0c d0bd 44b9 45bd 0e85 0e3d 9ffb d4bd
000001c0: 3ea1 41bd a5c1 e7bd ed67 b0bd 94a6 0ebe
000001d0: 369c 18be 25d8 85bd 688e debc 7afa 4abe
000001e0: 3581 bb3d b052 f7bb 2b56 1dbe 5a37 7f3d
000001f0: c977 5c3d 8517 07be 0c9e 0abd 2841 f6bd
00000200: 6485 43be 925f aa3d c207 463c 27ec 92ba
00000210: 9049 1fbb 3f90 f3bc a29f 01bd 8566 fe3c
00000220: aa55 bdbd 8ee2 cdbd a479 f73b 3767 1abc
00000230: 4b48 e8bc 0745 4fbc 3220 1abd 01de 0ebe
00000240: 7f6b 1cbd ae34 333c 4130 f1bd 690e 09bd
00000250: 31ff dbbc 593c 93bd b5b1 c1bd 11d6 a6bd
00000260: ee5c 71bd bd7e ae3b 42f2 cabc 5aae 73bd
00000270: b239 3abd c5db ee3c e0b0 81bd 1e3a 0abc
00000280: 0d9f 913d c269 ad3a 3aa9 7bbd f49d 313c
00000290: 3509 09bd 988d 0d3d 62a9 cf3d 10b0 5e3d
000002a0: fd9a 2bbc cb82 b7bc 0306 66bd 863d 143b
000002b0: 2632 203c 93b2 db3b e574 19bd 3384 78bd
000002c0: 138c cbbd f68f 19bd 0b75 c7bd 5f11 4abe
000002d0: aa6c 43bd e803 c1bc c50d 083d 77eb 2bbd
000002e0: d98c 87bd 860e 0abc 8765 5fbd 6d51 ddbd
000002f0: 3507 b2bc 204e 243c 12fb 2cbd a836 dfbc
00000300: 4fee 67bc 98cb a53d 9788 e4b9 3ecc 053d
00000310: 5f09 0f3e c835 8a3d de82 4ebd 438a 40bd
00000320: f3d6 783b ed0b 55bd c666 dd3c 25a6 b6bd
00000330: 6ca9 d1bc 911b c8bc 1080 27bd 4359 aa3d
00000340: 285c 053d e8df 0b3d 03a2 8ab9 aa9e 0a3e
00000350: fd7d f53c f8a6 cbbc f988 67bd 612c e3bc
00000360: 7a8a 07bd 1a92 b8bd 1ca8 39be 052b 1d3d
00000370: 17e2 303d 95e7 6d3c db4e b53b 7bb6 ab3d
00000380: 3034 ef3d 6f3f 39bd 17dd 353e 4620 133e
00000390: 9cbc 17be d653 2c3e 566f 493e c7f5 47be
000003a0: fac7 f6bd 162d b9bc 38a6 bb3c f602 c8bc
000003b0: a5ab bcbd 7e4c 703c 8819 943c 149e a83c
000003c0: aee0 943b a3a9 d2bd 92ce 843b 54d0 69bd
000003d0: 2b14 c23d d602 dd3c d943 b23c 13fb e03c
000003e0: 0988 0abd ae35 13bd ef7a 0dbd d8ad 88bd
000003f0: 39ce eabd 620b 8cbd 61a8 fcbb 926f 27bd

features.8.bias f4 [32]
0.03687942 0.48801753 -0.00075330137 -0.25179738 0.05063985 0.028111784 0.21472022 0.4899059
0.32732898 0.047208846 -0.034506653 0.22238627 0.38615364 0.037793875 0.6866381 0.32812628
0.2680056 0.014280333 0.24905586 0.3525748 0.64154 0.28417662 0.42048308 0.32061118
0.23574926 0.20299636 0.36634412 0.13217002 0.31993452 0.19199976 0.17361794 0.1677731
00000000: e00e 173d 6fdd f93e 3379 45ba 96eb 80be
00000010: bb6b 4f3d af4a e63c 9edf 5b3e f2d4 fa3e
00000020: aa97 a73e 105e 413d d956 0dbd 3ab9 633e
00000030: eeb5 c53e c0cd 1a3d 84c7 2f3f 2b00 a83e
00000040: 0838 893e 0ff8 693c 8008 7f3e af84 b43e
00000050: f73b 243f 997f 913e 8f49 d73e 2627 a43e
00000060: 4168 713e 47de 4f3e 7591 bb3e 9457 073e
00000070: 75ce a33e 969b 443e e7c8 313e b6cc 2b3e

features.8.b_w f4 [8, 1]
-128.0 64.0 32.0 16.0 8.0 4.0 2.0 1.0
00000000: 0000 00c3 0000 8042 0000 0042 0000 8041
00000010: 0000 0041 0000 8040 0000 0040 0000 803f

classifier.0.weight f4 [10, 2048]
0.013846428 -0.00950575 -0.035201743 0.022741107 0.043115288 -0.010072415 0.013289277 0.016725965
0.03172037 -0.00045298543 0.03237497 0.066926815 0.06750707 0.012747391 -0.054502394 0.00050038885
0.061625335 0.043887533 0.0566076 0.07810395 0.06561175 0.018202268 -0.062278315 0.010740181
0.09212878 0.10986497 0.07928584 0.08658436 0.049283214 -0.023999967 -0.024294041 -0.035347074
0.100524634 0.11789067 0.10307429 0.10270222 0.06127296 0.018313097 0.005183494 -0.025924066
0.047313 0.11701895 0.09318619 0.1045834 0.03438816 0.013176173 0.04779367 -0.0010016309
0.0992205 0.10584968 0.06453832 0.08227375 0.038121562 0.035941124 0.02459192 0.016196461
-0.1091218 0.08922253 0.110129006 0.089603595 0.07054875 0.05431798 0.010690476 -0.060255226
0.0056945705 -0.034911368 -0.06452572 -0.019143738 -0.023990054 -0.09404424 -0.05126173 -0.023223072
-0.01744671 -0.012261129 -0.08386729 -0.06040816 -0.003604983 -0.050813876 -0.0028180813 0.06004944
0.028806694 0.0034842729 -0.0480682 -0.04674028 -0.02204212 -0.03572036 0.056949925 0.051460505
0.0075690732 0.06748756 -0.038532298 -0.016993469 -0.045844924 -0.056445725 0.017867027 0.09365616
-0.033575576 0.021718958 0.016356949 -0.003642079 -0.058282968 -0.029533781 -0.0001209721 0.0406011
-0.0113826 -0.002914622 0.059341967 0.014822243 -0.026366603 -0.03515778 -0.061147638 -0.042028185
-0.0298755 -0.049434613 0.0003796745 0.047841333 0.025272796 0.037828684 -0.047799513 0.0019832363
0.060718514 -0.066749744 -0.024376744 0.001454335 0.0137115605 -0.01586659 -0.0670646 0.041645575
0.01183159 -0.04013897 0.06474825 0.04949358 0.008969193 0.009171081 0.036369335 0.012281091
-0.023785526 0.022742812 0.021596022 0.016899377 -0.01485781 0.025692206 0.0072352285 -0.015736403
-0.023383806 -0.012629858 0.048273616 -0.014581621 -0.027716657 -0.008032351 -0.003198305 0.013270253
0.04103633 0.041597016 0.0022954706 -0.04355346 -0.025315141 0.06304086 0.009402252 0.009746341
0.11272635 0.071498595 -0.023863154 -0.030175915 -0.024628893 0.038027495 0.049622685 0.05503065
0.11105252 0.038057134 0.008734468 0.032111973 0.018211797 0.028335394 0.040876914 0.1043085
0.09023629 0.05011903 0.0013705426 0.01974051 0.0048060426 0.047026463 0.082338005 0.115022674
-0.03918043 -0.031869423 0.005274741 0.020398272 -0.007109151 0.036736418 0.011689164 -0.043374337
-0.014229146 -0.0164661 -0.020254744 0.004130535 0.026433658 0.008752519 -0.0093299225 -0.017895833
-0.078722045 -0.081790306 0.0023218852 0.014016436 0.001118748 -0.008106675 0.019768275 -0.011288365
-0.0061376723 0.0529139 0.052183833 0.011819729 0.042223994 0.075204395 -0.03787524 0.017104039
-0.008658848 0.03380798 0.044395715 0.013508235 -0.0056322217 0.040781893 0.001693841 0.025871232
-0.030172968 0.01681518 0.027339675 0.0024177155 0.028094508 0.039224375 0.0414328 0.04434068
0.007328268 0.010344982 0.008809021 0.083673604 0.084182225 0.071845084 0.00953979 0.06624475
0.034872226 0.062835485 0.04565022 0.059275687 0.09627136 0.08140598 0.046212602 0.07490499
0.047480598 0.1080647 0.08704692 0.0960979 0.04969782 0.049236376 0.0024698004 0.017798211
00000000: 21dc 623c 01be 1bbc b42f 10bd 8f4b ba3c
00000010: a899 303d c506 25bc 45bb 593c e404 893c
00000020: 38ed 013d ad7e edb9 9e9b 043d ed10 893d
00000030: 2641 8a3d 6fda 503c e73d 5fbd 872c 033a
00000040: d96a 7c3d 6ac3 333d 5fdd 673d f7f4 9f3d
00000050: 745f 863d ec1c 953c 8c17 7fbd 96f7 2f3c
00000060: 04ae bc3d e300 e13d 9d60 a23d 2453 b13d
00000070: 32dd 493d 949b c4bc 4c04 c7bc 18c8 10bd
00000080: dcdf cd3d aa70 f13d 9d18 d33d 8b55 d23d
00000090: 5bf9 7a3d 5905 963c 4dda a93b b55e d4bc
000000a0: 47cb 413d a2a7 ef3d 67d8 be3d d22f d63d
000000b0: 99da 0c3d e0e0 573c 4cc3 433d 2849 83ba
000000c0: 1e34 cb3d b8c7 d83d ab2c 843d 247f a83d
000000d0: 5b25 1c3d 0037 133d ff74 c93c 71ae 843c
000000e0: 407b dfbd 4dba b63d 518b e13d 1782 b73d
000000f0: dd7b 903d 887c 5e3d 1b27 2f3c 2fce 76bd
00000100: 8599 ba3b 39ff 0ebd 1026 84bd 54d3 9cbc
00000110: ca86 c4bc 449a c0bd d2f7 51bd 503e bebc
00000120: 67ec 8ebc e7e2 48bc 9dc2 abbd 8c6e 77bd
00000130: 9441 6cbb 3622 50bd 8faf 38bb 67f6 753d
00000140: 04fc eb3c 6658 643b 29e3 44bd bc72 3fbd
00000150: ad91 b4bc 834f 12bd 5344 693d 40c8 523d
00000160: fd05 f83b eb36 8a3d 0bd4 1dbd e335 8bbc
00000170: e3c7 3bbd a233 67bd df5d 923c cdce bf3d
00000180: 8b86 09bd f5eb b13c 02ff 853c f2af 6ebb
00000190: 1fba 6ebd d4f0 f1bc 67b2 fdb8 574d 263d
000001a0: 167e 3abc 3e03 3fbb 9010 733d fed8 723c
000001b0: c6fe d7bc 9b01 10bd f275 7abd bf25 2cbd
000001c0: 77bd f4bc f37b 4abd 0c0f c739 46f5 433d
000001d0: e508 cf3c 40f2 1a3d 6cc9 43bd 2ff9 013b
000001e0: fab3 783d 17b4 88bd bdb1 c7bc 639f be3a
000001f0: 74a6 603c a7fa 81bc 2a59 89bd 8d94 2a3d
00000200: 49d9 413c c368 24bd bb9a 843d c8b9 4a3d
00000210: 86f3 123c 4d42 163c 03f8 143d a136 493c
00000220: ddd9 c2bc 224f ba3c 24ea b03c 9070 8a3c
00000230: 2c6e 73bc 7678 d23c 7f15 ed3b a1e9 80bc
00000240: 658f bfbc 77ed 4ebc 8eba 453d c0e7 6ebc
00000250: 0b0e e3bc 1f9a 03bc a79a 51bb 7a6b 593c
00000260: b615 283d a261 2a3d 9b6f 163b 1d65 32bd
00000270: b361 cfbc 911b 813d e70b 1a3c 1eaf 1f3c
00000280: 13dd e63d db6d 923d a97c c3bc 7b33 f7bc
00000290: 88c2 c9bc b8c2 1b3d 2841 4b3d d267 613d
000002a0: 816f e33d cce1 1b3d 041b 0f3c d887 033d
000002b0: e830 953c a11f e83c 8d6e 273d b29f d53d
000002c0: cecd b83d 9d49 4d3d c7a3 b33a dab6 a13c
000002d0: 027c 9d3b d29e 403d d4a0 a83d 0291 eb3d
000002e0: a97b 20bd 8389 02bd bcd7 ac3b 471a a73c
000002f0: e2f3 e8bb ed78 163d e883 3f3c 4aa9 31bd
00000300: 5d21 69bc eae3 86bc 47ed a5bc 7059 873b
00000310: 668b d83c ba66 0f3c 88dc 18bc 489a 92bc
00000320: 0639 a1bd ad81 a7bd c52a 183b 32a5 653c
00000330: f4a2 923a dcd1 04bc 14f1 a13c d6f2 38bc
00000340: 871e c9bb 3fbc 583d b7be 553d 89a7 413c
00000350: 11f3 2c3d c304 9a3d 1123 1bbd c51d 8c3c
00000360: d7dd 0dbc 3d7a 0a3d 48d8 353d a551 5d3c
00000370: 808e b8bb ea0a 273d df03 de3a e8ef d33c
00000380: 4d2d f7bc fdbf 893c 74f7 df3c 8972 1e3b
00000390: 7426 e63c bda9 203d 71b5 293d 939e 353d
000003a0: f821 f03b 007e 293c b653 103c 115d ab3d
000003b0: bb67 ac3d 8423 933d c84c 1c3c 54ab 873d
000003c0: 2ed6 0e3d e4af 803d bafb 3a3d 10cb 723d
000003d0: eb29 c53d 2eb8 a63d 6d49 3d3d ca67 993d
000003e0: 047b 423d 0751 dd3d a845 b23d face c43d
000003f0: f18f 4b3d 15ac 493d 60dc 213b 8ecd 913c

classifier.0.bias f4 [10]
-0.07949539 -0.32333657 -0.1672622 0.121664815 0.21628827 -0.033162087 0.44156247 -0.17406437
0.2143091 -0.15267588
00000000: 7bce a2bd 5f8c a5be c846 2bbe 672b f93d
00000010: ac7a 5d3e f8d4 07bd 7a14 e23e ee3d 32be
00000020: d873 5b3e 1157 1cbe

classifier.0.b_w f4 [8, 1]
-128.0 64.0 32.0 16.0 8.0 4.0 2.0 1.0
00000000: 0000 00c3 0000 8042 0000 0042 0000 8041
00000010: 0000 0041 0000 8040 0000 0040 0000 803f

momentum_buffer f4 [32, 3, 3, 3]
-0.012396321 -0.031147234 0.029479714 0.021280717 0.007897621 0.085680805 0.07350508 0.09672458
0.18165997 -0.029732827 -0.024685275 0.06355179 0.008323304 0.006007217 0.101411 0.03737152
0.076826066 0.17198765 -0.027605843 -0.010842517 0.08472372 0.0135399625 0.0056425333 0.1097755
0.03570491 0.06176842 0.16168666 0.03703779 0.077581264 0.07167584 0.05009793 0.06465155
0.039842978 0.021897636 0.035178162 0.04179765 0.0019549849 0.06104901 0.08099242 0.01171704
0.053016294 0.053106595 -0.0019643158 0.03525441 0.055238336 -0.028901907 0.026909202 0.044098638
-0.02786435 0.019986875 0.02368785 -0.04691247 -0.006481897 0.015998252 -0.025174895 0.0068833996
-0.01232506 -0.05469272 0.0003675297 0.06224807 0.027775034 0.08336146 0.121618405 0.023108978
0.03855298 0.008629443 -0.017733678 0.0046081394 0.059629396 0.05325112 0.08282896 0.115214586
0.06457549 0.064413756 0.03354181 0.013614902 0.017650563 0.05981746 0.06422062 0.06491382
0.103879854 0.016873244 0.020852964 -0.001934154 0.030948874 0.01723874 -0.015225653 0.033297632
0.008939039 -0.009549372 0.018778626 0.019136019 0.0103074275 0.036962215 0.023494959 -0.005644706
0.04853553 0.024663616 0.000150254 -0.0059852274 0.005972689 0.003650833 -0.0037479815 -0.0001629577
-0.020251952 0.01905556 0.013173797 -0.011352061 -0.04718369 -0.078440435 -0.093436986 -0.024793398
-0.037595153 -0.046511903 -0.07895126 -0.027699329 -0.027832426 -0.007984512 -0.07229941 -0.09410617
0.00986835 -0.028714947 -0.058888204 -0.062446903 -0.036689494 -0.049790837 0.008213813 -0.061465636
-0.073628224 0.018233307 -0.025218341 -0.05148256 -0.045900233 -0.029729076 -0.032225583 -0.025016923
-0.054509174 -0.05825018 0.018950377 -0.013523055 0.0033424976 0.038896713 0.037526842 0.048630185
-0.033173516 -0.067775525 -0.07218717 0.010930391 -0.02694773 -0.013255284 0.033135116 0.0232377
0.026030354 -0.0023244247 -0.032892648 -0.05274029 0.0400887 0.009470759 0.008061886 0.054922424
0.04698605 0.040636633 -0.04743357 -0.022252236 -0.0096827075 -0.027927354 -0.016687322 0.0044501554
0.00832662 -0.015478704 0.009843463 -0.021302998 -0.0005116798 0.0056730285 -0.0012832433 -0.005488459
0.0051996745 0.030808747 -0.0070503117 0.012229862 -0.0119656995 0.01333699 0.014313094 -0.0009854957
-0.008058999 0.001815714 0.02662567 -0.017162934 0.0052267318 0.0007577501 -0.04061878 -0.0746973
-0.1532056 -0.1269705 -0.11173126 -0.19684805 -0.16524082 -0.18171531 0.014382901 -0.009568002
-0.04709498 -0.12094079 -0.08616489 -0.07376014 -0.13315833 -0.11144109 -0.13554141 -0.06581882
-0.08083397 -0.12431832 -0.16439733 -0.12074913 -0.10544791 -0.12762418 -0.09313381 -0.10604006
0.08052826 0.10379827 0.085680336 0.069143 0.09057941 0.027951747 0.045602776 0.034937818
-0.0142178 0.040626638 0.05628356 0.027950209 0.024292795 0.04205496 -0.017018806 -0.0055178422
-0.015053007 -0.056776714 0.028641384 0.058062457 0.024963252 -0.015537113 0.024515923 -0.022594616
-0.06426767 -0.0435709 -0.07520539 0.015087647 0.019933201 0.0642571 0.008572457 0.02765723
0.10523239 0.052822337 0.050089844 0.07911725 0.03752117 0.039184567 0.06617402 0.04843599
00000000: f019 4bbc 7c28 ffbc 717f f13c e654 ae3c
00000010: 0665 013c 6b79 af3d d589 963d 8917 c63d
00000020: 1205 3a3e 4292 f3bc c638 cabc 7127 823d
00000030: 785e 083c 30d8 c43b 92b0 cf3d e112 193d
00000040: fc56 9d3d 881d 303e a625 e2bc d0a4 31bc
00000050: a183 ad3d b8d6 5d3c 00e5 b83b fad1 e03d
00000060: 503f 123d e200 7d3d 3091 253e f0b4 173d
00000070: ede2 9e3d c8ca 923d 7d33 4d3d 0868 843d
00000080: 6432 233d ac62 b33c fa16 103d 0334 2b3d
00000090: 341f 003b 870e 7a3d 5bdf a53d d4f8 3f3c
000000a0: 9d27 593d 4d86 593d c0bb 00bb ee66 103d
000000b0: 9841 623d b1c3 ecbc b070 dc3c c6a0 343d
000000c0: c743 e4bc 84bb a33c 060d c23c 4a27 40bd
000000d0: 1866 d4bb c40e 833c 953b cebc 248e e13b
000000e0: 0cef 49bc 7905 60bd 00b1 c039 d5f7 7e3d
000000f0: 7888 e33c 6ab9 aa3d 1213 f93d 0a4f bd3c
00000100: bbe9 1d3d 8262 0d3c 3846 91bc e0ff 963b
00000110: f43d 743d d91d 5a3d 3ba2 a93d a0f5 eb3d
00000120: 2840 843d 5ceb 833d 2363 093d 0a11 5f3c
00000130: ea97 903c 2703 753d 1a86 833d 89f1 843d
00000140: f6be d43d c239 8a3c d6d3 aa3c 7083 fdba
00000150: 7e88 fd3c 4238 8d3c 0475 79bc 1963 083d
00000160: 0c75 123c f874 1cbc a2d5 993c 24c3 9c3c
00000170: 7ce0 283c b165 173d 8078 c03c 3af7 b8bb
00000180: 31cd 463d 5a0b ca3c 808d 1d39 ba1f c4bb
00000190: 8cb6 c33b d042 6f3b b2a0 75bb a0df 2ab9
000001a0: 6ce7 a5bc 681a 9c3c e9d6 573c fffd 39bc
000001b0: af43 41bd 61a5 a0bd e45b bfbd 861b cbbc
000001c0: 60fd 19bd 4483 3ebd 33b1 a1bd b4e9 e2bc
000001d0: d400 e4bc 78d1 02bc b711 94bd bcba c0bd
000001e0: dcae 213c 9c3b ebbc c234 71bd 53c8 7fbd
000001f0: b947 16bd 7af1 4bbd 3b93 063c 64c3 7bbd
00000200: 65ca 96bd 045e 953c b296 cebc 60df 52bd
00000210: e201 3cbd 648a f3bc f9fe 03bd 4af0 ccbc
00000220: 0345 5fbd be97 6ebd d23d 9b3c ce8f 5dbc
00000230: ce0d 5b3b 2952 1f3d bfb5 193d 7230 473d
00000240: f4e0 07bd e5cd 8abd ded6 93bd 6215 333c
00000250: 7cc1 dcbc b12c 59bc b0b8 073d fd5c be3c
00000260: 9c3d d53c 6055 18bb 71ba 06bd 3406 58bd
00000270: 0c34 243d 3e2b 1b3c 0016 043c 56f6 603d
00000280: 7274 403d 9972 263d b449 42bd 524a b6bc
00000290: 38a4 1ebc e8c7 e4bc dab3 88bc 9cd2 913b
000002a0: 606c 083c 649a 7dbc 7a46 213c a083 aebc
000002b0: 4022 06ba d0e4 b93b 8032 a8ba 88d8 b3bb
000002c0: 0862 aa3b a062 fc3c 4d06 e7bb c25f 483c
000002d0: c80b 44bc 6483 5a3c 7881 6a3c c02b 81ba
000002e0: e409 04bc 40fd ed3a 141e da3c 4899 8cbc
000002f0: 0145 ab3b c0a3 463a e15f 26bd e6fa 98bd
00000300: eee1 1cbe 8e04 02be 5cd3 e4bd 8992 49be
00000310: e434 29be 9413 3abe 42a6 6b3c 1cc3 1cbc
00000320: aae6 40bd ceaf f7bd 3877 b0bd 8e0f 97bd
00000330: a85a 08be 3a3b e4bd 5ecb 0abe 04cc 86bd
00000340: 488c a5bd 9a9a febd c657 28be 524b f7bd
00000350: 13f5 d7bd eaaf 02be f0bc bebd 882b d9bd
00000360: 00ec a43d 3094 d43d 2c79 af3d d89a 8d3d
00000370: b381 b93d 10fb e43c fac9 3a3d f51a 0f3d
00000380: c7f1 68bc 1e68 263d 9789 663d d6f7 e43c
00000390: af01 c73c d241 2c3d 066b 8bbc 04cf b4bb
000003a0: e3a0 76bc b38e 68bd 56a1 ea3c e6d2 6d3d
000003b0: bc7f cc3c 608f 7ebc 9ed5 c83c 5818 b9bc
000003c0: c59e 83bd 6677 32bd 4905 9abd 2e32 773c
000003d0: f44a a33c 3a99 833d 7e73 0c3c 6a91 e23c
000003e0: 1484 d73d 3c5c 583d 022b 4d3d 3a08 a23d
000003f0: ccaf 193d ff7f 203d 3f86 873d d164 463d

momentum_buffer f4 [32]
0.105816685 -0.007979203 -0.086541906 -0.008103484 -0.104452595 -0.08062487 -0.041830227 0.11293854
0.08504036 -0.08902244 0.10365601 0.02646878 -0.1619824 -0.051892124 0.09946824 -0.06861904
0.07642497 -0.0463589 0.11626108 0.005215898 0.06406908 -0.04554251 0.09009854 0.036978226
0.052773606 0.018930081 -0.049778443 0.08929994 0.07918177 0.15643227 -0.11200304 -0.04629851
00000000: 6bb6 d83d 34bb 02bc e23c b1bd 7ac4 04bc
00000010: 3eeb d5bd a71e a5bd 2c56 2bbd 524c e73d
00000020: a429 ae3d 6651 b6bd 9a49 d43d 0ed5 d83c
00000030: b7de 25be d68c 54bd 01b6 cb3d 2488 8cbd
00000040: b284 9c3d d4e2 3dbd 4a1a ee3d 20ea aa3b
00000050: a636 833d c88a 3abd 9585 b83d 7b76 173d
00000060: 2329 583d 4213 9b3c 7be4 4bbd e3e2 b63d
00000070: 0d2a a23d c82f 203e da61 e5bd 82a3 3dbd

momentum_buffer f4 [32, 32, 3, 3]
0.017936394 0.02312721 -0.008584769 0.010522839 0.01183056 -0.026837572 0.017467372 0.008508878
-0.029825011 -0.039417706 -0.007637582 0.0076816166 -0.019546434 0.012657503 0.016590688 0.010256904
0.029360484 0.024983935 -0.00502167 0.0102987215 0.02722864 -0.011453416 0.019462992 0.014846716
0.00052268984 0.027501013 0.012525987 0.03726268 0.03426107 0.020941257 0.043930143 0.058574148
0.052307557 0.016321033 0.028000595 0.055018388 -0.028803756 -0.009371489 -0.019388685 -0.005281889
0.007093686 0.006887883 -0.0019968299 -0.005872787 -0.0063191224 -0.019155174 -0.0026614307 0.014273541
-0.0056607975 0.0074672187 0.013213565 -0.0060479585 -0.0006298644 0.011643488 -0.009476175 -0.01115788
-0.00051594706 -0.014076763 -0.012030535 -0.012350625 -0.017500626 -0.016550124 -0.019169554 0.009314671
0.0056001935 0.0058166236 0.03359434 0.02269682 0.009782665 -0.0006196201 0.005455242 -0.009745987
0.07476124 0.07246747 0.068723276 0.07423384 0.070895985 0.06611613 0.07113976 0.061506964
0.060331643 -0.0018326589 0.004209078 0.012716287 0.014117526 0.019784756 0.01952571 0.010130897
0.025998011 0.013002297 -0.0081216935 0.0063383593 0.015803058 -0.0019205045 0.007836385 0.005882553
0.020820878 0.011914303 0.011254658 0.0001858566 0.0065016774 0.01635073 -0.016331766 0.0009799814
0.020890752 -0.03043698 -0.0020896364 0.03122011 0.001053574 0.005656548 0.0073400903 -0.0039075767
0.013378395 0.0096294 -0.018876716 0.018868616 0.016781403 0.039626926 0.027166724 0.020967584
0.03452341 0.024931654 0.023921644 0.022785839 0.018024854 0.016908266 -4.6340283e-05 0.013656461
-0.0015534302 0.027531307 0.033011563 0.014952663 0.020628072 0.014841389 0.005462899 -0.005971821
0.031347714 0.019338429 0.022353645 0.05441337 0.039129592 0.01404815 0.032898024 0.04926373
-0.00069553556 -0.0009775298 0.006911857 0.013364597 0.02023635 0.018609967 0.008220147 0.011159364
0.009330546 -0.009185448 0.0043038623 -0.004850729 -0.011116303 0.00037249603 -0.0173198 -0.0076018805
-0.009673004 -0.020354576 0.0023449631 0.006821475 -0.008505065 0.01336623 0.010965979 -0.008698833
0.012012529 -0.0027169518 -0.012351183 0.025199745 0.020740062 0.0079449015 0.008257056 0.020826928
0.004155385 0.0053812074 0.02218229 0.00089311786 -0.04119551 -0.023540746 -0.0022275941 -0.015125417
0.00824981 0.018852813 0.005079308 0.0057292553 0.01045274 -0.01991238 0.001417924 -0.0050053364
-0.015388865 0.018531552 0.006562862 -0.010717597 0.014565047 0.02621619 0.037516568 0.026689397
0.015132567 0.027966468 0.02345588 0.003815669 0.0254993 0.037245184 0.007593832 0.023799842
0.040298473 0.04723635 0.02562473 0.030003387 0.035714526 0.019991416 0.01884143 0.023010101
0.03564038 0.032000862 0.035090227 0.041905798 0.03306982 0.054263305 0.038126577 0.023493838
0.05062692 0.030117486 0.020087995 0.011557044 0.012655511 0.028625827 0.022460114 0.0005695608
0.006264678 0.008653448 0.0039923694 0.0012330238 -0.00094137294 0.018444303 0.011465364 -0.00096400024
-0.00784469 0.006149061 0.010180256 0.011683044 0.014717634 0.008001327 -0.0036503077 0.0005507673
0.008369451 0.007234787 0.003131528 -0.005340568 -0.0049675344 -0.0033545555 -0.007788779 -0.003969088
00000000: 58ef 923c 4675 bd3c 22a7 0cbc fc67 2c3c
00000010: f7d4 413c 78da dbbc bc17 8f3c d268 0b3c
00000020: 9553 f4bc 7674 21bd ae44 fabb 12b6 fb3b
00000030: d81f a0bc 6a61 4f3c 32e9 873c 930c 283c
00000040: 6685 f03c 1cab cc3c d28c a4bb f8bb 283c
00000050: 990e df3c 1ca7 3bbc da70 9f3c a43f 733c
00000060: 1f05 093a ce49 e13c cc39 4d3c c0a0 183d
00000070: 5655 0c3d 008d ab3c 18f0 333d 72eb 6f3d
00000080: 7340 563d b0b3 853c 8161 e53c f65a 613d
00000090: dbf5 ebbc e08a 19bc 05d5 9ebc b213 adbb
000000a0: 2772 e83b c0b3 e13b 3fdd 02bb 8270 c0bb
000000b0: a410 cfbb 50eb 9cbc 666b 2ebb 92db 693c
000000c0: 367e b9bb 92af f43b b57d 583c f42d c6bb
000000d0: 7c1d 25ba 54c4 3e3c f541 1bbc 8acf 36bc
000000e0: 9f40 07ba 39a2 66bc b91b 45bc 475a 4abc
000000f0: 795d 8fbc 2094 87bc 7809 9dbc 909c 183c
00000100: d481 b73b 6099 be3b 389a 093d aeee b93c
00000110: 7947 203c 006e 22ba e3c1 b23b a2ad 1fbc
00000120: 6c1c 993d d369 943d cabe 8c3d e907 983d
00000130: ea31 913d e567 873d b9b1 913d baee 7b3d
00000140: 501e 773d d435 f0ba 4eec 893b f957 503c
00000150: 324d 673c a413 a23c 62f4 9f3c 10fc 253c
00000160: c8f9 d43c 9607 553c da10 05bc 03b2 cf3b
00000170: 6a75 813c 70b9 fbba 2e64 003c 6ec2 c03b
00000180: 8c90 aa3c 3534 433c 7565 383c 80e2 4239
00000190: 060c d53b f7f1 853c 32ca 85bc b872 803a
000001a0: 1523 ab3c f956 f9bc 48f2 08bb 51c1 ff3c
000001b0: 1418 8a3a 905a b93b 2485 f03b 210b 80bb
000001c0: 0e31 5b3c a2c4 1d3c 58a3 9abc 5b92 9a3c
000001d0: 2779 893c d84f 223d c08c de3c 36c4 ab3c
000001e0: 6b68 0d3d 783d cc3c 53f7 c33c 5ea9 ba3c
000001f0: dca8 933c 3483 8a3c 805d 42b8 59bf 5f3c
00000200: 789c cbba 5689 e13c 2237 073d 04fc 743c
00000210: 34fc a83c 4c29 733c 1e02 b33b 44af c3bb
00000220: 7666 003d a06b 9e3c fe1e b73c 8ee0 5e3d
00000230: 5a46 203d 362a 663c 14c0 063d c4c8 493d
00000240: 9a54 36ba 7520 80ba dc7c e23b 2ff7 5a3c
00000250: b4c6 a53c ee73 983c ccad 063c c4d5 363c
00000260: 25df 183c 907e 16bc 6a07 8d3b ddf2 9ebb
00000270: 2721 36bc 924b c339 41e2 8dbc 3219 f9bb
00000280: 857b 1ebc a4be a6bc f4ad 193b ae86 df3b
00000290: d458 0bbc 08fe 5a3c a6aa 333c 8d85 0ebc
000002a0: 33d0 443c e30e 32bb 9e5c 4abc b26f ce3c
000002b0: 10e7 a93c 552b 023c 9a48 073c 3c9d aa3c
000002c0: e529 883b d754 b03b a2b7 b53c 2020 6a3a
000002d0: a0bc 28bd 86d8 c0bc d4fc 11bb 99d0 77bc
000002e0: 362a 073c 3771 9a3c 5370 a63b 7abc bb3b
000002f0: f841 2b3c 4a1f a3bc a2d9 b93a ce03 a4bb
00000300: 9421 7cbc 7bcf 973c 470d d73b dc98 2fbc
00000310: 3ca2 6e3c 56c3 d63c f9aa 193d b9a3 da3c
00000320: 96ee 773c ef19 e53c 8c26 c03c 4e10 7a3b
00000330: e8e3 d03c 688e 183d aed5 f83b e3f7 c23c
00000340: 0310 253d e77a 413d f4ea d13c aac9 f53c
00000350: 6549 123d 0ac5 a33c 5859 9a3c ae7f bc3c
00000360: a6fb 113d 5613 033d c5ba 0f3d 6aa5 2b3d
00000370: 3874 073d 3343 5e3d 9d2a 1c3d 2676 c03c
00000380: 2c5e 4f3d f2b8 f63c 948f a43c c259 3d3c
00000390: 0f59 4f3c b680 ea3c 46fe b73c 944e 153a
000003a0: ee47 cd3b 31c7 0d3c 6cd2 823b 6a9d a13a
000003b0: 78c6 76ba 8218 973c 39d9 3b3c f6b4 7cba
000003c0: 0487 00bc 107e c93b 17cb 263c 3d6a 3f3c
000003d0: 3b22 713c ff17 033c 003a 6fbb 5e61 103a
000003e0: 0620 093c cb11 ed3b 523a 4d3b eeff aebb
000003f0: b3c6 a2bb 1ad8 5bbb 0439 ffbb 200f 82bb

momentum_buffer f4 [32]
0.04992591 0.058097206 -0.0043832064 -0.24861725 0.098722324 -0.07942322 -0.057809956 0.08558753
-0.105785996 0.15762946 0.015261103 -0.06017867 0.005061947 -0.004043717 -0.025544407 0.026786432
-0.08194308 0.16099721 -0.010074817 -0.02514058 0.011699632 0.100305684 -0.056310974 -0.03109249
-0.028810315 0.058009606 0.004799952 -0.07468665 0.09586702 -0.06536915 -0.05092032 0.01761621
00000000: 1c7f 4c3d 56f7 6d3d 00a1 8fbb 8595 7ebe
00000010: ee2e ca3d a4a8 a2bd 22ca 6cbd 8448 af3d
00000020: 54a6 d8bd 9e69 213e b509 7a3c e97d 76bd
00000030: b0de a53b 2881 84bb 8142 d1bc 386f db3c
00000040: c6d1 a7bd 74dc 243e d810 25bc 9ef3 cdbc
00000050: d0af 3f3c 116d cd3d 56a6 66bd adb5 febc
00000060: 9c03 ecbc 7b9b 6d3d ea48 9d3b 50f5 98bd
00000070: ee55 c43d 43e0 85bd d391 50bd df4f 903c
