Securite/Model2/Result_bfa/randbet_0.2_0.01_10_-1/model_best.pth.tar (torch, 404714 bytes, 25 tensors)

features.0.weight f4 [32, 3, 3, 3]
00000000: ff86 393d 5b6b e0bd fd3c 373e ad6b 0ab7
00000010: 0f90 483e 87ab 473e 4ff5 3cbe 4ea3 b9bd
00000020: d2af c63d f072 25be 2763 46be 0c08 2d3e
00000030: 99fb 40be d164 0fbe d45a 403e df56 39be
00000040: 4e70 33be b8b5 893d bf27 45be d2d3 3dbe
00000050: 5493 273e e329 3cbe 74be 1b3e d35d 393e
00000060: 4a61 bdbd 45e5 4b3e 7d52 0c3e 1815 4a3e
00000070: 28e8 943c a12c 2abe a9dd 483e 02bd 49be
00000080: 73cc 30be 7121 293e 8dd6 4bbe 26d4 8f3c
00000090: b0b7 4a3e d25b 40be c692 36be 8902 483e
000000a0: 0549 4bbe bdcf d2bd c293 a2bd 9322 4cbe
000000b0: 6f94 18be 9f0d 963b d393 033e 6375 243e
000000c0: 7a29 433e f2bf 21be fd0d 333e 6d0f 36be
000000d0: 7c25 3abe be43 463e 706a 2a3e 6227 29be
000000e0: 83eb 083e fd1f 463e 4672 acbd fc15 3c3e
000000f0: 5b16 3fbe 6567 d2bd 30cc 44be 6d6e 5c3d
00000100: a30c 41be d57a 18be 1da4 373e e49e 24be
00000110: 1472 3d3e 50b6 41be a1e4 3e3e ead8 3d3e
00000120: 1d30 423e a21c 2ebe 6fb7 41be a929 463e
00000130: 454c 7fbd ab7b 693d ee61 8b3b 9dca b73d
00000140: 792d 2dbe 1943 433e 1a1d 3d3e 0457 2c3e
00000150: f1de 403e 4358 323d bd80 0bbe c145 493e
00000160: fe7e 04be abd8 25be 6a55 29be 3879 43be
00000170: b930 183e 6e69 16be 10a6 4abe aaf3 44be
00000180: ad4c 463e 5545 e4bc e3c2 0cbe 64be 23be
00000190: a9b8 21be b46f cfbc 2db7 36be cc33 d3bd
000001a0: ed50 d6bd 703c 363e 399e 023e 59ce 983d
000001b0: 9629 9f3b d254 273e e12c f23c 4511 48be
000001c0: b456 4abe 6ed7 2e3e 2e1f dd3d 0a86 3cbe
000001d0: ef6c 3d3e cee2 073e 1d50 1a3d d337 2dbe
000001e0: 6a2e 47be 6dfd 49be 4614 373e e53a 433e
000001f0: d73a 44be 6b34 233e cff4 413e b631 2e3e
00000200: d1ff 08be f6b6 bdbd 07c1 43be d122 043e
00000210: ec15 443e 9be1 3dbe 5d09 3abd dabf 02be
00000220: fb18 443e e2ba 3fbd 801b 893d 0781 4a3e
00000230: cf75 42be b33a 24be f05b 0c3e 7938 203e
00000240: 5cee 5cbd 1715 3b3e e40b 05bd aac5 b8bd
00000250: cd4e 4b3e 0d9b 3ebe bc92 05be 6119 b8bc
00000260: f2f8 273d ca21 bebc 469d 4b3e 5415 423e
00000270: cb2a 3cbe 1cba 4a3e 81af 3ebe c179 47be
00000280: 79a6 1e3c cea8 213d a3a3 3abe e510 34be
00000290: 4788 2d3e 8a8b 0abe dd02 42be 0d5c f83b
000002a0: f626 dabd fd3b 18be 5d40 3ebe b876 d03c
000002b0: 8ff0 15bd 8d4c 13bd 39c0 183e 61bf b63d
000002c0: 1667 3e3e 4af5 43be 5387 08bd 8337 48be
000002d0: 64af 473e 85d2 903d bb86 12be cd84 483e
000002e0: 648c 493e 1ed7 4b3e 8ec1 be3d ffe8 4a3e
000002f0: 480e 9f3c 02f9 313e 4c43 813c 5705 0abe
00000300: 5ac8 e7bc 3223 41be 4b70 47be d506 0ebd
00000310: e813 483e a3c1 f8bd 1654 23bd 5d54 8abd
00000320: c520 453e cdbe bcbd 0910 6cbd b7dc 8e3d
00000330: 70c5 563c 2626 4a3e a85e 4c3e 46a3 bf3d
00000340: f38d cabd 649d 293e 7923 03be 323b 47be
00000350: c2bf abbd 6827 20be 623f 433e 0831 283e
00000360: 3b55 e7bd 4525 b5bc e4b3 81bd 0541 11be
00000370: 5fda c8bc fde0 b0bd aa07 e83b 9672 44be
00000380: df89 17be ba24 4a3e a9ec 4c3e b3c8 4b3e
00000390: 6ecf 463e aee7 4c3e 32d7 4c3e 97a3 483e
000003a0: f84b 4c3e 6c54 483e 7ffc f0bd e290 42be
000003b0: a967 35be 9cd1 28be d3ba 49be 955e 2fbe
000003c0: b6bd 40bd 1855 42be 3bfe 263d 304e 293e
000003d0: a8fe a93d 05b2 f0bd 8faf 47be edaa 483e
000003e0: dfa9 2d3e fe95 4abe 1dc2 373d 8cc3 35be
000003f0: 0729 373e 7e9a 39bd 7dd1 3ebe 756d 48be
0.045294758 -0.109579764 0.17894359 -8.250511e-06 0.19586204 0.19499026 -0.18452953 -0.09064351
0.09701504 -0.16157126 -0.19373761 0.16897601 -0.18845977 -0.14003302 0.18784648 -0.18099545
-0.1752331 0.06724113 -0.19253443 -0.18537834 0.16364795 -0.18375354 0.15209371 0.18102197
-0.09247072 0.19911678 0.13703342 0.19734609 0.018177107 -0.16618587 0.19615807 -0.19701007
-0.17265491 0.16516663 -0.19906063 0.017557215 0.19796634 -0.18785027 -0.17829427 0.19532217
-0.19852073 -0.10293529 -0.07938339 -0.19935064 -0.14900373 0.0045792605 0.12849359 0.16060404
0.19058791 -0.15795878 0.17485805 -0.17779322 -0.18178362 0.19361779 0.16642165 -0.1651893
0.1337109 0.1934814 -0.084202334 0.18367761 -0.18660872 -0.10273627 -0.19218516 0.053816248
-0.18852477 -0.14890607 0.17933698 -0.16076237 0.18500549 -0.18917203 0.18641903 0.18539777
0.18963666 -0.1700311 -0.1891763 0.1935183 -0.062328596 0.057002705 0.0042536175 0.08974192
-0.16911878 0.19068564 0.18468133 0.16830069 0.18835045 0.043541204 -0.13623329 0.19655515
-0.12939069 -0.16195934 -0.16536489 -0.1908921 0.14862336 -0.14688656 -0.1978991 -0.19233575
0.19365187 -0.027865091 -0.13746218 -0.15990597 -0.15793099 -0.025321819 -0.17843314 -0.10312614
-0.10464654 0.17796493 0.1275567 0.07461233 0.0048572524 0.1634095 0.029562416 -0.19537838
-0.19759637 0.17074367 0.10796963 -0.18410507 0.18498586 0.13270113 0.03767406 -0.16915826
-0.194513 -0.1972558 0.17878827 0.19065435 -0.1916307 0.15937965 0.18941043 0.1701115
-0.13378836 -0.09263413 -0.19116603 0.12903906 0.19148988 -0.18543093 -0.045419086 -0.12768498
0.19150154 -0.046809085 0.06694698 0.19775783 -0.18990253 -0.16038017 0.13706946 0.15646543
-0.053938255 0.18269764 -0.032482043 -0.090220764 0.19854279 -0.18613835 -0.13044256 -0.02247304
0.041008897 -0.023209471 0.19884214 0.18953449 -0.18375699 0.19797558 -0.18621637 -0.19480039
0.009683245 0.039467625 -0.18226485 -0.1758457 0.16946517 -0.13529792 -0.18946405 0.0075793327
-0.106519625 -0.14866634 -0.1857924 0.025447235 -0.036606368 -0.035961676 0.14917077 0.089232214
0.18594012 -0.19136539 -0.03333218 -0.19552426 0.195005 0.070714034 -0.14309208 0.1958191
0.19682461 0.1990628 0.093142614 0.19815443 0.01941599 0.17380145 0.01577916 -0.134786
-0.028293777 -0.18861082 -0.1947643 -0.034674484 0.19538844 -0.12146308 -0.039875112 -0.06754372
0.19250782 -0.0921608 -0.05763248 0.06975692 0.013108596 0.19741115 0.19957983 0.09357314
-0.09890356 0.16563946 -0.128065 -0.19456175 -0.08386184 -0.15640032 0.19067147 0.16424954
-0.11295553 -0.022112498 -0.063331395 -0.14184959 -0.02451819 -0.08636663 0.0070809918 -0.19184336
-0.14798687 0.19740573 0.20012154 0.1990078 0.19415066 0.20010254 0.20003965 0.19593655
0.19950855 0.19563454 -0.1176691 -0.19000581 -0.17715324 -0.1648621 -0.19700174 -0.17125924
-0.047055922 -0.18977773 0.040769797 0.16533732 0.08300525 -0.117527045 -0.19500564 0.19596453
0.16959332 -0.1978378 0.044862855 -0.17750376 0.17886744 -0.04531335 -0.18634601 -0.19573005

features.0.bias f4 [32]
00000000: 5046 56be 34b4 0abf f491 853e 5351 cdbe
00000010: 336c 2b3e 176e 6bbc ccb2 ccbd ed10 833e
00000020: d382 dd3c bc11 703e 0c0e 79be 35ce ffbe
00000030: 5471 ed3d 7e06 94be de30 0f3e 748e bd3d
00000040: be43 80be f6d2 14bf 4e5b fc3d ff89 373e
00000050: d865 e0be 440e 2f3e 9484 2d3e 7bce 86bd
00000060: d6f5 9c3d 1dd8 083d adf2 17bf ff16 433e
00000070: 279c 16bf 77a6 783e 9d72 dabe 981a ad3d
-0.2092526 -0.5418122 0.26087916 -0.40101108 0.16740493 -0.014369509 -0.0999504 0.2559885
0.02703992 0.23444265 -0.24321765 -0.4996201 0.11593881 -0.28911203 0.13983485 0.092556864
-0.25051683 -0.581344 0.123221025 0.17923735 -0.438277 0.17095286 0.16945106 -0.06582352
0.07664077 0.033409227 -0.5935467 0.19051741 -0.5883202 0.24282251 -0.42665568 0.08452338

features.0.b_w f4 [8, 1]
00000000: 0000 00c3 0000 8042 0000 0042 0000 8041
00000010: 0000 0041 0000 8040 0000 0040 0000 803f
-128.0 64.0 32.0 16.0 8.0 4.0 2.0 1.0

features.2.weight f4 [32, 32, 3, 3]
00000000: 7704 babd 2dc5 01bd 6fd5 a13d 3e06 b93a
00000010: 4474 44bd b12c 143d 7a9b c7bc 15d0 c8bd
00000020: bb15 3abd 64e9 163e 3cfd d5bc 5f34 c2bc
00000030: ab28 023e 7ab1 0a3d ce5d 583c 64b8 f23b
00000040: 77ca 28bd 340b c3bd a0b1 3cbe 8155 32be
00000050: 6b99 86bc df87 433c ad1a ecbd 8609 e2bd
00000060: 1104 f73d bd8b 693d 041d f73c a071 613d
00000070: 8f41 c33c a3dc 1bbe f463 ff3c d5ca 283e
00000080: 634f 9c3c f0a5 96bd f99e 9b3b 14f9 183e
00000090: 7153 c83b f97c a03d bcbb 6a3c 7ed2 0bbe
000000a0: 4947 76bd 4ed7 403e b7c9 77bd 0b88 d8bd
000000b0: bdcb 66bc 2b11 81bd fb7d e2bd 7575 a23d
000000c0: c5a1 d7ba 5d45 abbc 674d b0bc b9dd 823b
000000d0: 95e0 9c3d 991a 2f3b c136 4b3b f953 fa3d
000000e0: fc4a 443e 4421 95bd 5d92 01bd 4494 2c3d
000000f0: de92 36bc d3a9 debd 989a 51bd c098 743c
00000100: 07b7 1bbd 18d8 5cbd fbf2 313c ff20 dd3b
00000110: e615 c7bd d8db 11bc c83b 863d 8355 0a3d
00000120: bed0 bd3d 1d93 2f3b 5b26 49bc 437c 933d
00000130: 2520 81bb bb6f fcbd aba0 4a3e f72b 343d
00000140: bae6 01be 7fb1 d1bd b906 87bd 75d5 56bd
00000150: f612 45bd 6e89 6cbd f876 8ebb 1614 0c3e
00000160: 768f 5f3d f8eb e73c 4184 00be bacb 21bc
00000170: 27fd 46bc 3b65 90bd 594b 13bd daa5 26bd
00000180: a905 97bc 3024 8cbd 2f0c a8bd 22d5 97bd
00000190: 7855 03be 8fe6 1dbe 7913 7e3d 5c7e db3d
000001a0: d6c8 cdbd ac87 703c fa0c 083e 845f af3d
000001b0: ecc5 fdbd 2062 08be 7f1d 0d3d 49ce 963d
000001c0: b163 913d fbc2 183d f079 f4bc d0e9 4a3c
000001d0: 6d46 1f3e aed6 ac3d ecc7 943d 6763 8a3d
000001e0: 15db e63c 4f2d 873d 3292 7e3d 3d7a f2bd
000001f0: 1f82 f8bd 3136 40bd 94be 50bd 68d2 a13a
00000200: 1d56 dcbd db97 dbbd 47fb a43d 5adf a23d
00000210: e486 f0bc ecb5 acbc a145 393c e175 f7bc
00000220: a0df 1bbe 483d a4bd f75f 913d fae2 fd3c
00000230: 1bdf 8ebd 6ee8 4b3e e369 e53d 632d 1d3d
00000240: b12e 203e 69d2 f23d c0a6 8bbd 99e5 58bd
00000250: 70a5 ff3d 7a02 053c 7995 31be 301d 48bd
00000260: 0feb babd 482d a7bd a856 bfbd 10a1 35bd
00000270: 6154 49bd d92e 03be 7739 cabd a198 e5bd
00000280: e1c4 41bd 2d97 5bbd 7cec c63b e29b d63c
00000290: eec7 3abc 3ebe 06bc 66c4 fc3c 553c 313d
000002a0: f612 07bd 78d7 33bd 41d5 39bd 8832 6a3d
000002b0: f710 113d c43e 943d 4e2e 1b3d 0ada 153d
000002c0: 0c7f 8c3d 9d88 83bd befe a1bd 3751 273c
000002d0: 828e 283e 33c7 c23c 7e94 eebd bd13 713c
000002e0: 2d11 313c bce0 d1bc 6509 14bd 3cc0 01be
000002f0: 707d 42bd d57a 6d3b c3d1 8dbd 6a4a 6abd
00000300: 1a8d 803c 2631 973d 9e06 4f3d 0a04 15bd
00000310: 67e8 7abd b76b 2c3e 96e7 30bd 4438 f2bd
00000320: 0ac1 ddbc 80c0 8f3d 6c6b 28bd f975 f0bd
00000330: 4863 323d 503f d23c 215f 09bd fe7d 9dbb
00000340: 12a1 02bd 106e f0bd 8c7c e9bd fbc2 cc3d
00000350: 5d94 c53d 3bf9 11bd a7a7 1cbb 08bd b73d
00000360: da6e 7a3d a76e 293e adb8 973d 72c2 e9bd
00000370: 1204 0f3a 6a42 f53d 3df1 91bd a7f1 2fbe
00000380: c65f 7fbd beef 7a3d 8e71 55bd c42c a4bc
00000390: 595e 68bd 02b5 ce3d 05f8 393d b1ec d0bd
000003a0: 9f69 c1bd fe64 393e 8e65 48bd a415 55bd
000003b0: c35f 043c 00b7 76bd a162 b0bd b355 45bd
000003c0: 8feb 2cbe 212d 0ebe dc68 1bbe b3c2 9fbd
000003d0: 9881 d23d 6970 b23d 56c6 b6bd 402a 9bbc
000003e0: 932f 313a d2ed 8b3c 9371 dcbc a940 46bd
000003f0: ad28 c83c 3f8d d63d b996 253d e4f9 0c3c
-0.09082883 -0.031682182 0.07902037 0.001411624 -0.047962442 0.036175434 -0.02436613 -0.098053135
-0.04543088 0.14737469 -0.026121728 -0.023706613 0.12710826 0.03386066 0.0132059585 0.007407235
-0.04120871 -0.09523621 -0.18427134 -0.1741543 -0.016430577 0.01193425 -0.115285255 -0.11036973
0.120613225 0.05701803 0.030165203 0.055040002 0.023834972 -0.15220885 0.031175591 0.16483624
0.019080823 -0.07355869 0.0047491756 0.14938766 0.0061134626 0.07836337 0.014326986 -0.13654515
-0.060126577 0.18832132 -0.060495105 -0.10572823 -0.014086661 -0.06302103 -0.11059185 0.079325594
-0.0016451409 -0.020907098 -0.021521283 0.0039937166 0.07660023 0.0026718734 0.0031007978 0.12223048
0.1916923 -0.072817355 -0.031633724 0.042133585 -0.011143414 -0.10872235 -0.051172823 0.014928997
-0.038016345 -0.05391702 0.010861154 0.006748318 -0.09720974 -0.0089025125 0.06554371 0.033772957
0.0926833 0.0026790567 -0.012277211 0.072014354 -0.0039405995 -0.123259984 0.19787852 0.04398724
-0.12685671 -0.10238933 -0.06593079 -0.052449662 -0.048113786 -0.05774825 -0.0043476783 0.13679537
0.054580174 0.02831076 -0.12550451 -0.009875232 -0.012145317 -0.07050558 -0.03596053 -0.040685512
-0.018435316 -0.0684284 -0.08205449 -0.07413699 -0.12825572 -0.15419982 0.06203029 0.107174605
-0.10048072 0.014680784 0.132862 0.0856314 -0.12391266 -0.13318682 0.034451958 0.073635645
0.07099093 0.037295323 -0.0298433 0.012384847 0.15554209 0.084393844 0.072646946 0.06757241
0.028180638 0.06600439 0.06215114 -0.11839721 -0.12134194 -0.04692668 -0.050963 0.0012346031
-0.10758612 -0.107223235 0.0805574 0.07952757 -0.029361196 -0.02108284 0.011308105 -0.030207576
-0.15222025 -0.08019501 0.07098382 0.03099202 -0.06976148 0.19912884 0.11201837 0.038373362
0.15642811 0.11856539 -0.068189144 -0.052953336 0.124827266 0.008118266 -0.17342176 -0.04885596
-0.09126865 -0.081629336 -0.093427 -0.044343054 -0.049152736 -0.1281084 -0.09874242 -0.11210752
-0.0473069 -0.05361097 0.0060706716 0.026197378 -0.011400206 -0.008224068 0.030855369 0.043270428
-0.032977067 -0.04390666 -0.04536939 0.057177097 0.03541657 0.07238534 0.037885956 0.03658489
0.0686017 -0.06422541 -0.07909916 0.010212234 0.16460612 0.023776626 -0.116494164 0.014714179
0.010807318 -0.025619857 -0.03614177 -0.12670988 -0.047482908 0.0036236544 -0.069247745 -0.057199873
0.015692282 0.07382421 0.05054342 -0.036380805 -0.061256792 0.16837965 -0.043189608 -0.11827138
-0.027069587 0.07019138 -0.04111807 -0.117412515 0.043551713 0.025664955 -0.033537988 -0.004806279
-0.03189189 -0.11739743 -0.114007086 0.09998127 0.09647439 -0.035638075 -0.002390364 0.08971602
0.061140873 0.16546117 0.07408271 -0.114140406 0.00054556236 0.11975558 -0.07126091 -0.17182027
-0.062347196 0.061263792 -0.052110247 -0.020040877 -0.056730602 0.10093118 0.045402545 -0.10201395
-0.09443974 0.18104932 -0.048924975 -0.05202259 0.008079472 -0.060233116 -0.08612562 -0.048177432
-0.16886733 -0.13884403 -0.1517672 -0.07800808 0.10278624 0.08712847 -0.08924548 -0.018941045
0.0006759103 0.017081175 -0.026909625 -0.04840151 0.024433458 0.10476159 0.040426943 0.0086045

features.2.bias f4 [32]
00000000: e68a 8fbe 3f57 0e3e 7383 5b3c 0117 3b3e
00000010: b9d5 03be f074 8b3d 292d c43d d449 babd
00000020: 1a8f 7d3e 0fd1 7fbd 7c7e 4abe 5818 9e3c
00000030: c5e8 21bd ffa9 ab3d 9127 4abd 3a43 e63c
00000040: 8090 63bc a975 863d f42f cb3d 7c74 6a3d
00000050: fe14 483d f45e f93d 2b7e 54bd 0fcf 413d
00000060: 7628 593e 2c6d 343e b66a 41bd 3c55 f5bd
00000070: 6cab d63d 4eca cebd f2b3 39be c078 e7bd
-0.2803566 0.13900469 0.013398039 0.18270494 -0.12874497 0.068094134 0.09578926 -0.09096113
0.2476162 -0.062455233 -0.19774812 0.019298717 -0.039528627 0.083820336 -0.04935414 0.028108228
-0.013889432 0.06565411 0.09921256 0.057239994 0.048848145 0.12176314 -0.051878136 0.047316607
0.21206841 0.17619771 -0.047220908 -0.11979148 0.10481915 -0.1009718 -0.1813505 -0.11302328

features.2.b_w f4 [8, 1]
00000000: 0000 00c3 0000 8042 0000 0042 0000 8041
00000010: 0000 0041 0000 8040 0000 0040 0000 803f
-128.0 64.0 32.0 16.0 8.0 4.0 2.0 1.0

features.6.weight f4 [32, 32, 3, 3]
00000000: fbd0 86bd 4a1d 07be 4127 b13d 8787 cdbc
00000010: f5c3 21be eb07 993d 3af9 673d b73d d3bd
00000020: 797a 0c3e cf45 27be bde5 40be ecc0 adbd
00000030: dc52 06be 9778 46be e2c2 ebbd 6ff7 d4bd
00000040: 437a 36be f68c cfbd 3bdb 563d bb5c dbbc
00000050: b796 873d 44a4 c13c b24d 2dbe f3ee 02be
00000060: 660f afbc fdd8 36be d738 d6bd 34fd e5bd
00000070: 7268 f0bb 92e1 133b cd3b 0dbd 0ba0 c7bd
00000080: 0cd3 3a3c 0252 4dbd 5246 18be 193a 4cbd
00000090: b7f9 af3d 04d9 15bd 0703 163d 49e8 47bc
000000a0: 4c58 e9bd 7a4c 17bc 0907 7b3d 07e7 5ebd
000000b0: 6cad dc3d 78b3 cabc 005e 583d f087 483d
000000c0: 6467 043c 847b 613c 9817 f43d 5e62 db3b
000000d0: 09bd 61bd 566a a53c c11b 98bd dcbf ae3c
000000e0: 9981 d9bc 7bd1 323d ff54 27bc cf9b 233d
000000f0: 1335 373d 4100 3bbc a612 823c 7b03 f4bc
00000100: deed 6cbb 170f 813d f3c4 00be b242 37be
00000110: 6db4 7cbd 4c2b 93bd 38ff 10be 9636 46bd
00000120: 074f 023d 32d4 c3bc e87a a63d 13af a8bc
00000130: eaab 2f3c da1b 063e a75c afbd 66a7 74bd
00000140: 7544 8d3d bb7b a03d d9a2 b0bc 08c5 2abd
00000150: 14b8 dc3d b807 3fbe d181 1fbd 1004 f13c
00000160: b331 c4bd 92bf 073d 3031 b5bd e67a b1bd
00000170: 9251 183e 4f6d ddbd 8a83 fdbd 37ca 723d
00000180: 40f4 73bb 288e 22bd d16a aa3d ee57 b8bd
00000190: a5d8 2cbd 2db8 063d f3ea 09be f0ce 2fbd
000001a0: f800 c23d 66d5 4bbd 8fe6 443d 2540 7f3d
000001b0: a81f abbd 5108 94bd 7048 d93c 147e cbbd
000001c0: a596 5fbd ca01 1d3d 8572 09bd 06ec 9ebc
000001d0: 3ccb 893c 65e1 c0ba 8956 153d cc68 223c
000001e0: f7f5 353d 7e23 8e3d f58a 003e 954e 203e
000001f0: 24c1 ba3d a6e9 d23d c4ee d2bb cb15 cfbb
00000200: ae6c 21bd 12e8 a5bd 74e0 84bd 4b12 a3bc
00000210: 3e7a 42bd e500 86bc 14fc 843c d775 08bd
00000220: 5495 9b3b e64c 9abd c425 8fbd bf7c 413c
00000230: 7686 31bd d655 bcba 71a5 463d 8e39 94bc
00000240: 69d0 ffbd 0f3f eabd a082 e73d 17bc ddbd
00000250: 7a7d 46be a0d2 f8bc 88e8 623c bf26 49bd
00000260: 8d73 9d3d eb85 2bbd 51b1 033e 5e64 d03d
00000270: 88cd 8ebd 3647 c0bc 5213 c13d 3188 08be
00000280: 38e8 023d f803 f63d 44a4 51bd a8a0 9dbd
00000290: c29b 9ebc 07da 343d 202d b03d 9e3f e43d
000002a0: aaf4 f6bd 92a2 4bbc 42fb 2fbd 843f 6f3d
000002b0: 5257 8abd 53a8 cfbd d7ea 953c 8682 cfbc
000002c0: ee42 08be 0a8a 663d 9a56 da3d 159a a5bd
000002d0: 415d e0bc d2e7 e6bd 6d58 4e3c ee63 eebc
000002e0: 3223 10be 69f2 2e3c 68ac a0bd 0350 8dbd
000002f0: a7bf de3c e38f 053d 1eae c03d ce91 563c
00000300: d757 723b d5c6 0c3d 61b7 8cbd f3d8 d43d
00000310: 40ef 8bbd 00a2 d4bd 3540 29be ba8c 3dbd
00000320: 4c5f 5cba a91d edbb dcff 0d3d 4f3b 0a3e
00000330: d293 19be b4e8 c0bc ee9e 793d 1d99 00be
00000340: 0fe5 0dbe 06b0 22bc 6fbd 23be 5426 4abe
00000350: c3b3 b4bc 6cf2 9b3d 7034 f4bc 0e17 ff3d
00000360: 9bc6 91bd d3a4 12bd 6bb0 b03c 4e53 423c
00000370: 0a7c cb3c c836 ad3d 0753 b13d edb6 e43c
00000380: 2147 313c 379c 05be 8833 18be 903a b4b9
00000390: decd 47be c331 4cbe cff8 05be 9ac0 3a3d
000003a0: d0f7 09bd 311e b93c d29e 0fbc 661c f13d
000003b0: d886 e23d 3ead e9bd 9f52 5e3d f5a3 403d
000003c0: 6a2d b4bd 987f 693d ba66 1f3d 1e4d 583c
000003d0: 047d 45be 49e0 43bd 849f 633c d2c0 25be
000003e0: 9ef7 3dbd de65 b23d f277 693d 0820 333b
000003f0: 840d 953c 8b06 d0bd 7792 8abc 850f 6f3d
-0.065828286 -0.13194767 0.08650065 -0.025089039 -0.15797408 0.07472213 0.056634165 -0.103145055
0.13718595 -0.16335224 -0.18837638 -0.084840626 -0.13117546 -0.19381939 -0.1151178 -0.10398757
-0.17820077 -0.10134308 0.05245517 -0.026777616 0.066205435 0.023637898 -0.1692417 -0.12786464
-0.021369647 -0.17856212 -0.1046006 -0.11229935 -0.0073366696 0.002256487 -0.03448086 -0.09747323
0.011402857 -0.050127037 -0.14870575 -0.049860094 0.08592551 -0.036583915 0.03662398 -0.012201377
-0.113937944 -0.009234542 0.061286006 -0.054419544 0.10775265 -0.02474378 0.05282402 0.048957765
0.008081291 0.013762359 0.11918563 0.006695076 -0.05511192 0.020192306 -0.07427169 0.02133172
-0.026551055 0.043656807 -0.010213136 0.039943513 0.04472835 -0.011413635 0.015878033 -0.029786816
-0.0036152522 0.06301706 -0.1257513 -0.17896536 -0.061695505 -0.071859926 -0.14159858 -0.0483919
0.031813648 -0.023904894 0.08128911 -0.020591294 0.01072214 0.13096562 -0.08562594 -0.059729956
0.06897823 0.078361 -0.021562027 -0.04169181 0.107772976 -0.18655288 -0.038942162 0.029420882
-0.09579792 0.03314168 -0.088472724 -0.08666019 0.14874867 -0.108118646 -0.12378605 0.05927488
-0.0037224442 -0.039686352 0.08321155 -0.09001146 -0.042198796 0.032890487 -0.13468532 -0.04292196
0.09472841 -0.04976406 0.04807144 0.062317032 -0.08355647 -0.07228149 0.026523799 -0.09936157
-0.054587025 0.038331784 -0.03355648 -0.019399654 0.016820543 -0.001471561 0.03645948 0.009912681
0.044424023 0.06940363 0.12553008 0.15654977 0.0911887 0.10298471 -0.0064371545 -0.0063197366
-0.039410286 -0.081009045 -0.064881235 -0.019906184 -0.04747986 -0.016357848 0.016233481 -0.033315506
0.004748026 -0.075341985 -0.06989625 0.011809527 -0.043341123 -0.0014368843 0.04849762 -0.01809385
-0.12490923 -0.11437809 0.113042116 -0.10826891 -0.19383803 -0.030373871 0.013849385 -0.049109217
0.07688055 -0.04187576 0.1286061 0.101753935 -0.06972796 -0.023471456 0.09427513 -0.13333203
0.031959742 0.12012476 -0.051182047 -0.076966584 -0.01936138 0.04415324 0.08602357 0.111449465
-0.12058385 -0.0124288965 -0.042964227 0.058410183 -0.06754936 -0.10139527 0.018300457 -0.025330793
-0.13306782 0.056283988 0.10661049 -0.080860294 -0.027388217 -0.11274685 0.012594325 -0.029100385
-0.14075926 0.010677912 -0.07845384 -0.06900027 0.027190996 0.032607924 0.0940821 0.013096286
0.0036978626 0.03436931 -0.06870914 0.10392942 -0.06832743 -0.103824615 -0.165284 -0.046276785
-0.00084065343 -0.007236202 0.034667835 0.13499187 -0.14997795 -0.023548461 0.060942583 -0.12558408
-0.1385691 -0.009929663 -0.15990232 -0.19741184 -0.022058373 0.07614598 -0.02981016 0.12455569
-0.07117959 -0.03580172 0.021568498 0.011860682 0.02483942 0.08457714 0.08658414 0.027919257
0.010820181 -0.13047872 -0.14863408 -0.00034375908 -0.19512126 -0.19940858 -0.13083194 0.045593835
-0.033683598 0.022597404 -0.008765893 0.11772995 0.11060876 -0.114099964 0.054278012 0.04703136
-0.087977245 0.05700645 0.038916327 0.01320198 -0.19285971 -0.047821317 0.013893012 -0.16186836
-0.046378724 0.08710836 0.056999154 0.0027332325 0.018194921 -0.10157498 -0.016915543 0.05836441

features.6.bias f4 [32]
00000000: 7174 863e e069 273e c650 fe3e a3e2 a93e
00000010: 148c ea3e 933d 6c3d db47 073f 0700 65bc
00000020: 64d2 963d 8999 223e 398d 0d3f 1846 9cbe
00000030: 375b 8a3d 3d27 163f 6944 053f e4a3 1b3e
00000040: ca03 1f3d 5565 d03e c84f 083f cfc1 243d
00000050: b2c9 1fbe 582b 073f fa9d d9be 1385 2e3e
00000060: 3f28 d93e 8da6 63bd f391 513e aa3d ab3e
00000070: 75b2 febc 21ef dd3e f581 9a3e f2d9 3d3e
0.26260713 0.16348982 0.49671 0.33180723 0.45809996 0.05767591 0.5284402 -0.013977057
0.073643476 0.15878882 0.55293614 -0.30522227 0.06755679 0.5865362 0.5205751 0.15199238
0.038821973 0.4070231 0.53246737 0.040223893 -0.15604284 0.5280051 -0.4250334 0.17042951
0.42413518 -0.055578757 0.20465831 0.33445483 -0.031090954 0.43346503 0.30177274 0.18540171

features.6.b_w f4 [8, 1]
00000000: 0000 00c3 0000 8042 0000 0042 0000 8041
00000010: 0000 0041 0000 8040 0000 0040 0000 803f
-128.0 64.0 32.0 16.0 8.0 4.0 2.0 1.0

features.8.weight f4 [32, 32, 3, 3]
00000000: 2f0e 753d da38 c23c b981 24be 86eb 973d
00000010: aab6 a23d d2ba 573d 5dc2 bc3c 02e5 843d
00000020: 495f a23d c224 0ebe 2394 62bd abe0 09be
00000030: a586 bbbd a48e aebd b2e7 99bd 5604 c2bd
00000040: a8ca 9bbc be3b bcbc 99ec cd3d 9455 b13d
00000050: 7b6a 03be 2ff2 003e 5be1 bb3d fa4f 9ebd
00000060: 2da7 973d f346 df3d 4586 633d 327d 48be
00000070: 41c1 97bd 5043 d53d 94cb 4cbe 0d7c e7bd
00000080: a126 2b3e 8db5 06be 3876 973b 8153 2fbd
00000090: 126d d53d 1d51 383d f056 99bd cb5a a03d
000000a0: 5f8c cc3d b21e d13c 3bad 8f3c fe8f a43d
000000b0: 97f1 583c d9eb f6bc 85d4 cbbd f3db 37bd
000000c0: 24cd 1ebc ad79 08bd 4fdc d1bd dfa9 9d3c
000000d0: aee0 34bb 1937 7bbd bd73 64bd 00ee 8cbb
000000e0: 10b3 0ebe 8455 7d38 0552 343e 656b 9b3c
000000f0: 655e 073e 4de6 af3d 3d9d 6dbd d318 3abd
00000100: af4b c63d e7ad 8e3d f202 01be 8267 17be
00000110: 2a51 48be b83e 05be 5403 37be eb96 3abe
00000120: 5dac 473d e437 813d 48d9 063b c2fa bc3c
00000130: 8b2a e03c 9a48 06bd e181 093d 856e 0cbe
00000140: b702 31be ab5b 0b3d 1b88 9b3d a6c9 fb3c
00000150: 5986 a2bc 20b0 843d 6b44 2b3e e035 bc3c
00000160: a304 463d 4942 303d 2943 113d 8450 37bc
00000170: 391d 04bd c9d7 283c cf26 343d b986 fc3d
00000180: 60bc fd3c 40ec 883d 4453 643d bf00 853d
00000190: 6e4f f93c b661 253e 9fdf d9bd 7c42 10bd
000001a0: 0fd5 7a3d 4f34 37bd 2096 973c a7da ab3d
000001b0: a123 cfbd 84b6 49bd 6f84 083d 1e6b d3bd
000001c0: d70b 3cbd 90d9 e7bd 029d b0bd b367 0ebe
000001d0: c76c 19be f317 87bd a984 ebbc babf 4cbe
000001e0: af1f bc3d 01c8 ccbb b79b 1bbe c459 803d
000001f0: 63b9 693d d9fd 03be ff13 11bd 0188 f5bd
00000200: ef94 43be d60f ab3d 0d60 5c3c 33e3 243a
00000210: 73cd 9dba b876 e2bc 49f7 efbc f1fa fd3c
00000220: 1aa5 bcbd 109d cbbd c937 f43b ae89 2cbc
00000230: 7136 e6bc 89df 48bc 76da 19bd 366e 0ebe
00000240: 9655 25bd 4455 1e3c 1b2d f2bd df5a 10bd
00000250: 617f f8bc fd7c 98bd 9862 c4bd 71c7 a7bd
00000260: 108c 76bd 08a4 6a3b 9db7 d8bc a9fd 6fbd
00000270: adfe 3abd b445 d63c e41d 81bd 1f24 07bc
00000280: d977 903d 7228 c53a 9930 79bd 90d7 303c
00000290: 08ce 0abd 332c 0a3d 9e3d cb3d 444e 593d
000002a0: 33fb 3bbc 2a92 c0bc c406 64bd a00d b33a
000002b0: 955d 103c 45a5 f03b 746d 1bbd b099 73bd
000002c0: 7b47 cbbd 6c13 1ebd 7546 c6bd 0a65 48be
000002d0: 5498 49bd 0617 cdbc 7fc7 fe3c 8304 30bd
000002e0: 7cf6 87bd 60b4 17bc 32f6 5ebd e6b9 dcbd
000002f0: bdbb abbc b3cf 253c f15f 27bd 11e3 e3bc
00000300: 81f1 5bbc 470c a83d 8019 65ba eb85 043d
00000310: 1d9f 0f3e baf0 8a3d f3f2 50bd c042 43bd
00000320: a306 4b3b 5799 57bd e5a8 d93c 976e b9bd
00000330: 47b5 d6bc 4db8 cabc 6719 2cbd fcdc ab3d
00000340: 56b8 153d 36b8 0f3d 218b 27bb 88fa 0b3e
00000350: a459 ec3c 2d6c dcbc f1f2 67bd 06ef e4bc
00000360: 5506 09bd fac5 b9bd 9e24 3abe 01f8 1e3d
00000370: ab71 393d 4f54 843c ba18 9e3b e4fb aa3d
00000380: 07f7 ec3d 34cf 38bd a5c8 333e 16f4 103e
00000390: c802 17be f998 2a3e 4800 473e a243 48be
000003a0: 95be f8bd fa9f c1bc 03c5 c43c 3b35 d2bc
000003b0: e37b bcbd b0b0 743c 6b29 893c ae16 a23c
000003c0: 6bb0 a23b 0e3b d2bd 1cf0 7a3b 900e 6bbd
000003d0: b169 bf3d 8c0a ce3c c5ed b43c 7602 d53c
000003e0: 8555 0ebd 62f5 0ebd a06e 0abd a8cf 88bd
000003f0: 7886 e9bd 8963 8fbd 333c 05bc f49e 23bd
0.05982798 0.02370875 -0.1606511 0.074179694 0.07944997 0.0526684 0.023041898 0.06488992
0.079283305 -0.1388121 -0.055317055 -0.1346461 -0.09156541 -0.085233 -0.075148955 -0.09473483
-0.019017532 -0.022977706 0.10054893 0.08658901 -0.12833588 0.12592386 0.091738425 -0.07730098
0.07404933 0.10902204 0.05554797 -0.19579008 -0.07409907 0.104132295 -0.19999534 -0.11302958
0.16713955 -0.13155194 0.004622247 -0.042804245 0.10421194 0.04499923 -0.07487285 0.078298174
0.09987711 0.025527332 0.017538657 0.08035277 0.013241193 -0.030141758 -0.09952644 -0.044887494
-0.009692464 -0.033319164 -0.10247099 0.01924604 -0.002759974 -0.061331842 -0.05577444 -0.0043008327
-0.13935494 6.0399543e-05 0.17609413 0.018972108 0.13219602 0.08588848 -0.058011282 -0.04543383
0.09682404 0.06966763 -0.1259878 -0.14785579 -0.19562212 -0.13012207 -0.17872363 -0.18221633
0.048748363 0.063094884 0.0020576287 0.02306879 0.027364036 -0.032784082 0.033571128 -0.13714035
-0.17286192 0.03402297 0.075943194 0.030735802 -0.019839453 0.06478906 0.16725318 0.022974908
0.048344266 0.043031964 0.03546444 -0.01118863 -0.03225443 0.010305353 0.043982323 0.12330384
0.030973613 0.06685686 0.05574347 0.06494283 0.030433383 0.16150555 -0.106383555 -0.035219654
0.061238345 -0.04472762 0.018504202 0.08391314 -0.101142175 -0.049246326 0.033329424 -0.10323165
-0.04590973 -0.11320794 -0.08623697 -0.13906746 -0.14982902 -0.06596365 -0.02874978 -0.19995013
0.09185731 -0.0062494283 -0.15196119 0.062671214 0.057061564 -0.12889804 -0.03541946 -0.11988831
-0.19099782 0.0835263 0.013450635 0.0006289959 -0.0012039378 -0.0276445 -0.02929272 0.031003447
-0.09211178 -0.09942067 0.007452939 -0.010530872 -0.028102132 -0.012260326 -0.037561856 -0.1390923
-0.040364824 0.009663884 -0.118250094 -0.03524291 -0.030334176 -0.074457146 -0.09589118 -0.08192337
-0.060192168 0.0035803337 -0.026454741 -0.05859152 -0.045653034 0.026156284 -0.06304529 -0.008248358
0.07054109 0.0015041961 -0.060837362 0.010793582 -0.033887893 0.033733558 0.09923862 0.053053156
-0.011473465 -0.023507196 -0.055670515 0.0013660677 0.008811374 0.0073439204 -0.03794618 -0.05947274
-0.09925743 -0.03859274 -0.09681407 -0.19569793 -0.049217537 -0.025035392 0.031100987 -0.042973053
-0.0663881 -0.009259313 -0.05443401 -0.10777645 -0.020963544 0.01012032 -0.04086298 -0.027818235
-0.013424278 0.08205467 -0.00087394565 0.032354277 0.1402554 0.06784196 -0.051012944 -0.04767108
0.0030979298 -0.05263647 0.026569793 -0.090542965 -0.026209487 -0.024746085 -0.042016413 0.08391759
0.03655275 0.035087787 -0.0025565105 0.13669789 0.028851338 -0.026907051 -0.05662817 -0.027946007
-0.033453304 -0.09070964 -0.18178031 0.038810734 0.045274418 0.016153483 0.004824725 0.083488256
0.11570554 -0.04511948 0.17557009 0.14155611 -0.14747155 0.16659917 0.19433701 -0.1955705
-0.12145726 -0.023635853 0.024019724 -0.025660148 -0.09203317 0.014934704 0.016743382 0.019786205
0.0049648783 -0.1026517 0.003829009 -0.057386935 0.09346331 0.025151514 0.022086034 0.02600215
-0.034749527 -0.034901984 -0.033796906 -0.06680232 -0.11402601 -0.07001407 -0.008132028 -0.03994651

features.8.bias f4 [32]
00000000: 342b 0f3d 81a6 f93e bc9a 5cbb e9bc 7ebe
00000010: f219 5e3d 6dc1 ea3c d063 593e ab95 f73e
00000020: bb2b a53e a458 3a3d 80af e9bc 0596 603e
00000030: c37d c13e f16c 193d 2cb5 303f 992f aa3e
00000040: 9a39 873e 204d 6e3c ac4e 7e3e 6b77 b33e
00000050: bfc2 243f 39b6 913e 9e06 d83e 890a a73e
00000060: 5a9e 723e d8f7 533e 9f5d bc3e 44e7 043e
00000070: 079b a03e 9c73 413e 6e1f 2f3e 8580 2e3e
0.03495331 0.48759845 -0.0033661565 -0.24876751 0.054223962 0.028656686 0.21229482 0.48356375
0.32259926 0.04549469 -0.028526068 0.21932228 0.3779126 0.03745741 0.69026446 0.3323944
0.26411134 0.014544755 0.24834698 0.35052046 0.6435966 0.28459337 0.4219255 0.32625225
0.23693219 0.20700014 0.36790177 0.12978846 0.31368276 0.18891758 0.17101833 0.17041214

features.8.b_w f4 [8, 1]
00000000: 0000 00c3 0000 8042 0000 0042 0000 8041
00000010: 0000 0041 0000 8040 0000 0040 0000 803f
-128.0 64.0 32.0 16.0 8.0 4.0 2.0 1.0

classifier.0.weight f4 [10, 2048]
00000000: 5360 643c b4f5 16bc 3fe9 14bd 09e2 ae3c
00000010: 6418 2f3d a955 26bc 1b26 5e3c a7af 8c3c
00000020: 39bb fc3c f357 c6ba c64e 013d 47e0 853d
00000030: 326e 8b3d 17c0 653c f7bc 59bd c362 e339
00000040: dbaa 7a3d f9fe 2e3d a6bd 653d f16e a03d
00000050: c0ef 853d 1d1a 8e3c 2fe6 78bd 8015 3a3c
00000060: 7752 bd3d f688 df3d f7f0 a33d 5d96 b23d
00000070: 2977 4a3d 7745 d2bc 9812 d0bc c220 10bd
00000080: 8795 ce3d 1a71 ef3d dd89 d03d e7f7 d03d
00000090: 4367 7a3d 5f25 993c dd0b ad3b 762a c7bc
000000a0: a8b2 3d3d 7e08 ec3d 79f6 bd3d 4007 d73d
000000b0: abea 0a3d dacb 693c 6c25 483d 855a 533a
000000c0: a0e6 c93d e241 d83d 7a58 863d 902a a93d
000000d0: 9104 163d b90f 1b3d 6240 ca3c 923a 863c
000000e0: 6aa3 dfbd 5ee4 b63d 22e5 e23d 77c7 b73d
000000f0: 4fa1 8f3d 247b 5d3d 7861 323c 6fde 72bd
00000100: 4df1 d23b 7118 0abd da31 83bd 1008 9cbc
00000110: 8749 c4bc 9755 c1bd 68fa 50bd e1a5 d0bc
00000120: ab73 84bc f0b8 3cbc 5e28 abbd 4ccf 71bd
00000130: ec85 b5ba 11e2 51bd 30b3 8dbb 534a 693d
00000140: 086a ef3c a011 393b 65cb 48bd d7ec 3cbd
00000150: aa1e afbc bc09 1bbd 1733 643d 79f9 4e3d
00000160: 01ba 193c c28c 8b3d dba1 1dbd dbb8 81bc
00000170: 3144 3abd 1f04 65bd 91c7 a23c 7b47 bf3d
00000180: a773 0abd dcc6 ab3c 87e9 8d3c ffb8 56bb
00000190: 3509 70bd d014 f6bc 293c 213a fffe 1d3d
000001a0: 3ed1 44bc 3c04 82bb 7aac 713d 9402 6b3c
000001b0: 0232 d5bc 9c08 13bd c67d 80bd 2b12 35bd
000001c0: 91e2 febc b549 4bbd becb 9a39 60bf 3f3d
000001d0: c453 ca3c e045 1c3d f492 40bd 9025 e83a
000001e0: a15b 6f3d 1ab4 87bd 8ce1 cabc 9070 093a
000001f0: 5f57 3a3c 35d4 98bc 09fd 8bbd a9e2 283d
00000200: 301b 4b3c 5a1d 33bd e7a7 803d c371 433d
00000210: 3bf6 103c 2f76 173c ec1b 163d ffaa 2c3c
00000220: f070 b8bc 355a bf3c 55e1 d13c 2f6c 8a3c
00000230: fa07 62bc 0061 d53c 429d f83b 360d 87bc
00000240: 5fe4 d1bc 3c27 44bc 866e 4b3d 9435 85bc
00000250: 3650 e0bc 95fe 06bc dfe3 03bb b55a 5d3c
00000260: 8e7f 1a3d 0ff9 2d3d ad4e 1c3b a101 39bd
00000270: 0e02 d1bc 453e 803d 2968 173c 2a67 2d3c
00000280: c6bd e33d 596b 9b3d 67fa bbbc a111 f9bc
00000290: b76a b6bc 7f26 1e3d de63 3e3d 2575 623d
000002a0: 69d3 df3d 29b3 223d 856b 0d3c 8f3b 003d
000002b0: b6ed 9b3c 073d e23c 55ae 253d d3f5 d53d
000002c0: 3c7d b23d feaf 4f3d 7d84 a33a b78a ab3c
000002d0: e49a 833b f5fc 403d ae0e a73d a807 eb3d
000002e0: d5a9 24bd fcaa 08bd a404 ac3b 475c b23c
000002f0: 80f2 f6bb bd38 193d 5cd8 363c 3508 3dbd
00000300: b5af 6dbc c776 82bc 7215 acbc 6eeb 0a3b
00000310: cf03 d13c a962 0e3c 8046 5dbc 919e 95bc
00000320: 0957 9dbd 9f98 a4bd 5436 313b 0381 603c
00000330: 0095 f83a 796b dabb 4c06 bd3c 30d1 32bc
00000340: ea06 c9bb a6f7 523d 7a03 533d e159 453c
00000350: 15da 253d ecb5 993d 8ae4 15bd 8cd4 8f3c
00000360: 9725 12bc d666 0e3d d6e7 393d e8b3 703c
00000370: d1e5 c3bb a981 213d 1d5b 063b 70c0 e23c
00000380: 0e15 fbbc fc08 843c e34a f13c 0de8 6d3b
00000390: 4c8d ed3c 0232 223d 3ed9 303d 79f4 3b3d
000003a0: 7906 003c db8b 1b3c e44e 013c a2f1 ab3d
000003b0: 6cb5 ac3d 62c9 933d 620b 283c 2b72 8a3d
000003c0: 35d8 143d 41a6 813d 6ed1 333d 29c3 703d
000003d0: 358b c53d 77b5 a53d c760 3b3d 8ca2 983d
000003e0: cef5 3f3d 92d8 dd3d f2c3 b33d 1137 c53d
000003f0: 38ad 4e3d b326 473d 95f5 003b 77c8 933c
0.013938981 -0.009213854 -0.036355253 0.021348016 0.04274787 -0.010152259 0.01355889 0.017173601
0.030850993 -0.0015132412 0.031569265 0.06536918 0.068081275 0.014022849 -0.053158727 0.00043370397
0.061198097 0.04272363 0.056089066 0.078336604 0.06539869 0.017346436 -0.060766395 0.011357665
0.092442445 0.10914795 0.08004945 0.08720086 0.049430046 -0.025667889 -0.025399491 -0.03518749
0.10087114 0.11691494 0.10182545 0.102035336 0.061133634 0.018694578 0.005280955 -0.02431224
0.046312958 0.11525057 0.092755266 0.1049943 0.033915203 0.014269793 0.048863813 0.00080624997
0.09858441 0.10559441 0.06559844 0.08260071 0.03662545 0.03785679 0.024688903 0.01638535
-0.10919841 0.08930276 0.1107886 0.08973592 0.07013189 0.054072514 0.010887496 -0.05929416
0.0064374567 -0.033714715 -0.06405993 -0.019046813 -0.023960842 -0.09440153 -0.051020056 -0.025469722
-0.016168436 -0.011518702 -0.08357309 -0.059035584 -0.0013849116 -0.051240984 -0.0043243393 0.056955647
0.029225364 0.0028239265 -0.049022097 -0.046124306 -0.021376926 -0.03785108 0.055712786 0.050530884
0.009382726 0.06813957 -0.038484436 -0.015835216 -0.04547519 -0.055912133 0.019870551 0.09339806
-0.0338017 0.020968847 0.017323269 -0.0032764075 -0.05860253 -0.030039221 0.0006150627 0.03857326
-0.012012778 -0.00396779 0.059002377 0.014343876 -0.026024822 -0.035896882 -0.062739894 -0.04420678
-0.031113895 -0.04963084 0.0002952497 0.04681337 0.024698146 0.038152575 -0.047015145 0.001771139
0.058436994 -0.066261485 -0.024765752 0.00052429084 0.01137337 -0.018655876 -0.06835372 0.041231785
0.012396619 -0.043729164 0.06282025 0.047715914 0.008847768 0.009244486 0.036647722 0.0105388155
-0.02251479 0.023358444 0.025620142 0.01689729 -0.013795847 0.02604723 0.007587106 -0.016485792
-0.025621591 -0.011972245 0.04966595 -0.0162609 -0.027381998 -0.008239408 -0.0020124835 0.013510396
0.037719302 0.04247385 0.0023850605 -0.04516757 -0.025513675 0.06261877 0.009241142 0.010583678
0.11120181 0.07588834 -0.02294655 -0.030403914 -0.022267682 0.03861093 0.04648196 0.0552875
0.10928995 0.03972164 0.008631592 0.0313068 0.019034248 0.02761699 0.04044946 0.10447278
0.08715293 0.05070495 0.0012475398 0.020940168 0.004016267 0.04711624 0.08157097 0.1147607
-0.040201027 -0.03336619 0.0052495766 0.021772517 -0.0075362325 0.037407625 0.0111599825 -0.046150405
-0.014507224 -0.015925778 -0.02100632 0.0021197456 0.025514511 0.008690515 -0.013505578 -0.018264087
-0.07682616 -0.08036923 0.0027040439 0.013702634 0.0018965304 -0.006665644 0.023074292 -0.010914132
-0.0061348574 0.051505707 0.051516987 0.012045355 0.040491182 0.07505402 -0.036594905 0.017557405
-0.008920095 0.03476604 0.04538711 0.0146913305 -0.005978324 0.039430294 0.0020501085 0.027679652
-0.030649688 0.016117565 0.029454654 0.0036301643 0.02899804 0.039598472 0.04317593 0.045887444
0.007814043 0.009493793 0.007892344 0.08395697 0.08433041 0.07216145 0.01025662 0.06760057
0.036339004 0.063305385 0.0439009 0.05877987 0.09645692 0.08091252 0.04574659 0.07452878
0.046865277 0.10832323 0.08777608 0.09629644 0.050458163 0.04862089 0.0019677628 0.018039925

classifier.0.bias f4 [10]
00000000: b9e0 a1bd 42a4 a5be 6d83 2abe 68a6 fc3d
00000010: 7d4c 5e3e 6eb9 03bd 7361 e13e 851b 34be
00000020: 5006 5a3e 612d 1cbe
-0.079041906 -0.3235188 -0.16651697 0.12336427 0.21708865 -0.03215926 0.4401966 -0.17588623
0.2129147 -0.15251686

classifier.0.b_w f4 [8, 1]
00000000: 0000 00c3 0000 8042 0000 0042 0000 8041
00000010: 0000 0041 0000 8040 0000 0040 0000 803f
-128.0 64.0 32.0 16.0 8.0 4.0 2.0 1.0

momentum_buffer f4 [32, 3, 3, 3]
00000000: 1739 123e ec9c 103e 188b 303e d054 443e
00000010: 5fdc 383e a8c8 513e d89b 2e3e 5abc 1d3e
00000020: bc20 2b3e 79b2 0a3e b136 0e3e db43 213e
00000030: 8c36 283e 0bab 1f3e e050 313e 1af9 083e
00000040: 3ad8 fb3d 40bf 013e fcaf cd3d 2a19 d03d
00000050: ad81 093e e3bf 003e d242 f63d 4325 1a3e
00000060: 6258 e43d bf15 da3d 1393 f33d 773a 293d
00000070: 64f4 bd3d 291f be3d 2964 863d e05b e23d
00000080: b335 e13d 1664 5e3d 97e0 b03d c11c b93d
00000090: 8427 023d e529 a63d aa18 9e3d 627b 7f3d
000000a0: 5d65 ce3d 9ed4 ca3d af8b 483d f37d 973d
000000b0: 1d6b a53d 7e24 e73c da00 8b3d a8dd 673d
000000c0: b867 673d 0ee4 9d3d 2992 903d de40 563d
000000d0: dcbb 7a3d 5954 773d 641b 8cbd e402 88bd
000000e0: b6a5 47bd c258 233d 3a9e 623d ee96 b93d
000000f0: 9cba b13c 48d7 a33d f97a 0c3e c079 69bb
00000100: 407b 303a a0fb 7bbb c7ec b93d 2e98 dd3d
00000110: 6ed4 f33d a8f2 833d 601a f33d d048 183e
00000120: 1a41 7d3d d392 8d3d 5e8b 973d bdd8 233e
00000130: 8a44 343e ace5 3b3e 2085 0d3e 84b9 383e
00000140: eb96 4e3e 1752 b3bd 5c10 06be a703 1cbe
00000150: c5b4 f6bd bc96 1ebe a65f 2cbe 6049 7ebd
00000160: 5396 e0bd 1e3a eabd 1453 b5bd 5b65 01be
00000170: e96f 11be 6478 f7bd 2365 19be 404c 20be
00000180: 93c1 49bd 9ab6 c7bd de39 c2bd 5772 a6bd
00000190: 6614 e2bd 4e6e 0cbe e487 ddbd 926f fabd
000001a0: 0c69 0cbe 6b4e 4ebd 9cb2 aabd c6cf b0bd
000001b0: 2c61 b43d f00f 743d 4a47 963d 765d 873c
000001c0: 6272 323c 2efc 863d d622 17bd f553 95bd
000001d0: d8d7 91bc 21c4 943d d0d5 5a3d 2c86 403d
000001e0: 8c25 d83b 222c 403c e792 1d3d 28d0 3abd
000001f0: faa5 92bd 54bd 2abd a6e1 d23d eac7 993d
00000200: c446 6b3d 66fd 1a3d 0a37 fe3c 92dc 223d
00000210: a412 f5bc 1907 5abd b417 2dbd 3e2a 853d
00000220: 24ae 6d3d 3ff8 933d 5aed 283c 50af 0b3c
00000230: ba4b de3c 2ebd 32bc 3e29 8fbc fd5a f6bb
00000240: b418 1f3d 9169 113d 6442 403d 2c9f 81bc
00000250: 4200 7bbc ae88 9d3b cbcb e0bc 896f 0abd
00000260: f343 e7bc 8632 553d 6668 3a3d ba22 5f3d
00000270: a45a 0b3c 50e2 b63b 5e44 d93c a053 8ebb
00000280: 18da 2cbc 38a7 3bbb b257 d33d b86f f43d
00000290: c71d d43d fe9c 013e ce67 103e 782f ca3d
000002a0: c4e6 b73d 8cfb d23d fa20 6c3d dc1e b93d
000002b0: 2f50 f43d e81a c23d 22af c03d 8ad5 f03d
000002c0: 595e 893d 5c87 733d 9cd8 a53d 4701 f23c
000002d0: ffe3 e73d bee8 0d3e 6b78 b63d 8ee2 fa3d
000002e0: 86c8 183e 10b8 a33d 8d5e 963d 0d35 dd3d
000002f0: 3654 343d 1234 003e f603 123e c86a e53d
00000300: 7e2c 123e db82 fb3d 32e5 c03d 09ab 613e
00000310: ca39 6b3e 1adf 343e f5fd 6e3d 03ee 963d
00000320: bc51 4d3d 3c86 993d e1c1 473d 66d4 bf3c
00000330: 2080 193e 6435 213e beac d23d 6e11 a03d
00000340: 0c02 c43d f6e8 ba3d a7e8 af3d 4468 793d
00000350: 0ca7 523d aad7 243e 53ca 233e 8e54 063e
00000360: 3b87 2dbe e41f dfbd 1aa4 a4bd bc47 09be
00000370: a1f0 e3bd 04f4 febd f40e ffbd b8fd ffbd
00000380: 3410 17be 3a32 1dbe 62ba e2bd e81f 81bd
00000390: 5144 f2bd 606b dabd 050c cbbd c1e8 fcbd
000003a0: af56 05be cf24 03be fab0 02be 8a39 93bd
000003b0: 46cd 22bd 2d54 c8bd fc93 9abd 9ef7 9fbd
000003c0: 3c07 e9bd c052 e2bd f8f0 f4bd efd0 f23d
000003d0: 28ad bf3c 48d0 9fbc ec6e 433d 6aa2 553c
000003e0: 66b9 3d3c 17b7 ca3d c6b7 4a3d cc99 013d
000003f0: 54e1 dc3d bd1a a33c 5d12 80bb 0890 443d
0.1427959 0.14122361 0.1724056 0.19172978 0.18052815 0.204867 0.17051637 0.15403882
0.16711706 0.13544644 0.1388805 0.15748541 0.16427058 0.15592591 0.17316008 0.13376275
0.12297101 0.12670612 0.10043332 0.1016105 0.13428374 0.12573199 0.12024464 0.15053277
0.1114967 0.10648679 0.118932866 0.041315522 0.092751294 0.09283287 0.06562073 0.1105268
0.109965704 0.05429467 0.08636587 0.090386875 0.031775966 0.081134595 0.07719548 0.062373526
0.10077927 0.09903835 0.048961338 0.0739707 0.08077071 0.028215643 0.06787272 0.056607872
0.0564954 0.077095136 0.07059128 0.052307956 0.061214313 0.060383175 -0.06841162 -0.06641176
-0.04874202 0.039879568 0.055326678 0.09061991 0.021695428 0.08000046 0.13718785 -0.0035625547
0.0006732233 -0.003844954 0.09078365 0.108200416 0.11905752 0.064427674 0.11870265 0.14871526
0.061829664 0.0691277 0.07399629 0.16000648 0.1760427 0.18349332 0.13820314 0.18039519
0.20174758 -0.08755892 -0.13092178 -0.15235768 -0.12046198 -0.15487188 -0.16833362 -0.062081695
-0.10966172 -0.11436866 -0.088537365 -0.1263632 -0.14202847 -0.120835096 -0.14979987 -0.15654087
-0.049256872 -0.09751625 -0.094836935 -0.08127277 -0.11039047 -0.13713953 -0.10816935 -0.122283116
-0.13711947 -0.050367754 -0.08334848 -0.0863338 0.088075966 0.05958551 0.07337816 0.016524058
0.010891529 0.06591068 -0.036898457 -0.07291404 -0.017803118 0.07263971 0.053426564 0.047002956
0.006596273 0.011729272 0.038470175 -0.04560867 -0.07160564 -0.041684464 0.10296945 0.07508834
0.057440534 0.037839316 0.031032104 0.039761133 -0.029916115 -0.053229425 -0.042258933 0.06502198
0.0580274 0.072250836 0.010310495 0.0085256845 0.027135719 -0.010909362 -0.01747572 -0.007518171
0.038841918 0.035501067 0.046938315 -0.01582297 -0.015319886 0.0048075533 -0.027440926 -0.033797774
-0.028230643 0.052050136 0.04550972 0.054476477 0.008505497 0.005581178 0.026521858 -0.004343465
-0.0105500445 -0.0028633606 0.10319461 0.11935371 0.10357242 0.12657544 0.14102098 0.09872335
0.08979562 0.10301885 0.057648636 0.09039089 0.11929356 0.09477788 0.09408404 0.11759479
0.067074485 0.05945526 0.080979556 0.029541625 0.11322784 0.13858315 0.08909687 0.12250243
0.14920244 0.079940915 0.07342253 0.10801134 0.044025622 0.12519863 0.14259323 0.112020075
0.14274785 0.12280818 0.094187155 0.22037901 0.22971264 0.17663231 0.05834766 0.07369616
0.050126776 0.07496306 0.04876888 0.02341671 0.14990282 0.15743023 0.10286854 0.078158244
0.09570703 0.09126465 0.08589297 0.06089045 0.05142884 0.16097894 0.1599515 0.13118193
-0.16946118 -0.108947545 -0.080391124 -0.1340627 -0.11129881 -0.12448886 -0.12454024 -0.12499565
-0.14752275 -0.15351191 -0.11070706 -0.06304914 -0.118294366 -0.106650114 -0.09914402 -0.12349082
-0.13021348 -0.1280701 -0.12762824 -0.07188709 -0.039746545 -0.0978168 -0.07547757 -0.07810901
-0.11378333 -0.110509396 -0.11960024 0.11856257 0.023397997 -0.019508496 0.047713205 0.013039211
0.011579847 0.09898203 0.049491666 0.031640813 0.107851654 0.01991021 -0.003908439 0.04798892

momentum_buffer f4 [32]
00000000: 00a3 243b 924f 58bd b23d adbd 98cc 8c3d
00000010: 405a 20bd ae00 a53c 5f57 ab3d c7e3 17be
00000020: fc30 ae3d 3310 3ebe a850 423c 4a15 6a3d
00000030: 9381 053d 3ce5 f93d ae04 4f3c da7f 0ebe
00000040: 8a45 d53c 3cd3 fdbd 11c4 573d 2469 973c
00000050: cedb 3abd b0b1 b23c 1c6b aebd c468 adbd
00000060: c242 e9bd d05f 563c f485 1dbc 0a85 5cbd
00000070: ccf3 30bd 6679 613d 52ac bc3d 4af9 43be
0.002512157 -0.05281026 -0.08459033 0.06874961 -0.03914857 0.020141926 0.08366274 -0.14832984
0.08505437 -0.18560867 0.01186005 0.05714921 0.032594275 0.12201926 0.012635393 -0.13915959
0.026034135 -0.123938054 0.052677218 0.018482752 -0.04561978 0.021813244 -0.08516523 -0.08467248
-0.11389686 0.013084367 -0.009614456 -0.053837813 -0.043201253 0.055047415 0.09212555 -0.19138065

momentum_buffer f4 [32, 32, 3, 3]
00000000: 6cc9 84bc b59c a0bc 3910 cebc 84a6 4bbc
00000010: 0289 9ebc 0ffb 81bc 2a14 81bc 6452 20bc
00000020: ca9e 99bc 0837 f1bc c579 483c 363e 65bb
00000030: a9cc f0bc aca4 4a3a 4239 74bc 0081 0ebd
00000040: 04e2 1dbc ed42 47bc a444 ce3b e36b b03c
00000050: 9e53 fd3c cc4c 00bc 202c 4bbb 850b a83b
00000060: b850 0ebc 0022 9d3a 144b 0fbc da50 2cbd
00000070: 1fda fcbc 5d8d bfbc da4f 0ebd 16e7 ecbc
00000080: c074 26bd b3fc b1bc 248f d1bb efd8 c9bc
00000090: 94cf 9ebb c78a cc3a dbf3 a43b 58c0 963a
000000a0: 22b2 993c e914 503c 1c7d 88bc 3221 64bb
000000b0: 3286 68bc 10d9 183b 428b b33b 7981 1abc
000000c0: 806d 64bb b797 563c 12e0 84bb d57a efba
000000d0: de44 e33b 4d64 68ba 6eee b0bb a2a1 88bb
000000e0: 6002 d9ba 761b 04bc 8215 3bbc 609d 7239
000000f0: d829 fb3b 0cbb 3f3b 2822 463b e7a8 213c
00000100: eeba 433c 145e 833c a0e6 a13c 2e59 753c
00000110: cbec 763c d738 673c 8301 7d3c 521b 543c
00000120: a60c 8e3d 266b 883d b296 663d 5576 9a3d
00000130: 26dc 993d 60ab 703d 34d2 9f3d 7eb7 9b3d
00000140: 231f 843d 0dda b73b 5c22 ef3b 95e3 1e3c
00000150: 703c 613b f00e aabb 0d4d 9b3b 90e1 78bb
00000160: d296 f4bc 4047 8839 208b 823b c2a9 2f3c
00000170: c606 273c 90cc 53bc edab dcbb 45cd 89bb
00000180: c30b 99bc 86bf 8bbc 70c6 1dbc 986d 8bbc
00000190: 1a9d fdbb be30 fabb 7ca1 b4bc f0ca bfbc
000001a0: 3df0 33bc c296 60bb a0c1 5fbc 6f67 c1bc
000001b0: 40c6 38bc def4 94bb 089c ec3b 8673 faba
000001c0: ebc5 90bc 977b 343b ff13 733c d03c 443a
000001d0: 9a51 15bb c7aa 6ebc d88c 77bc 1c04 3abc
000001e0: ce31 55bc b09d 85bc 128d 4fbc 19cd 85bb
000001f0: 3cca 08bc cf29 cfbb 3447 9bbb c4fe 9b3b
00000200: 7889 98ba 0100 083c 021a 963c 28c1 f73b
00000210: 8b16 3d3b be1a 843c 2a9a 0f3c 436b 863c
00000220: 29e4 e93c 562b 613c 47b7 d53c c2a2 033d
00000230: 8762 bc3b 175e a83c 4a8f 3a3d 473c 713c
00000240: 2a34 81bc 8113 92bc 6894 dcbc d8e2 72bb
00000250: a221 92bc 0a8c 8dbc 5a58 16bc 71b2 8ebc
00000260: bafe 80bc 387c ccbb 8906 01bb 38e7 003c
00000270: 9ccc c7bb d0a8 f0b9 03cc ff3b 886b 35bb
00000280: 0b22 003c eeaa 793b bc2b 3dbc 2152 72bc
00000290: 862c 1dbc 26c2 30bc e5bd 6ebc 5259 39bc
000002a0: aa01 42bc 90bf 16bb 22b0 4dbc b8a2 9dba
000002b0: 20d4 10bb 30b6 0f3b 23ea 1b3b 1b7a 893b
000002c0: 894d 553c d807 9d3b 3142 a43c 82ee a53c
000002d0: 01e9 67bb 9891 183c 58f4 a5b9 dc75 5c3b
000002e0: 442a e73b 74cf d1ba 8cc6 5ebc d57c 0bbb
000002f0: e5fc 66bb 2252 b3bc 1928 77bc 505a 1aba
00000300: 8461 e2bc 7c90 98bc e8c8 a5bc fb77 c5bc
00000310: 727d b6bb eaa4 4ebc 1954 ba3c d178 903b
00000320: 5e86 da3c 61e2 9f3c 2ff5 e03b 051e 9f3c
00000330: 7759 fb3c 7aa6 cc3c 10ec a03c 545b 8c3c
00000340: 6066 b4ba 25d4 07bc c6f0 723c 18cf c73b
00000350: c852 3fbb 7cf7 7e3c ca76 273c 4c58 353b
00000360: f03b 49bc 2a6f 83bc 5991 8abc 5ad8 0dbc
00000370: 94bd a5ba 07d3 d9bb 9f7a 1dbc aac4 14bc
00000380: 4ae9 95bb 2629 36bc c585 83bc 9ab6 09bb
00000390: 0a06 b83a c5dd f0bb 0ee1 f5ba f565 843b
000003a0: 9b89 853c c716 d03c b7c8 1bbc fa8d 8aba
000003b0: 4e93 d63a 88ab cc3a 5822 02b9 3c64 cab9
000003c0: 54a8 df3c d387 4e3c 5d83 82bc 307d 50bc
000003d0: c0c0 51b9 d93f 93bc aa4a abbc 0db6 0dbc
000003e0: a6e4 3cbc 9e19 91bc 52e6 4cbc d115 f8bb
000003f0: 8e98 073c b468 323c 941d 2d3b d24e e63a
-0.016209327 -0.019605974 -0.02515422 -0.012429837 -0.01935244 -0.015866784 -0.015756685 -0.009785268
-0.018752474 -0.029445186 0.012236063 -0.0034979708 -0.029394465 0.00077302265 -0.014906229 -0.034790993
-0.009636406 -0.012161952 0.0062948037 0.02153582 0.03092366 -0.00783081 -0.0031001642 0.0051283264
-0.008686237 0.0011988282 -0.008745927 -0.042069294 -0.030865727 -0.023382837 -0.03474412 -0.028918784
-0.040638685 -0.021726942 -0.0063952375 -0.024639575 -0.0048465226 0.0015605324 0.0050339526 0.0011501415
0.018761698 0.012700298 -0.01666122 -0.0034809825 -0.014192151 0.0023322739 0.0054792473 -0.009430283
-0.0034855306 0.013097695 -0.0040550316 -0.001827086 0.0069357 -0.00088650436 -0.005399517 -0.0041696588
-0.0016556494 -0.008063188 -0.011418702 0.00023137545 0.0076649003 0.0029255776 0.003023276 0.00986693
0.011946423 0.01603607 0.01976329 0.014974875 0.015071104 0.014112673 0.015442255 0.012945967
0.06936006 0.06661062 0.056296058 0.07542101 0.07512693 0.058757186 0.07803765 0.07603358
0.06451251 0.0056107105 0.007297797 0.0096978145 0.00343683 -0.005189769 0.00473941 -0.0037976243
-0.029857073 0.00025993027 0.00398387 0.010721626 0.010194486 -0.0129271895 -0.0067343623 -0.0042053782
-0.018682366 -0.017059099 -0.009629831 -0.017020032 -0.007739675 -0.007635205 -0.022049658 -0.023412198
-0.01098257 -0.0034269546 -0.013657004 -0.023608891 -0.011277735 -0.004545792 0.007220749 -0.0019107915
-0.0176725 0.0027539486 0.01483631 0.00074858684 -0.0022784234 -0.014567084 -0.015109263 -0.011353519
-0.013012363 -0.016310543 -0.012667911 -0.0040832874 -0.008348998 -0.0063221226 -0.0047387127 0.004760595
-0.0011637649 0.008300782 0.018322948 0.007560868 0.0028852548 0.016126033 0.008764783 0.016408568
0.028551178 0.013743242 0.02608837 0.03213764 0.00574905 0.020552678 0.045546807 0.014723844
-0.015771944 -0.017831566 -0.026926234 -0.003706148 -0.017838303 -0.01727869 -0.009176338 -0.017419072
-0.015746463 -0.006240394 -0.0019687733 0.007867627 -0.0060973894 -0.00045902142 0.0078063025 -0.0027682502
0.0078206165 0.0038096267 -0.011546072 -0.014790089 -0.009593135 -0.010788476 -0.014571642 -0.0113127995
-0.011841217 -0.0023002364 -0.0125542 -0.0012026643 -0.0022099093 0.002192866 0.002379068 0.0041954643
0.013018974 0.004792195 0.020051094 0.020255331 -0.0035386684 0.009312056 -0.00031653303 0.0033639586
0.007054599 -0.001600726 -0.013597142 -0.0021284122 -0.0035245952 -0.02188975 -0.015085244 -0.00058880914
-0.02763439 -0.018623583 -0.020237401 -0.024105063 -0.0055691535 -0.012612561 0.022745179 0.0044089337
0.0266754 0.019517126 0.0068651657 0.019423494 0.030682309 0.024981726 0.019643813 0.017133392
-0.001376342 -0.008290325 0.014827913 0.0060976855 -0.0029193629 0.015561935 0.010221193 0.0027671037
-0.012282357 -0.016044218 -0.01691501 -0.008657539 -0.0012645 -0.006647471 -0.009611755 -0.0090800915
-0.0045749294 -0.011118209 -0.016054997 -0.002101338 0.0014039886 -0.0073506557 -0.0018759088 0.0040404745
0.016300967 0.025401486 -0.009508303 -0.0010570877 0.0016370805 0.0015615085 -0.0001241056 -0.00038603123
0.027301945 0.012605625 -0.01593178 -0.0127251595 -0.00020003598 -0.01797478 -0.020909626 -0.008649361
-0.011529123 -0.01771241 -0.0125060845 -0.00757096 0.008276118 0.010889221 0.0026415335 0.0017571098

momentum_buffer f4 [32]
00000000: ecfa b43b 1889 5fbd 8646 0f3d 9e4a fb3d
00000010: 1ea7 af3b 9007 06ba 5178 cf3c 88fd aa3d
00000020: 5951 86bc a1a9 20be ca32 dc3d 7ce5 89bc
00000030: 10f4 d7bd 5d2b ff3d 80a3 0dbd 18e1 84bd
00000040: 1dba 06be e444 d4bb d89d 983b ad12 533c
00000050: c80b 5cbe e880 bc3b 1d31 023e 3bc8 0d3d
00000060: ed99 c9bc 8230 e13d 95ad 943d 7864 0d3e
00000070: 561a ae3d 1217 1c3d b295 2b3e ca15 9d3c
0.0055230763 -0.054574102 0.034979366 0.122700915 0.005360498 -0.0005112821 0.025325926 0.083491385
-0.016396211 -0.15689708 0.10751875 -0.01683306 -0.10544598 0.12459443 -0.034579754 -0.06488246
-0.13156934 -0.006477939 0.0046574883 0.012882871 -0.21488869 0.0057526715 0.12714048 0.034614783
-0.02460953 0.1099558 0.07259671 0.13807857 0.08501117 0.03810794 0.16756323 0.019175429
