Securite/Model19/Result_bfa/randbet_0.2_0.01_10_-1/checkpoint.pth.tar (torch, 533040 bytes, 150 tensors)

0.0.weight f4 [8, 3, 3, 3]
0	0x3c9dd7f4	0.019268014
1	0x3d3be97c	0.045876965
2	0xbd81646e	-0.063179836
3	0xbe3c9569	-0.1841637
4	0xbd4e53f5	-0.050373036
5	0xbbae083a	-0.0053110393
6	0xbe3c4c4d	-0.18388481
7	0xbe436e9e	-0.19085166
8	0xbc82b23c	-0.01595413
9	0x3e31d1d4	0.173652
10	0x3e0ebfcb	0.1394035
11	0xbde6c89f	-0.11268734
12	0xbe1989f4	-0.14994031
13	0x3dc2dbdd	0.09514592
14	0xbdea2ff3	-0.11434927
15	0xbe3c6db3	-0.18401222
16	0xbe381e6e	-0.17980358
17	0xbd7d7e76	-0.06188818
18	0x3e3958c0	0.18100262
19	0x3e3aa169	0.18225636
20	0x3e126861	0.1429763
21	0x3e34b3bf	0.17646693
22	0x3e442845	0.19155987
23	0x3e431d4c	0.19054145
24	0xbdb441ca	-0.08801611
25	0x3dff39bb	0.12462183
26	0x3e420366	0.18946609
27	0xbde29f2f	-0.11065518
28	0xbc84692c	-0.016163431
29	0xbe473099	-0.19452132
30	0xbd8cb0d7	-0.06869667
31	0x3e4cd705	0.20003898
32	0x3ddc2372	0.10748948
33	0x3e4c6eae	0.19964096
34	0x3e4cd2ee	0.20002338
35	0x3e1b9a9d	0.15195699
36	0xbe4230d9	-0.18963946
37	0x3d156162	0.036469825
38	0x3bd553ee	0.0065102493
39	0xbe4468a7	-0.19180547
40	0xbda75b47	-0.08171707
41	0x3d9c8686	0.07642846
42	0xbe16ce70	-0.14727187
43	0xbe3003b9	-0.1718892
44	0x3cc4d24f	0.024026064
45	0x3d854352	0.06506981
46	0x3e41a8a1	0.18911983
47	0x3e3c208c	0.1837179
48	0xbe3e7f49	-0.18603243
49	0x3dc4d595	0.0961105
50	0x3e36a017	0.17834507
51	0xbe23733e	-0.1596193
52	0xbe213c0a	-0.1574556
53	0x3e2cef7c	0.16888231
54	0xbe3bf978	-0.18356884
55	0xbe436893	-0.1908286
56	0xbe414ad6	-0.18876204
57	0x3b9a3e6d	0.0047071488
58	0x3e47f1d0	0.19525838
59	0x3c40a714	0.0117585845
60	0x3d765230	0.060136974
61	0x3e43e6ed	0.1913106
62	0x3e2afd18	0.1669811
63	0xbe1a964f	-0.150964
64	0xbe2b4b09	-0.16727842
65	0xbe38c261	-0.180429
66	0x3bffd67e	0.007807552
67	0x3e4a8e23	0.19780783
68	0x3b8329e4	0.0040027965
69	0xbe3ef82a	-0.18649355
70	0x3e0a4f90	0.13506913
71	0x3e1837f7	0.14865099
72	0xbe036fb7	-0.12835585
73	0xbe10f9aa	-0.1415774
74	0xbe4312cf	-0.19050144
75	0x3dd35125	0.103182115
76	0x3e47331d	0.19453092
77	0x3e156f0c	0.14593142
78	0x3cf7037c	0.030153029
79	0x3e31ace1	0.17351104
80	0x3d4f3c4a	0.050594606
81	0xbdae664c	-0.08515605
82	0x3e0b559e	0.13606879
83	0x3d2e8339	0.042605612
84	0xbe48c4f7	-0.19606386
85	0x3e40be86	0.18822679
86	0x3e2d4740	0.16921711
87	0xbe4a5fb3	-0.19763069
88	0xbdd936b1	-0.10606135
89	0xbe21f566	-0.15816268
90	0x3e2cbb4c	0.16868323
91	0x3e40e43a	0.18837062
92	0x3e305c1e	0.1722264
93	0xbe2164f3	-0.15761165
94	0x3e462386	0.19349489
95	0x3e3fa4b4	0.18715173
96	0xbd3e3ece	-0.046446614
97	0x3e1ef05f	0.15521382
98	0xbd9c9d96	-0.07647245
99	0xbe1b907b	-0.15191834
100	0xbe36599f	-0.17807625
101	0xbe39f169	-0.18158497
102	0xbe3f70a9	-0.1869532
103	0xbd47a2e4	-0.04873933
104	0x3e08914a	0.13336673
105	0xbe3062e1	-0.1722522
106	0x3c373ce4	0.011183951
107	0x3cb13857	0.02163331
108	0xbbce2488	-0.006290976
109	0x3dbb19fc	0.091358155
110	0x3e00973d	0.12557693
111	0x3e43c5d6	0.19118437
112	0xbd8eec6d	-0.069786884
113	0xbe2a7105	-0.16644676
114	0xbd3fc3f8	-0.04681775
115	0x3e2f0dfd	0.1709518
116	0xbd9a7779	-0.07542319
117	0x3e38077c	0.17971605
118	0xbc8ead89	-0.017416732
119	0xbe3c3416	-0.18379244
120	0x3e49f8b1	0.19723774
121	0xbe3125ab	-0.17299525
122	0xbe477553	-0.1947835
123	0x3e20a71f	0.15688752
124	0x3ce9ee8b	0.028556129
125	0xbe389494	-0.18025428
126	0x3e404925	0.18777902
127	0x3d7bdeff	0.061491963
128	0xbe350d41	-0.17680837
129	0x3e44de06	0.1922532
130	0x3a56d3a7	0.0008194991
131	0xbe4969a8	-0.19669211
132	0x3e1f1d24	0.1553846
133	0xbcb096d8	-0.021556303
134	0xbe3f4906	-0.186802
135	0x3e4d013b	0.2002
136	0x3e2e55c7	0.17024909
137	0x3e369067	0.17828523
138	0xbdba237c	-0.09088799
139	0x3e26e071	0.16296555
140	0x3d4b25e0	0.049596667
141	0xbe0d8a9b	-0.13822405
142	0xbe0fa61a	-0.14028206
143	0xbe2590ad	-0.1616847
144	0xbe316a04	-0.17325598
145	0xbe41d53d	-0.18929
146	0xbe3a7676	-0.18209252
147	0xbe4652c7	-0.19367515
148	0x3e11ede8	0.1425091
149	0xbd5ccc33	-0.053905677
150	0xbd3cae37	-0.04606458
151	0x3e0d9e70	0.1382997
152	0x3e48059e	0.19533393
153	0xbe1f32d0	-0.15546727
154	0xbe3c5da0	-0.1839509
155	0xbcf9a1fc	-0.030472748
156	0xbe473fa8	-0.19457877
157	0x3e1ce37d	0.15321155
158	0xbe155cdd	-0.14586206
159	0x3d8d4330	0.068975806
160	0x3e26ebef	0.16300939
161	0x3e120ad2	0.1426194
162	0xbe411cd8	-0.1885866
163	0x3e13a4c1	0.14418317
164	0xbe39b2a8	-0.18134558
165	0xbe17c5b4	-0.14821512
166	0x3e4c29eb	0.19937865
167	0x3deb9828	0.11503631
168	0x3dd7dc25	0.10540036
169	0x3cab874f	0.020938544
170	0xbd31626a	-0.043306746
171	0xbe49cb08	-0.19706357
172	0x3e41a217	0.18909489
173	0xbe330473	-0.17482166
174	0xbd5f3a67	-0.054499056
175	0x3e499d8a	0.19689003
176	0x3e2da194	0.16956168
177	0x3dfef9f5	0.12450019
178	0x3d8e7949	0.06956727
179	0xbe185713	-0.14876966
180	0xbe2b4719	-0.1672634
181	0x3e424d72	0.18974856
182	0xbd41684a	-0.0472186
183	0xbe17fcff	-0.14842604
184	0x3e453c10	0.19261193
185	0x3d596e0e	0.053083472
186	0x3cc53893	0.024074828
187	0xbe3c4857	-0.1838697
188	0xbe161717	-0.14657246
189	0xbd10e81c	-0.035377607
190	0x3dd9a125	0.10626439
191	0x3e015891	0.12631442
192	0xbe45cb4d	-0.19315834
193	0xbe482e2a	-0.1954886
194	0x3ddf7ba6	0.10912256
195	0x3c7a607b	0.015281792
196	0xbe221d37	-0.15831457
197	0x3cd14344	0.02554477
198	0xbe2265e4	-0.1585918
199	0x3d30d0c1	0.043167833
200	0xbced0064	-0.02893085
201	0xbe425992	-0.18979481
202	0xbe467d30	-0.19383693
203	0x3d489b57	0.04897627
204	0x3e4cc83b	0.19998257
205	0xbde29d94	-0.11065212
206	0xbdd64bca	-0.10463674
207	0x39ad2986	0.0003302807
208	0x3e3937bb	0.18087666
209	0x3e27d1e1	0.16388656
210	0xbe46128c	-0.19343013
211	0xbe47ee4c	-0.19524497
212	0x3e0a5bbc	0.13511556
213	0x3e187d6b	0.14891593
214	0xbdc543b0	-0.09632051
215	0x3dffdb33	0.12492981

0.0.b_w f4 [8, 1]
0	0xc3000000	-128.0
1	0x42800000	64.0
2	0x42000000	32.0
3	0x41800000	16.0
4	0x41000000	8.0
5	0x40800000	4.0
6	0x40000000	2.0
7	0x3f800000	1.0

0.1.weight f4 [8]
0	0x3e6aaea6	0.22918186
1	0x3e8881da	0.2666157
2	0x3e4062d0	0.18787694
3	0x3e6c4b12	0.23075512
4	0x3ea6e963	0.32599935
5	0x3ea71538	0.32633376
6	0x3e8aeca8	0.2713368
7	0x3ef07911	0.46967366

0.1.bias f4 [8]
0	0x3cb0c331	0.02157745
1	0x3dab9e53	0.08379807
2	0x3d4cca5a	0.049997665
3	0xbb388e3c	-0.002816095
4	0xbd00c1ba	-0.031434752
5	0xbdcdf21c	-0.10055944
6	0x3e859399	0.2608917
7	0xbe81d4b0	-0.2535758

0.1.running_mean f4 [8]
0	0xbd48a62f	-0.04898661
1	0xbd2c159f	-0.042012807
2	0xbd320a3a	-0.043466784
3	0xbbea1c0f	-0.007144458
4	0x3c21e193	0.009880441
5	0x3d270d38	0.04078409
6	0xbca21b8e	-0.01978853
7	0x3e042d18	0.12907827

0.1.running_var f4 [8]
0	0x3f216a30	0.63052654
1	0x3ec99ff1	0.39379838
2	0x3f584e03	0.84494036
3	0x3ef84a0b	0.4849399
4	0x3f372b3b	0.7155034
5	0x3e8a335c	0.2699231
6	0x3e8622d5	0.2619845
7	0x3f117f18	0.56834555

1.module.0.0.weight f4 [8, 8, 3, 3]
0	0xbda30aab	-0.07961019
1	0x3cee1871	0.029064389
2	0x3d01ee2d	0.031721283
3	0xbb8b8332	-0.004257583
4	0x3d915533	0.070963286
5	0x3de67b4a	0.11253984
6	0xbdf8a74f	-0.121412866
7	0xbd06c202	-0.032899864
8	0x3dd21daf	0.10259568
9	0x3d210b8f	0.039317664
10	0x3d36a0dd	0.044587005
11	0xbe46c298	-0.19410169
12	0xbdf8f335	-0.12155763
13	0x3e2809bd	0.16409965
14	0x3e17f72e	0.14840385
15	0xbe1401e6	-0.14453849
16	0x3e3afd90	0.18260789
17	0x3e1ad3bb	0.15119831
18	0xba1b24ce	-0.0005918265
19	0x3dc30879	0.095231004
20	0x3e36f4c8	0.17866814
21	0xbd853550	-0.06504309
22	0xbd11a347	-0.035556104
23	0x3e312a06	0.17301187
24	0xbb4a4bbc	-0.0030867895
25	0x3cda5b07	0.026654733
26	0x3d48c1fe	0.04901313
27	0x3d17101c	0.036880597
28	0xbd3a61d8	-0.045503467
29	0xbe343c11	-0.17601039
30	0x3bc41a87	0.0059846076
31	0x3ce152fa	0.027505387
32	0x3e0c4408	0.13697827
33	0xbd8a572f	-0.0675491
34	0x3da70406	0.08155064
35	0x3e2b2538	0.16713417
36	0x3c80ad96	0.015707772
37	0x3e2b0ebf	0.16704844
38	0x3e2932b3	0.16523246
39	0x3da8ee98	0.08248633
40	0x3d6ac263	0.057314288
41	0xbe1547c8	-0.14578164
42	0x3dc27743	0.094954036
43	0xbe2fab6e	-0.17155239
44	0xbe115988	-0.1419431
45	0x3c9a4d0f	0.018835573
46	0x3e27204c	0.16320914
47	0x3cf5ee74	0.03002093
48	0xbe0cebf2	-0.13761881
49	0x3d513030	0.051071346
50	0x3d444f8a	0.047927417
51	0xbe0838a0	-0.1330285
52	0x3bf51e47	0.007480416
53	0xbd56f681	-0.05248118
54	0x3e45c219	0.19312324
55	0x3bc1fc38	0.0059199594
56	0xbe49bc23	-0.19700675
57	0x3c95bf21	0.018279614
58	0xbdd4b42c	-0.103859276
59	0xbe0ccb13	-0.13749342
60	0xbd0f9f0d	-0.035063792
61	0xbdd6e3a2	-0.10492636
62	0x3e4ab04c	0.19793814
63	0x3e1182c9	0.14210047
64	0x3d4f9ba0	0.050685525
65	0x3d21d389	0.039508376
66	0x3d6a4311	0.057192866
67	0xbcf4b480	-0.029871225
68	0x3d1abbc7	0.037776735
69	0x3c84054b	0.016115805
70	0xbd5fedf4	-0.05467029
71	0xbcdc70c8	-0.026909247
72	0x3e0307eb	0.12795989
73	0xbcb8e38f	-0.022569446
74	0xbe0a5a86	-0.13511094
75	0xbd18f495	-0.037342627
76	0x3b5dd2ac	0.0033847494
77	0x3c6677f3	0.014066684
78	0xbde15ee6	-0.110044286
79	0x3d52dae9	0.0514783
80	0xbd133eaf	-0.03594845
81	0xbe1bb00c	-0.15203875
82	0x3df5005e	0.11962961
83	0xbd85865d	-0.065197684
84	0xbde36d35	-0.11104814
85	0xbd9de213	-0.07709136
86	0x3e2738d4	0.16330272
87	0xbd86f0e5	-0.06588916
88	0xbe326bbe	-0.17423913
89	0x3dcc5f54	0.0997912
90	0xbc4098c3	-0.011755171
91	0x3c2e6177	0.010643355
92	0x3dc67b68	0.096915066
93	0x3c877f84	0.016540296
94	0xbe0cd019	-0.13751258
95	0x3ddf71ff	0.10910415
96	0xbc35d115	-0.011097212
97	0xbe32f986	-0.17477998
98	0xbdaa68c7	-0.08320766
99	0x3c326dc8	0.010890432
100	0xbe48b8b4	-0.19601709
101	0xbe233e5a	-0.15941754
102	0x3c8ed960	0.017437637
103	0x3d45d2f4	0.048296884
104	0xbc3d5ab0	-0.011557266
105	0x3d7fd996	0.062463365
106	0x3d710758	0.058844894
107	0xbd31d44b	-0.04341535
108	0xbd6e65ae	-0.058202438
109	0xbe46a9e3	-0.19400744
110	0x3e2c840c	0.16847247
111	0x3c2497b4	0.0100459345
112	0xbe4a20d6	-0.19739088
113	0xbdd32f57	-0.10311764
114	0xbdcec973	-0.10097017
115	0xbe1325b0	-0.14369845
116	0xbd97868a	-0.07398708
117	0xbdf847bf	-0.121230595
118	0x3d98da95	0.07463566
119	0x3c97a32d	0.018510425
120	0x3d8eef65	0.06979255
121	0xbe17101e	-0.14752242
122	0x3e32cbd2	0.17460564
123	0xbe040488	-0.12892354
124	0xbd45f231	-0.048326675
125	0x3d7033a6	0.058643006
126	0x3e0dd989	0.13852514
127	0xbe1a0d82	-0.15044215
128	0xbe35629a	-0.17713395
129	0xbd18863a	-0.037237383
130	0xbdd2f203	-0.10300066
131	0x3e49fce3	0.19725375
132	0x3d1d4a94	0.0384012
133	0xbe47f0b6	-0.19525418
134	0x3e4462c1	0.19178297
135	0xbe0c58a9	-0.13705696
136	0x3d96f551	0.07371009
137	0x3d717a95	0.058954794
138	0xbe489894	-0.19589454
139	0x3e0ab3cc	0.1354515
140	0xbde67bbc	-0.11254069
141	0xbd062b12	-0.03275592
142	0x3de5222d	0.11188159
143	0x3da03057	0.0782172
144	0x3ca0fcbf	0.019651769
145	0xbdf39d3c	-0.118952245
146	0xbe04c973	-0.12967472
147	0x3e0ee674	0.13955098
148	0x3d7bf7e3	0.0615157
149	0x3db697ae	0.08915649
150	0xbcef1c75	-0.029188374
151	0xbdd5abaf	-0.10433137
152	0xbdb5c09f	-0.0887463
153	0x3d944ca9	0.07241184
154	0xb966c691	-0.00022008481
155	0x3d879afb	0.06621357
156	0xbd852c8d	-0.06502638
157	0x3cabfbda	0.020994116
158	0x3e291383	0.1651135
159	0xbd962df1	-0.073329814
160	0xbe14e7f0	-0.14541602
161	0xbc82d7ca	-0.015972037
162	0x3d9032d1	0.070409425
163	0xbdf6a7aa	-0.12043698
164	0x3d5f978b	0.054587882
165	0xbcb21386	-0.021737825
166	0xbe49eac5	-0.19718464
167	0xbd834e04	-0.06411365
168	0xbc86cf11	-0.016456159
169	0xbe472383	-0.1944714
170	0xbe40f2e9	-0.18842663
171	0x3dbffd75	0.09374515
172	0xbc344fa5	-0.011005317
173	0xbd4c123e	-0.049822085
174	0x3e169c8c	0.14708155
175	0x3d778b18	0.060435385
176	0xbda12a88	-0.0786944
177	0xbe0f231b	-0.13978235
178	0xbe3347af	-0.17507814
179	0x3c1de950	0.009638146
180	0x3e18dc1e	0.14927718
181	0xb97e94ee	-0.00024278808
182	0xbe3570e4	-0.17718846
183	0x3cfca043	0.030838137
184	0xbb212459	-0.0024588315
185	0xbe3b7839	-0.1830758
186	0x3c88a355	0.016679445
187	0x3d98a8bf	0.07454061
188	0xbe3d2d3f	-0.18474291
189	0x3dcca91d	0.09993193
190	0x3da3516b	0.079745136
191	0x3e19aadc	0.15006584
192	0x3de004f4	0.10938445
193	0xbd9cf0d2	-0.0766312
194	0x3e292b2b	0.16520374
195	0xbe04faa0	-0.12986231
196	0xbe327e08	-0.1743089
197	0xbb0b11d0	-0.0021220334
198	0x3e22b6d3	0.15890054
199	0xbdd8a614	-0.10578552
200	0x3d570002	0.05249024
201	0x3e48e893	0.1961997
202	0xbe0906d6	-0.13381514
203	0xbcefa9d2	-0.029255781
204	0x3e3e382c	0.18576115
205	0xbe3d7f96	-0.18505701
206	0x3d4ff999	0.050775144
207	0x3b5fe5c0	0.0034164041
208	0xbe012290	-0.12610841
209	0xbdb4286e	-0.08796774
210	0xbd78790b	-0.06066231
211	0xbcde7327	-0.027154518
212	0xbda37be1	-0.079826124
213	0xbbae7bed	-0.0053248317
214	0xbd56dad6	-0.052454792
215	0xba4f96e0	-0.00079189055
216	0xbe0595d4	-0.13045436
217	0xbe240262	-0.16016534
218	0xbe339205	-0.17536171
219	0x3d23b4b1	0.039967243
220	0x3e366f6c	0.17815942
221	0x3e2e0060	0.1699233
222	0x3d2619ee	0.040552072
223	0x3dc22fca	0.09481771
224	0x3e47d3f2	0.19514444
225	0xbdf47d31	-0.11937941
226	0xbd9a804a	-0.075440004
227	0xbdd41300	-0.103551865
228	0xbe22b2f7	-0.15888582
229	0xbda02abd	-0.07820652
230	0xbe1fc86c	-0.15603799
231	0xbc00de8d	-0.00786556
232	0x3c319c9e	0.010840563
233	0x3db48f1a	0.08816357
234	0x3e1cef07	0.15325557
235	0x3e109d40	0.14122486
236	0xbd0ab96f	-0.03386825
237	0x3dd027f7	0.10163873
238	0x3e35e9f1	0.17765023
239	0xbd5500e1	-0.05200279
240	0xbe230d11	-0.15922953
241	0xbd6ca507	-0.05777457
242	0x3c7cb50c	0.015424024
243	0x3c55b006	0.013042456
244	0x3d60da86	0.0548959
245	0x3e390961	0.18069984
246	0xbe04c346	-0.12965116
247	0xbe3289cc	-0.17435378
248	0xbdd951ff	-0.10611343
249	0xbe3aa46f	-0.18226789
250	0xbe184bb5	-0.1487263
251	0xbd6a300e	-0.057174735
252	0x3db7608b	0.08953961
253	0xbe126a8c	-0.14298457
254	0xbdd9e8c2	-0.10640098
255	0xbc83e6ee	-0.016101327

1.module.0.0.b_w f4 [8, 1]
0	0xc3000000	-128.0
1	0x42800000	64.0
2	0x42000000	32.0
3	0x41800000	16.0
4	0x41000000	8.0
5	0x40800000	4.0
6	0x40000000	2.0
7	0x3f800000	1.0

1.module.0.1.weight f4 [8]
0	0x3f16f93a	0.5897404
1	0x3f42ebd4	0.76141095
2	0x3f2ceac9	0.67545754
3	0x3f454428	0.77057123
4	0x3f4b0229	0.7930017
5	0x3f3365dd	0.70077306
6	0x3f20c93e	0.6280707
7	0x3f041e68	0.51608896

1.module.0.1.bias f4 [8]
0	0xbc3dcecf	-0.011584952
1	0x3ec93b76	0.39303178
2	0x3e0990b5	0.13434108
3	0xbac9e25f	-0.0015402547
4	0x3ea01e7d	0.3127326
5	0xbe7abc09	-0.24485792
6	0xbe447e2b	-0.19188754
7	0x3d341da8	0.043973595

1.module.0.1.running_mean f4 [8]
0	0x3d26ef04	0.040755287
1	0xbe1cba0e	-0.15305349
2	0xbd8912b1	-0.06693018
3	0xbdca8f7f	-0.09890651
4	0xbe5fae11	-0.21843745
5	0xbe4e6395	-0.20155175
6	0xbe11e067	-0.14245759
7	0x3e19bfbd	0.15014549

1.module.0.1.running_var f4 [8]
0	0x3d03067d	0.03198861
1	0x3d3b7187	0.045762565
2	0x3d586962	0.052834876
3	0x3d31f00d	0.04344182
4	0x3d53b0cd	0.051682282
5	0x3d030bea	0.031993784
6	0x3d1a8d6f	0.037732538
7	0x3ccf5029	0.025306778

1.module.1.0.weight f4 [8, 8, 3, 3]
0	0xbe2ea54a	-0.1705524
1	0x3ba06992	0.0048953975
2	0x3d1f746c	0.038929388
3	0xbe0f39b1	-0.13986851
4	0xbd9bbc7d	-0.07604311
5	0xbe32be00	-0.17455292
6	0x3d23902b	0.03993241
7	0xbd4bb8a3	-0.04973663
8	0xbdcfa05f	-0.1013801
9	0x3e23cf62	0.15997079
10	0xbd63961b	-0.055563074
11	0xbdfc1b0b	-0.123098455
12	0x3e17b474	0.14814931
13	0x3d134dbc	0.035962805
14	0xbe1934d9	-0.14961566
15	0x3d4b4034	0.049621776
16	0x3e12d417	0.14338718
17	0xbe0b37f9	-0.1359557
18	0xbd8d6a70	-0.06905067
19	0xbdd6047b	-0.10450073
20	0x3e4a244a	0.19740406
21	0x3d426e84	0.047468677
22	0xbcc9bb02	-0.024625305
23	0x3e4ae8e3	0.19815402
24	0x3d3133b4	0.0432622
25	0x3d761cce	0.060086064
26	0x3d197c25	0.03747191
27	0xbe40d584	-0.1883145
28	0xbe43972a	-0.19100633
29	0xbe3e71e9	-0.18598141
30	0xbd826955	-0.06367747
31	0xbda16610	-0.07880795
32	0xbd103e0c	-0.035215423
33	0x3da86864	0.08223036
34	0x3c778848	0.015108176
35	0xbc0ae181	-0.008476616
36	0x3e4c7125	0.19965036
37	0x3c94fe54	0.01818768
38	0x3e2981f2	0.16553476
39	0x3e4729b8	0.19449508
40	0xbc81dbac	-0.015851818
41	0xbb543373	-0.00323793
42	0xbe07b175	-0.13251288
43	0xbe2af9e7	-0.16696893
44	0xbe4afd13	-0.19823103
45	0xbd3d8c40	-0.04627633
46	0x3e2f07c4	0.17092806
47	0x3defb342	0.117041126
48	0xbdcb6155	-0.09930674
49	0x3d98214f	0.07428228
50	0x3e014070	0.12622237
51	0xbdbf47d5	-0.09339873
52	0xbd8596fe	-0.0652294
53	0x3d84518b	0.064608656
54	0xbdb61d92	-0.08892359
55	0x3dd9c291	0.10632814
56	0x3d04674f	0.032325085
57	0xbdcc2e24	-0.09969738
58	0x3cfd2d7c	0.030905478
59	0xbd1e721e	-0.03868305
60	0x3d922cfe	0.07137488
61	0x3dbc90b4	0.092072874
62	0xbd4c543e	-0.049885027
63	0x3e3603fc	0.17774957
64	0x3e45e2a9	0.19324745
65	0x3e293c9d	0.16527028
66	0xbc35e0f6	-0.011100998
67	0x3d985089	0.07437236
68	0xbd526037	-0.05136129
69	0xbdc7b18d	-0.09750662
70	0xbd0549b6	-0.032541
71	0xbe445fe5	-0.19177206
72	0xbdda98a6	-0.10673647
73	0x3db252b0	0.08707178
74	0x3e30fd0c	0.1728403
75	0xbcb33273	-0.021874642
76	0x38ca731f	9.6535536e-05
77	0x3e182aec	0.14860123
78	0xbdd0440d	-0.1016923
79	0x3cf5fe4a	0.030028481
80	0x3e314b7c	0.17313951
81	0xbe459424	-0.19294792
82	0x3e263a84	0.1623326
83	0x3e0c1c07	0.13682567
84	0x3d5b8927	0.053597596
85	0x3dc34a3c	0.095356435
86	0xbd8c403e	-0.06848191
87	0xbda2cf6d	-0.079497196
88	0x3d24e0e4	0.040253535
89	0xbd101802	-0.035179146
90	0x3db55ffc	0.08856198
91	0x3da26168	0.07928735
92	0xbda91419	-0.082557864
93	0xbd0b0270	-0.03393787
94	0x3d0a4552	0.033757515
95	0xbe359a53	-0.17734651
96	0xbe3b2927	-0.18277417
97	0x3bafbb9f	0.0053629423
98	0x3d94d824	0.07267788
99	0x3d38289f	0.044960614
100	0xbd897792	-0.06712259
101	0xbab78d59	-0.0014003917
102	0x3bd9c63b	0.0066459454
103	0xbc028bc5	-0.007967894
104	0xbde5a2f4	-0.112127215
105	0xbde0665a	-0.10957022
106	0x3d39ab67	0.045329478
107	0xbcd7944a	-0.026315827
108	0x3e1cda04	0.15317541
109	0xbe35c713	-0.17751722
110	0xbe0d400e	-0.13793966
111	0x3cc86e47	0.024466647
112	0xbe1d536c	-0.15363854
113	0xbdcf9d46	-0.101374194
114	0xbe46947b	-0.19392578
115	0xbd0d916f	-0.034562524
116	0x3e0f8349	0.14014925
117	0xbdcf9ecf	-0.10137712
118	0xbddc6bb6	-0.10762732
119	0xbc9d5b7d	-0.019208664
120	0xbe47ba69	-0.19504704
121	0xbdb82bb5	-0.089927115
122	0xbd05c6e3	-0.032660376
123	0xbdff3a50	-0.12462294
124	0xbc9594d2	-0.01825944
125	0xbe0bb619	-0.13643683
126	0x3bcc37b1	0.006232225
127	0xbc02f1a6	-0.007992184
128	0xbe20bdde	-0.15697429
129	0x3d8667e2	0.06562783
130	0xbd1da896	-0.038490854
131	0xbcea2667	-0.028582765
132	0x3e3dbafa	0.18528357
133	0x3e285087	0.16436969
134	0xbd4b495e	-0.049630515
135	0xbe24715c	-0.16058868
136	0xbe215ca7	-0.15758
137	0xbd047220	-0.0323354
138	0xbce96fa5	-0.02849562
139	0xbdbee250	-0.093205094
140	0x3c3822f3	0.011238801
141	0xbd0efd17	-0.034909334
142	0xbe270a7d	-0.16312595
143	0xbcdd8afe	-0.027043816
144	0xbe4109f6	-0.18851456
145	0xbe48d004	-0.19610602
146	0xbce66065	-0.028122136
147	0xbc811ba2	-0.015760247
148	0xbd2f1673	-0.04274602
149	0x3e244842	0.16043189
150	0xbc29b7ae	-0.010358734
151	0x3caba7ab	0.020953974
152	0x3d2cee33	0.042219352
153	0x3dabed43	0.083948635
154	0xbdc4ee25	-0.09615735
155	0x3d72ec92	0.059307642
156	0x3e196bf2	0.14982584
157	0x3d226fc2	0.03965736
158	0x3df55ee5	0.1198099
159	0xbdff3b30	-0.12462461
160	0xbe33ad5e	-0.17546603
161	0xbdee206b	-0.11627277
162	0xbc6bd97b	-0.014395113
163	0xbdb6947f	-0.08915042
164	0xbdf8d1d6	-0.12149398
165	0x3e47ac80	0.19499397
166	0x3dc7c005	0.09753422
167	0x3e0effa7	0.13964711
168	0xbe2ed30b	-0.17072694
169	0xbd67f200	-0.056627274
170	0xbda4f4e9	-0.080545254
171	0xbd930bd4	-0.071799904
172	0xbd84c4f9	-0.06482882
173	0xbd221cbe	-0.039578192
174	0x3e0bbe98	0.13646924
175	0x3e45fae3	0.19333987
176	0x3decd36d	0.11563764
177	0xbdc9486a	-0.09828265
178	0xbe35f9ba	-0.17771044
179	0xbe4b62b3	-0.1986187
180	0xbc8d37ab	-0.017238459
181	0x3c910e06	0.017706882
182	0xbd9d2808	-0.07673651
183	0x3e02426d	0.12720652
184	0x3d6d84c5	0.057987947
185	0x3c5e31b9	0.0135616595
186	0xbe3af055	-0.18255742
187	0xbe113a78	-0.1418246
188	0xbe0b5403	-0.13606267
189	0xbdb99ca5	-0.09063081
190	0xbddce6f0	-0.10786235
191	0xbe4ce6cb	-0.20009916
192	0xbce66d9a	-0.028128434
193	0x3ba9536a	0.0051674144
194	0xbca5dd21	-0.020247044
195	0x3c077767	0.008268214
196	0x3e3c33f4	0.18379194
197	0x3e494a99	0.19657363
198	0x3de0b36c	0.10971722
199	0x3e390b4b	0.18070714
200	0x3da3867a	0.07984634
201	0x3d0b1dca	0.033963956
202	0x3c93db35	0.018048862
203	0x3de2f96e	0.11082731
204	0x3e192b34	0.14957887
205	0x3e08dc25	0.13365228
206	0x3d0b9580	0.03407812
207	0x3d887469	0.066628285
208	0x3d42957b	0.047505837
209	0x3d6b01d8	0.057374805
210	0xbdb90080	-0.090332985
211	0xbe4bb0a6	-0.19891605
212	0xbe237591	-0.15962817
213	0x3d1fa31e	0.03897392
214	0x3e0fcb69	0.14042439
215	0x3e219655	0.15780003
216	0x3c8af7d8	0.016963884
217	0xbd78afcf	-0.06071454
218	0xbdab0024	-0.08349636
219	0xbcd9517c	-0.026528113
220	0xbe230d85	-0.15923126
221	0xbd11a87a	-0.035561062
222	0x3cbb236e	0.022844043
223	0xbdb60097	-0.08886831
224	0xbce73062	-0.028221313
225	0x3d85e43c	0.06537673
226	0xbe47047d	-0.19435306
227	0x3c32c528	0.0109112635
228	0x3e3d4b78	0.1848582
229	0xbe47538a	-0.19465461
230	0x3d8014e2	0.06253983
231	0x3e2883d6	0.16456541
232	0xbe44f714	-0.19234878
233	0x3c1427e7	0.009042717
234	0x3dfa7ca3	0.12230804
235	0xbe4735ed	-0.19454165
236	0x3e25d206	0.16193399
237	0xbced142e	-0.028940286
238	0xbe48ec33	-0.19621353
239	0x3e2bd11f	0.16778992
240	0x3d27c963	0.04096354
241	0xbe2b144e	-0.16706964
242	0x3e2b40ab	0.16723888
243	0xbda45475	-0.080239214
244	0x3da326ef	0.0796641
245	0x3d21b231	0.039476577
246	0xbd962bfc	-0.07332608
247	0x3cbcdb5d	0.02305382
248	0x3cb23379	0.02175306
249	0xbe2a9598	-0.16658628
250	0x3b4333a8	0.0029785428
251	0xbdaf3603	-0.08555224
252	0xbdce4894	-0.10072437
253	0x3da9f36f	0.082983844
254	0xbdd83615	-0.1055719
255	0xbe159fc5	-0.14611728

1.module.1.0.b_w f4 [8, 1]
0	0xc3000000	-128.0
1	0x42800000	64.0
2	0x42000000	32.0
3	0x41800000	16.0
4	0x41000000	8.0
5	0x40800000	4.0
6	0x40000000	2.0
7	0x3f800000	1.0

1.module.1.1.weight f4 [8]
0	0x3f44f687	0.7693867
1	0x3f39d9bf	0.7259788
2	0x3f42ab23	0.76042384
3	0x3f53250f	0.8247842
4	0x3f24f902	0.64442456
5	0x3f15c35f	0.5850124
6	0x3f1bf80d	0.6092537
7	0x3f223a70	0.6337042

1.module.1.1.bias f4 [8]
0	0xbe494c5b	-0.19658034
1	0xbe4ed0b6	-0.20196804
2	0xbe276ed0	-0.16350865
3	0xbe0e3b50	-0.13889813
4	0xbcac4290	-0.021027833
5	0xbe1844c6	-0.14869985
6	0xbe3c300a	-0.183777
7	0x3de21dae	0.11040817

1.module.1.1.running_mean f4 [8]
0	0xbca300da	-0.019897867
1	0xbee0b3a9	-0.4388707
2	0xbe397b22	-0.18113378
3	0xbe8c1abd	-0.2736415
4	0xbee4467f	-0.44585034
5	0xbeff9cdf	-0.4992437
6	0x3efd8450	0.4951501
7	0xbd14e06a	-0.03634683

1.module.1.1.running_var f4 [8]
0	0x3e7a1d1e	0.2442517
1	0x3e57dfc2	0.2108145
2	0x3e4f53a5	0.20246752
3	0x3ea9b336	0.3314454
4	0x3e80d9dc	0.25166214
5	0x3e27bddb	0.16381018
6	0x3e569609	0.20955671
7	0x3e300354	0.1718877

1.module.2.0.weight f4 [8, 8, 3, 3]
0	0x3d86f128	0.06588966
1	0xbd0ca7fb	-0.034339886
2	0x3e0599a0	0.13046885
3	0x3da53f8b	0.080687605
4	0x3c48371e	0.012220172
5	0x3e0da737	0.13833319
6	0xbd47bc00	-0.048763275
7	0x3c92a3a5	0.017900297
8	0x3dba2aed	0.09090219
9	0xbdb2dce7	-0.0873354
10	0x3b79c675	0.0038112674
11	0x3e01f25a	0.12690106
12	0xbcf2407a	-0.02957176
13	0x3df57fea	0.11987288
14	0x3dd99cf9	0.10625643
15	0x3e4c4a4c	0.19950217
16	0xbddae882	-0.106888786
17	0xbe1a3e5a	-0.15062848
18	0xbd585cf2	-0.052823015
19	0xbdda9a97	-0.10674017
20	0xbd276c9c	-0.040875062
21	0x3e1f4b52	0.15556076
22	0xbc41343b	-0.011792238
23	0x3d08999c	0.03334962
24	0x3de621b6	0.112368986
25	0x3dad75a1	0.084697016
26	0x3da20f7c	0.0791311
27	0x3e449b7d	0.19199939
28	0x3d93ef52	0.07223381
29	0x3d95d6c6	0.073163554
30	0x3d9d4ebd	0.07681034
31	0x3dc34502	0.095346466
32	0x3de42a71	0.111409076
33	0x3dd1244f	0.102120034
34	0x3e4b2f97	0.19842373
35	0x3e4cd2b1	0.20002247
36	0x3c7c0a27	0.01538328
37	0x3df5ba1a	0.11998387
38	0x3e4088a1	0.1880212
39	0x3cbc4bbf	0.022985337
40	0x3df27464	0.11838606
41	0x3e2f95d9	0.17147006
42	0x3de02ad1	0.109456666
43	0xbdf2a2c0	-0.11847448
44	0x3e306630	0.17226481
45	0xbe153b58	-0.14573419
46	0xbdfdc53e	-0.123911366
47	0xbe1dd73f	-0.15414141
48	0xbd96ca8d	-0.07362852
49	0xbda2d360	-0.07950473
50	0xbbcb2568	-0.0061995275
51	0xbd07bbd5	-0.033138115
52	0xbda62102	-0.081117645
53	0x3a98ce7f	0.001165822
54	0x3e099c64	0.13438565
55	0x3ce23f67	0.027618123
56	0xbd94219b	-0.07232972
57	0xbcefafb6	-0.02925859
58	0x3dbced94	0.09225002
59	0xbdb6b734	-0.08921662
60	0xbc1723dc	-0.009224858
61	0x3dce2396	0.10065381
62	0x3da5f0b4	0.08102551
63	0xbde39f43	-0.11114361
64	0x3e287cbc	0.16453832
65	0xbcb2812a	-0.021790106
66	0xbd291959	-0.04128394
67	0x3e12f6e1	0.1435199
68	0x3dbe445c	0.09290382
69	0xbe435d4c	-0.19078559
70	0xbdb02e10	-0.08602536
71	0x3e114276	0.14185509
72	0x3d091e51	0.033476178
73	0x3cfb3453	0.030664599
74	0x3c84dba3	0.016218012
75	0xbe00b342	-0.12568381
76	0x3dde5d3e	0.10857628
77	0xbe44dd68	-0.19225085
78	0xbccef2e4	-0.025262304
79	0xba4236e1	-0.000740869
80	0x3defa849	0.1170202
81	0xbdbea6bc	-0.09309146
82	0xbda1fc33	-0.07909431
83	0x3e2ac810	0.1667788
84	0x3d920e42	0.07131626
85	0xbd6265e3	-0.055272948
86	0x3da5c340	0.080938816
87	0xbc64fc70	-0.013976201
88	0xbe02f74a	-0.12789646
89	0xbd2083c2	-0.039188154
90	0xbceb6d3a	-0.028738607
91	0x3ce6a039	0.028152572
92	0x3d27a208	0.04092601
93	0xbdd360c6	-0.103211924
94	0x3d4536c2	0.048147924
95	0x3e05a02a	0.13049379
96	0x3d05da40	0.032678843
97	0xbd885566	-0.066569135
98	0x3da77582	0.0817671
99	0xbd2ca74c	-0.042151734
100	0x3d228b86	0.03968384
101	0x3c00d45f	0.007863133
102	0xbe05c733	-0.1306427
103	0xbdb0d15b	-0.086336814
104	0xbcd24997	-0.025669856
105	0xbd1fea50	-0.039041817
106	0xbcae5cce	-0.021284487
107	0xbdab1260	-0.08353114
108	0x3df8d51b	0.12150022
109	0xbd8b7943	-0.06810238
110	0x3d8d180c	0.06889352
111	0xbdc10272	-0.094242945
112	0xbe49e8b3	-0.19717674
113	0xbce1f0dd	-0.027580673
114	0xbdb877e1	-0.0900724
115	0xbe37c513	-0.17946272
116	0xbdfb1b80	-0.122611046
117	0x3e38db0c	0.1805231
118	0xbd8f3899	-0.06993217
119	0x3c433692	0.011914866
120	0x3e3740ba	0.17895785
121	0x3e2ca327	0.16859113
122	0xbe217097	-0.15765606
123	0xbdd6438b	-0.104621015
124	0xbd0aefb8	-0.03392002
125	0x3cce1650	0.025157124
126	0xbdae19bb	-0.085010014
127	0xbdbafdfe	-0.091304764
128	0x3ca6920a	0.020333309
129	0x3d6f7658	0.05846247
130	0xbdc60a7a	-0.09669967
131	0xbdbb3a82	-0.09142019
132	0x3dcd4921	0.10023714
133	0xbd0aeed4	-0.03391917
134	0x3be5a75e	0.007008477
135	0x3e09a9ed	0.13443728
136	0xbbf26f29	-0.007398505
137	0x3dd8a288	0.105778754
138	0x3dac43d3	0.08411374
139	0x3e3e57a0	0.18588114
140	0xbdd7ef03	-0.10543635
141	0x3cb607f1	0.022220584
142	0x3e177ab6	0.14792904
143	0xbd0468f7	-0.032326665
144	0xbd734e77	-0.059401
145	0xbd724bf0	-0.05915445
146	0x3cc16cde	0.023611482
147	0xbc8b4d17	-0.017004533
148	0xbda2162b	-0.079143845
149	0x3d1bdff1	0.038055364
150	0xbe1887da	-0.14895573
151	0xbd16a92f	-0.03678244
152	0xbd83fc8e	-0.06444655
153	0x3e4cb880	0.19992256
154	0x3d43689e	0.047707193
155	0x3cf138f8	0.02944611
156	0x3e2a8cbb	0.16655247
157	0x3dd44644	0.103649646
158	0x3d2963cc	0.04135494
159	0x3cc5d4fb	0.024149409
160	0x3d1e681d	0.03867351
161	0xbdd701de	-0.10498403
162	0x3d7aa392	0.06119115
163	0xbddca08a	-0.10772808
164	0xbd234412	-0.03985984
165	0x3d30b6cb	0.043143075
166	0xbcad6b87	-0.021169437
167	0xbc342bf4	-0.010996807
168	0xbd936df4	-0.07198706
169	0xbcca2a33	-0.024678325
170	0xbcbc3dde	-0.02297872
171	0x3c500b04	0.012697939
172	0x3df09d4e	0.117487535
173	0x3dfa0eb9	0.122098394
174	0xbdd650e1	-0.10464645
175	0x3d5cf35a	0.053943016
176	0x3ddbf35e	0.10739778
177	0xbc7206db	-0.014772142
178	0x3de045ef	0.10950839
179	0x3e1dde57	0.15416847
180	0x3dc06f6c	0.09396252
181	0xbd9e30a0	-0.07724118
182	0x3c99bc33	0.018766498
183	0x3c0298b7	0.00797098
184	0x3cf99e62	0.03047103
185	0x3d832021	0.064026125
186	0x3da4fe64	0.08056334
187	0xbd65eada	-0.056132175
188	0x3d9536be	0.07285832
189	0xbe24811a	-0.16064873
190	0xbd48f48a	-0.049061336
191	0xbd9eeaef	-0.07759654
192	0xbe0c1c79	-0.13682736
193	0xbb853ecc	-0.004066324
194	0xbdbe2606	-0.09284596
195	0xbe00c81a	-0.12576333
196	0xbdf869c1	-0.12129546
197	0xbd66c76d	-0.05634253
198	0x3d781eb0	0.06057614
199	0xbda8d4bf	-0.08243703
200	0x3d4858a7	0.04891267
201	0xbbe74a87	-0.007058445
202	0x3c3da3e5	0.01157472
203	0xbd0bb045	-0.03410365
204	0x3d7b98c3	0.06142498
205	0x3cc520da	0.024063516
206	0x3c8b2577	0.016985638
207	0x3da44257	0.08020466
208	0x3daf08d0	0.08546603
209	0x3e1578fc	0.14596933
210	0x3dccebcd	0.10005913
211	0x3cab2a1b	0.0208941
212	0x3da11850	0.07865965
213	0x3cb681f6	0.022278767
214	0xbda3fbc9	-0.080070086
215	0x3d7996aa	0.0609347
216	0x3d988e9e	0.07449077
217	0xbe37c151	-0.17944838
218	0x3b60fc46	0.0034330054
219	0xbd2d6243	-0.042330038
220	0xbdef0a98	-0.116719425
221	0xbe078379	-0.13233747
222	0xbd69ea1f	-0.05710804
223	0xbe260e75	-0.16216452
224	0xbde039d7	-0.10948532
225	0x3dde35dc	0.108501166
226	0xbd9c1f5e	-0.0762317
227	0xbe07867a	-0.13234892
228	0xbc514684	-0.01277316
229	0x3d98c4bd	0.074594
230	0xbd168629	-0.03674904
231	0xbc01d7a8	-0.007924952
232	0xbdc46b92	-0.0959083
233	0x3e38c9e5	0.18045767
234	0xbd94d540	-0.07267237
235	0xbddd0ef2	-0.10793866
236	0xbdb54212	-0.088504925
237	0x3d75eaf0	0.060038507
238	0x3ddf74e7	0.10910969
239	0xbda3adaa	-0.07992108
240	0xbd2f5756	-0.0428079
241	0x3d1df5a2	0.03856433
242	0xbd538cf6	-0.051648103
243	0x3dbf86b4	0.093518645
244	0x3e2aabc9	0.16667093
245	0xbd8fdd3f	-0.07024621
246	0x3e3e95d5	0.18611844
247	0x3e2b6377	0.16737162
248	0x3e0f127c	0.13971895
249	0x3e453a55	0.19260533
250	0x3e49cbe3	0.19706683
251	0xbbb86f11	-0.0056284745
252	0x3c097540	0.008389771
253	0xbcd7988d	-0.026317859
254	0xbd72b6e4	-0.05925645
255	0x3d99e856	0.07515018

1.module.2.0.b_w f4 [8, 1]
0	0xc3000000	-128.0
1	0x42800000	64.0
2	0x42000000	32.0
3	0x41800000	16.0
4	0x41000000	8.0
5	0x40800000	4.0
6	0x40000000	2.0
7	0x3f800000	1.0

1.module.2.1.weight f4 [8]
0	0x3f0f8852	0.56067383
1	0x3f05663b	0.52109116
2	0x3f1737d3	0.59069556
3	0x3f1c74ee	0.6111592
4	0x3f1af1fc	0.6052549
5	0x3f3611a0	0.71120644
6	0x3f53a782	0.8267747
7	0x3ef441b1	0.4770637

1.module.2.1.bias f4 [8]
0	0x3e0f1bff	0.13975523
1	0xbe28107e	-0.16412541
2	0xbeab728a	-0.33485824
3	0xbe52e67c	-0.20595735
4	0xbe6ee7f3	-0.23330669
5	0x3cfc95d7	0.030833168
6	0x3dbe14aa	0.09281285
7	0xbdd28197	-0.102786236

1.module.2.1.running_mean f4 [8]
0	0x3f028f22	0.50999653
1	0xbd5a7156	-0.05333074
2	0x3e38bf6c	0.18041772
3	0x3d0c8bf7	0.03431317
4	0x3bae7524	0.005324023
5	0xbe8f1824	-0.27948105
6	0xbf08b539	-0.53401524
7	0xbe5c293b	-0.21500103

1.module.2.1.running_var f4 [8]
0	0x3e3c8449	0.18409838
1	0x3dbe94db	0.09305736
2	0x3e03539f	0.12824868
3	0x3e0ff1c8	0.14057076
4	0x3df21850	0.118210435
5	0x3e33c56c	0.17555779
6	0x3e941a1d	0.28926173
7	0x3e38fdfb	0.18065636

2.module.0.0.weight f4 [8, 8, 3, 3]
0	0xbe3131e8	-0.17304194
1	0xbe1930fb	-0.14960091
2	0xbdc5e45f	-0.09662699
3	0xbcb14e83	-0.021643883
4	0xbdfbf0e0	-0.12301803
5	0xbe0aa2a7	-0.1353861
6	0xbd3c0929	-0.045907173
7	0x3bf6b39a	0.0075287344
8	0xbe228a78	-0.15873134
9	0xbd19643f	-0.037449118
10	0x3cec4157	0.02883975
11	0x3c8f8b33	0.01752243
12	0xbae5d0de	-0.0017533561
13	0xbd805bc5	-0.06267504
14	0x3e4517b9	0.1924733
15	0x3be82059	0.0070839343
16	0xbc3de8c5	-0.011591141
17	0x3dd96e3f	0.10616731
18	0xbcf92e23	-0.030417508
19	0xbc57b358	-0.0131653175
20	0xbe03ef72	-0.1288431
21	0x3e1f4ad8	0.15555894
22	0x3d9eab23	0.077474855
23	0xbd8d629c	-0.06903574
24	0x3db72992	0.08943476
25	0x3dfcf46b	0.123513065
26	0xbdb20581	-0.08692456
27	0xbe04cd43	-0.12968926
28	0xbd88e249	-0.066837855
29	0xbd4d68e1	-0.05014885
30	0x3d3a3ed0	0.04547006
31	0x3d719a1a	0.058984853
32	0xbe11bdc1	-0.14232542
33	0x3df4bdc3	0.11950257
34	0x3dd59154	0.1042811
35	0xbcea473e	-0.028598424
36	0x3dc4fe03	0.096187614
37	0x3d2da0c1	0.042389635
38	0xbdb37fd5	-0.087646164
39	0xbe0809e2	-0.1328502
40	0xbe412c0b	-0.18864457
41	0xbd3fe9a9	-0.046853695
42	0xbe4bf62c	-0.19918126
43	0xbde55624	-0.11198071
44	0xbc51fb3e	-0.012816248
45	0xbe08a5ba	-0.1334447
46	0xbdee5b70	-0.11638534
47	0xbdbb0fe8	-0.09133893
48	0xbdadd6bb	-0.08488222
49	0xbd96de69	-0.0736664
50	0xbe42e66e	-0.19033214
51	0x3db4eacc	0.088338464
52	0xbdc444c9	-0.09583432
53	0xbddf276c	-0.10896191
54	0xbd4f94fc	-0.050679192
55	0xbd2fd1ad	-0.04292457
56	0xbdde8ac0	-0.10866308
57	0x3d700137	0.05859491
58	0x3d5cc62e	0.053899936
59	0xbdc01035	-0.09378091
60	0xbd56e5cf	-0.052465256
61	0x3e02d4aa	0.12776437
62	0x3c95fe0e	0.01830962
63	0xbd30bd20	-0.043149114
64	0x3e09d2e1	0.1345935
65	0xbb2861d5	-0.0025693078
66	0x3ceb42ac	0.028718315
67	0x3d9dbd7c	0.07702157
68	0x3b142fa8	0.0022611413
69	0x3d0106de	0.03150069
70	0xbc6f7ace	-0.014616681
71	0x3cc67b0f	0.0242286
72	0x3e045006	0.12921152
73	0x3cfe22ad	0.031022394
74	0x3da5cb36	0.080954
75	0xbe0ede79	-0.13952054
76	0xbdae19a6	-0.08500986
77	0xbd8566fc	-0.06513783
78	0x3d3dd71f	0.046347734
79	0xbc9087a1	-0.017642798
80	0xbd1dc2e2	-0.038515933
81	0x3c0960ad	0.008384866
82	0xbd9cd203	-0.07657244
83	0xbd62cc12	-0.055370398
84	0x3d145544	0.036214128
85	0xbd96130e	-0.07327853
86	0x3dc01cdf	0.09380507
87	0x3e450a1e	0.1924214
88	0xbd833400	-0.064064026
89	0x3c3acaef	0.011400922
90	0xbe205528	-0.15657485
91	0xbe4c5364	-0.19953686
92	0xbe4ae066	-0.19812164
93	0xbd788df2	-0.060682245
94	0xbde73725	-0.11289815
95	0xbdfa8292	-0.122319356
96	0x3d3168a4	0.043312684
97	0x3c411711	0.011785285
98	0x3da55e32	0.08074607
99	0x3deb8023	0.114990495
100	0xbd855e3e	-0.06512116
101	0xbaf9e237	-0.001906461
102	0x3e3fbd8e	0.18724653
103	0x3d9581fd	0.07300184
104	0x3ca0142a	0.019540865
105	0x3e428f0d	0.18999882
106	0x3e488dee	0.19585392
107	0x3be3c1e1	0.0069506024
108	0xbda6b8a0	-0.08140683
109	0xbe1a5c3e	-0.1507425
110	0xbddb1b71	-0.106985934
111	0xbd157e1a	-0.036497213
112	0x3db51c9a	0.08843346
113	0x3d638793	0.055549216
114	0xbd83c006	-0.0643311
115	0x3ce009b1	0.027348371
116	0x3e37b689	0.17940725
117	0xbbd17a3e	-0.006392746
118	0x3c927ca5	0.0178817
119	0x3d74a1e0	0.05972469
120	0x3e01989e	0.12655875
121	0x3dc43375	0.09580127
122	0x3c8b8441	0.017030837
123	0x3ce66bd9	0.028127598
124	0x3dfbf1a8	0.12301952
125	0x3d8fd205	0.0702248
126	0xbdeeb9a6	-0.116565034
127	0xbe2a850e	-0.16652319
128	0xbe3ef4f0	-0.18648124
129	0xbdd24e0f	-0.10268795
130	0xbdbb2001	-0.09136964
131	0xbe36fa8a	-0.1786901
132	0xbdb1c3ea	-0.08679946
133	0xbe20214b	-0.156377
134	0xbddb1192	-0.10696711
135	0xbd8eaa9b	-0.06966134
136	0x3da35e90	0.07977021
137	0x3da4a2a0	0.08038831
138	0x3cf923ce	0.03041258
139	0xbda586b8	-0.08082336
140	0x3e187566	0.14888534
141	0xbd084db7	-0.03327724
142	0xbe323636	-0.17403492
143	0xbd73ea9c	-0.059549913
144	0xbd148bcc	-0.036266133
145	0xbe4b32b3	-0.19843559
146	0xbe3cc7c6	-0.18435583
147	0xbe1d410d	-0.15356846
148	0xbe075c55	-0.13218816
149	0xbd914b54	-0.07094446
150	0xbe2c2c55	-0.16813786
151	0xbe42a70b	-0.19009034
152	0x3d6a1456	0.0571483
153	0x3d908476	0.07056515
154	0xbcb4f5b4	-0.022089817
155	0xbd291549	-0.041280065
156	0x3de8f2c5	0.113744296
157	0xbdb3ad81	-0.087733276
158	0xbd54d92e	-0.05196493
159	0xbdfb2c29	-0.12264282
160	0x3db2fc05	0.08739475
161	0x3b5cdfe7	0.0033702792
162	0xbe24d832	-0.16098097
163	0xbc9862f5	-0.018601874
164	0x3c9ecb80	0.019384146
165	0xbd807d6a	-0.06273921
166	0xbe2dfe4a	-0.16991535
167	0xbdd75fdc	-0.105163306
168	0xbda49d19	-0.080377765
169	0xbe1acb0f	-0.15116523
170	0xbdecf945	-0.11570982
171	0x3e25f064	0.16204983
172	0x3e1403f1	0.14454629
173	0x3d275b8c	0.04085879
174	0xbc1c7712	-0.009549873
175	0x3e3f9085	0.18707474
176	0x3da5b767	0.08091622
177	0xbe04283c	-0.12905973
178	0xbd94454c	-0.0723978
179	0x3b592d89	0.0033138713
180	0xbc732a96	-0.014841696
181	0xbcc1967d	-0.023631329
182	0x3c6a9b45	0.014319246
183	0x3e25d046	0.16192731
184	0xbd25bdb1	-0.040464107
185	0x3df9717f	0.12179851
186	0x3e115146	0.1419116
187	0x3d9f57a4	0.07780388
188	0x3cf8b091	0.03035763
189	0x3d9a9bf6	0.075492784
190	0x3e1e82c7	0.15479575
191	0xbe137122	-0.14398625
192	0xbd43e8b4	-0.047829345
193	0xbde57561	-0.11204029
194	0xbd975972	-0.07390107
195	0xbdbb4e77	-0.09145825
196	0xbcd6f755	-0.026240984
197	0x3d98de86	0.07464318
198	0x3af02736	0.0018322233
199	0xbc1fc223	-0.009750876
200	0x3e09cdb5	0.13457377
201	0xbd88f2e7	-0.06686955
202	0x3e4b821a	0.19873849
203	0xbd143a9d	-0.03618871
204	0xbda3d3b3	-0.07999363
205	0xbdee474b	-0.11634692
206	0x3d8357c0	0.06413221
207	0x3d1b9268	0.03798142
208	0xbe077393	-0.13227682
209	0xbd9758db	-0.07389995
210	0x3e259ca5	0.16173036
211	0x3b4cef54	0.003127058
212	0xbe3085b2	-0.172385
213	0x3dbf9433	0.09354439
214	0x3ad155c3	0.0015970994
215	0xbd007632	-0.03136272
216	0xbdd8c4f5	-0.105844416
217	0x3cc0ca13	0.023533856
218	0xbdec591e	-0.11540435
219	0xbd445ce3	-0.047940146
220	0xbdf75931	-0.12077559
221	0xbe25d066	-0.16192779
222	0x3c8b755d	0.017023737
223	0xbd4bd47e	-0.049763195
224	0x3e0e7f66	0.13915786
225	0x3dd0fdd4	0.10204664
226	0xbc715233	-0.0147290705
227	0x3d3cff74	0.046142057
228	0xbd409894	-0.04702051
229	0x3b400dc0	0.002930507
230	0x3d268781	0.04065657
231	0xbde61d03	-0.11236002
232	0x3d3a68d1	0.045510117
233	0xbdd81cd3	-0.10552373
234	0xbe099023	-0.1343389
235	0x3da9e626	0.082958505
236	0xbd9cdfee	-0.07659899
237	0xbe34f568	-0.1767174
238	0x3ba18eea	0.0049303668
239	0x3d6d7a3c	0.0579779
240	0xbe34f324	-0.17670876
241	0xbd390553	-0.045171093
242	0xbd581446	-0.05275371
243	0xbdb038e1	-0.08604599
244	0xbe029554	-0.12752277
245	0xbd09e503	-0.03366567
246	0x3de289c5	0.11061434
247	0x3e18d831	0.1492622
248	0xbd9492f4	-0.072545916
249	0xbde34579	-0.11097235
250	0x3e36c550	0.17848706
251	0x3dcb8a2b	0.09938463
252	0xbd410196	-0.047120653
253	0xbdec85ac	-0.115489334
254	0xbe41ee91	-0.18938662
255	0x3d0b47e5	0.03400411

2.module.0.0.b_w f4 [8, 1]
0	0xc3000000	-128.0
1	0x42800000	64.0
2	0x42000000	32.0
3	0x41800000	16.0
4	0x41000000	8.0
5	0x40800000	4.0
6	0x40000000	2.0
7	0x3f800000	1.0

2.module.0.1.weight f4 [8]
0	0x3f26a3eb	0.6509387
1	0x3f344cfe	0.7042998
2	0x3f2a2319	0.66459805
3	0x3f52db9c	0.8236635
4	0x3f24c326	0.6436027
5	0x3f2430a3	0.64136714
6	0x3f26342d	0.64923364
7	0x3f2eed10	0.6833048

2.module.0.1.bias f4 [8]
0	0x3e15b897	0.14621197
1	0xbdd4a8a2	-0.10383727
2	0x3cfc4628	0.030795172
3	0x3df3ff31	0.11913908
4	0xbcb6e057	-0.02232377
5	0x3a0ee966	0.0005451649
6	0xbd265333	-0.04060669
7	0xbdb5248a	-0.0884486

2.module.0.1.running_mean f4 [8]
0	0xbf1f0a92	-0.62125504
1	0xbf0a472a	-0.5401484
2	0xbecd5a23	-0.4010783
3	0xbeebe40c	-0.46072423
4	0xbf2767cb	-0.6539275
5	0xbd05c485	-0.03265812
6	0xbebe4c7b	-0.37167725
7	0xbefcae71	-0.49351838

2.module.0.1.running_var f4 [8]
0	0x3e68ec94	0.22746497
1	0x3e2d62a6	0.16932163
2	0x3e48decd	0.19616242
3	0x3e08cee7	0.13360177
4	0x3df9834b	0.12183245
5	0x3df06daf	0.117396705
6	0x3e1c08f3	0.15237789
7	0x3e102651	0.14077117

2.module.1.0.weight f4 [8, 8, 3, 3]
0	0x3d23cec4	0.03999211
1	0xbd3c921b	-0.046037775
2	0x3e0d2a79	0.13785733
3	0x3defa3c3	0.11701157
4	0x3d20b304	0.039233223
5	0x3d9ca6ff	0.076490395
6	0xbdb72033	-0.089416884
7	0xbb9d91e0	-0.0048086494
8	0x3e2cff74	0.16894323
9	0xbc9accf7	-0.018896563
10	0xbd356702	-0.04428769
11	0x3c26cec8	0.010181136
12	0xbc983928	-0.018581942
13	0x3ca1a96a	0.019734103
14	0xbcb99fda	-0.022659231
15	0xbd8ae9b2	-0.06782855
16	0xbd0af1a8	-0.033921868
17	0xbe28e361	-0.16492988
18	0x3c95bd63	0.018278783
19	0x3de6faff	0.112783425
20	0x3e379329	0.17927231
21	0x3d05c26d	0.032656122
22	0xbda2c476	-0.07947628
23	0x3e025032	0.12725905
24	0x3dcd5718	0.100263774
25	0xbdb84d64	-0.08999136
26	0xbc6fcddc	-0.014636483
27	0xbd9b4413	-0.075813435
28	0xbd9277ed	-0.0715178
29	0x3c76a417	0.0150537705
30	0x3dba75ab	0.09104475
31	0xbd69fab4	-0.057123855
32	0xbdda9d03	-0.10674479
33	0x3d490fa0	0.049087167
34	0x3d486c0f	0.048931178
35	0x3db055fb	0.086101495
36	0x3ccdd8c1	0.02512777
37	0x3c0ab3ae	0.008465691
38	0x3bb5ac0f	0.0055441926
39	0x3d5e3aa4	0.054255143
40	0x3d8b743c	0.06809279
41	0x3bddc7a7	0.006768185
42	0xbd1f580d	-0.03890233
43	0x3e204175	0.1564997
44	0x3d50d7aa	0.050986923
45	0xbd110f1c	-0.0354148
46	0xbd9e5864	-0.07731703
47	0xbe2fa3af	-0.17152284
48	0x3d09a664	0.033605948
49	0x3ca72f32	0.020408247
50	0xbdb50f44	-0.08840802
51	0xbd5337bb	-0.05156682
52	0xbdc1d836	-0.09465067
53	0xbd9dd6f0	-0.07707012
54	0xbe10f7ca	-0.14157024
55	0xbcc2b412	-0.023767505
56	0x3d329902	0.04360295
57	0xbd3698c4	-0.044579282
58	0xbda7bc30	-0.08190191
59	0x3d79413a	0.06085322
60	0xbd69a874	-0.057045415
61	0xbb96ed81	-0.0046059494
62	0x3daadbdd	0.08342717
63	0xbd2fc8a3	-0.04291595
64	0x3dcc66b0	0.099805236
65	0xbc5e1055	-0.013553699
66	0xbdc4dfe5	-0.09613017
67	0x3d3256be	0.043539755
68	0x3c9b006b	0.018921098
69	0xbe15f12c	-0.14642781
70	0xbdb48c24	-0.08815792
71	0x3d1742e4	0.036929026
72	0xbb2f6efd	-0.0026769035
73	0xbd9b4d08	-0.07583052
74	0xbc0f92ff	-0.008763074
75	0xbd5db58c	-0.054128215
76	0xbd4505f9	-0.0481014
77	0xbd55e826	-0.052223347
78	0xbdaf9629	-0.08573563
79	0x3cc7ff2c	0.024413668
80	0xbd2500c8	-0.04028395
81	0xbd9bc175	-0.076052584
82	0xbc976af6	-0.01848362
83	0xbdc063e9	-0.09394056
84	0xbd35d428	-0.04439178
85	0xbc9fa3f1	-0.019487353
86	0xbd931787	-0.07182222
87	0xbe1f0d5a	-0.15532437
88	0x3d478c10	0.04871756
89	0xbdd459c5	-0.10368685
90	0xbd6a042d	-0.05713289
91	0xbd0f5e27	-0.0350019
92	0xbd083202	-0.033250816
93	0x3c3030b7	0.010753802
94	0xbd9cc2e1	-0.07654358
95	0xbdea3faa	-0.11437924
96	0xbe408993	-0.1880248
97	0x3da996dc	0.08280727
98	0xbd0874c2	-0.033314474
99	0x3d4ce1df	0.050020095
100	0xbde56506	-0.11200909
101	0xbce4f821	-0.027950348
102	0xbdcccbf3	-0.09999838
103	0x3e375a0e	0.17905447
104	0xbd5548b7	-0.0520713
105	0x3cbb751b	0.022882989
106	0xbe195c76	-0.14976677
107	0x3e290a6b	0.1650788
108	0xbdd41f30	-0.10357511
109	0xbdc26cb5	-0.094933905
110	0x3d511173	0.05104203
111	0xbb1a4f37	-0.002354575
112	0xbe012340	-0.12611103
113	0x3b830cff	0.003999352
114	0x3da2016d	0.07910428
115	0xbd8b1edc	-0.06792995
116	0x3ca3d84e	0.020000603
117	0xbc9f87ea	-0.019473989
118	0xbbdff847	-0.006835017
119	0x3d432e74	0.047651723
120	0x3cb5c074	0.022186495
121	0x3dedf6d0	0.116193414
122	0x3b9ce572	0.004788094
123	0xbde471c9	-0.11154515
124	0xbdea7feb	-0.1145018
125	0xbd7d0371	-0.06177086
126	0x3e425b53	0.1898015
127	0x3e4b7752	0.19869736
128	0xbc274feb	-0.010211925
129	0x3df27fe4	0.118407995
130	0xbce07f33	-0.027404403
131	0x3df07dcb	0.11742743
132	0x3d763069	0.06010476
133	0xb979551b	-0.00023778195
134	0x3e06f1f6	0.13178238
135	0xbc7104fb	-0.01471066
136	0x3da48b49	0.08034379
137	0xbdb9a543	-0.09064724
138	0xbcb22994	-0.021748342
139	0x3d15b573	0.036549997
140	0xbd73f5e3	-0.059560668
141	0x3ddd3afa	0.108022645
142	0x3d3765ba	0.04477475
143	0x3d01f6f1	0.031729642
144	0x3c5dfbe4	0.013548825
145	0xbd50ee54	-0.051008537
146	0xbdcbc0fc	-0.09948918
147	0xbb3f6125	-0.002920219
148	0x3d0302e0	0.031985164
149	0x3d4a576c	0.04939978
150	0xbdae7c75	-0.08519832
151	0x3c5949b7	0.013262204
152	0x3d2dfc9e	0.042477243
153	0x3d32fab8	0.043696135
154	0x3bf79734	0.0075558666
155	0xbded35a4	-0.11582497
156	0x3db5fb6c	0.088858455
157	0x3d72c6ec	0.059271738
158	0x3c4827a0	0.012216479
159	0xbda03998	-0.07823485
160	0x3da2a378	0.079413354
161	0xbdc6147a	-0.09671874
162	0x3c097e9a	0.008392001
163	0x3d998a2c	0.07497057
164	0xbc8a0ae3	-0.016850894
165	0x3d930066	0.0717781
166	0x3c9b8660	0.018984973
167	0xbcdd7d30	-0.027037233
168	0xbda944aa	-0.0826505
169	0xbc89c5c4	-0.016817935
170	0x3e0fbc68	0.14036715
171	0xbdfec8f3	-0.12440672
172	0x3bad7337	0.0052932757
173	0xbe326dfd	-0.1742477
174	0xbdc56218	-0.096378505
175	0x3ce380a5	0.027771303
176	0xbd4bb5c2	-0.049733885
177	0xbccd2f05	-0.025046835
178	0xbe4b7081	-0.19867136
179	0x3d49a775	0.049231965
180	0xbe1fae4b	-0.15593831
181	0xbddb06c2	-0.10694648
182	0xbda57b23	-0.08080127
183	0xbd56f1b9	-0.05247662
184	0x3a2e6e76	0.0006654033
185	0xbdd6bd16	-0.10485284
186	0xbe12fa4e	-0.14353296
187	0xbde1ff6b	-0.11035045
188	0xbe2da42d	-0.1695716
189	0x3de83b98	0.113394916
190	0x3e217e11	0.15770747
191	0x3e342ad0	0.17594457
192	0xbde7c5cb	-0.11317023
193	0x3d7c6ab9	0.061625216
194	0x3d1d241c	0.038364515
195	0xbe1817e3	-0.14852862
196	0xbe45bcff	-0.19310378
197	0xbd101896	-0.035179697
198	0x3d04d6eb	0.032431524
199	0x3cc28434	0.02374468
200	0xbd145ea3	-0.036223065
201	0xbd31bb87	-0.04339173
202	0xbdd49171	-0.10379303
203	0x3de63b17	0.11241739
204	0xbe0525f3	-0.13002758
205	0xbd219675	-0.039450128
206	0xbdf90244	-0.12158635
207	0x3dcbc70d	0.09950075
208	0x3c6ae9e7	0.014337993
209	0x3de25206	0.11050801
210	0x3d96e1c0	0.07367277
211	0x3cc6391e	0.024197157
212	0x3d2fc1d4	0.04290946
213	0x3dd6d8ae	0.10490547
214	0x3def0e6d	0.116726734
215	0x3e26842b	0.16261356
216	0xbe470563	-0.19435649
217	0xbde8dc69	-0.11370165
218	0x3e23477d	0.1594524
219	0xbe32b393	-0.17451315
220	0xbe3fd3a3	-0.18733077
221	0x3e135e5a	0.14391461
222	0xbe2dd88b	-0.16977136
223	0x3ca67b79	0.020322548
224	0x3e4a0c2a	0.19731203
225	0x3c8f0a0d	0.017460847
226	0x3e1823a2	0.14857343
227	0x3dd01ca9	0.101617165
228	0xbdf5cceb	-0.120019756
229	0xbd92d778	-0.07170004
230	0x3d8c4cdf	0.068505995
231	0xbd94ff61	-0.07275272
232	0xbd8531e3	-0.06503656
233	0x3e4cc544	0.19997126
234	0x3c68899f	0.014192968
235	0x3d6b01d7	0.0573748
236	0x3c77bb4c	0.015120339
237	0x3d8a469c	0.06751749
238	0x3dc5a4fd	0.0965061
239	0xbd50b85a	-0.05095706
240	0xbe1835ab	-0.14864223
241	0xbcd8a866	-0.026447486
242	0xbe1fa475	-0.15590079
243	0x3d94dd1b	0.07268735
244	0x3cd5e8c8	0.026111975
245	0x3d236750	0.03989345
246	0xbdf87efe	-0.12133597
247	0x3e21dcdb	0.15806906
248	0xbd2632d0	-0.040575802
249	0x3ae78004	0.0017662053
250	0x3e2f9e9f	0.17150353
251	0xbdfabf78	-0.12243551
252	0x3c2b7a99	0.010466241
253	0x3c61df9e	0.013786225
254	0xbd9908e4	-0.07472399
255	0x3e207524	0.15669686

2.module.1.0.b_w f4 [8, 1]
0	0xc3000000	-128.0
1	0x42800000	64.0
2	0x42000000	32.0
3	0x41800000	16.0
4	0x41000000	8.0
5	0x40800000	4.0
6	0x40000000	2.0
7	0x3f800000	1.0

2.module.1.1.weight f4 [8]
0	0x3f1d10dc	0.6135385
1	0x3f17c392	0.5928279
2	0x3f293d48	0.6610913
3	0x3f2b7abd	0.6698416
4	0x3f34b60e	0.70590293
5	0x3f38ad98	0.72139883
6	0x3f43502c	0.7629421
7	0x3f2cdb0d	0.67521745

2.module.1.1.bias f4 [8]
0	0xbd8f2035	-0.06988565
1	0xbd011a01	-0.03151894
2	0xbd6c3021	-0.057663087
3	0xbcb3d4d2	-0.021952067
4	0xbe28378c	-0.1642744
5	0xbe78da15	-0.24301942
6	0xbe358e69	-0.17730106
7	0xbe124631	-0.14284588

2.module.1.1.running_mean f4 [8]
0	0x3d7c92ec	0.061663553
1	0xbe192ca4	-0.14958435
2	0xbe943e78	-0.2895391
3	0xba8dbb21	-0.0010813215
4	0xbdf90efd	-0.12161062
5	0xbe0fb0eb	-0.14032333
6	0xbe0f556a	-0.13997427
7	0x3e94ab66	0.29037017

2.module.1.1.running_var f4 [8]
0	0x3db6f445	0.089333095
1	0x3dbc6c5b	0.09200355
2	0x3de13b39	0.10997624
3	0x3e37617c	0.17908281
4	0x3e1b3fa2	0.15160993
5	0x3df16567	0.11786919
6	0x3e31aeb0	0.17351794
7	0x3dee2466	0.11628036
