Securite/Model2/Result_bfa/nominal_0.01/checkpoint.pth.tar (torch, 404266 bytes, 25 tensors)

features.0.weight f4 [32, 3, 3, 3]
00000000: b348 d7bd b6a6 bbbe 1258 10bd 0312 173e
00000010: 8d0b 86be e794 4abe cd58 f83d ffbb 98bd
00000020: a3c2 e43d 9d50 8a3c 4f75 06be 8f88 dcbd
00000030: af02 ef3d 4299 ecbc 8678 8d3b 7a23 72bd
00000040: ac08 c23d a9ea 313e 6b90 b2bc 7616 b1be
00000050: 4018 7b3d 040b a63e 2bb5 d33d 1223 293e
00000060: a24c 0c3e 7dca 073d 5c09 ad3e a8f5 fe3c
00000070: 594e 8dbe 2b31 a9be 9dba c33c 2ea6 39be
00000080: d30c a5bd f294 e13d 3358 063f fb69 9c3e
00000090: 06d6 3b3d 3714 87bd 1f8c 9ebd af8e 4d3d
000000a0: 6f81 ecbd f209 2ebe 6988 7bbd e8fb a23e
000000b0: a673 263e 8f7f c53c b761 b73d d496 b9bd
000000c0: 2f0f 7bbc 2d92 85be 6a37 1bbe bd53 48be
000000d0: c358 2f3e 6d60 bc3d c109 fabd f027 04be
000000e0: b903 6cbe 795b 03be c437 b53c fe6e 2abe
000000f0: 29c1 1dbc 7d8d 9bbe f933 293d 7340 aabd
00000100: 4155 c13e 0479 4e3e 58ea 0b3e 3978 103f
00000110: e47e c13d df6e 6a3e f70c 873e ff3a d63e
00000120: facd 01be b990 b7bd 837c 0e3d 68ee d1bd
00000130: 7652 9fbe f5db 61be 95e8 ac3b 7879 e7be
00000140: 87da 2dbe e4e1 983e 6ae2 e83d 2283 94bd
00000150: a8c4 a8be 6413 053f 64ac 71be 1d52 4ebe
00000160: c78e fd3e 1ecf d4be c55b ecbd 322d 45bd
00000170: cf04 4dbd 39a3 08bf 33d4 b03e d050 5cbe
00000180: 375a 3abe 845c 2f3f 3707 0bbe 950f 053e
00000190: 7b62 613d a4d7 503e e59d 08bf 83a3 383e
000001a0: fc70 85bd 8cc3 85be 3196 ef3e 51a0 4fbd
000001b0: 65e4 5b3e 669f 273e e508 643e aefd e93c
000001c0: 2906 e73e be3a 473e 6ff9 c23d d931 52bc
000001d0: 6e3a 87be 2d1a afbe a27d 0bbf de43 cbbe
000001e0: 3f38 d8be 49cd 3ebe c2c6 c6be 123b 11bd
000001f0: fc14 1a3d 62c8 3fbc d66a 9d3e 6e5a 3b3e
00000200: ce5c 9c3e dbb0 a93d 1b11 803c 6555 353e
00000210: b18e 543e 9fc3 1abd 9120 b13d 5684 17be
00000220: d4f6 903e c097 b5bb 4bda 29be af43 ba3e
00000230: 9a16 9f3e b23f 36bd ebb7 77bc 281e cd3e
00000240: ecf3 453d f94f 61bd a0d9 c63b 5783 d1be
00000250: 30fe c1be ad42 24be 4794 37be f6dc b0be
00000260: e49d 77bd 22e6 cc3d 727d b13d d82c e3bc
00000270: 443a ba3d f55f 64be dd3c 8bbd 6fde f63b
00000280: e606 7cbd 9f57 7dbd 2147 a63c d910 9bbc
00000290: 5f86 51be d876 c4bd 8134 f93d 10f4 51be
000002a0: 96b6 2dbe 846c c2bd 3697 61be 5c97 3a3c
000002b0: 4d20 74be 3bf4 68be c435 0fbe 602c 673e
000002c0: 7c2f efbc 0340 453d 755c c23e 90e0 783c
000002d0: c1e2 8fbe fa10 76be d463 8b3d fbbc 87be
000002e0: bbd3 c7b8 fbdb 173e bdf3 093d d6ef ce3e
000002f0: b3a5 7d3e db76 debd 8b59 f43d ebac 913d
00000300: 736e 79bc d8a5 bdbd 1eba aabc 3ec1 413e
00000310: 6dd9 f3bd 0251 383d 2b7e a0be 063f 8a3c
00000320: 5eeb 2e3c 06f4 bbbd ccd6 8fbe e4da 063e
00000330: 91f9 403e fd24 103d c5fb 013e 4fe6 75be
00000340: 0ab2 e93c 4feb 5d3e e65d 4dbe ea40 23be
00000350: b374 a33e 6526 2f3e ba79 34be 87fc 463e
00000360: 623c 12be 8e0b 95be a996 683e 02e5 89be
00000370: 2736 a93d c932 2bbe 32b9 87be b783 cb3e
00000380: 150c a7bc f778 903d 303a 1dbe a52a 1b3d
00000390: 80de 8e3e 10e2 8f3e c8b8 a7be debb 9b3c
000003a0: 8be7 1f3f 7527 5abe d55a 3fbc c816 39be
000003b0: 9d66 f7ba 36b5 1b3a 8bde 6c3e e2a1 0dbe
000003c0: 52b2 44be 0a62 d03e 1b37 80be 39e4 6abe
000003d0: afba 80be 6101 91be 89ec 20bc 15e3 d6bd
000003e0: 7976 9f3e 49ca b63e 1b61 56bd 0d3f b13d
000003f0: f44a 073e 8397 993e 1cfb 0e3e 89e6 6f3d
-0.10511913 -0.36650628 -0.03524024 0.14752965 -0.26180688 -0.19783364 0.121263124 -0.074577324
0.111699365 0.016884143 -0.13130687 -0.10768234 0.11670434 -0.028881673 0.004317346 -0.059115864
0.0947431 0.17374672 -0.02179738 -0.3458745 0.061302423 0.3243028 0.103372894 0.16517285
0.13701108 0.033152092 0.33796203 0.031122997 -0.27598837 -0.33045325 0.023892695 -0.18129799
-0.08059087 0.11014737 0.5247833 0.30549607 0.045858406 -0.065956526 -0.0774157 0.0501849
-0.11548125 -0.16995981 -0.061409388 0.31832814 0.16255054 0.024108676 0.089541845 -0.09061971
-0.015323444 -0.26088086 -0.15157858 -0.19563194 0.17123704 0.09198079 -0.12208892 -0.1290586
-0.23048295 -0.12827863 0.022121318 -0.16643903 -0.0096285725 -0.30381384 0.04130933 -0.08313074
0.37760356 0.20163351 0.13663614 0.56433445 0.094480306 0.22893856 0.2637708 0.41841885
-0.1267623 -0.089631505 0.034786712 -0.102505505 -0.311176 -0.22056563 0.0052767494 -0.4520986
-0.16977893 0.2985984 0.1137131 -0.07251574 -0.32962537 0.5198271 -0.23600918 -0.20148511
0.49522993 -0.41564268 -0.11540941 -0.048138805 -0.050053414 -0.5337406 0.34536895 -0.21515203
-0.18198477 0.6850054 -0.13576971 0.12994225 0.05502556 0.2039476 -0.5336593 0.18031125
-0.06515691 -0.26125753 0.46794274 -0.05069 0.21473844 0.163694 0.22269018 0.028563347
0.45121887 0.19456002 0.09520232 -0.012829267 -0.26411766 -0.34199658 -0.54488575 -0.39700216
-0.42230412 -0.18632998 -0.38823515 -0.035456724 0.03761767 -0.01170549 0.30745572 0.18296215
0.30539554 0.08285686 0.015633157 0.17708357 0.20757557 -0.037784215 0.0864879 -0.14796576
0.28313315 -0.0055417717 -0.16587178 0.36379763 0.3107193 -0.04449434 -0.015119533 0.4006207
0.048328325 -0.05500791 0.0060684234 -0.40920517 -0.37889242 -0.1604106 -0.17927657 -0.3454358
-0.06045331 0.10004832 0.08666505 -0.027731344 0.090931445 -0.2230223 -0.06798718 0.0075338404
-0.061530016 -0.06185114 0.020297589 -0.018928932 -0.20461415 -0.0959298 0.121682175 -0.20503259
-0.16964182 -0.09493354 -0.22030339 0.011388626 -0.23840447 -0.22749417 -0.13985354 0.22575521
-0.029197447 0.04815675 0.37961164 0.015190259 -0.28102687 -0.24029914 0.0680615 -0.26511368
-9.528497e-05 0.1483001 0.033679713 0.40417355 0.2477024 -0.10862514 0.119311415 0.071130596
-0.015224087 -0.09260148 -0.0208407 0.18921372 -0.11906705 0.04499913 -0.3134626 0.016875755
0.010676233 -0.09177403 -0.28093565 0.13169438 0.18845202 0.035191525 0.12693699 -0.24013637
0.028527278 0.21671794 -0.2005535 -0.15942731 0.31924972 0.1710449 -0.1762456 0.19432269
-0.14280847 -0.29110378 0.22713722 -0.26932532 0.08262282 -0.16718592 -0.2650848 0.39748928
-0.020391503 0.07054322 -0.15354228 0.037882466 0.2790413 0.2810216 -0.32758164 0.01901048
0.6246268 -0.21304114 -0.011679371 -0.18075097 -0.0018875186 0.00059397833 0.23131768 -0.13831285
-0.19208649 0.40699798 -0.25042042 -0.22938623 -0.25142428 -0.28321365 -0.009822019 -0.10492531
0.31145075 0.35701206 -0.0523387 0.08654604 0.13212186 0.29998407 0.13962978 0.058569465

features.0.bias f4 [32]
00000000: 5ee7 11bf 6a5c 1cbe a6a1 b2bc 5c95 313e
00000010: d877 4bbe f7a0 0ebf eea2 1bbf e400 2b3e
00000020: bc77 a03e 5b97 87bd aac6 f9bc 241b ab3e
00000030: 2d0b 71be 148a 2cbf b2e6 27be 4955 66be
00000040: 2ea4 dcbe 1ebb f1be f253 01bf e951 113e
00000050: c57a ffbe 3087 1cbd a943 a1be f95c 8b3c
00000060: 0c8f 24bf 91a6 42bf 81d1 7bbe a577 3cbe
00000070: 5d0b d93d ef27 4d3e 5edf 8bbc c8e0 ad3e
-0.56993663 -0.15269628 -0.021805596 0.17342132 -0.19869936 -0.5571436 -0.60795486 0.16699558
0.3134135 -0.06620666 -0.030490238 0.33419144 -0.2353942 -0.6739819 -0.16396597 -0.22493471
-0.4309401 -0.47213072 -0.50518715 0.14191402 -0.49898353 -0.038214862 -0.31496933 0.017012106
-0.6428077 -0.7603541 -0.24591638 -0.18405016 0.105978705 0.20034765 -0.017074283 0.33960557

features.0.b_w f4 [8, 1]
00000000: 0000 00c3 0000 8042 0000 0042 0000 8041
00000010: 0000 0041 0000 8040 0000 0040 0000 803f
-128.0 64.0 32.0 16.0 8.0 4.0 2.0 1.0

features.2.weight f4 [32, 32, 3, 3]
00000000: 1fdb 8cbd 823d 9abd 086e a4bd f823 11be
00000010: 50de f7bd d854 2dbe 82e5 52bd 0c0f 0cbe
00000020: d065 45be d186 8f3c d857 43bc d7e4 3a3d
00000030: 446d e03c ffb6 bdbb 2718 373c 55c9 96bc
00000040: 7715 09bd 9637 c1bc 058b e9bc 1b33 97bc
00000050: eb22 8f3d 0aab d3bc f34e 2abd 058e 9a3d
00000060: bc25 56bc c662 ffbc 0c76 e6bc 05b4 383d
00000070: 4826 abbd d97b 4bbe b9ff 01bd 71c8 02be
00000080: 58da 42be 48e1 89bb 05c5 cbbd b150 31be
00000090: fff1 87bd ea20 84bc 5673 103d 563a 28bd
000000a0: 2a73 1e3d 6b51 b9bc 0394 b9bc 110f 24bb
000000b0: ddc8 e9bb 1d34 10bd 9759 84bd 231a ac3d
000000c0: b37c b3bc 3763 dbbd 3e9c 3f3d 3c5d 15bc
000000d0: 7330 67bd 6cd1 5d3d 0ff5 e0bc 96e6 e0bd
000000e0: 9b17 7d3c 870a 80bb 3526 a1bd 01b6 9dbd
000000f0: d8b4 003d 5dc9 8fbd 5643 b9bd bc98 543d
00000100: a012 16be 1c6e a4bd ea8c 2a3c 3ab3 f5bd
00000110: c8ff 27be a543 96bc 6e3c 2abd 7e93 92bd
00000120: aa56 203e d332 873d fa32 cdbd d2bb dc3c
00000130: f862 e03d fde1 38bd 3695 e53d 9960 633d
00000140: 0a58 d5bc fd99 d1bd 5611 46bc 6428 88bc
00000150: 778e 75bd 9ef5 0ebe 4408 42be db34 76bd
00000160: b2f2 3bbd efe2 14be 5af8 9d3d 4b5f 103e
00000170: bdf2 903d eb63 febc a6f0 bf3d 7ed4 033e
00000180: d39b 80bd 4d90 2a3d 0d49 3c3e acbe 8a3c
00000190: 14dc 963d df19 873c 48c0 9dbc 94ad 103d
000001a0: 1308 783d 622f b93c 05c9 8f3b 21bf b33d
000001b0: af7a a8bc 69ee 9d3b 50d1 2ebd 5bb2 75bc
000001c0: 8d1d 41bd b615 87bd 0339 4b3d 48af b2bb
000001d0: 930a 45bd a506 823c d64b 043e dfd8 963d
000001e0: 14d0 3ebd 7a8d 903c c9d4 c13d af43 0cbd
000001f0: c6c0 b7bb c9d9 0d3d 7bf7 a43d aa5b 86ba
00000200: cc3e 4b3c 6703 38bd d4c2 1abb 1c71 a33d
00000210: dc5a 7e3c 189a 2f3d b870 4c3e 1ac2 45bb
00000220: 1346 0cbd e16e bebd 3660 52bd 0eb3 09bd
00000230: 689c 96bd 5b94 6abd 9a57 cdbd b6e5 55bd
00000240: 68e2 79bd 38ab 71bd acf4 a1bc 60ac bfbd
00000250: e276 dfbd 50ce d5bd 1975 98bd e1a2 95bd
00000260: 3578 e3bd 891c 46bd 1bfa dfbc 3e97 33bd
00000270: 4f63 3dbd c068 9bb7 3dd8 43bd 8c4a c2bc
00000280: fb03 bcbc aa16 73bd bda2 313d bfd1 b13b
00000290: 49e3 553b a83d a7bc 3993 1dbc c297 33bd
000002a0: b7eb 32bc 951d 3ebd 1857 95bd 5900 963d
000002b0: f687 4bbd 57e9 d7bd 5927 50bc 1a73 f3bd
000002c0: 269b 22be c7fd c1bc 19e9 b8bd d966 e9bd
000002d0: bb8e 433d 4ae0 4d3d 0a3a 793b 9bf8 7c3d
000002e0: 0f36 1d3d 76d6 a0bd 3950 a23d 8bd5 763d
000002f0: 1d76 b1bd 9001 0dbd 1e31 18bd a45b f5bc
00000300: 8dc1 e5bd 0bc7 abbd 7ce2 75bd c79f f5bd
00000310: 5607 29bd f5b2 c7bc 41d1 a4bd fc20 293c
00000320: b0af 9b3d bd6c 96bc e151 1f3d 419d 163d
00000330: 61bc 253d 5a25 493d d12e 92bc 4822 dc3d
00000340: 988d babc effe 11be 448f 4f3d 4d23 f73b
00000350: 989b eabd acc7 353c 99c3 c43d f82e 043d
00000360: 7330 143d 673c 04bd 4775 24bd 37f7 ef3c
00000370: 63b7 40bc d070 5cbd f5a2 0b3d e35c c0bc
00000380: fffc a6bc 3b9f 6b3d fd79 1e3d 50dd c33c
00000390: 8237 8b3d a3ed 7f3d 76a1 e93c 2e26 be3c
000003a0: 403c b33d 8e81 3e3c 856f b33c cdce 71b9
000003b0: 4781 7abb 1cf9 c2bc e4ee c1bd edc5 71bd
000003c0: 6ea6 283c f740 7bbd e264 aabd cab8 bf3d
000003d0: 8b29 963c 95dd 0fbe 9473 0e3e da32 9bbc
000003e0: 3a59 61be 0226 0c3e 8b78 9ebb b9ae 1bbe
000003f0: a361 27bd 2019 8bbd 8158 68bb ec80 3cbd
-0.068777315 -0.07531263 -0.08028799 -0.14173877 -0.121029496 -0.16926897 -0.051488407 -0.13677615
-0.1927712 0.01752034 -0.011922799 0.045628395 0.027395852 -0.005789637 0.011175192 -0.01840655
-0.033467736 -0.023586076 -0.028508672 -0.018456986 0.06989082 -0.025838394 -0.041579198 0.07546619
-0.01307052 -0.031175029 -0.028132461 0.045093555 -0.08356911 -0.19871463 -0.031738017 -0.12771775
-0.19028604 -0.004207764 -0.09949688 -0.17315938 -0.06637954 -0.016128976 0.035266243 -0.04107126
0.038684048 -0.02262183 -0.022653585 -0.0025033394 -0.0071345405 -0.03520595 -0.064624004 0.08403423
-0.021910047 -0.10712283 0.046779864 -0.009116467 -0.05644269 0.0541548 -0.027460603 -0.10981481
0.0154475225 -0.003907505 -0.078686155 -0.0770073 0.031422466 -0.07020829 -0.090460464 0.05190347
-0.14655542 -0.08028814 0.010409573 -0.119970754 -0.16406167 -0.018342802 -0.041561536 -0.07157038
0.1565806 0.06601491 -0.10019489 0.026945028 0.10956377 -0.045137394 0.112101 0.055512045
-0.026042957 -0.10234449 -0.012089094 -0.016620822 -0.05995032 -0.13960883 -0.18948466 -0.060109
-0.04588575 -0.14539693 0.07713385 0.14098851 0.07077549 -0.031053504 0.09372072 0.12874028
-0.06279721 0.041641522 0.18387242 0.016936623 0.07366195 0.016491828 -0.019256726 0.035321787
0.060554575 0.022605602 0.004387977 0.08776689 -0.020566313 0.0048196805 -0.042680085 -0.014996137
-0.047147322 -0.06595938 0.049614917 -0.005453024 -0.048105787 0.015872309 0.12919554 0.07365584
-0.046585158 0.017645586 0.09464414 -0.034244236 -0.005607697 0.034631524 0.08055016 -0.0010250707
0.012405109 -0.04492512 -0.0023614662 0.07980558 0.015524592 0.042871565 0.19964874 -0.0030175508
-0.034246515 -0.09298492 -0.051361285 -0.033618025 -0.07354051 -0.05727039 -0.10026474 -0.052221023
-0.061006933 -0.059001178 -0.019769989 -0.0935905 -0.10911347 -0.104397416 -0.074442096 -0.07306457
-0.11106912 -0.048367057 -0.02734094 -0.043845408 -0.046237286 -1.8526218e-05 -0.047813643 -0.023717187
-0.022951117 -0.059347786 0.04336809 0.005426615 0.0032636693 -0.020415142 -0.00961762 -0.0438459
-0.010920457 -0.04641493 -0.072920024 0.07324285 -0.04969021 -0.10542553 -0.012704694 -0.11887188
-0.15879497 -0.02368058 -0.09028835 -0.1139657 0.04774354 0.050262727 0.0038028979 0.061760526
0.038381632 -0.07853405 0.079254575 0.060262244 -0.086651064 -0.03442532 -0.037156217 -0.029950924
-0.112185575 -0.08387574 -0.060030445 -0.11993366 -0.04126676 -0.024377326 -0.080477245 0.0103228055
0.07601869 -0.018362397 0.038896445 0.036771063 0.040462855 0.049107887 -0.01784459 0.10748726
-0.022772595 -0.14257406 0.050673738 0.00754205 -0.114554584 0.011094969 0.0960762 0.032271355
0.036179017 -0.032284167 -0.040150907 0.029292686 -0.011762473 -0.053818524 0.034090955 -0.023481792
-0.02038431 0.0575249 0.038690556 0.023909241 0.06797697 0.062482487 0.028519373 0.023211565
0.08751726 0.011627568 0.021903763 -0.0002306059 -0.0038224028 -0.023800425 -0.09469393 -0.059026647
0.010293586 -0.061341252 -0.08320023 0.093614176 0.018330356 -0.1404937 0.13911277 -0.018945146
-0.22006693 0.13686374 -0.004836147 -0.1520337 -0.040864598 -0.067919016 -0.0035453143 -0.046021387

features.2.bias f4 [32]
00000000: 6b62 2e3e a832 aabd f508 093e 37d0 603d
00000010: a724 23be 6aad fabd 9d4a 91bd a71a 17bc
00000020: e2ad f33d bc70 17be 3588 93bd 8d54 723e
00000030: 93e9 70bd b8e3 57be 6451 4abd 0a28 eebd
00000040: 202b acbe f8d9 a9bb b5d1 c33e 28c7 fc3d
00000050: dc87 98bd 2ec7 03be 12b0 6abe 5e0f 063d
00000060: fe59 9dbc 5bdf c7bd aa28 3fbd 03fb 023e
00000070: f66b 873e 7575 95bd b862 8f3e 2bcb 0f3d
0.17029731 -0.08310443 0.13382323 0.05488607 -0.1593195 -0.12240107 -0.070943095 -0.009222663
0.118984 -0.14789099 -0.07203714 0.23665066 -0.058816504 -0.21082962 -0.049394026 -0.116287306
-0.33626652 -0.0051834546 0.3824593 0.123426735 -0.07447788 -0.1286895 -0.22918728 0.0327295
-0.01920795 -0.097593985 -0.04666964 0.12791066 0.26449555 -0.07297794 0.28005004 0.035105865

features.2.b_w f4 [8, 1]
00000000: 0000 00c3 0000 8042 0000 0042 0000 8041
00000010: 0000 0041 0000 8040 0000 0040 0000 803f
-128.0 64.0 32.0 16.0 8.0 4.0 2.0 1.0

features.6.weight f4 [32, 32, 3, 3]
00000000: 63bd 03be a76d 2fbe 01a8 86be 0787 8dbc
00000010: 4503 e5bc 4efa 14be f66b 22bd 46df 6b3d
00000020: 9504 ca3b 5329 023e aff4 b13d e880 853c
00000030: 9679 91bd 6503 55bd af1a b63d ba3f f1bd
00000040: cd55 e3bd d80e 80bd f5b8 14bc 3b95 eebb
00000050: cd64 dd3b 678f 6cbd bec4 8fbd 98f2 bebd
00000060: 518a 80bd 2bc8 e4bd 2162 d6bd b5a8 c6bd
00000070: 1c0f cebd 2521 91bd afd5 a9bd 72f0 80bd
00000080: 7b03 e9bd 1a7d 96bd 0302 09be 1f0e 68bd
00000090: fa9a 46bd 42d7 f8bc 1be7 36bd a683 aabc
000000a0: 18d6 483d a803 7b3c f802 eabc bc04 923d
000000b0: 182a 79bc 88ab 98bc 842e 9bbd b06d fbbd
000000c0: 2ad2 b23c 6ee2 2abd 7401 35be 2357 8ebb
000000d0: ba4a febc f9c0 8cbd 08ab 85bd 6570 e4bd
000000e0: 117a 3fbd 04f2 1b3d b359 993d b45b 443b
000000f0: 3536 b53d 7dc8 2a3c 7004 133d 3df7 b43b
00000100: d2a5 4cba de78 8d3c 3a1d b6bb 3233 103b
00000110: 0ce9 823d 8902 f2bd fa8b b63a 2474 1abc
00000120: 490c 57bd aa0c e8bb ec4e 693c d649 91bd
00000130: f7b9 6cba 0eff eebc ec00 59bd 0075 9dbd
00000140: d8cc 83bc 2dcd d8bc f151 51bd 5ca9 aabd
00000150: 15c2 b6bd 81e1 81bd 603a eabb 6464 3dbd
00000160: a1c5 b8bc 6fb9 63bc 7b4a 3e3d d202 a8bd
00000170: 5c3a e1bd aa60 00bd 18e3 d5bd 920e fabd
00000180: 095b 82bd 42d1 063d 0135 5c3d 2c5e 7cbd
00000190: f876 a73c da60 b83d a477 8c3c 21df 0e3d
000001a0: fe35 bb3d 67a6 cfbb 1e7b 4e3b b8fb e63d
000001b0: 6f4b 9ebd 4449 bdbd b367 09bd b685 f4bc
000001c0: da5e 8bbd 2089 59bd 39a3 183e d4ec 2bbb
000001d0: c487 893d 3b85 5bbd ced0 0cbe cf55 a1bd
000001e0: 4793 c8bc 00b0 803c 8fcc f9bc d8cf 073e
000001f0: b077 9b3d afdd 403d a2be 913d 258d 3cbd
00000200: c52d ecbd 4ef4 14bd 1373 14bd 8a7a 86bd
00000210: 9ebd 13bd 4c44 813d 9147 b53d 2ddd 54bc
00000220: 8a84 e73c 6aa6 82bd cb3c 0b3c dfab 4b3d
00000230: 4841 d0bc b539 423e d1f6 e03d 8d09 91bc
00000240: fcaf 14be 1585 28bd 7655 07bd ba04 dfbc
00000250: d02f 9b3d ff2f 7fba 1d65 093b 6277 c33d
00000260: 33a1 a63d 315c 2f3c b77c 863c 9c19 8a3d
00000270: 8dd7 973c 7976 44bd a3cb c4bd d20c f5bc
00000280: b5d9 afbd c945 d4bd 856a 04be ee73 433d
00000290: 17b3 a23d 9d1d c9bd c8f6 4f3d 7281 a83c
000002a0: 2432 a8bb bdb8 f13d ea44 2b3d c5b6 6f3d
000002b0: 764c b23c bd7b 37bc 4999 b33d cdc8 dcbc
000002c0: 2768 cebd b649 0b3e a902 393e 2bc5 96bc
000002d0: b947 9dbc efbd fbbb f9d4 11be ab49 903c
000002e0: f13c c13d 70ad 9cbd ddab 9e3d 3377 043e
000002f0: e2cc c8bb 509f 08be 5620 f1bc 951f c5bd
00000300: ec3b 55bd b092 86bb b96e c23d 3ee7 d0bc
00000310: bdc1 7d3c 80b1 ac3d 3f04 e9bd b4c6 b4bd
00000320: 5503 e1bd 70d2 9cbc f016 75bd e3d0 a0bd
00000330: 844c eebc d27e c0bc e2a6 4dbd e237 543d
00000340: 2a49 f13d 5b7f 543c 1b17 0b3d 5b9d 46bc
00000350: 1064 403d 27c3 0abe e181 8f3d 9bd4 583d
00000360: 2161 353d 2264 9abd 958c 0fbe 916e eebc
00000370: 3ad0 bbbc de6f 40bd 23de 0e3c d26e b03d
00000380: adc6 d93d 9e92 773d 76d7 073d 7885 e5bc
00000390: d617 a3bb 6c58 583d c912 ce3d ed8a e43c
000003a0: eb6a 3cbd 53e2 d83a ae7a f53b e457 a9bd
000003b0: 5aa2 1fbe 0fde 753b bc2e d0bc 0761 0abe
000003c0: 15f3 95ba d062 503c 3ca0 0fb9 795e f0bd
000003d0: 615a e93c d8ee e33c eac9 a13b b649 6b3d
000003e0: e8ff d03b 080b 203e ad08 e63b ff09 80bd
000003f0: 090f fbbd 56d9 2abe 4fc9 71be 362a b5bd
-0.12865214 -0.17131673 -0.26300052 -0.0172763 -0.02795566 -0.14548609 -0.03965374 0.057585977
0.006165097 0.12711076 0.08689248 0.016296819 -0.07103269 -0.05200519 0.08891808 -0.11779733
-0.111003496 -0.06252831 -0.0090773 -0.0072809733 0.006756401 -0.057753947 -0.070199475 -0.09323615
-0.06276382 -0.111709915 -0.10467935 -0.09700147 -0.10061476 -0.070864 -0.0829271 -0.06295861
-0.11377617 -0.0734808 -0.13379674 -0.056654092 -0.04848764 -0.03037608 -0.044653993 -0.020814728
0.0490323 0.015320696 -0.028565869 0.07129809 -0.01520779 -0.01863648 -0.075772315 -0.122767806
0.02182873 -0.041719846 -0.17676336 -0.0043438836 -0.031041492 -0.06872744 -0.06526762 -0.1115425
-0.04674727 0.0380726 0.07487812 0.0029961886 0.0884823 0.010423777 0.035892904 0.005522637
-0.00078066916 0.017269548 -0.0055576833 0.002200317 0.063921064 -0.1181689 0.0013927214 -0.009427104
-0.05250195 -0.007081588 0.014240008 -0.07094161 -0.00090303965 -0.029174354 -0.052979395 -0.076883316
-0.016088888 -0.026465023 -0.051103536 -0.08333084 -0.08923737 -0.063418396 -0.007148072 -0.046238318
-0.022555174 -0.013899191 0.04645775 -0.08203663 -0.10997459 -0.031342186 -0.10443705 -0.1220981
-0.0636502 0.032914408 0.053761486 -0.061613247 0.02044247 0.09002848 0.017146893 0.03488076
0.091411576 -0.0063369754 0.003150649 0.1127848 -0.077292316 -0.0924249 -0.03354616 -0.029848915
-0.06805201 -0.05310929 0.14906015 -0.002623369 0.06715348 -0.053593855 -0.13751528 -0.07877695
-0.02448429 0.015708923 -0.030493049 0.1326288 0.07591188 0.047086414 0.071164384 -0.046033043
-0.11532167 -0.0363658 -0.036242556 -0.06566341 -0.036069505 0.06311855 0.08851541 -0.012992186
0.028261442 -0.06379397 0.008498381 0.049724456 -0.025421754 0.18967326 0.109845765 -0.01770475
-0.14520258 -0.041142542 -0.033040486 -0.027223933 0.07577479 -0.000973463 0.002096481 0.09544255
0.08136215 0.0107031325 0.01641689 0.06743166 0.0185354 -0.047964547 -0.09609153 -0.02991334
-0.08586446 -0.10364873 -0.12931259 0.04771798 0.07944315 -0.098201014 0.05077246 0.020569537
-0.0051329304 0.11802814 0.04181377 0.058523912 0.021764975 -0.011198935 0.08769471 -0.026951218
-0.10078459 0.13602337 0.18067421 -0.018404564 -0.01919924 -0.007682554 -0.14241399 0.017613253
0.09435452 -0.07650268 0.07747624 0.12936096 -0.0061279396 -0.13342023 -0.029434364 -0.096251644
-0.0520591 -0.004106842 0.09493775 -0.02550089 0.015488085 0.08432293 -0.11377763 -0.08826962
-0.10986964 -0.019143313 -0.059836328 -0.07852342 -0.02908922 -0.023497973 -0.05020798 0.051811107
0.11781533 0.012969817 0.033957582 -0.012122477 0.046970427 -0.13551007 0.07007194 0.05293713
0.044282082 -0.0753863 -0.14018472 -0.029105457 -0.022926439 -0.046981685 0.008719954 0.08614887
0.106335975 0.06044256 0.033164464 -0.028017744 -0.0049772067 0.0528187 0.10062177 0.027898276
-0.046000402 0.0016546942 0.007491431 -0.08268717 -0.15589276 0.003751639 -0.02541291 -0.13513575
-0.0011440242 0.012718871 -0.00013697235 -0.11736769 0.028485479 0.02782385 0.0049374 0.057443343
0.0063781627 0.15629208 0.007020077 -0.062519066 -0.12258727 -0.1668447 -0.2361195 -0.08845942

features.6.bias f4 [32]
00000000: 5d9e 753e 08e2 da3e aea7 9c3d a6c4 5b3f
00000010: ba36 223f 559f 0f3f 72c7 573f e98b 0b3e
00000020: 1475 11bd a6d2 a23e 21e8 6f3e f351 cd3e
00000030: 8fd5 51be 4eb4 193e 565f f73d 1935 9ebe
00000040: 3f9c c83e 1034 b53e ecfd 9fbd 0655 943e
00000050: 06c7 9f3e 15d6 8e3e 1cab 173d 53f0 be3e
00000060: 834d 2a3e 8d43 e03e 3175 e63e 2973 c23d
00000070: 2bc8 2dbf f345 923e c59f cabd 7365 5a3e
0.23986192 0.42750573 0.0764917 0.85846937 0.63364756 0.56102496 0.84288704 0.1362759
-0.035512045 0.31801337 0.23428394 0.40101585 -0.20491622 0.15010187 0.12078731 -0.30899885
0.39181706 0.35391283 -0.07812104 0.28971118 0.3120653 0.27897707 0.037028417 0.37292728
0.16631131 0.43801537 0.45011285 0.09494621 -0.6788356 0.28568992 -0.09893755 0.21327762

features.6.b_w f4 [8, 1]
00000000: 0000 00c3 0000 8042 0000 0042 0000 8041
00000010: 0000 0041 0000 8040 0000 0040 0000 803f
-128.0 64.0 32.0 16.0 8.0 4.0 2.0 1.0

features.8.weight f4 [32, 32, 3, 3]
00000000: f55e 003c 3acb 4d3d 5710 9abc 765d f83c
00000010: 5956 ec3a e248 75bb 932f 853c 91e9 87bd
00000020: 037a a5bd 7f74 ae3c c87e a63d 764c 98bd
00000030: f601 4a3d 2fba b93c 39c3 09be fe7f 7dbd
00000040: 98b0 93bd a4f4 49be 0236 b03d ec87 80bd
00000050: bbc3 9fbc 5017 1dbc d6a6 593b b2e0 7e3d
00000060: 64af 89bd 0c76 9fbc 0d77 1bbd 22aa 263c
00000070: 191e 993c 74eb 043d 549d 0e3d ce75 483d
00000080: d5a8 60bc 0658 ba3c 84da 67bc 8572 eabd
00000090: 7e2c 17be f6c7 95bd 9301 f33c 7d12 c1bc
000000a0: 91af e23d 4088 163d 24b7 173e a90c 263e
000000b0: 534b 35bd d237 6ebd 1299 8dbc 8080 c8bd
000000c0: ca7c b53c 729c f3bc e37b eebd 05f8 d63b
000000d0: a32c 9fbd 2443 1cbe 36fe 493d bc12 163e
000000e0: 2c7f de3d 4c40 aa3c 5f66 d13d 1617 87bc
000000f0: 897a 133d 2760 083d 845c d4bd 93af 05bd
00000100: b31a 28bd 72b7 5dbc ffc9 223d 65f3 5b3c
00000110: d3cb d03c 2d40 9d3c 5a53 313d 765c f6bc
00000120: 405b abbd a86b 32bd 244a 753d 73cf 7ebd
00000130: b425 2cbd ff58 a93c c66c a5bd 99c1 61ba
00000140: c4c2 cfbc 4856 7dbc fbef 603c 509e 883c
00000150: ec84 2b3d ece7 2d3d 8761 4e3d 4a73 f0bc
00000160: 22be 693b 1745 ffbb 87c9 89bb 811d 823d
00000170: c4ce 9abd a27a 8a3d a8bb ce3c 96c6 36bd
00000180: bbdb d03d 5467 143d 1fd1 a6bd 84c5 8d3d
00000190: 5f6d b23d bdda 86bb 6daa 5e3d d4e4 5e3d
000001a0: 1df3 9bbd 7f72 cfbc 15ce f9bc 7ed8 91bd
000001b0: 71ae a1bc 6aeb febd 4590 09be a2dc 47bd
000001c0: 5d9c d4bd 8b71 68bd 1b33 e5bd c9d0 febd
000001d0: a4bb 14bd 68ae 3b3d 99b4 c5bb 03c9 83bd
000001e0: 40cb 803d d10c 203d 4266 9cbd 4fce 40bc
000001f0: 2714 2ebd b0b7 d3bd 6996 2a3d 48e6 593a
00000200: 3592 3e3d 59cd e3bc 490b 9ebc 5b09 0f3a
00000210: c841 a8bc 319f a5bd 9f31 30bd af9a 0dbd
00000220: 24a3 a7bd 2528 503d dfee efbd 544b d9bc
00000230: 205e 903b 90b7 e2bc 1aaf 98bb bcad e83d
00000240: e64b 7abd 3dfc 713d 430b a9bc efdd 85bc
00000250: 29b8 86bd 9c47 92bd 146d 14be 8832 05be
00000260: 10d0 54be 936f c93c 082a 2e3e 16ab f93d
00000270: 4f0c c23c 7340 2c3e 4d60 2339 4a0e 0bbc
00000280: a3e6 3fbd 8628 ebbd 5dd3 8abb eef0 473b
00000290: 5d8f 303c 4ee3 893b 9c54 3dbd dd16 443a
000002a0: b99e 8abc 6ec1 d3bc 700b b63d 6d84 623c
000002b0: e2ae 1d3d 0aac 82bd bae8 343c b41d 083d
000002c0: 5636 a03d e60a 4abd c4ba b23c 2105 e4bc
000002d0: 6fc4 72bd b40b 2abd 58e1 e2bc 9acb 98bc
000002e0: e4ec debd e375 daba c3ae 13bc f32f 67bd
000002f0: d2d7 debd dcb6 a7bc 88c2 853a cd58 a3bc
00000300: 4e2a 963c d7a0 60bb dbe2 94bd d1c9 bdbd
00000310: d0d1 a7bd 5b45 0ebd ffa2 6a3a ed59 1c3d
00000320: c28c e5bc f077 d53c e8d7 84bd 7378 b6bd
00000330: 654c 8abd 1be6 dabd ea7d 48bd ea4c 7dbd
00000340: 7d23 96bc ba4e c03d 2f18 b43c e8b9 f93c
00000350: ae82 ee3c f554 f63d bc25 073b 0d17 a33c
00000360: 6bd9 70bd 8cab bdbd 381e d4bd 16ba 3bbd
00000370: 95b2 473a 6cae 3d3a 9d4b ffbc dcab 80bd
00000380: 4f77 2cbe bdb7 fd3d c181 c63d 70f0 64bd
00000390: 6484 cf3d a5b3 28bd ae4e 3abe 59fe b53b
000003a0: 2a76 56bd eb86 13be 190f acbd 4db7 6abc
000003b0: f60f 7fbc c27a a23c 25d2 663d 8880 f63b
000003c0: ad66 813d 5c10 9e3d 8d75 8bbd 8736 2b3d
000003d0: 5a93 183d 1c88 1ebc 99fb 243b 2653 11bc
000003e0: 242d c7bd aca0 11be 4db9 4bbd cc93 b0bd
000003f0: 2c8f b2bd 6678 ebbc 69e7 8dbd 7eb2 f1bc
0.0078351395 0.05024264 -0.01880662 0.030318003 0.0018031105 -0.0037427475 0.016258037 -0.06636346
-0.080799125 0.021295784 0.0812965 -0.07436459 0.049318276 0.022671787 -0.13453378 -0.06188964
-0.07211417 -0.19722229 0.08604051 -0.06275925 -0.019502511 -0.009588078 0.0033211014 0.062226005
-0.06722906 -0.019465469 -0.037955333 0.010172399 0.01869111 0.032451108 0.03481801 0.048940472
-0.013712128 0.022747051 -0.014151219 -0.11447624 -0.14763066 -0.0731353 0.029663837 -0.023568386
0.11068643 0.036751032 0.14815956 0.16215767 -0.044261288 -0.058158703 -0.017284904 -0.097901344
0.02215423 -0.029737685 -0.11644723 0.006560328 -0.07772186 -0.15259987 0.0493147 0.14655584
0.108641 0.020782612 0.10224604 -0.0164905 0.03600553 0.033294823 -0.103692085 -0.032638144
-0.041041087 -0.013532506 0.03974342 0.013424729 0.025487816 0.01919564 0.04329238 -0.030073386
-0.08367014 -0.0435597 0.05988516 -0.062209558 -0.042028144 0.02067232 -0.080773875 -0.0008611917
-0.025361426 -0.015462466 0.013729091 0.016677052 0.04187481 0.042457506 0.050385978 -0.02935185
0.0035666307 -0.0077902186 -0.004204932 0.06353284 -0.07558969 0.067616716 0.025235966 -0.04462298
0.1019816 0.036231354 -0.081453554 0.06922439 0.08712267 -0.004115431 0.05436175 0.054417446
-0.076147296 -0.02532315 -0.030493775 -0.07121371 -0.0197365 -0.124472454 -0.1343394 -0.048794396
-0.103813864 -0.056748908 -0.11191388 -0.12442166 -0.03631176 0.045820624 -0.006033492 -0.06434824
0.06288767 0.039074723 -0.07636692 -0.011767938 -0.042499688 -0.1033777 0.04164735 0.00083122076
0.046526153 -0.027807878 -0.01929249 0.0005456411 -0.02053918 -0.08087004 -0.043016072 -0.034571346
-0.081854135 0.050819535 -0.11715483 -0.026525177 0.004405752 -0.02767542 -0.0046595456 0.11361262
-0.06110754 0.059078444 -0.020635253 -0.016341178 -0.065780945 -0.07142565 -0.14494735 -0.13007557
-0.20782495 0.024589336 0.17008221 0.12190835 0.02368751 0.1682146 0.00015580766 -0.0084872935
-0.04685081 -0.114823386 -0.0042366222 0.0030508596 0.010776368 0.004208005 -0.046223268 0.00074802135
-0.016921388 -0.02584907 0.088889 0.013825518 0.03849686 -0.0638047 0.011041814 0.033231452
0.07822864 -0.0493268 0.021817572 -0.027834477 -0.059269365 -0.041515067 -0.027695343 -0.018651772
-0.10885027 -0.0016667213 -0.009013834 -0.056442212 -0.10881008 -0.020472936 0.001020507 -0.019939804
0.01833072 -0.0034275556 -0.07269832 -0.09267009 -0.081943154 -0.03473411 0.000895068 0.038171697
-0.02802122 0.026058167 -0.06486493 -0.089096926 -0.06752852 -0.106884204 -0.048948206 -0.06184093
-0.018327469 0.09390016 0.021984188 0.030484155 0.029115047 0.12027923 0.0020621857 0.019908452
-0.058801096 -0.092612356 -0.10357326 -0.045831762 0.00076178584 0.0007235769 -0.031163985 -0.062827796
-0.16842388 0.12388561 0.09692717 -0.05589336 0.101326734 -0.041186947 -0.18194076 0.0055540022
-0.052358784 -0.14406936 -0.08401317 -0.014325929 -0.01556777 0.019833926 0.056352753 0.0075226463
0.06318412 0.07717964 -0.068095304 0.04180005 0.0372499 -0.009676006 0.0025174378 -0.008869922
-0.09725407 -0.14221448 -0.049737263 -0.0862194 -0.08718714 -0.028743934 -0.069289036 -0.029504057

features.8.bias f4 [32]
00000000: baff 413e b4b0 6dbd aadf d13e e386 813e
00000010: a5b7 f63e 727c aa3e eeb7 9c3e fb6f 653e
00000020: e3d7 033f 558f 693e 2ace 2a3e fa6a bfbd
00000030: f45e 0b3e 464d e43d bbf8 223f f7a3 a33e
00000040: 1025 7a3e 4fa3 ba3d a0ec a13d 7fe7 013f
00000050: 28ff de3d 3691 a8bd 5039 713e fb8a 7e3d
00000060: 8ea1 9abe b2da f83e 4933 3d3e 02f5 363e
00000070: 8dbd a53e 6d7b cb3e 3e85 273f 6ce4 db3e
0.18945208 -0.058029845 0.40990955 0.25298223 0.48186985 0.3329807 0.30609077 0.22405998
0.5150129 0.22808583 0.16680208 -0.09346576 0.1361044 0.11147551 0.6366078 0.31961033
0.244282 0.0911318 0.07906461 0.5074386 0.10888511 -0.08230822 0.23557019 0.06214426
-0.3020138 0.4860435 0.18476595 0.178669 0.32371178 0.39742604 0.65437686 0.4294771

features.8.b_w f4 [8, 1]
00000000: 0000 00c3 0000 8042 0000 0042 0000 8041
00000010: 0000 0041 0000 8040 0000 0040 0000 803f
-128.0 64.0 32.0 16.0 8.0 4.0 2.0 1.0

classifier.0.weight f4 [10, 2048]
00000000: 1bab 04bb dc5c 0ebd e586 223b daf0 2e3d
00000010: a2ba a13d 6128 fc3d e6dd 5e3d a907 893d
00000020: f7ba 1ebd a37a 67bd d191 35bd 1478 d83c
00000030: ef22 653d 60ab fa3d ae79 a03d 0202 3a3d
00000040: a219 08bd cbeb a7bd 88a7 75bd 55a3 eebb
00000050: 4e30 a53d 2cfe 383e 3c64 d53d ef47 233d
00000060: 6ad9 eabb 18c1 a1bd 2807 94bd 6f1b e3bc
00000070: e0ed 983d 0617 cc3d b2dd 7f3d 1870 ba3b
00000080: cf62 68bc ce2c 39bd 41a3 c7bd a4eb 70bd
00000090: e7a2 71bc 4a33 5bbb 6e3c 0b3c a75a 24bc
000000a0: 3596 45bb fac0 4c3d d499 63bc 19b8 9239
000000b0: f4c2 b2bc 45b9 60bd 9325 e6bc 9339 81bd
000000c0: 3d28 033b 2633 cb3d fddf 083c 10d8 09bd
000000d0: 68fd 38bd a0b9 3cbd a455 2cbd a76b 98bd
000000e0: 583e a23d 0d9b ec3d b24d 65bc 0192 68bd
000000f0: 1728 53bd 6556 4abd babd b83c 5bac 38bd
00000100: f552 cbbc 44e9 c3bb 1a5d 4cba 432b 403c
00000110: e11b ecbb 132a 04bd 436b 47bc 1c6e 913c
00000120: 8e8b 933d 31d6 aa3d 325f cf3c 59ea 023d
00000130: ed1b 563c f115 dfbc 2d11 9cbd dbba 343c
00000140: 9728 9d3d 265a 2f3d e5ee 863d d2ec 0bbd
00000150: 3a28 a43b ad96 873b 6b2e d2bc 8f54 473d
00000160: 6db1 b43d 2516 2f3d d63e 7e3c 42f1 24bd
00000170: 5f8e f7bc 5af0 043d 4b3c 52ba 98a6 813d
00000180: 6383 ab3d 8bf3 173b 3a24 c1bc 3a6a 17bc
00000190: a785 9e3a 3b28 a43d d227 56bc a41b 9c3d
000001a0: c555 ab3c fdce 3abc d9c9 6bbd 85a3 ccbc
000001b0: bca9 313d 307b e23b e2d4 00bc 0f0a b93d
000001c0: af98 f2bc 1a64 b8bd 2bc1 5fbd cbd5 643c
000001d0: f455 1b3d ffe6 8e3c 0f62 84bc 7023 973d
000001e0: 7487 8cbd 59b2 bdbd cfff 3dbd 7664 4b3c
000001f0: 9dc4 203d 44b7 933c e70b 053c 748a b43c
00000200: e816 71bd 4e42 35bd 602a 07bd 5792 a3bc
00000210: 8ec9 1abd d641 31bd 43c4 a7bc 98bd 2f3e
00000220: 11d6 79bd 02c7 8abd 25da b0bd 3457 aebd
00000230: 33d7 5cbd 993c 53bd 3ea9 20bc 3cec 3d3d
00000240: 10c6 eabd 2e29 0abe 3329 e9bd 08c1 dabd
00000250: 08df 2bbd c96d 72bc 87fd 5a3d 8196 153d
00000260: 08e2 e9bd 0e3a 1dbe 7364 fdbd b126 08bd
00000270: f2c2 f9bc 5f32 bebc 1f33 423b 0077 863d
00000280: a8f5 e2bc 5b04 ddbd e993 adbd e56d 72bd
00000290: 84ba 63bd 6d35 ecbc 0c83 00bd 3c95 343d
000002a0: 2f82 b43c 881a 64bd dbba 22bd 4f86 2ebd
000002b0: 165c 95bd 988f c1bd 11d8 89bd 46c7 1f3d
000002c0: 698f 273d 0853 ecbc b0ad 8cbc 9e25 1fbd
000002d0: 114a 85bd 7a79 ddbd 4732 8fbd 360c a83c
000002e0: a732 0d3e a463 f63c 595c 093d d6b5 993c
000002f0: 9e74 03bd 0adb bcbd 0f16 2bbd 64e3 c83d
00000300: 126f bd3d 5522 92bd 3f89 3fbd ada4 34bd
00000310: e475 2bbc 6ec3 8ebd e94d 93bd 5586 01bd
00000320: 2d86 4f3d 5b30 023d abf4 823c c3fa 92bd
00000330: d577 acbc e361 2dbd 2f94 79bd e133 a33a
00000340: eabd e93c b3c1 223d 28b8 ab3c c58c 10bd
00000350: cf74 19bd 0988 82bc 83ab bdbd a00e 94bd
00000360: b4cc 963c 591a 0c3d affc 353d e2f8 ff3c
00000370: 44f1 2bbd 816d ddbc 6834 2dbd 7bae c6bd
00000380: 5bb9 033d b394 8b3d 1fb8 643d 877f b7bb
00000390: e28c d8bc 226f 09bd ae0c eebd 8f3d a4bd
000003a0: a970 10bb c467 07bd e120 0abd f559 77bc
000003b0: 9dfc 15bd 1f1a 93bc 7ccd dfbd b258 9bbd
000003c0: 2b6a 083d c620 fabc 38ff 1abd c0be f9bb
000003d0: a32b a2bd 9c5a 7bbd 03c4 08be 3d51 5cbd
000003e0: 2a6d b73d e904 3cbd c0d0 e0bc 43d1 8abc
000003f0: dbea dfbc d1c0 c1bd a639 c5bd e22b 54bd
-0.0020243588 -0.034756526 0.0024799642 0.042710163 0.078969255 0.12312389 0.054410838 0.06690914
-0.038752522 -0.05651344 -0.044328514 0.026424445 0.05594152 0.122397184 0.078357086 0.04541207
-0.03322757 -0.08199271 -0.059974223 -0.0072826543 0.08065854 0.18065709 0.10419509 0.039863523
-0.007167031 -0.07898158 -0.072279274 -0.027723042 0.07467246 0.09965329 0.062467285 0.005689632
-0.014183714 -0.045208745 -0.09747935 -0.058818474 -0.014748312 -0.0033447319 0.008498294 -0.010031379
-0.0030149345 0.049988724 -0.013891656 0.00027984453 -0.021821477 -0.054864187 -0.028094089 -0.063098095
0.0020012998 0.09921865 0.008354184 -0.03365332 -0.045163542 -0.046075463 -0.04207386 -0.07442408
0.079220474 0.11553011 -0.013995575 -0.056779865 -0.051551905 -0.0493988 0.022551406 -0.045086246
-0.02481983 -0.005978735 -0.00077958556 0.011729064 -0.007205472 -0.032266688 -0.012171569 0.0177527
0.07204352 0.08341635 0.025313947 0.031961773 0.013068181 -0.027232142 -0.076204635 0.011030878
0.076737575 0.04281058 0.06588534 -0.034161396 0.005009678 0.004137835 -0.0256569 0.048664626
0.08822904 0.042745728 0.015517911 -0.040269144 -0.030219255 0.03245578 -0.00080198486 0.06330603
0.083746694 0.0023185934 -0.023576844 -0.009241635 0.0012094275 0.08015486 -0.013071017 0.076224595
0.020914922 -0.011401889 -0.057565544 -0.024980316 0.043374762 0.0069116578 -0.007863255 0.09035122
-0.02961382 -0.09003468 -0.05462758 0.013966988 0.03792377 0.017444132 -0.01616004 0.07379806
-0.06861773 -0.09262533 -0.046386536 0.0124140885 0.039250005 0.018031724 0.0081205135 0.022038676
-0.058859736 -0.044252686 -0.032999396 -0.019967241 -0.037789874 -0.043275677 -0.020479327 0.17162168
-0.060995165 -0.06776239 -0.08635358 -0.085127264 -0.053916167 -0.051571462 -0.0098059755 0.04636787
-0.11463559 -0.13492271 -0.11384811 -0.10681349 -0.041960746 -0.014796683 0.05346444 0.036520485
-0.11420065 -0.15354177 -0.12372675 -0.033240024 -0.030488465 -0.023217378 0.0029632521 0.06565666
-0.027705029 -0.10791846 -0.08475477 -0.059186835 -0.055597797 -0.02883407 -0.031374976 0.044087633
0.022034733 -0.055689365 -0.03972898 -0.042608555 -0.072929546 -0.094512165 -0.067306645 0.0390084
0.04090825 -0.028848186 -0.017172664 -0.038854234 -0.06508268 -0.108141854 -0.069920115 0.020513635
0.13788854 0.03007681 0.033535335 0.018763464 -0.032093637 -0.09221466 -0.041769084 0.09808996
0.092497006 -0.071354546 -0.046761747 -0.04410236 -0.010465119 -0.06970869 -0.071925946 -0.03162225
0.05066507 0.031784397 0.015985807 -0.07176735 -0.021053234 -0.04232968 -0.060932335 0.0012451374
0.02853294 0.039735507 0.020961836 -0.0352905 -0.037464913 -0.015934007 -0.09261229 -0.07229352
0.018408157 0.034204815 0.04443043 0.031246606 -0.041978136 -0.027029755 -0.042286307 -0.09701248
0.03215919 0.068154715 0.055839654 -0.0055999192 -0.026434366 -0.03355325 -0.11623512 -0.08019554
-0.0022039807 -0.033057943 -0.033722762 -0.015097131 -0.036617864 -0.017956791 -0.10927865 -0.07585277
0.033304375 -0.030533206 -0.03784105 -0.007621616 -0.07918479 -0.06136571 -0.13356023 -0.053788412
0.08956368 -0.04590312 -0.02744329 -0.016945487 -0.027333668 -0.09460605 -0.09630136 -0.051799662

classifier.0.bias f4 [10]
00000000: 90f4 13bc 96c3 b7be 0287 21be a2c2 f03c
00000010: 19cf 923e b4a1 58bd 9dd7 bc3e f34c a7be
00000020: d1d0 b13e d7c9 06be
-0.009030476 -0.35891408 -0.15774158 0.029389683 0.28673628 -0.052888587 0.3688325 -0.32675895
0.34729627 -0.13162933

classifier.0.b_w f4 [8, 1]
00000000: 0000 00c3 0000 8042 0000 0042 0000 8041
00000010: 0000 0041 0000 8040 0000 0040 0000 803f
-128.0 64.0 32.0 16.0 8.0 4.0 2.0 1.0

momentum_buffer f4 [32, 3, 3, 3]
00000000: ea4e f23c 6b89 ae3c 9741 0c3b 39c9 6d3d
00000010: 81ea 673d b64b 0a3d 81d6 b03d ec02 b73d
00000020: 6410 803d fa83 ec3c cb15 a53c d8bc 0a3a
00000030: a729 563d 3132 4a3d 6bd1 e93c e83d 9b3d
00000040: d253 a33d cfcc 633d 42fe ec3c 8a20 af3c
00000050: 8c55 243c c0c1 453d aa53 383d d2df ee3c
00000060: dc88 8e3d 0a43 913d 70c3 473d ea68 6dbd
00000070: b445 0e3c ce82 cf3c 9c21 aabd 6a8f 83bc
00000080: 4094 fa3c a2d4 08be e22b b1bd 15eb 16bd
00000090: 31a5 5bbd 60e9 f43b 084b 993c 6a0d a2bd
000000a0: 286a 56bc 9f2c 023d c66d fcbd 64f0 92bd
000000b0: 7258 a3bc eb4e 36bd 2c8b 0e3c b0ff c53b
000000c0: 752e 70bd e033 473b 979d 0c3d 8972 d0bd
000000d0: 767d 35bd 0030 97ba ab2c f0bd 5940 18be
000000e0: 68e4 17be a248 f3bd d111 03be 1e1c 09be
000000f0: db19 dabd f6c9 ccbd 3ee7 aebd 9f24 adbd
00000100: 3d30 05be cc2e 18be 5a7a b9bd 07aa e3bd
00000110: 4e40 05be 8670 b0bd ac4f acbd fcf3 a0bd
00000120: 2068 59bd 89a4 afbd 0bb1 dabd 52cb 90bd
00000130: 1d96 a8bd a4e7 c2bd 88dd 91bd 2775 85bd
00000140: 9682 60bd 2cbd e23d 68e7 d33d 0760 9f3d
00000150: 1eef 023e 964f 193e 164a f43d c10a 173e
00000160: a062 2e3e ef75 0a3e f038 b23d 57be 993d
00000170: 6af6 4c3d 18c7 bd3d 7211 d93d 125c 8e3d
00000180: 89e0 d03d c110 ff3d e871 a73d 4981 873d
00000190: df5e 853d 8111 363d f412 893d 10be bd3d
000001a0: 7d55 7e3d 3a93 af3d 50c2 f63d 2eee ae3d
000001b0: 2f6e 69bb 400a dc3c deef 713c 5419 4cbc
000001c0: fc30 df3b c008 083a d3d0 663c bce8 d53c
000001d0: e53f 6a3c a917 183d 0282 843d 3682 623d
000001e0: 4201 d13c ba8b 2e3d 6cb1 073d de3b 563d
000001f0: 5cad 783d d291 1f3d 921b 7a3d 5004 a43d
00000200: b63a 843d 7cae 4c3d aa18 793d 8c66 423d
00000210: 5293 933d c708 a53d da91 663d 0560 e1bd
00000220: 6405 e3bd 3ab9 efbd 0ce7 7dbd 62c9 87bd
00000230: 7d63 cdbd 43e4 51bc 5675 16bd 94b1 acbd
00000240: dcb1 c8bd 3aed b0bd 74b2 a9bd ce3b 59bd
00000250: 882d 4ebd 088b 96bd 007a 103a e583 b3bc
00000260: 54bc 83bd b770 d7bd 57a1 cbbd afd3 cbbd
00000270: a910 7abd 0a91 83bd f8e9 b6bd 5da1 0ebc
00000280: ec21 f3bc 6bb2 9abd 3eff c23c 6022 3c3c
00000290: d042 c0bb 3e87 a13c 6ca1 6c3c 24ee 153c
000002a0: f003 bcbc 68da 49bc 58a5 05bc f442 393d
000002b0: 0e6b f33c 20b6 ec3b 9d6a 2c3d c45f 163d
000002c0: a483 ab3c 0096 0cba c8ea 253c c02f e23a
000002d0: dc79 663d 3542 303d fe79 e83c b502 7c3d
000002e0: 0a72 713d 8002 5d3d dee2 d33c fd21 193d
000002f0: 207d 213d 807a e838 9902 ef3c 38a4 bb3c
00000300: e902 223d 3e79 9f3d f571 5d3d 732f ae3c
00000310: 4027 9a3d 1c0a 553d 442f 443a 6929 853c
00000320: e80d b93c 9b2b 093d c4b3 663d ba5c 513d
00000330: 24ca 063c 4a73 723d 9c74 583d 351e 69bc
00000340: 18ff 373b 88c8 a73c 349e 853c 56b1 1b3d
00000350: 5402 283d 3d92 27bc 3dd0 263d 9869 233d
00000360: 4210 c6bd 0b0e 7bbd 63f3 cabd b7fb 02be
00000370: da32 abbd 2ff2 d4bd 2047 8fbd 2527 49bd
00000380: 4485 b9bd 7043 afbd 9924 54bd c034 b8bd
00000390: e8de 01be 507d 91bd 5bbd bcbd 12a1 87bd
000003a0: 2e56 26bd 7817 b8bd c826 95bd 4e36 07bd
000003b0: aef6 a4bd c921 e0bd 2499 34bd d387 9bbd
000003c0: 5e3c 52bd fe9f 84bc f33f 95bd e281 12bd
000003d0: 78e3 dabc e825 a6bc 7cf6 14bc a0c3 b2ba
000003e0: 6039 fdbc 1882 003d 0096 0d3d 00d9 883c
000003f0: 325c f2bc 4676 9cbc c075 67bc d0d9 5ebb
0.029578645 0.02130576 0.00214014 0.05805323 0.056620125 0.03376361 0.086346634 0.08936104
0.06253126 0.028871525 0.020151993 0.0005292422 0.052285817 0.049364273 0.028542241 0.07580167
0.07974972 0.055615243 0.028929833 0.02137782 0.010030162 0.048280478 0.045001663 0.02915946
0.069596976 0.07092865 0.048770368 -0.057961382 0.008683611 0.025330927 -0.08307192 -0.016059596
0.03058827 -0.13362363 -0.08650948 -0.036845285 -0.053624336 0.0074741095 0.018712536 -0.07912715
-0.013086833 0.031780835 -0.12325625 -0.07174757 -0.019939635 -0.044508856 0.008700173 0.006042443
-0.058638055 0.003039591 0.034329977 -0.10178096 -0.044309102 -0.0011534691 -0.1172727 -0.14868297
-0.14833224 -0.11879088 -0.12799765 -0.13389632 -0.10649463 -0.099994585 -0.085402 -0.084542505
-0.13006683 -0.14861602 -0.0905654 -0.111164145 -0.13012812 -0.08615212 -0.08413634 -0.07859036
-0.053077817 -0.085763045 -0.106782995 -0.0707003 -0.08231757 -0.09516838 -0.07122332 -0.06516486
-0.054812036 0.11071238 0.103468716 0.07781988 0.12786528 0.14971766 0.11928193 0.14750196
0.1702981 0.1352155 0.08702266 0.075070076 0.050039686 0.0926649 0.105990306 0.06951155
0.10199077 0.124543674 0.08176023 0.06616456 0.06512236 0.044450287 0.06693068 0.09264767
0.062093247 0.08573003 0.12048781 0.08541523 -0.0035618653 0.026860356 0.014766661 -0.012457211
0.0068112593 0.0005189292 0.0140878735 0.026111953 0.01429746 0.03713194 0.064701095 0.05529996
0.025513295 0.042613722 0.033128187 0.052303188 0.060712203 0.038957424 0.06106145 0.08008635
0.06456511 0.04997109 0.060814537 0.047461078 0.072058335 0.08058315 0.05629144 -0.110046424
-0.110850126 -0.11705251 -0.06198792 -0.066302076 -0.100287415 -0.0128107695 -0.036732994 -0.08432308
-0.09799549 -0.086389974 -0.0828599 -0.05303555 -0.05033639 -0.07350737 0.00055113435 -0.021913478
-0.06432405 -0.105195455 -0.099428825 -0.09952485 -0.061051045 -0.064241484 -0.08931345 -0.008705464
-0.029679261 -0.07553562 0.02380335 0.011482805 -0.0058673397 0.019717809 0.014442783 0.009151015
-0.022951096 -0.0123201385 -0.008157097 0.045229867 0.029714134 0.0072238594 0.04209386 0.036712423
0.020936795 -0.0005362928 0.010126777 0.0017256662 0.056268558 0.04303189 0.028378483 0.06152602
0.058946647 0.053957462 0.025865015 0.03738593 0.03942597 0.000110854395 0.029176043 0.022905454
0.039553557 0.07786797 0.054063756 0.02126286 0.075270176 0.052011594 0.000748385 0.016255097
0.022589639 0.03348885 0.05632378 0.05111382 0.008226905 0.05919198 0.052845582 -0.014228393
0.0028075632 0.020481363 0.016310789 0.038010918 0.041017845 -0.010227737 0.040725935 0.039895624
-0.0967107 -0.06129269 -0.099097036 -0.12791334 -0.083593085 -0.10397755 -0.06995988 -0.049109597
-0.090586215 -0.085577846 -0.051792715 -0.08994436 -0.12682688 -0.071039796 -0.09215804 -0.066225186
-0.04060953 -0.08988851 -0.072827876 -0.033010773 -0.08054863 -0.10943944 -0.04409136 -0.07594266
-0.051327102 -0.016189571 -0.07287588 -0.035768397 -0.026719794 -0.020281747 -0.00909197 -0.0013638623
-0.030911148 0.031374067 0.03456688 0.016705036 -0.029584978 -0.019099366 -0.014127195 -0.0034004338

momentum_buffer f4 [32]
00000000: c15f 523d 6a5a fbbc b0f8 e9bb 8054 8d3d
00000010: 7eb5 b4bc eb96 6cbc 6407 5a3c 7af8 d8bc
00000020: 29d0 cbbc d981 0ebc a931 71bd 20c2 6abb
00000030: 34ee d03b 536b 89bc 8e77 ba3d faa8 2c3e
00000040: c2d3 d03c 4569 623d 195d 0abd a375 54bd
00000050: b07d a73c d5ea 463d 7490 883d a4d1 c13d
00000060: e033 453d ca96 8c3b ee19 983d 1337 dabd
00000070: 1a54 bdbc 940e 31bd 7644 52be cbee a6bd
0.05136085 -0.030682761 -0.0071402416 0.06900883 -0.022059198 -0.0144402785 0.013307426 -0.02648567
-0.024879532 -0.00869795 -0.05888525 -0.0035821274 0.0063760523 -0.016774809 0.091048345 0.16861334
0.025491599 0.055276174 -0.03378019 -0.05187 0.020445675 0.048563797 0.06668177 0.09463814
0.048145175 0.0042904364 0.07426821 -0.10655036 -0.023111392 -0.043226793 -0.20533928 -0.08151015

momentum_buffer f4 [32, 32, 3, 3]
00000000: dedd 4ebc 802c da38 6a7a 24bb 85ef 7dbc
00000010: 6bad f7bb aeda 3abc 59ac b5bb b5cd 0cbb
00000020: 0f8b 54bc 1814 e83a 3c83 5fbb 4817 e23b
00000030: 343c 0eba beed 87bc 6f65 36bc 7a0c 40bb
00000040: c05a 9ebc d4bd 74bc 4618 f6bb 990c 803b
00000050: f1db 553c 8df7 66bc b875 c0b9 9623 443c
00000060: afc2 8ebc c0e4 d339 ec46 6d3c 0068 c3bb
00000070: f2b1 67bc e7bb e6bb cb81 a23b 1dce 3bbc
00000080: 2dba d4bb b77a a33b 4282 c2bc 9c0b a3ba
00000090: d87c 91bc e9ad cbbc 80b5 c2bc d49b 99bc
000000a0: dffd a0bc 8b51 bcbc 51a9 49bc d158 7cbc
000000b0: 41db a0bc b3c0 07bc 863d 59bc 6b1a abbc
000000c0: 0ba4 0fbc 52da 36bc 8a4e 8cbc 3aca 1ebc
000000d0: a48b 7dbc fe86 87bc c23b ef39 208a 6fbb
000000e0: 09da d33b 8067 e3ba ac80 b1bb 0cf2 b43a
000000f0: 385d bb3b 56db 4fbb a220 30bb ad71 1dbc
00000100: 0c73 c4bb a439 89bc 6732 e2bb 7849 c9bb
00000110: c77a aabc fa4d cbbb ee5c 94bb 2b86 55bc
00000120: 8e1b e7bb 6d90 9fbc 242f 273b 7cc4 37bc
00000130: 44b1 1fbd 9ac4 f2bb 0cc6 553b a438 25bd
00000140: 4e93 adbc e271 433b dab4 043c 97b7 9fbc
00000150: 3c22 3cba e784 013c c76c 28bc feb3 05bc
00000160: 79d4 963b e4e6 82bb f285 4bbc a529 54bc
00000170: a0de 0bbb 6688 82bc 8454 23bd d791 cfbc
00000180: d2cd aa3a 34ee 13bd 1f4b 0ebd 10ff 8539
00000190: 0072 c6b8 1d9d 3e3b c21b 7a3b c0e7 40bb
000001a0: 48f0 41bc baa9 983b 4056 fc3a 93d1 25bc
000001b0: cd9c 5abc 5086 bebb 0de3 1fbc 003c 49bc
000001c0: fa3d 9bbb 3274 dcbb ce25 81bc a25c b2bb
000001d0: 0ee8 a03a a4a6 9d3a f49d 423b 382c ba3b
000001e0: d213 88ba 789a 223b fad8 8d3b fc58 293a
000001f0: c494 59b9 49d3 883b b939 723c 0d0e afbc
00000200: 5054 8cb9 f602 c13c 7d16 4abc 6159 09bc
00000210: 5595 123d d69a 073c e193 b7bc d8dc 46bb
00000220: e0f2 b8ba e426 6fbb 4650 ab3b 68a8 c439
00000230: 141a 5abc 0818 b2b9 70bd 22b9 6084 a2bc
00000240: e078 2039 4047 8e3a 3504 63bb e8ce 67ba
00000250: 488e 91ba c166 8ebb 822d 04bc 9ac9 95bb
00000260: 6341 49bb bf3d 923b 58eb cb3a 128d d0ba
00000270: 55b8 89bb 3be6 a8ba 8ab5 57bb 04b6 60bb
00000280: 5250 a9ba 4693 95bb 39d7 0bbc 7296 20bc
00000290: 2913 c7ba 64c9 a4bb f8e9 cabc 0393 45bc
000002a0: 46f5 6d3b aea0 b3bc 38dd afbc 9a85 22bc
000002b0: c8d9 3cbc bc7e 9ebc 3272 10bb 8cbd 47bb
000002c0: de80 83bc 073b 07bc 1fad 87ba 0e90 28bc
000002d0: ccb7 77bc 0972 30bc 0682 07bc 56d0 84bc
000002e0: d806 10bc 2cde 0bbc 8474 b7bc 9802 28bc
000002f0: defc c8bb 57f9 23bb ee6d c83b bd37 42bb
00000300: e4b8 f4bb c2f4 933b 23ae 1abb 7469 2ebc
00000310: 305a 973b 3417 e13a 51a7 4fbb 85fc 9fbc
00000320: 5806 9fbc e47b a2bb 2a6d b9bb 9ace 48bc
00000330: 381d 963a 1c76 dbba 782e 32bc fbfb 403b
00000340: 38cf c8bb 7109 84bb 3453 01bc 0188 a0bc
00000350: aa89 5cbc 987a 5bbb 4fd0 c2bb b942 95bc
00000360: 0a75 a83b 74a0 22ba 1a67 60bb 9009 48b9
00000370: ccda 40bb d782 b5bb a038 d1bb b3a3 a9b9
00000380: 36c0 1abb 880f 0d3b 7e90 393c 0a1a b33b
00000390: 0c2f 5cbc 204c 1e39 6821 0cba 3a5c 34bc
000003a0: 2c8a 713b 3d94 9dbb 140c c33a fc77 deba
000003b0: c8b2 3d3a 3a00 603b 8481 a6ba 6860 65ba
000003c0: e578 5bbb 2891 a5bb b02e 5fba 7b40 c8bb
000003d0: d0d6 cbbb d2dc 9dbc e306 d9bb c8e2 cdbb
000003e0: ce3e 84bc 261e 5fbc 21f6 39bc 4df5 a7bc
000003f0: 73c0 d5ba 744d 84ba caa9 fcbb a3c1 beba
-0.012626139 0.00010403339 -0.0025097379 -0.015499 -0.007558515 -0.011404676 -0.005544227 -0.0021484916
-0.012972607 0.0017706184 -0.0034105321 0.006899748 -0.0005425841 -0.016592856 -0.011132582 -0.0029304312
-0.019330382 -0.014937837 -0.007510218 0.0039077518 0.013052926 -0.014097107 -0.000367088 0.011971375
-0.017426817 0.00040415488 0.014482241 -0.0059633255 -0.014141547 -0.0070414427 0.00495932 -0.011462715
-0.0064919204 0.004988994 -0.023743752 -0.0012439373 -0.017759725 -0.0248632 -0.023768187 -0.018751062
-0.019652305 -0.022988101 -0.012308435 -0.015402035 -0.019635798 -0.008285689 -0.013259297 -0.02088662
-0.008767138 -0.01116045 -0.017127294 -0.009691769 -0.015475187 -0.016543861 0.00045630155 -0.0036550835
0.006465201 -0.0017349571 -0.00541695 0.0013805046 0.0057178997 -0.0031716428 -0.002687492 -0.009609622
-0.00599516 -0.016751118 -0.006902981 -0.0061427914 -0.020810498 -0.006204364 -0.0045276796 -0.013032476
-0.0070528453 -0.019478047 0.0025510276 -0.011216279 -0.038987413 -0.0074086906 0.0032619266 -0.04033722
-0.021188404 0.0029822518 0.008099759 -0.019496722 -0.0007176732 0.007905222 -0.010279841 -0.008160589
0.0046029654 -0.0039948095 -0.012422072 -0.012949382 -0.0021342412 -0.01593418 -0.039875522 -0.025338097
0.001303131 -0.03611584 -0.03473961 0.00025557773 -9.46261e-05 0.0029085346 0.0038163518 -0.0029435009
-0.011837073 0.004658905 0.0019251779 -0.010120767 -0.013343048 -0.005814351 -0.009758723 -0.0122823715
-0.004737613 -0.0067277187 -0.015765097 -0.0054431716 0.0012276189 0.0012027812 0.0029696198 0.005681541
-0.0010381883 0.0024811309 0.004328844 0.0006460098 -0.00020750152 0.004175578 0.01478427 -0.021369005
-0.000267657 0.023560982 -0.012334463 -0.008383126 0.035786945 0.008276662 -0.022409381 -0.0030344035
-0.0014110468 -0.0036491686 0.005228075 0.00037509506 -0.013311882 -0.0003396871 -0.00015520095 -0.019838512
0.00015303819 0.0010854974 -0.0034639959 -0.0008842782 -0.0011105025 -0.0043457453 -0.0080674905 -0.004571152
-0.003070914 0.004462927 0.0015557809 -0.0015911183 -0.0042028823 -0.0012885997 -0.0032914602 -0.0034288177
-0.0012917614 -0.0045646755 -0.0085352 -0.009801494 -0.0015188205 -0.0050288904 -0.024769768 -0.012058976
0.0036309524 -0.021927204 -0.02146779 -0.009919548 -0.0115265325 -0.019347541 -0.0022040722 -0.003047797
-0.01605266 -0.008253819 -0.0010351277 -0.010288252 -0.015119504 -0.010769376 -0.008270746 -0.016212624
-0.008790694 -0.008536857 -0.022394426 -0.010254525 -0.0061336597 -0.0025020444 0.0061166203 -0.0029635273
-0.0074683297 0.0045152614 -0.0023602329 -0.010645259 0.0046189055 0.0017173053 -0.0031685422 -0.01952959
-0.019412205 -0.0049586166 -0.0056587653 -0.012256289 0.00114528 -0.0016743573 -0.010875337 0.0029447067
-0.006128218 -0.004029446 -0.007893372 -0.019596102 -0.013460556 -0.003348982 -0.0059452425 -0.018220292
0.0051409053 -0.0006203719 -0.003424114 -0.00019077049 -0.0029427288 -0.005539279 -0.006384924 -0.00032356157
-0.0023613102 0.002152415 0.0113259535 0.0054657506 -0.013438951 0.00015096413 -0.0005345554 -0.011008317
0.0036856038 -0.004808931 0.0014880919 -0.0016973014 0.00072364183 0.0034179823 -0.0012703394 -0.00087500224
-0.0033488807 -0.0050527044 -0.0008513732 -0.0061112023 -0.006220676 -0.019270334 -0.0066231354 -0.006283138
-0.016143229 -0.013618028 -0.011350186 -0.02050271 -0.0016307965 -0.0010093884 -0.00771067 -0.0014553558

momentum_buffer f4 [32]
00000000: 3c55 92bc 006f f9b8 4686 85bd a510 aebc
00000010: d48c 0dbc 5c69 683d 3092 7dbd 803d 443a
00000020: 0fb3 90bd fb7f 4b3d 2636 593d a451 9b3c
00000030: 71a0 2a3c 1299 88bd d08d 5cbc e872 e3bd
00000040: 7c29 84bb 2b90 8e3d 22b5 973d a8ca a4bb
00000050: e7e1 e93d 70b1 e23c 68b1 24bc a4b3 703c
00000060: 5936 8e3d c2cc 0d3d 2f46 cdbc 8cb5 a9bc
00000070: c808 2d3c 1efc c83b 5ede 26bc 88a9 10bd
-0.017862909 -0.000118939206 -0.06519751 -0.021248171 -0.008639533 0.056741104 -0.061906993 0.0007485971
-0.07065403 0.0496826 0.053030156 0.018959828 0.010414229 -0.06669821 -0.013461545 -0.11105901
-0.0040332656 0.069610916 0.07407595 -0.0050290413 0.114200406 0.0276725 -0.010052063 0.014691267
0.0694396 0.0346191 -0.02505788 -0.020716451 0.010561176 0.0061335703 -0.010184852 -0.035317928
