Securite/Model19/Result_bfa/clipping_0.2_0.01/checkpoint.pth.tar (torch, 533040 bytes, 118 tensors)

0.0.b_w f4 [8, 1]
0	0xc3000000	-128.0
1	0x42800000	64.0
2	0x42000000	32.0
3	0x41800000	16.0
4	0x41000000	8.0
5	0x40800000	4.0
6	0x40000000	2.0
7	0x3f800000	1.0

0.1.weight f4 [8]
0	0x3ec17506	0.37784594
1	0x3ec9a5f2	0.3938442
2	0x3e58272a	0.2110869
3	0x3ec697a3	0.38787565
4	0x3ed3e565	0.41385952
5	0x3e92f73b	0.28704247
6	0x3e784f80	0.24249077
7	0x3eac90ca	0.33704215

0.1.bias f4 [8]
0	0xbe65696c	-0.22403497
1	0x3e5bd1cc	0.2146675
2	0x3d3e9166	0.04652538
3	0xbdcce496	-0.10004537
4	0xbe68ad9e	-0.2272248
5	0xbe199f4d	-0.15002175
6	0x3d841a7f	0.06450366
7	0x3e3dd211	0.18537165

0.1.running_mean f4 [8]
0	0x3e354925	0.17703684
1	0xbd144d29	-0.0362064
2	0x3c93e53b	0.018053642
3	0x3e5370bb	0.20648472
4	0x3e0dfce7	0.13866006
5	0xbcc660b2	-0.02421603
6	0xbd16eaae	-0.0368449
7	0xbcec39a3	-0.028836077

0.1.running_var f4 [8]
0	0x3f62d85d	0.88611394
1	0x3e74e4e8	0.23915446
2	0x3e36bcee	0.17845508
3	0x3f814500	1.0099182
4	0x3f2048ce	0.6261109
5	0x3ec15d5e	0.37766546
6	0x3efb1cf7	0.49045536
7	0x3ec68447	0.38772795

1.module.0.0.b_w f4 [8, 1]
0	0xc3000000	-128.0
1	0x42800000	64.0
2	0x42000000	32.0
3	0x41800000	16.0
4	0x41000000	8.0
5	0x40800000	4.0
6	0x40000000	2.0
7	0x3f800000	1.0

1.module.0.1.weight f4 [8]
0	0x3f1a3d1f	0.60249513
1	0x3f3e0429	0.742251
2	0x3f3343f4	0.70025563
3	0x3f34c88f	0.7061853
4	0x3f2ae5c8	0.6675687
5	0x3f24c47d	0.6436232
6	0x3f295f1d	0.66160756
7	0x3f4d822c	0.8027675

1.module.0.1.bias f4 [8]
0	0x3cf48fe7	0.029853774
1	0xbde8bdf2	-0.11364354
2	0xbebb2351	-0.36550382
3	0x3e6ae074	0.22937185
4	0x3dc78dfe	0.0974388
5	0x3d299433	0.0414011
6	0xbe9cff63	-0.30663595
7	0xbdbf68e5	-0.09346179

1.module.0.1.running_mean f4 [8]
0	0xbdd2c585	-0.1029158
1	0xbdab183f	-0.08354234
2	0xbe2edb14	-0.17075759
3	0xbe20ab86	-0.15690431
4	0xbe3ec78b	-0.18630807
5	0xbe438fb4	-0.19097787
6	0x3d205a8d	0.039148856
7	0xbc0f1a0b	-0.0087342365

1.module.0.1.running_var f4 [8]
0	0x3dae1ddc	0.08501789
1	0x3d7c9280	0.06166315
2	0x3d2e4a17	0.042551126
3	0x3d35384d	0.044243146
4	0x3d58f168	0.052964598
5	0x3d6b220c	0.057405517
6	0x3d967ea6	0.07348375
7	0x3daddc78	0.08489317

1.module.1.0.b_w f4 [8, 1]
0	0xc3000000	-128.0
1	0x42800000	64.0
2	0x42000000	32.0
3	0x41800000	16.0
4	0x41000000	8.0
5	0x40800000	4.0
6	0x40000000	2.0
7	0x3f800000	1.0

1.module.1.1.weight f4 [8]
0	0x3f7a8c05	0.978699
1	0x3f23509e	0.6379489
2	0x3f1a7c2a	0.6034571
3	0x3efe4959	0.49665335
4	0x3f1db5de	0.6160563
5	0x3f462bc5	0.77410537
6	0x3f334342	0.700245
7	0x3f2f9a13	0.68594474

1.module.1.1.bias f4 [8]
0	0xbe33e95b	-0.17569487
1	0xbe37b698	-0.17940748
2	0xbdc9a214	-0.09845367
3	0x3dbe3364	0.09287146
4	0xbe03c89d	-0.12869497
5	0xbe29dc22	-0.1658788
6	0xbd76e2ab	-0.06027476
7	0xbea7c977	-0.32770893

1.module.1.1.running_mean f4 [8]
0	0xbeeab530	-0.4584136
1	0xbea18b38	-0.31551528
2	0xbe7fd77c	-0.24984545
3	0x3e91a7a0	0.284482
4	0x3df67d60	0.12035632
5	0xbe86701a	-0.26257402
6	0xbe916e2e	-0.28404373
7	0x3f152afb	0.5826871

1.module.1.1.running_var f4 [8]
0	0x3ec7cb2b	0.39022192
1	0x3e019c40	0.12657261
2	0x3dcd03ab	0.10010465
3	0x3e8786c2	0.2647
4	0x3e0fa92a	0.14029375
5	0x3efb7c58	0.49118304
6	0x3e9a556f	0.30143306
7	0x3e2d2ae8	0.16910899

1.module.2.0.b_w f4 [8, 1]
0	0xc3000000	-128.0
1	0x42800000	64.0
2	0x42000000	32.0
3	0x41800000	16.0
4	0x41000000	8.0
5	0x40800000	4.0
6	0x40000000	2.0
7	0x3f800000	1.0

1.module.2.1.weight f4 [8]
0	0x3f37c6b8	0.71787596
1	0x3f1fc75b	0.6241357
2	0x3f18bf02	0.59666455
3	0x3f351eb1	0.70749956
4	0x3f545826	0.82947004
5	0x3ef65dc2	0.48118407
6	0x3f17d288	0.5930562
7	0x3f482be5	0.7819198

1.module.2.1.bias f4 [8]
0	0xbd4d56be	-0.050131552
1	0xbe0f3422	-0.13984731
2	0x3d069bc3	0.03286339
3	0xbe0c622f	-0.13709329
4	0x3d805d09	0.06267745
5	0xbe674ebb	-0.22588627
6	0xbe3ba087	-0.18322955
7	0xbde976c3	-0.11399605

1.module.2.1.running_mean f4 [8]
0	0xbe9218b5	-0.28534475
1	0xbeae133d	-0.33999053
2	0xbeaa46a4	-0.3325702
3	0xbc95c8d9	-0.018284248
4	0xbf04f490	-0.5193567
5	0xbef04713	-0.46929225
6	0xbcc76649	-0.024340766
7	0xbea04b06	-0.31307238

1.module.2.1.running_var f4 [8]
0	0x3e3a47f3	0.18191509
1	0x3e487b3e	0.19578263
2	0x3e2afe97	0.16698681
3	0x3e4e95dc	0.20174354
4	0x3e4afd79	0.19823255
5	0x3e0ea2e2	0.13929322
6	0x3e02b57d	0.12764545
7	0x3e206ca3	0.15666442

2.module.0.0.b_w f4 [8, 1]
0	0xc3000000	-128.0
1	0x42800000	64.0
2	0x42000000	32.0
3	0x41800000	16.0
4	0x41000000	8.0
5	0x40800000	4.0
6	0x40000000	2.0
7	0x3f800000	1.0

2.module.0.1.weight f4 [8]
0	0x3f142082	0.57862103
1	0x3f31528f	0.692666
2	0x3f20969e	0.62729824
3	0x3f2ff3f0	0.68731594
4	0x3f2dfbda	0.6796242
5	0x3f39e526	0.7261528
6	0x3f38092b	0.7188899
7	0x3f393cbe	0.7235831

2.module.0.1.bias f4 [8]
0	0x3cd85f59	0.026412653
1	0xbe4451a4	-0.19171768
2	0xbde4d419	-0.11173267
3	0xbc665573	-0.014058459
4	0xbd5c91e2	-0.053850062
5	0xbc99b699	-0.018763827
6	0xbd30ff8b	-0.043212455
7	0xbe1b58ef	-0.15170644

2.module.0.1.running_mean f4 [8]
0	0x3ecd1a00	0.400589
1	0xbe36d43a	-0.17854396
2	0x3d61376e	0.054984502
3	0xbeef30c1	-0.46716884
4	0xbdc21080	-0.094758034
5	0xbd82b2da	-0.063817695
6	0xbe7d5445	-0.24739178
7	0xbe0d6a58	-0.13810098

2.module.0.1.running_var f4 [8]
0	0x3e0c691c	0.13711971
1	0x3e0b4299	0.13599624
2	0x3d96f2b1	0.073705085
3	0x3e39f81a	0.1816105
4	0x3dd24d87	0.102686934
5	0x3e17bc53	0.14817934
6	0x3e9f73b1	0.31142953
7	0x3e10089b	0.14065783

2.module.1.0.b_w f4 [8, 1]
0	0xc3000000	-128.0
1	0x42800000	64.0
2	0x42000000	32.0
3	0x41800000	16.0
4	0x41000000	8.0
5	0x40800000	4.0
6	0x40000000	2.0
7	0x3f800000	1.0

2.module.1.1.weight f4 [8]
0	0x3f4436ee	0.76646316
1	0x3f17e09a	0.5932709
2	0x3f2957e4	0.66149735
3	0x3f0e1ad4	0.55509686
4	0x3f2fe0ba	0.6870228
5	0x3f36df3a	0.71434367
6	0x3f319797	0.6937193
7	0x3f23e3c6	0.6401943

2.module.1.1.bias f4 [8]
0	0xbe204c7f	-0.15654181
1	0xbd98a1f2	-0.074527636
2	0xbc60bf3a	-0.013717467
3	0xbe575b46	-0.21030912
4	0xbdf61de9	-0.12017424
5	0xbd9247c7	-0.07142597
6	0xbe87298f	-0.26398894
7	0xbdc3355f	-0.09531664

2.module.1.1.running_mean f4 [8]
0	0xbdb8edd5	-0.09029738
1	0x3d430890	0.047615588
2	0xbedacbbb	-0.4273356
3	0xbd6ec111	-0.05828959
4	0xbf043e5e	-0.51657665
5	0x3da163ab	0.07880338
6	0xbd51643c	-0.05112098
7	0xb9be181b	-0.00036257584

2.module.1.1.running_var f4 [8]
0	0x3de09be9	0.109672375
1	0x3e1b8e0f	0.1519091
2	0x3e055874	0.13022023
3	0x3e09f171	0.13471009
4	0x3e3f94ad	0.18709059
5	0x3e06f7fa	0.13180533
6	0x3dff881d	0.124771334
7	0x3dd76940	0.10518122

2.module.2.0.b_w f4 [8, 1]
0	0xc3000000	-128.0
1	0x42800000	64.0
2	0x42000000	32.0
3	0x41800000	16.0
4	0x41000000	8.0
5	0x40800000	4.0
6	0x40000000	2.0
7	0x3f800000	1.0

2.module.2.1.weight f4 [8]
0	0x3f448cd8	0.7677741
1	0x3f53db4f	0.82756513
2	0x3f4b6981	0.7945786
3	0x3f3a20db	0.72706383
4	0x3f681993	0.90664023
5	0x3f561353	0.83623236
6	0x3f4b42b8	0.7939868
7	0x3f745ee7	0.9545731

2.module.2.1.bias f4 [8]
0	0xbe31bbf1	-0.1735685
1	0xbd2b84da	-0.041874744
2	0xbd9a5c5b	-0.07537147
3	0xbd98127c	-0.074254006
4	0xbda70027	-0.08154326
5	0xbe0405ff	-0.12892912
6	0xbc18544c	-0.009297442
7	0x3e1fd731	0.15609433

2.module.2.1.running_mean f4 [8]
0	0x3d51e514	0.051243857
1	0xbd2abed9	-0.041685913
2	0x3e571bc4	0.21006685
3	0x3dc7ee53	0.097622536
4	0xbe6fc006	-0.23413095
5	0x3dacb1b1	0.084323294
6	0xbe79b952	-0.243871
7	0xbe82c981	-0.2554436

2.module.2.1.running_var f4 [8]
0	0x3def034b	0.1167055
1	0x3e146518	0.14491689
2	0x3e1e0c41	0.15434362
3	0x3e290d7b	0.16509049
4	0x3e28a460	0.16468954
5	0x3e107f5e	0.14111087
6	0x3dba6ff5	0.09103385
7	0x3e3c9d2c	0.18419331

5.module.0.0.b_w f4 [8, 1]
0	0xc3000000	-128.0
1	0x42800000	64.0
2	0x42000000	32.0
3	0x41800000	16.0
4	0x41000000	8.0
5	0x40800000	4.0
6	0x40000000	2.0
7	0x3f800000	1.0

5.module.0.1.weight f4 [16]
0	0x3f440565	0.7657073
1	0x3f5b2098	0.8559661
2	0x3f0b4839	0.5440708
3	0x3f0eb719	0.55748135
4	0x3f28661b	0.657808
5	0x3f084190	0.5322504
6	0x3f44e619	0.769136
7	0x3f2def57	0.6794333
8	0x3f288432	0.65826714
9	0x3f345312	0.70439255
10	0x3f0b078f	0.5430841
11	0x3f3f4626	0.74716413
12	0x3f2a6b3d	0.6656988
13	0x3f287265	0.6579955
14	0x3f1c93d3	0.6116306
15	0x3f38eb70	0.7223425

5.module.0.1.bias f4 [16]
0	0xbcbcaca8	-0.023031548
1	0xbdcdee9e	-0.10055278
2	0xbd88e19a	-0.06683655
3	0xbdff2fd1	-0.12460292
4	0x3db13c1a	0.086540416
5	0xbe830086	-0.25586337
6	0xbe14d1a5	-0.14533098
7	0x3c9d61d3	0.019211685
8	0xbd48f68b	-0.049063247
9	0xbdadc432	-0.08484687
10	0xbe60d1ca	-0.21955028
11	0xbd3c1dba	-0.045926787
12	0x3ca108c8	0.019657508
13	0xbde465bb	-0.11152216
14	0xbd880c85	-0.06643013
15	0xbe1ce315	-0.15321

5.module.0.1.running_mean f4 [16]
0	0xbf9f012e	-1.2422235
1	0xbe8f2db1	-0.27964547
2	0x3f9be3e3	1.217892
3	0xbf268247	-0.6504254
4	0xbeb304bb	-0.34964547
5	0x3f76068a	0.9610373
6	0x3f2d5639	0.6770969
7	0xbffd7ed4	-1.980433
8	0xbe1aacbe	-0.15104958
9	0x3f8edc72	1.1161025
10	0x3f06bec7	0.52634853
11	0xbec0ed06	-0.37680835
12	0x3e330ea9	0.17486061
13	0xbf30a822	-0.6900655
14	0x3f24e877	0.64417213
15	0xbfbba8f9	-1.4660941

5.module.0.1.running_var f4 [16]
0	0x3faa869c	1.332233
1	0x3fea5b59	1.8309127
2	0x3ff12d0a	1.884187
3	0x3f8719f8	1.05548
4	0x3f933d68	1.1503115
5	0x3fc2baa1	1.5213205
6	0x3faaab63	1.3333553
7	0x3fc04cf3	1.5023483
8	0x3f393fc2	0.7236291
9	0x3ff154e4	1.8854032
10	0x3fc31ef9	1.5243827
11	0x3f898345	1.0743185
12	0x3f71e935	0.9449647
13	0x3f6ae0aa	0.9174906
14	0x3f8ad4a1	1.0846139
15	0x3fb46db5	1.409598

5.module.1.0.b_w f4 [8, 1]
0	0xc3000000	-128.0
1	0x42800000	64.0
2	0x42000000	32.0
3	0x41800000	16.0
4	0x41000000	8.0
5	0x40800000	4.0
6	0x40000000	2.0
7	0x3f800000	1.0

5.module.1.1.weight f4 [16]
0	0x3f2fc2a8	0.68656397
1	0x3f3575ef	0.7088308
2	0x3f0eedfe	0.558319
3	0x3f33157d	0.69954664
4	0x3f2d1643	0.67612094
5	0x3f33e581	0.7027207
6	0x3f1398b3	0.57654876
7	0x3f14c9c3	0.58120364
8	0x3f3a0757	0.7266745
9	0x3f3dbfc1	0.7412072
10	0x3f417133	0.75563353
11	0x3f18750e	0.5955361
12	0x3f2dd75a	0.67906725
13	0x3f172f40	0.5905647
14	0x3f3c2492	0.734933
15	0x3f32fec7	0.6992001

5.module.1.1.bias f4 [16]
0	0x3d27ec9e	0.04099714
1	0xbd9b44b6	-0.07581465
2	0xbcbe1ffe	-0.023208614
3	0xbdea2d8e	-0.1143447
4	0xbdadbef7	-0.08483689
5	0xbdca508e	-0.09878646
6	0xbe342088	-0.17590535
7	0xbdeeac07	-0.11653905
8	0xbd91c236	-0.07117121
9	0xbb47777e	-0.0030436213
10	0xbd88ea10	-0.06685269
11	0xbddc065b	-0.107434
12	0xbe32c9f1	-0.17459847
13	0x3d376559	0.044774387
14	0xbbde02e6	-0.006775248
15	0x3de65c26	0.11248045

5.module.1.1.running_mean f4 [16]
0	0xbea92eee	-0.33043617
1	0x3ea148e5	0.31500927
2	0xbca4e380	-0.020128012
3	0x3e24c92a	0.16092363
4	0x3f6bbefe	0.92088306
5	0x3e02f89c	0.1279015
6	0x3e134b34	0.14384156
7	0xbf397bb6	-0.7245439
8	0x3d8684a9	0.06568272
9	0xbd9ca807	-0.07649236
10	0x3dbada7b	0.09123703
11	0x3d8e8e3f	0.06960725
12	0x3d8c32d6	0.06845634
13	0x3dac972d	0.08427272
14	0xbea332d5	-0.3187472
15	0xbef5e85f	-0.48028848

5.module.1.1.running_var f4 [16]
0	0x3dce2ede	0.10067533
1	0x3e42a307	0.19007502
2	0x3dfff452	0.12497772
3	0x3e075102	0.13214496
4	0x3e8fb73a	0.28069478
5	0x3e1c74d9	0.15278949
6	0x3e626c92	0.22111729
7	0x3e9b15c0	0.3029003
8	0x3e534406	0.20631418
9	0x3e2df249	0.16986956
10	0x3e3e16b0	0.18563342
11	0x3e83ec5b	0.25766262
12	0x3e475256	0.19465002
13	0x3eb3d943	0.35126695
14	0x3e9d4f6b	0.30724654
15	0x3e37c8b8	0.17947662

5.module.2.0.b_w f4 [8, 1]
0	0xc3000000	-128.0
1	0x42800000	64.0
2	0x42000000	32.0
3	0x41800000	16.0
4	0x41000000	8.0
5	0x40800000	4.0
6	0x40000000	2.0
7	0x3f800000	1.0

5.module.2.1.weight f4 [16]
0	0x3f3d0d73	0.73848647
1	0x3f4ee09a	0.80811465
2	0x3f424912	0.75892746
3	0x3f2e1b32	0.68010247
4	0x3f2c9ef7	0.6743006
5	0x3f22c60d	0.6358345
6	0x3f2bb913	0.67079276
7	0x3f3d8727	0.7403435
8	0x3f235fd7	0.63818115
9	0x3f3a628c	0.7280662
10	0x3f34f09b	0.70679635
11	0x3f2663c4	0.6499598
12	0x3f39af48	0.7253308
13	0x3f38b44c	0.7215011
14	0x3f1a9b92	0.6039363
15	0x3f31e018	0.69482565

5.module.2.1.bias f4 [16]
0	0xbe3f1ae3	-0.186626
1	0xbd8199c5	-0.06328157
2	0x3d896da8	0.067103684
3	0xbc190002	-0.009338381
4	0x3cf47420	0.029840529
5	0x3c91a7c5	0.017780194
6	0x3b0ba886	0.0021310165
7	0x3c214a63	0.009844395
8	0xbdc3bf4c	-0.09557971
9	0xbe345c63	-0.17613368
10	0x3ca42276	0.020035964
11	0x3930c385	0.00016857505
12	0xbdf7d726	-0.12101583
13	0xbd2a6616	-0.041601263
14	0xbdc7790e	-0.09739886
15	0xbd0f9c5b	-0.03506122

5.module.2.1.running_mean f4 [16]
0	0xbe0d942c	-0.13826054
1	0x3d52425b	0.051332813
2	0xbf13ee0c	-0.57785106
3	0x3dd1ff91	0.102538235
4	0xbea0a74b	-0.31377634
5	0x3e2d73b1	0.16938664
6	0xbed4f58b	-0.41593584
7	0x3d931ea3	0.07183578
8	0xbe5a2e4d	-0.21306725
9	0xbe48025b	-0.19532149
10	0xbea77cf1	-0.3271251
11	0x3ea97658	0.33098102
12	0x3c8020fc	0.015640728
13	0x3e54a1d2	0.20764855
14	0xbdcf5e34	-0.1012539
15	0xbe9cf251	-0.30653623

5.module.2.1.running_var f4 [16]
0	0x3ec049af	0.37556216
1	0x3e425328	0.18977034
2	0x3e3552c8	0.1770736
3	0x3e3d190b	0.18466584
4	0x3e78cff0	0.24298072
5	0x3e243baf	0.16038392
6	0x3e8139bf	0.2523937
7	0x3e9763f5	0.2956845
8	0x3e368cf0	0.17827201
9	0x3e4633ea	0.19355741
10	0x3e6b0b24	0.22953469
11	0x3e7a13a5	0.24421556
12	0x3e8378aa	0.25677997
13	0x3e42ba4f	0.19016384
14	0x3e1c42f4	0.15259916
15	0x3e2a710d	0.16644688

6.module.0.0.b_w f4 [8, 1]
0	0xc3000000	-128.0
1	0x42800000	64.0
2	0x42000000	32.0
3	0x41800000	16.0
4	0x41000000	8.0
5	0x40800000	4.0
6	0x40000000	2.0
7	0x3f800000	1.0

6.module.0.1.weight f4 [16]
0	0x3f09ff07	0.53904766
1	0x3f26de1d	0.6518267
2	0x3f3f4a04	0.74722314
3	0x3f32c086	0.6982502
4	0x3f2bc0e1	0.67091185
5	0x3f33f25a	0.70291674
6	0x3f282373	0.6567909
7	0x3f1de4e7	0.616774
8	0x3f2e2d79	0.68038136
9	0x3f272712	0.6529399
10	0x3f399fc0	0.72509384
11	0x3f3b1f9f	0.73095125
12	0x3f10bc29	0.5653711
13	0x3f2ec09a	0.68262637
14	0x3f3f4937	0.7472109
15	0x3f1aa8cb	0.6041381

6.module.0.1.bias f4 [16]
0	0xbdad4e42	-0.08462192
1	0xbbb6819b	-0.0055696494
2	0x3d738dc1	0.05946136
3	0xbd012e16	-0.03153809
4	0xbd9a3b85	-0.07530884
5	0xbe203d7e	-0.15648457
6	0xbe0b8bc8	-0.13627541
7	0xbe1ee5ee	-0.15517399
8	0xbdaca49d	-0.08429835
9	0xbda8f6d9	-0.082502075
10	0xbd0dc63e	-0.034612887
11	0xbda5ac0d	-0.08089457
12	0xbe6f4a5f	-0.23368214
13	0xbe056ae9	-0.13029064
14	0x3d507636	0.050893985
15	0xbd2a47c9	-0.041572366

6.module.0.1.running_mean f4 [16]
0	0x3ef89ace	0.48555607
1	0xbd86260d	-0.06550226
2	0xbe241dbb	-0.16026966
3	0xbe8015c6	-0.25016612
4	0x3d8cc39f	0.06873249
5	0xbecfb333	-0.40566406
6	0xbe88849c	-0.26663673
7	0x3e81401c	0.25244224
8	0x3e860126	0.2617275
9	0x3f0b6526	0.54451215
10	0xbf0e9d1b	-0.55708474
11	0xbde7d68b	-0.11320218
12	0xbef942af	-0.48683688
13	0xbd9210c6	-0.071321055
14	0xbee1f2c2	-0.44130522
15	0xbe1e08f9	-0.1543311

6.module.0.1.running_var f4 [16]
0	0x3eb9a215	0.3625647
1	0x3e511fc1	0.2042227
2	0x3e9d3b27	0.30709192
3	0x3ea687f4	0.325256
4	0x3e6bb3c3	0.23017792
5	0x3f04347d	0.5164259
6	0x3ed5192d	0.4162077
7	0x3eb362a2	0.35036188
8	0x3edabbed	0.427215
9	0x3f04dc88	0.51899004
10	0x3f29ddf4	0.663543
11	0x3ec6fcbc	0.38864696
12	0x3ef05b1e	0.46944517
13	0x3ed09390	0.4073758
14	0x3e89556d	0.26822987
15	0x3ec34510	0.38138628

6.module.1.0.b_w f4 [8, 1]
0	0xc3000000	-128.0
1	0x42800000	64.0
2	0x42000000	32.0
3	0x41800000	16.0
4	0x41000000	8.0
5	0x40800000	4.0
6	0x40000000	2.0
7	0x3f800000	1.0

6.module.1.1.weight f4 [16]
0	0x3f1cf1fc	0.6130674
1	0x3f2c844b	0.67389363
2	0x3f39ce1b	0.72580117
3	0x3f275c5d	0.6537531
4	0x3f23282e	0.63733184
5	0x3f1d018c	0.61330485
6	0x3f314aac	0.69254565
7	0x3f1b16d0	0.60581684
8	0x3f3dd324	0.741503
9	0x3f1c781a	0.6112076
10	0x3f3138c7	0.6922726
11	0x3f3d8e62	0.74045384
12	0x3f343d5d	0.7040613
13	0x3f2f6de2	0.6852704
14	0x3f2e6a61	0.6813107
15	0x3f232f17	0.6374373

6.module.1.1.bias f4 [16]
0	0xbe1aa97a	-0.15103713
1	0xbc49f81a	-0.012327218
2	0xbc72da9e	-0.01482263
3	0xbc20ede4	-0.009822343
4	0xbdbd5ce5	-0.09246234
5	0xbdd8645e	-0.105660185
6	0xbcc5e157	-0.024155302
7	0xbe06d649	-0.13167681
8	0xbdde0486	-0.108407065
9	0xbd071f93	-0.032989096
10	0x3d459f8b	0.048247855
11	0x3cee00c5	0.029053101
12	0xbdd6d3d2	-0.1048962
13	0xbdb886e7	-0.090101056
14	0xbcfa0a1d	-0.0305224
15	0xbc8a9aa0	-0.016919434

6.module.1.1.running_mean f4 [16]
0	0x3e543eb8	0.2072705
1	0x3afbea9f	0.0019219703
2	0xbe9c68a1	-0.30548576
3	0xbe81c211	-0.25343373
4	0xbc8a0dfa	-0.016852368
5	0xbd782134	-0.06057854
6	0xbee03b16	-0.4379508
7	0x3e459905	0.19296654
8	0xbf06755e	-0.5252284
9	0xbddf30fa	-0.108980134
10	0x3c872a8e	0.016499784
11	0xbe80fd71	-0.2519336
12	0xbe42a27a	-0.19007292
13	0xbef64675	-0.4810063
14	0xbe089eac	-0.13341779
15	0xbdcb1f93	-0.09918132

6.module.1.1.running_var f4 [16]
0	0x3e164df7	0.14678179
1	0x3e1b47d8	0.15164125
2	0x3e317082	0.17328075
3	0x3db8a086	0.090149924
4	0x3dd34f8c	0.10317907
5	0x3db39830	0.08769262
6	0x3e0bc1f3	0.13648205
7	0x3e3820f2	0.17981318
8	0x3e4208ec	0.18948716
9	0x3e29a2ee	0.16566059
10	0x3e028c3e	0.1274881
11	0x3db17fe7	0.086669736
12	0x3e2846e6	0.16433296
13	0x3e301789	0.17196478
14	0x3e2d9e41	0.169549
15	0x3da620b4	0.081117064

6.module.2.0.b_w f4 [8, 1]
0	0xc3000000	-128.0
1	0x42800000	64.0
2	0x42000000	32.0
3	0x41800000	16.0
4	0x41000000	8.0
5	0x40800000	4.0
6	0x40000000	2.0
7	0x3f800000	1.0

6.module.2.1.weight f4 [16]
0	0x3f47bedc	0.78025603
1	0x3f4092a2	0.75223744
2	0x3f4163e1	0.7554303
3	0x3f3f3648	0.746922
4	0x3f37c38e	0.7178277
5	0x3f438b77	0.7638468
6	0x3f501b70	0.81291866
7	0x3f4654ba	0.7747303
8	0x3f51f37c	0.8201215
9	0x3f3d61a8	0.73977137
10	0x3f44db14	0.76896787
11	0x3f4fdb11	0.81193644
12	0x3f46175e	0.77379405
13	0x3f42bf23	0.760729
14	0x3f43b21e	0.7644366
15	0x3f44f41f	0.76935

6.module.2.1.bias f4 [16]
0	0x3d108ebb	0.03529237
1	0xbc067448	-0.008206435
2	0x3d6ac5ae	0.05731743
3	0xbc523457	-0.012829862
4	0xbdfebc18	-0.1243822
5	0xbc64b0ae	-0.013958139
6	0x3d486126	0.048920773
7	0x3cd5cda7	0.02609904
8	0x3d0a88ae	0.033821754
9	0x3c4f924f	0.01266916
10	0xbd362a9b	-0.044474225
11	0x3d866637	0.06562465
12	0xbb7609d9	-0.003754249
13	0x3d476c71	0.048687402
14	0xbc8e8e30	-0.017401785
15	0x3c9ed031	0.019386383

6.module.2.1.running_mean f4 [16]
0	0x3e8686af	0.2627463
1	0xbe07d1e2	-0.13263658
2	0xbe58eaee	-0.21183369
3	0x3d9be488	0.07611948
4	0x3c165c34	0.009177256
5	0x3d96cedc	0.07363674
6	0xbe1e5ad8	-0.15464342
7	0x3d1a8c8c	0.037731692
8	0x3d000bef	0.03126138
9	0x3d96b36a	0.07358439
10	0x3e0ad63a	0.13558283
11	0x3e3ebfe4	0.18627888
12	0x3d5a0fa9	0.05323759
13	0x3e325004	0.17413336
14	0x3dfa87f2	0.12232961
15	0xb9cba9d9	-0.00038845724

6.module.2.1.running_var f4 [16]
0	0x3dcff2a9	0.101537056
1	0x3db41567	0.08793145
2	0x3dcd6856	0.10029666
3	0x3e02caec	0.12772721
4	0x3dbed3bb	0.09317728
5	0x3dbb55b3	0.09147205
6	0x3dd002e2	0.101568
7	0x3e002cff	0.12517165
8	0x3e13e712	0.14443615
9	0x3dc1f8ad	0.09471259
10	0x3dc887bc	0.09791514
11	0x3e0468c5	0.12930591
12	0x3dc6cd43	0.09707119
13	0x3deb5738	0.11491245
14	0x3dcbb165	0.09945945
15	0x3dfeeab6	0.12447111

9.0.b_w f4 [8, 1]
0	0xc3000000	-128.0
1	0x42800000	64.0
2	0x42000000	32.0
3	0x41800000	16.0
4	0x41000000	8.0
5	0x40800000	4.0
6	0x40000000	2.0
7	0x3f800000	1.0

9.1.weight f4 [32]
0	0x3f32bae9	0.6981645
1	0x3f367bfe	0.7128295
2	0x3f3b6423	0.7319967
3	0x3f294632	0.66122735
4	0x3f232c6a	0.63739645
5	0x3f2d2b51	0.6764422
6	0x3f393f1e	0.72361934
7	0x3f2ab909	0.6668859
8	0x3f283b62	0.6571561
9	0x3f20540f	0.62628263
10	0x3f256f1d	0.6462267
11	0x3f32c910	0.6983805
12	0x3f1e38ef	0.61805624
13	0x3f32dfeb	0.6987292
14	0x3f38223f	0.71927255
15	0x3f3dd02a	0.7414576
16	0x3f234ea0	0.6379185
17	0x3f201c29	0.6254297
18	0x3f20a3f8	0.62750196
19	0x3f35c13d	0.70997983
20	0x3f286b0e	0.6578835
21	0x3f260345	0.6484874
22	0x3f180294	0.59378934
23	0x3f453fbc	0.77050376
24	0x3f37f73c	0.71861625
25	0x3f16091a	0.5860764
26	0x3f32bbff	0.6981811
27	0x3f1ea8d1	0.61976343
28	0x3f1c605d	0.6108454
29	0x3f2bb91a	0.6707932
30	0x3f2a7ffb	0.6660153
31	0x3f243d72	0.6415626

9.1.bias f4 [32]
0	0xbc260b13	-0.010134476
1	0xbd7e6bfa	-0.062114693
2	0x3d4a20e3	0.04934777
3	0xbd93d34f	-0.07218038
4	0xbc371ee8	-0.011176802
5	0xbe0cec2d	-0.13761969
6	0xbd3e218d	-0.046418715
7	0xbd46133f	-0.0483582
8	0xbd8c80e1	-0.06860519
9	0xbd1a8d62	-0.03773249
10	0x3c8c8117	0.017151399
11	0xbe24362f	-0.16036294
12	0xbdf78a0f	-0.120868795
13	0xbd1519a9	-0.036401425
14	0x3e27c410	0.16383386
15	0x3ce0fe3e	0.027464982
16	0xbe019cef	-0.12657522
17	0xbda25179	-0.07925696
18	0x3d14c602	0.036321647
19	0x3d4b343c	0.04961036
20	0xbd66317e	-0.056199543
21	0xbc97492f	-0.018467514
22	0xbd9f2beb	-0.077720486
23	0x3b18a701	0.0023292901
24	0x3d509a45	0.050928373
25	0xbd738f7b	-0.059463006
26	0xba05a105	-0.0005097541
27	0xbd2861c5	-0.041108865
28	0xbd88a90b	-0.066728674
29	0xbd513055	-0.051071484
30	0xbc8a3279	-0.01686977
31	0xbd0e851f	-0.034794923

9.1.running_mean f4 [32]
0	0xbe90696f	-0.2820544
1	0xbe4e218e	-0.20129988
2	0xbe88069f	-0.26567551
3	0xbebfe9a6	-0.37482947
4	0xbe539f30	-0.20666194
5	0xbea08a8d	-0.31355706
6	0x3b33e917	0.0027452165
7	0xbd7d0e9e	-0.06178152
8	0xbd82f2d0	-0.06393969
9	0xbe33c45f	-0.17555378
10	0xbe98fc1f	-0.29879853
11	0xbe45d35d	-0.1931891
12	0x3bf35f60	0.007427141
13	0xbc26878e	-0.010164155
14	0xbeb3c1a1	-0.35108665
15	0xbf00d06c	-0.50318027
16	0xbd0af57d	-0.033925522
17	0xbe1ff6fb	-0.1562156
18	0xbd92c35c	-0.07166168
19	0xbec55451	-0.3854089
20	0xbd33b89f	-0.04387724
21	0xbd9e3f36	-0.077269
22	0x3e0e74e5	0.13911779
23	0xbe8bc9a0	-0.27302265
24	0xbe80ab21	-0.2513056
25	0x3e28b971	0.1647699
26	0xbd87fa8f	-0.06639587
27	0x3db2065d	0.0869262
28	0xbddd5802	-0.10807802
29	0xbda7fe63	-0.08202817
30	0xbea13701	-0.31487277
31	0xbe3020a2	-0.17199948

9.1.running_var f4 [32]
0	0x3f218786	0.6309742
1	0x3f9649bb	1.1741251
2	0x3fda2129	1.704137
3	0x3f338e18	0.7013869
4	0x3ef52beb	0.4788507
5	0x3f57bc78	0.84271955
6	0x3fd4852c	1.6603141
7	0x3fc10d0a	1.5082104
8	0x3f028c81	0.5099564
9	0x3ec7b1d3	0.39002857
10	0x3f4edbb4	0.8080399
11	0x3fcfbe32	1.6229918
12	0x3fa9960a	1.3248913
13	0x3fa7a0ab	1.3095907
14	0x3fc7cc00	1.5609131
15	0x401fc392	2.4963117
16	0x3f860c02	1.0472414
17	0x3ee1c535	0.4409577
18	0x3f620000	0.8828125
19	0x3f94337e	1.1578214
20	0x3f1c4b71	0.61052614
21	0x3f2acecf	0.66721815
22	0x3f8f1b43	1.1180195
23	0x3ff5a7fb	1.9191889
24	0x3fa622fc	1.2979426
25	0x3f559f5f	0.83446306
26	0x3f8310ad	1.0239464
27	0x3f66e8ef	0.9019918
28	0x3f014a02	0.5050355
29	0x3f4f1d64	0.8090422
30	0x3f09643c	0.5366857
31	0x3f4b8c04	0.7951052

10.0.b_w f4 [8, 1]
0	0xc3000000	-128.0
1	0x42800000	64.0
2	0x42000000	32.0
3	0x41800000	16.0
4	0x41000000	8.0
5	0x40800000	4.0
6	0x40000000	2.0
7	0x3f800000	1.0

10.1.weight f4 [32]
0	0x3f1c4ef1	0.61057955
1	0x3f3c63b7	0.7358965
2	0x3f15c5b4	0.58504796
3	0x3f193675	0.5984872
4	0x3f0e6c14	0.55633664
5	0x3f186d58	0.59541845
6	0x3f2011d1	0.62527186
7	0x3f166834	0.5875275
8	0x3f1bc58b	0.608483
9	0x3f18a04a	0.5961958
10	0x3f320a1b	0.6954667
11	0x3f2654d5	0.64973193
12	0x3f19b427	0.60040516
13	0x3f210331	0.62895495
14	0x3f25389c	0.64539504
15	0x3f2bb135	0.6706727
16	0x3f2056b3	0.6263229
17	0x3f26205c	0.64893126
18	0x3f2b3553	0.6687824
19	0x3f282562	0.6568204
20	0x3f313884	0.6922686
21	0x3f15c775	0.5850747
22	0x3f188fbb	0.59594315
23	0x3f269a1e	0.65078914
24	0x3f21ea5b	0.63248223
25	0x3f188905	0.59584075
26	0x3f2562fa	0.6460415
27	0x3f17161e	0.59018123
28	0x3f28ceaa	0.65940344
29	0x3f1f7fe6	0.6230453
30	0x3f2378cf	0.63856214
31	0x3f2ba800	0.6705322

10.1.bias f4 [32]
0	0xbe700fd6	-0.23443541
1	0xbe4ee345	-0.20203884
2	0xbe514ff5	-0.20440657
3	0xbe453875	-0.19259818
4	0xbe478828	-0.19485533
5	0xbe8a26c3	-0.26982698
6	0xbe4c2ed1	-0.19939734
7	0xbe4549ca	-0.1926643
8	0xbdf5508d	-0.119782545
9	0xbe879809	-0.2648318
10	0xbe5a7a79	-0.21335782
11	0xbe28ec1a	-0.16496316
12	0xbeb41dd9	-0.35179022
13	0xbe760875	-0.24026664
14	0xbe47fbe1	-0.19529678
15	0xbe518aa7	-0.20463048
16	0xbe79cd8e	-0.24394819
17	0xbe82a18e	-0.2551388
18	0xbe7bfb1b	-0.24607508
19	0xbe29c514	-0.16579086
20	0xbe9c7245	-0.3055593
21	0xbe930b88	-0.28719735
22	0xbe8ed480	-0.278965
23	0xbe90a9ad	-0.28254452
24	0xbe8d57c0	-0.2760601
25	0xbe7573f7	-0.23970018
26	0xbe47fd66	-0.19530258
27	0xbec3f354	-0.38271582
28	0xbe1e57a0	-0.15463114
29	0xbdfec21a	-0.12439366
30	0xbe661880	-0.22470284
31	0xbe4948ed	-0.19656725

10.1.running_mean f4 [32]
0	0xbec2f27d	-0.3807563
1	0xbdcb57f9	-0.09928889
2	0xbeb1accf	-0.34702155
3	0xbd70462b	-0.058660667
4	0xbe46bdb9	-0.19408311
5	0xbde17257	-0.11008137
6	0xbe679ee6	-0.22619209
7	0xbe40769c	-0.18795246
8	0xbe6a3200	-0.22870636
9	0xbe84b264	-0.2591735
10	0xbe38a34c	-0.18031043
11	0xbe2578f6	-0.16159424
12	0xbe2c920b	-0.16852586
13	0xbe96224a	-0.29323035
14	0xbdd68297	-0.10474127
15	0xbec4f5d3	-0.384688
16	0xbed7e6d1	-0.42168286
17	0xbdd2c25d	-0.10290978
18	0xbe836c59	-0.256686
19	0x3d4d89e7	0.050180342
20	0xbe35228b	-0.17688958
21	0xbe22437d	-0.15846057
22	0xbea56c78	-0.32309318
23	0xbeaa99ee	-0.33320564
24	0xbd97dd07	-0.074152045
25	0xbe9e24a2	-0.30887324
26	0xbe89f436	-0.2694413
27	0xbed03e13	-0.4067236
28	0xbe36fe11	-0.17870356
29	0xbe27bfbc	-0.16381735
30	0xbe5a399a	-0.21311036
31	0xbe78ee4e	-0.24309656

10.1.running_var f4 [32]
0	0x3e17d886	0.14828691
1	0x3dee2ec7	0.11630016
2	0x3de00c3d	0.10939834
3	0x3e258047	0.16162215
4	0x3de3f806	0.11131291
5	0x3e1ed84a	0.15512195
6	0x3e10f3a5	0.14155443
7	0x3e2c0436	0.16798481
8	0x3e2a3b54	0.16624194
9	0x3e42adfc	0.19011682
10	0x3dc12f49	0.09432847
11	0x3e0779e9	0.13230099
12	0x3e22d98d	0.15903302
13	0x3dfcd29c	0.12344858
14	0x3df94b2e	0.121725425
15	0x3dcfa2ef	0.10138499
16	0x3e063f78	0.13110149
17	0x3e130361	0.14356758
18	0x3e2b7881	0.16745187
19	0x3dccc6cf	0.09998857
20	0x3df9f73b	0.122053586
21	0x3e48f04a	0.19622913
22	0x3e225bc2	0.15855315
23	0x3e064ee5	0.13116033
24	0x3dada8ab	0.084794365
25	0x3dd82fd3	0.10555997
26	0x3e0b4914	0.13602096
27	0x3e4924d3	0.19642954
28	0x3def4c8f	0.11684524
29	0x3e23e4f9	0.16005315
30	0x3e381cf0	0.17979789
31	0x3e3538c7	0.1769744

13.0.b_w f4 [8, 1]
0	0xc3000000	-128.0
1	0x42800000	64.0
2	0x42000000	32.0
3	0x41800000	16.0
4	0x41000000	8.0
5	0x40800000	4.0
6	0x40000000	2.0
7	0x3f800000	1.0

13.1.weight f4 [64]
0	0x3f65e604	0.898041
1	0x3f7961b2	0.97414696
2	0x3f62bd89	0.8857046
3	0x3f6e039e	0.9297427
4	0x3f66d9b3	0.9017593
5	0x3f616ed1	0.8805972
6	0x3f6f87ac	0.93566394
7	0x3f68812a	0.9082209
8	0x3f57d1a9	0.8430429
9	0x3f75ae80	0.9596939
10	0x3f9ca785	1.2238623
11	0x3f56b574	0.83870625
12	0x3f838836	1.0275943
13	0x3f6f02ef	0.9336385
14	0x3f667354	0.90019727
15	0x3f6ddd2a	0.92915595
16	0x3f5ed7f9	0.870483
17	0x3f806c45	1.0033041
18	0x3f9a537b	1.2056726
19	0x3f8e417b	1.1113733
20	0x3f7894e9	0.9710222
21	0x3f7d202f	0.98877233
22	0x3f63abb0	0.8893385
23	0x3f5cac64	0.8620055
24	0x3f5590db	0.83424157
25	0x3f68a895	0.90882236
26	0x3f8565a6	1.0421646
27	0x3f6e4414	0.9307263
28	0x3f6b9d3c	0.92036796
29	0x3f7b8a91	0.9825831
30	0x3f6d7ef4	0.9277184
31	0x3f60176d	0.87535745
32	0x3f77978a	0.96715605
33	0x3f78d886	0.9720539
34	0x3f74a6ba	0.95566905
35	0x3f57c75c	0.84288573
36	0x3f812fe0	1.0092735
37	0x3f83fa9c	1.0310855
38	0x3f75c653	0.96005744
39	0x3f7716a0	0.965189
40	0x3f5eda3b	0.87051743
41	0x3f5f743f	0.8728675
42	0x3f6fde13	0.93698233
43	0x3f7f5460	0.9973812
44	0x3f697a89	0.912026
45	0x3f44f031	0.76929003
46	0x3f541e36	0.828586
47	0x3f576e0b	0.8415229
48	0x3f603604	0.8758242
49	0x3f57b9be	0.84267795
50	0x3f659044	0.89673257
51	0x3f7fe6cd	0.9996155
52	0x3f8774cd	1.058252
53	0x3f7a70e9	0.9782854
54	0x3f63badf	0.8895702
55	0x3f7eeec4	0.9958308
56	0x3f81cb30	1.0140133
57	0x3f6e61e5	0.93118125
58	0x3f7ef860	0.9959774
59	0x3f6714c0	0.90266037
60	0x3f7e0536	0.992267
61	0x3f960c5c	1.1722522
62	0x3f7b1d9f	0.98092073
63	0x3f7b999c	0.98281264

13.1.bias f4 [64]
0	0x3e0b7f96	0.13622889
1	0x3e822e24	0.25425828
2	0x3d6d069f	0.057867642
3	0x3ddae665	0.106884755
4	0x3dc82d87	0.09774309
5	0x3cc924b3	0.024553632
6	0x3e51eede	0.20501277
7	0x3daee7da	0.08540316
8	0x3d921228	0.07132369
9	0x3e38f4c2	0.18062118
10	0x3e8d2289	0.2756541
11	0x3dfeb4b9	0.12436814
12	0x3e3fba9e	0.18723533
13	0x3e201b6b	0.15635459
14	0x3e43257c	0.19057268
15	0x3e1c1722	0.152432
16	0x3dcf95ef	0.101360194
17	0x3e92e90d	0.2869343
18	0x3ea94933	0.3306366
19	0x3e9103ff	0.2832336
20	0x3e5bf4ea	0.21480146
21	0x3e65b547	0.22432433
22	0x3e18bb6c	0.14915246
23	0x3e08a1a2	0.13342908
24	0x3e10e3e7	0.14149438
25	0x3dc602c9	0.096685
26	0x3e1190ba	0.14215365
27	0x3e35f737	0.17770086
28	0x3e2eef46	0.17083463
29	0x3e5ec1fb	0.21753685
30	0x3e380b2b	0.1797301
31	0x3d98ea4a	0.07466562
32	0x3de1d27a	0.11026473
33	0x3e49d3f7	0.19709764
34	0x3e5b1357	0.21394096
35	0x3d93f79e	0.072249636
36	0x3e561acd	0.20908661
37	0x3dd6b321	0.10483385
38	0x3e488b29	0.19584335
39	0x3e4c7c59	0.1996931
40	0x3dd7a169	0.105288334
41	0x3dfcaffe	0.12338255
42	0x3e2127b7	0.15737806
43	0x3e308f84	0.17242247
44	0x3e0e1b1a	0.13877526
45	0x3da45b5a	0.080252364
46	0x3e307812	0.17233303
47	0x3de3a6f7	0.111158304
48	0x3dfe7045	0.124237575
49	0x3dfccc10	0.12343609
50	0x3e51587f	0.20443915
51	0x3e8c3bc3	0.27389345
52	0x3e907ff9	0.28222635
53	0x3e6bea55	0.2303861
54	0x3e206d0b	0.15666597
55	0x3e02fc10	0.12791467
56	0x3e8804eb	0.26566252
57	0x3e22dac0	0.15903759
58	0x3dbe4ac1	0.09291602
59	0x3df308a6	0.11866884
60	0x3e805cd7	0.2507083
61	0x3e7c9bfa	0.24668875
62	0x3e3383c3	0.17530732
63	0x3e8794e2	0.26480776

13.1.running_mean f4 [64]
0	0xbe2d3889	-0.16916098
1	0xbce5bee6	-0.028045129
2	0xbddd4599	-0.1080429
3	0xbde2ff88	-0.11083895
4	0xbd7791f1	-0.060441915
5	0xbe249f4a	-0.16076389
6	0xbe917b00	-0.28414154
7	0xbde3dde1	-0.111263044
8	0x3d16300b	0.03666691
9	0xbdb04418	-0.08606738
10	0x3d8915a6	0.06693582
11	0xbc889ed7	-0.016677303
12	0xbe623480	-0.2209034
13	0xbe57818a	-0.21045509
14	0xbe1ca6d4	-0.15298015
15	0xbd8216e4	-0.06352022
16	0xbcf6651a	-0.030077506
17	0xbe05bbe1	-0.13059951
18	0x3d50b925	0.050957818
19	0x3d8ba652	0.068188325
20	0x3caa3a78	0.020779833
21	0xbcd03bc3	-0.025419122
22	0x3d1ce42c	0.03830354
23	0xbdcd48b4	-0.10023633
24	0xbe6ac2e0	-0.22925901
25	0x3be18517	0.0068823206
26	0xbd2c8c8e	-0.04212623
27	0x3ca5399b	0.02016907
28	0x3d08a7dd	0.033363212
29	0x3d8f5841	0.06999255
30	0xbe511a50	-0.20420194
31	0xbcb5ec5a	-0.022207428
32	0xbdbad589	-0.0912276
33	0x3c9cf499	0.019159602
34	0xbe48c51f	-0.19606446
35	0xbde0e62d	-0.109814025
36	0xbe4558d6	-0.1927217
37	0xbe63f92d	-0.22263022
38	0xbe522661	-0.20522453
39	0x3d0fa2b9	0.035067294
40	0xbdff4ae5	-0.12465457
41	0xbe469220	-0.1939168
42	0x3cc6b2a7	0.02425511
43	0x3d404425	0.046939988
44	0xbde50f90	-0.11184609
45	0xbd0ebd93	-0.03484876
46	0xbe64bdaa	-0.22337976
47	0x3d863574	0.06553164
48	0xbddd2a16	-0.10799043
49	0x3cf94fe9	0.030433612
50	0x3c06bc7a	0.008223647
51	0xbe496bdf	-0.19670056
52	0xbe3e6494	-0.18593055
53	0x3d313174	0.043260053
54	0xbe0fc994	-0.1404174
55	0xbe68da56	-0.22739539
56	0xbdae3616	-0.0850641
57	0xbe8089d1	-0.25105146
58	0xbe421a10	-0.18955255
59	0xbd4c27b1	-0.04984254
60	0xbe6180a0	-0.22021723
61	0x3d666d5a	0.05625663
62	0xbe7acb81	-0.24491693
63	0xbe4fca09	-0.20291914

13.1.running_var f4 [64]
0	0x3e0aba00	0.13547516
1	0x3e12447b	0.14283936
2	0x3dcc95b5	0.09989492
3	0x3dfaaaa8	0.12239581
4	0x3de866e6	0.11347751
5	0x3dae3fb9	0.08508248
6	0x3e2ad678	0.16683376
7	0x3dd2c238	0.102909505
8	0x3dbb8b7c	0.09157464
9	0x3e15930a	0.14606872
10	0x3e60644e	0.21913263
11	0x3e0ce8ff	0.13760756
12	0x3e0b59b0	0.13608432
13	0x3e205ec5	0.15661152
14	0x3e3c7bde	0.18406627
15	0x3e048e71	0.12944962
16	0x3de95968	0.11394006
17	0x3e1cf00a	0.15325943
18	0x3e388baa	0.18022028
19	0x3dec31ba	0.11532922
20	0x3e16f8a2	0.14743283
21	0x3e11f26c	0.14252633
22	0x3dad0841	0.0844884
23	0x3e0e1a73	0.13877277
24	0x3df1465b	0.11780997
25	0x3da612c5	0.08109049
26	0x3e237f45	0.15966518
27	0x3d9a0f97	0.07522505
28	0x3d96d9ea	0.073657826
29	0x3e0c4e30	0.13701701
30	0x3e069a7c	0.13144869
31	0x3dac1b87	0.08403688
32	0x3e034455	0.12819035
33	0x3ddb3d1a	0.107050136
34	0x3e3eca1f	0.1863179
35	0x3de172c9	0.11008222
36	0x3e0e2729	0.13882126
37	0x3e3ab695	0.18233712
38	0x3da863d8	0.08222169
39	0x3e0d3834	0.13790971
40	0x3db7308b	0.08944806
41	0x3de3647b	0.111031495
42	0x3e014e36	0.12627491
43	0x3e0a1ba4	0.13487107
44	0x3dd270f7	0.102754526
45	0x3dcb8eaf	0.09939324
46	0x3e268900	0.16263199
47	0x3dfd60ea	0.123720005
48	0x3e1d590e	0.15366003
49	0x3d9b012f	0.07568585
50	0x3e1773b6	0.14790234
51	0x3e786f09	0.24261107
52	0x3ddfc87d	0.10926912
53	0x3e37e51e	0.17958495
54	0x3e057c23	0.13035636
55	0x3e0327d8	0.12808168
56	0x3e4ec1f6	0.20191178
57	0x3e1e0cc7	0.15434562
58	0x3e048434	0.12941056
59	0x3de367d7	0.1110379
60	0x3df57b76	0.11986439
61	0x3e52dd76	0.20592293
62	0x3e24fe96	0.16112742
63	0x3e819e56	0.25316113

16.weight f4 [128, 64]
0	0x3db8008e	0.08984481
1	0x3d8fa8dd	0.0701463
2	0x3d9b3701	0.075788505
3	0xbd3982b9	-0.045290682
4	0x3ddecbc3	0.10878708
5	0x3c434300	0.0119178295
6	0xbd884f81	-0.06655789
7	0x3d45cb55	0.048289616
8	0xbdb0b2d4	-0.08627859
9	0x3da10822	0.07862879
10	0x3e4ccc2e	0.19999763
11	0xbd18c3ad	-0.037295986
12	0xbcb07a2b	-0.02154263
13	0x3d67ebb2	0.05662126
14	0xbcb92bdb	-0.02260392
15	0xbd25f284	-0.040514484
16	0xbd01c000	-0.031677246
17	0x3d3d96b2	0.046286292
18	0x3e3b8a6b	0.18314521
19	0x3e4cc7d3	0.19998102
20	0x3e35f944	0.17770869
21	0x3e035419	0.1282505
22	0x3ce8a881	0.028400661
23	0x3d9f898e	0.07789908
24	0xbde63c56	-0.11241977
25	0xbc2c8090	-0.010528699
26	0x3d007c54	0.03136857
27	0x3de68d55	0.11257426
28	0x3cd7c090	0.026336938
29	0x3d95ef1e	0.073209986
30	0xbd47f863	-0.048820864
31	0xbd932a21	-0.0718577
32	0x3d76746a	0.060169615
33	0xbd2605e5	-0.040532965
34	0xbb8682e1	-0.0041049575
35	0xbda0efd8	-0.078582466
36	0xbdc044e9	-0.093881436
37	0xbcadd783	-0.021220928
38	0xbd8b519b	-0.068026744
39	0x3dce166e	0.10062872
40	0xbb55bf16	-0.0032615117
41	0x3d2bc488	0.041935474
42	0x3d3c1589	0.045918975
43	0x3e0c92e6	0.13727912
44	0x3d75e87b	0.060036164
45	0xbd6b4acf	-0.05744439
46	0x3bb903c0	0.005646199
47	0x3d37edd6	0.044904552
48	0x3bb0cc88	0.005395476
49	0x3dcc6a40	0.09981203
50	0x3dd85c11	0.10564435
51	0x3d6667bc	0.056251273
52	0xbd74600d	-0.059661914
53	0x3cb0a45b	0.021562746
54	0xbd776e7d	-0.060408104
55	0xbde93afd	-0.11388204
56	0xbaabe3d8	-0.0013114167
57	0xbc442ae1	-0.011973114
58	0xbd8d9f30	-0.06915128
59	0xbdbdb16b	-0.092623554
60	0x3d18cfbe	0.037307493
61	0x3e4ccb9a	0.19999543
62	0x3c561fb7	0.013069085
63	0x3cc44670	0.023959368
64	0x3d2970db	0.041367393
65	0x3e391861	0.18075706
66	0x3d93a4a4	0.07209137
67	0xbde03b2e	-0.10948788
68	0x3d926cd4	0.071496636
69	0xbd369f8b	-0.044585746
70	0xbdbac2ed	-0.091192104
71	0x3d9b3f55	0.07580439
72	0xbc86a749	-0.01643719
73	0x3e1f7c47	0.15574752
74	0x3de28ca2	0.1106198
75	0xbd87012d	-0.06592021
76	0xbdba06f4	-0.090833575
77	0x3df7951e	0.12088989
78	0xbccd00c5	-0.025024781
79	0x3d355010	0.044265807
80	0x3d7d2aa9	0.061808262
81	0x3d443e47	0.047910955
82	0x3e4ccb0d	0.19999333
83	0x3e318cd0	0.17338872
84	0xbbdae90b	-0.006680613
85	0x3e0abc46	0.13548383
86	0xbd140053	-0.03613312
87	0x3dd55661	0.10416866
88	0xbdf4a3e3	-0.119453214
89	0xbcd6fae1	-0.026242675
90	0x3de2f832	0.11082496
91	0x3d04e3cf	0.032443818
92	0x3d6dd226	0.05806174
93	0xbd58972d	-0.052878547
94	0xbde15daf	-0.11004197
95	0xbdc0096b	-0.09376796
96	0xbd43b488	-0.04777959
97	0x3d66ed0b	0.056378406
98	0xbdcf1f1d	-0.10113356
99	0x3c47c030	0.012191817
100	0x3e0d73d1	0.13813712
101	0xbc043f89	-0.008071789
102	0x3cfc03de	0.030763563
103	0x3b5b402a	0.0033454993
104	0x3c8aaade	0.016927179
105	0xbd175329	-0.036944542
106	0x3cda0e4d	0.026618147
107	0x3dc554b9	0.096353
108	0xbd8730e4	-0.06601122
109	0xbdd47037	-0.10372966
110	0x3dc054ec	0.093911976
111	0xbda4b665	-0.080426015
112	0x3dafb2b3	0.08579006
113	0x3d894e70	0.06704414
114	0x3d8851fe	0.06656264
115	0x3d813890	0.063096166
116	0xbc4fb9a5	-0.012678538
117	0xbc6a9e0e	-0.01431991
118	0x3dcdf769	0.10056955
119	0x3ca53e06	0.020171177
120	0x3dd16869	0.10224993
121	0xbd771ff6	-0.060333215
122	0xbbfce721	-0.0077179824
123	0xbdbfe2e0	-0.09369445
124	0x3d6da47f	0.058018204
125	0x3bd4b67d	0.006491481
126	0xbd838605	-0.064220466
127	0x3c4309a6	0.011904156
128	0xbb8f1855	-0.0043669143
129	0x3d708e67	0.058729555
130	0xbd93b1dd	-0.07211659
131	0x3c965de7	0.018355323
132	0x3d19755c	0.03746544
133	0xbbfe5a9b	-0.007762266
134	0x3d5ea5dd	0.0543574
135	0x3bd2b93e	0.006430774
136	0x3d8eda54	0.069752365
137	0xbdd17105	-0.10226635
138	0x3d47c323	0.04877008
139	0xbdb3747c	-0.08762452
140	0x3e1b1979	0.15146436
141	0xbd9586bf	-0.073010914
142	0x3e23584c	0.15951651
143	0xbd4ea20f	-0.05044752
144	0xbd80c154	-0.062868744
145	0x3e3c416a	0.18384328
146	0x3cec7c3a	0.02886783
147	0x3db0bc58	0.08629674
148	0xbd0b9f62	-0.034087546
149	0x3df58bc9	0.119895525
150	0x3c1df384	0.009640578
151	0xbc1b9810	-0.009496704
152	0x3d8f7807	0.07005315
153	0x3bcb98d7	0.0062132883
154	0xbcf21d91	-0.029555114
155	0xbda24833	-0.07923927
156	0xbcc15530	-0.02360019
157	0xbc5c4608	-0.013444431
158	0xbd1fd820	-0.039024472
159	0x3d1ebd77	0.038754907
160	0xbda06097	-0.07830923
161	0x3da03386	0.07822327
162	0x3e454856	0.19265875
163	0xbd2ba7a0	-0.041907907
164	0x3ca40137	0.02002011
165	0x3d829827	0.06376677
166	0x3d309fd5	0.043121178
167	0x3d444f95	0.047927458
168	0xbdae6edf	-0.08517241
169	0xbdc3bb8c	-0.09557256
170	0xbccada6e	-0.024762359
171	0xbd15af05	-0.036543865
172	0xbcb86f98	-0.02251415
173	0xbdbeeb0b	-0.09322175
174	0x3dfc7310	0.12326634
175	0xbc41f641	-0.011838497
176	0xbc97ed84	-0.018545873
177	0xbd0a9013	-0.033828806
178	0xbd3aa604	-0.04556848
179	0x3e49bc37	0.19700705
180	0x3e33cda3	0.17558913
181	0x3e380ca4	0.17973572
182	0xbd661c15	-0.056179125
183	0xbd6a5b15	-0.05721577
184	0x3e4a4a52	0.19754913
185	0x3e3e6940	0.18594837
186	0xbbd535e5	-0.006506669
187	0xbd1db1f2	-0.03849978
188	0x3d8497cb	0.06474265
189	0xbd120dcb	-0.035657685
190	0x3d920dea	0.0713156
191	0x3e49ce91	0.19707705
192	0xbbbf4eff	-0.0058382745
193	0x3e0a32af	0.13495897
194	0xbd00449e	-0.03131544
195	0x3defc1d2	0.1170689
196	0xbd2755bf	-0.04085326
197	0xbd0bdfe1	-0.034149054
198	0x3c4d199e	0.012518315
199	0x3ca9f541	0.020746829
200	0x3e088c84	0.13334852
201	0x3dd2f448	0.10300499
202	0x3daa6e0f	0.08321773
203	0x3d309802	0.043113716
204	0x3d0beb41	0.034159902
205	0xbd127397	-0.035754766
206	0xbd5b981b	-0.053611856
207	0x3d770e84	0.060316578
208	0xbda6ca46	-0.08144049
209	0xbdc3a1a4	-0.09552315
210	0x3dc4d8c4	0.09611657
211	0x3e1498bb	0.14511387
212	0xbd256535	-0.04037972
213	0x3d27bd41	0.04095197
214	0x3e19dfd8	0.15026796
215	0xbd057fa0	-0.032592416
216	0x3c1dc2b5	0.009628941
217	0xbb520f43	-0.0032052554
218	0xbd3b67fd	-0.045753468
219	0x3e23aaea	0.15983167
220	0x3d86fbe7	0.06591015
221	0x3d300159	0.042970035
222	0x3d2dc71a	0.042426206
223	0x3e0bac33	0.13639908
224	0xbdd6d5ce	-0.10489999
225	0x3d86dd56	0.06585185
226	0xbc4ab149	-0.01237137
227	0x3dc2f11e	0.09518646
228	0x3d5252f1	0.05134863
229	0xbd3126f6	-0.043250047
230	0x3d72983d	0.059227217
231	0x3d7933c4	0.060840383
232	0x3dd76a6a	0.10518344
233	0xbd0eedfd	-0.034894932
234	0x3da15ab2	0.07878627
235	0xbccf3722	-0.025294844
236	0xbd2f3a10	-0.042779982
237	0x3dae8868	0.08522111
238	0xbbce77fa	-0.0063009234
239	0x3ba1c1d8	0.004936438
240	0x3d623f83	0.05523635
241	0x3e1e00e0	0.15430021
242	0x3c93c13f	0.018036483
243	0xbd12fee3	-0.03588761
244	0xbd9ac5cd	-0.07557259
245	0x3d9d9060	0.07693553
246	0x3d847bcd	0.064689256
247	0xbdc13220	-0.09433389
248	0xbd203964	-0.039117232
249	0xbd94e1e2	-0.07269646
250	0xbdc9afa0	-0.09847951
251	0x3d8b1f18	0.0679304
252	0xbdf11c71	-0.11773003
253	0x3d7d8cdc	0.061901912
254	0xbcd26370	-0.025682181
255	0xbdf2f744	-0.118635684

16.b_w f4 [8, 1]
0	0xc3000000	-128.0
1	0x42800000	64.0
2	0x42000000	32.0
3	0x41800000	16.0
4	0x41000000	8.0
5	0x40800000	4.0
6	0x40000000	2.0
7	0x3f800000	1.0

19.weight f4 [10, 128]
0	0x3de079b8	0.10960716
1	0x3e44463e	0.1916742
2	0xbe4cc0d7	-0.19995438
3	0x3e4caa6d	0.19986887
4	0x3cd6eac4	0.026234992
5	0x3e4c1c3d	0.19932647
6	0xbe4cb865	-0.19992216
7	0xbddf0126	-0.10888891
8	0xbe4cbaff	-0.19993208
9	0x3c8dc798	0.017307088
10	0xbe258dd5	-0.16167386
11	0x3c10cbad	0.008837623
12	0xbe4cb85e	-0.19992206
13	0xbcab2fdb	-0.020896843
14	0xbe4cc876	-0.19998345
15	0xbe4cc345	-0.19996364
16	0xbe4cba34	-0.19992906
17	0xbd54c03c	-0.05194114
18	0x3bc8c22b	0.0061266623
19	0xbe4ccd88	-0.20000279
20	0xbe4ccb36	-0.19999394
21	0x3e426a9e	0.18985984
22	0xbe072426	-0.13197383
23	0xbc7ba8c6	-0.015360063
24	0xbcb666ae	-0.022265758
25	0xbcd9bfb4	-0.026580669
26	0x3e0dca07	0.13846599
27	0xbd5d852b	-0.054082077
28	0xbe267d2d	-0.16258688
29	0xbd1b1e0d	-0.037870456
30	0xbe26cf4c	-0.16290015
31	0xbe4cc010	-0.19995141
32	0x3e4089ce	0.18802568
33	0x3e39e92b	0.18155353
34	0x3e4cc486	0.19996843
35	0xbe4cc538	-0.19997108
36	0x3e479ded	0.19493838
37	0xbd982e96	-0.074307606
38	0xbdfb3b8d	-0.12267218
39	0xbd3c26f6	-0.045935594
40	0x3e4c850a	0.19972625
41	0xbdbb8530	-0.09156263
42	0xbd29c517	-0.041447725
43	0x3e0651c7	0.13117133
44	0xbe4cc370	-0.19996428
45	0xbe155aeb	-0.14585464
46	0xbe4ccd0b	-0.20000093
47	0x3e4cabf0	0.19987464
48	0xbe21ede2	-0.15813401
49	0xbe4cae5b	-0.19988386
50	0xbc83feaf	-0.016112654
51	0x3e31c814	0.1736148
52	0xbcdcd364	-0.026956268
53	0x3c33a9b6	0.010965755
54	0xbce5fb1b	-0.028073838
55	0x3e4cca90	0.19999146
56	0xbc87a260	-0.016556919
57	0xbe164218	-0.1467365
58	0x3e1de352	0.15418747
59	0x3e4c25ec	0.19936341
60	0xbe3b75f2	-0.18306711
61	0x3e4c9668	0.1997925
62	0x3e0c805f	0.13720845
63	0x3cec5de6	0.028853368
64	0x3e49846e	0.19679424
65	0x3d40c016	0.047058187
66	0x3d2379ca	0.03991107
67	0x3e49d165	0.19708784
68	0x3e418dd2	0.18901756
69	0xbe4ccc5d	-0.19999833
70	0xbe0087df	-0.1255183
71	0xbd4665d6	-0.048436962
72	0x3e4ccc1e	0.1999974
73	0xbe4c907b	-0.1997699
74	0xbe4cbed1	-0.19994666
75	0xbc699aa3	-0.01425806
76	0x3e4ccdfe	0.20000455
77	0x3e4c88a8	0.19974005
78	0xbd0a9fb2	-0.033843704
79	0x3e4bbb89	0.19895758
80	0x3e4ccd81	0.20000269
81	0xbe24fb6f	-0.1611154
82	0x3df227be	0.118239865
83	0x3e4c424a	0.19947162
84	0x3d76e26f	0.060274538
85	0xbe4cce16	-0.2000049
86	0xbdadaa60	-0.08479762
87	0xbe1bda3c	-0.15219969
88	0xbd615dce	-0.0550211
89	0x3e49a6b8	0.19692504
90	0xbe21c6ef	-0.15798543
91	0x3e462d0c	0.19353122
92	0x3dc1aff8	0.094573915
93	0x3e492923	0.19644599
94	0x3ddd07af	0.10792481
95	0xbe373d9a	-0.17894593
96	0xbb6361bb	-0.0034695703
97	0xbca40ea7	-0.020026518
98	0x3e4724d6	0.19447646
99	0xbd9ecf13	-0.0775434
100	0x3e3b2ee1	0.18279602
101	0xbe4ccb3e	-0.19999406
102	0x3cc019fd	0.023449892
103	0x3e23116d	0.15924616
104	0xbe4ccc6c	-0.19999856
105	0xbcd03775	-0.025417069
106	0x3cd660f7	0.026169283
107	0x3da4a36d	0.080389835
108	0xbdc008a0	-0.09376645
109	0xbe4c7f33	-0.19970398
110	0xbdeb3107	-0.114839606
111	0xbe4cc7ea	-0.19998136
112	0x3e491ae3	0.19639163
113	0x3e4be465	0.19911344
114	0x3cfc539b	0.030801585
115	0xbe4cc15a	-0.19995633
116	0xbd158f5e	-0.03651368
117	0x3e05ee7a	0.13079253
118	0x3e454729	0.19265427
119	0x3d47b7d7	0.048759308
120	0xbd066774	-0.032813504
121	0xbd5d7eff	-0.05407619
122	0xbbb02b68	-0.005376268
123	0x3e4ba17c	0.1988582
124	0xbe4cccfe	-0.20000073
125	0x3e4aada7	0.19792806
126	0xbabb5e55	-0.0014295081
127	0x3d3303f6	0.04370495
128	0xbe4cafda	-0.19988957
129	0xbe4cc45c	-0.1999678
130	0xbe22bb69	-0.15891804
131	0x3e4c49ea	0.19950071
132	0x3cd74051	0.026275786
133	0x3e4a93f3	0.19783
134	0xbe4ccad1	-0.19999243
135	0x3e2582e6	0.16163215
136	0xbd5ff6fa	-0.054678895
137	0xbca2c161	-0.0198676
138	0x3e4ca396	0.19984278
139	0x3e30bcf2	0.17259577
140	0xbe413e0d	-0.18871327
141	0xbd51790a	-0.051140822
142	0xbe4cc7f6	-0.19998154
143	0x3d8acb5e	0.067770705
144	0xbe4cc1bb	-0.19995777
145	0x3e13bcbc	0.14427465
146	0x3cc5586c	0.024090014
147	0x3e4c6dfe	0.19963834
148	0xbe4cb4d3	-0.19990854
149	0xbe4ca411	-0.19984461
150	0xbd706119	-0.05868635
151	0x3dffeefc	0.124967545
152	0x3de92d09	0.11385543
153	0x3e470e79	0.19439115
154	0xbdd0fcd2	-0.10204472
155	0xbdcdcbff	-0.10048675
156	0x3e3fd9ba	0.187354
157	0x3e3e59bc	0.18588918
158	0xbe0f6b14	-0.14005691
159	0xbe4ccc78	-0.19999874
160	0xbe434db5	-0.19072612
161	0x3e4cc109	0.19995512
162	0x3c4a6a7c	0.012354489
163	0xbe476c71	-0.19474961
164	0x3de340fb	0.110963784
165	0xbe4cc766	-0.1999794
166	0xbc9ffe72	-0.019530509
167	0x3c88f108	0.016716495
168	0xbd062d33	-0.03275795
169	0xbba58a56	-0.0050518913
170	0x3e01703c	0.1264047
171	0x3e49bb4a	0.19700351
172	0xbdd41258	-0.10355061
173	0x3b9ab52b	0.004721304
174	0xbe4cca78	-0.1999911
175	0x3d8cf1ca	0.06882055
176	0x3e4c0146	0.19922361
177	0xbe1bdcd0	-0.15220952
178	0xbe1da49a	-0.15394822
179	0xbd00317d	-0.031297196
180	0x3e4bdb2a	0.19907823
181	0x3e4c74d8	0.19966447
182	0x3e3c69fa	0.18399802
183	0x3d888d6e	0.066676006
184	0xbe1c39b5	-0.15256388
185	0x3e4c64a7	0.19960271
186	0x3e4bd06e	0.19903728
187	0x3e485835	0.19564898
188	0x3dd3d44f	0.10343229
189	0x3e30804f	0.17236446
190	0x3c0567a7	0.008142388
191	0x3d5be20b	0.05368237
192	0x3e31ce0c	0.17363757
193	0x3d551a92	0.052027293
194	0xbe4cc12f	-0.19995569
195	0xbd94b46e	-0.07260977
196	0xbdedb10d	-0.116060354
197	0xbe47e8d5	-0.19522412
198	0x3e4b2a2d	0.19840308
199	0xbd1d3114	-0.038376883
200	0x3e4c8711	0.19973399
201	0x3e4c9b7e	0.1998119
202	0xbe3becba	-0.18352023
203	0x3e0d184e	0.13778803
204	0x3e44183c	0.1914987
205	0xbd8b5e0f	-0.0680505
206	0x3d5c0f2e	0.053725414
207	0xbe4cc764	-0.19997936
208	0x3e132447	0.14369307
209	0x3e410187	0.18848239
210	0x3df00f7a	0.11721702
211	0xbe4cc501	-0.19997026
212	0xbdce2236	-0.10065119
213	0xbe42ef4c	-0.19036597
214	0xbc6095d2	-0.013707595
215	0x3e4c5c93	0.1995719
216	0x3e4cc68e	0.19997618
217	0x3dc41e09	0.09576041
218	0xbcc41356	-0.023935001
219	0x3e4c0358	0.1992315
220	0x3da3e067	0.08001786
221	0xbdda6e48	-0.10665566
222	0xbe0b552f	-0.13606714
223	0xbe4ccc71	-0.19999863
224	0x3c965b79	0.018354164
225	0x3e4a7e98	0.19774854
226	0xbd72affd	-0.059249867
227	0x3e10e1b3	0.14148597
228	0xbe079379	-0.1323985
229	0xbe3f49ca	-0.18680492
230	0x3e4c463f	0.19948672
231	0xbe4cc907	-0.19998561
232	0xbc035446	-0.008015698
233	0xbe335592	-0.17513111
234	0x3d941093	0.07229724
235	0xbd87f755	-0.06638972
236	0xbda0bc48	-0.07848412
237	0x3e4c194f	0.1993153
238	0x3e4c694f	0.19962047
239	0xbe4104f4	-0.18849546
240	0x3e37417d	0.17896076
241	0xbe27ba23	-0.163796
242	0x3df6f927	0.12059241
243	0xbcaa4446	-0.020784508
244	0x3d1c6ad3	0.038187813
245	0x3d95c15b	0.0731227
246	0xbc2b13c2	-0.010441722
247	0x3e3dad08	0.18523037
248	0xbccd17c5	-0.025035748
249	0xbdd0c663	-0.10194089
250	0xbc0b4996	-0.008501431
251	0xbdbee3fd	-0.09320829
252	0xbe06e9d1	-0.13175131
253	0xbe237946	-0.15964231
254	0x3ccb9dc6	0.024855506
255	0xbdfbe779	-0.12300009

19.b_w f4 [8, 1]
0	0xc3000000	-128.0
1	0x42800000	64.0
2	0x42000000	32.0
3	0x41800000	16.0
4	0x41000000	8.0
5	0x40800000	4.0
6	0x40000000	2.0
7	0x3f800000	1.0

momentum_buffer f4 [8]
0	0x3d53d194	0.05171354
1	0xbdb654ee	-0.08902918
2	0x3e547ae3	0.20750003
3	0xbdd5fbe6	-0.104484364
4	0xbe1ff1e6	-0.1561962
5	0x3d150d09	0.036389384
6	0xbe5c8459	-0.21534862
7	0xbcb4ade0	-0.022055566

momentum_buffer f4 [8]
0	0x3d3d9745	0.04628684
1	0x3e6c3bca	0.23069683
2	0xbdb6a598	-0.08918303
3	0xbd890872	-0.06691064
4	0xbe3562b5	-0.17713435
5	0x3d96beef	0.073606364
6	0x3cf25ed0	0.029586226
7	0xbbb0758b	-0.005385106

momentum_buffer f4 [8]
0	0x3c4811b8	0.012211256
1	0xbc82d72e	-0.015971746
2	0xbc5d545c	-0.013508882
3	0x3cdaa316	0.026689094
4	0xbda669b6	-0.081256315
5	0xbbc212da	-0.0059226574
6	0x3da17ca8	0.078851044
7	0x3d8a360e	0.06748591

momentum_buffer f4 [8]
0	0xbc309bd2	-0.010779338
1	0xbd823bf0	-0.063590884
2	0x3d31de31	0.04342479
3	0xbd7d56f0	-0.06185049
4	0x3b8173fa	0.003950593
5	0x3ccbc56f	0.024874417
6	0x3d6d37d4	0.05791457
7	0x3c9bd808	0.01902391

momentum_buffer f4 [8]
0	0x3d03db76	0.032191716
1	0xbdb386ca	-0.08765943
2	0x3d4a088c	0.049324557
3	0xbd3766e8	-0.044775873
4	0xbbc54758	-0.0060204677
5	0xbd266bf7	-0.040630307
6	0x3d201442	0.03908182
7	0x3d5ee51e	0.054417722

momentum_buffer f4 [8]
0	0x3d21dec7	0.039519098
1	0xbdb15462	-0.08658673
2	0x3ccebd21	0.025236668
3	0xbcf00828	-0.029300764
4	0x3d1cd088	0.03828481
5	0x3c9c902b	0.019111713
6	0xbd5559e9	-0.052087698
7	0xbb053238	-0.0020324122

momentum_buffer f4 [8]
0	0xbc6be13c	-0.014396962
1	0x3d1c71d5	0.038194496
2	0x3cbad51c	0.022806697
3	0xbde3bcf2	-0.11120023
4	0x3d180b80	0.037120342
5	0xbd76653a	-0.06015513
6	0xbd2d61af	-0.042329486
7	0xbb70fc04	-0.0036771307

momentum_buffer f4 [8]
0	0xbd353561	-0.04424036
1	0x3ce22dd0	0.027609736
2	0xbb873550	-0.0041262284
3	0xbda328ee	-0.07966791
4	0x3d0756a4	0.03304161
5	0xbd902e98	-0.07040137
6	0xbce0fe62	-0.02746505
7	0xbd4d9fcd	-0.050201226

momentum_buffer f4 [8]
0	0x3d3879dd	0.045038093
1	0xbd0ed9aa	-0.03487555
2	0xbd2150d8	-0.03938374
3	0x3c0a5170	0.008442268
4	0x3bc58674	0.006027991
5	0xbda97b54	-0.08275476
6	0x3cf6e748	0.03013958
7	0x3db1784a	0.086655214

momentum_buffer f4 [8]
0	0xbd2032ef	-0.039111074
1	0xbc94e411	-0.018175157
2	0xbcaa901b	-0.020820668
3	0xbd721a5b	-0.059107166
4	0x3d3db060	0.046310782
5	0xbd285733	-0.041098785
6	0x3d089ba0	0.03335154
7	0x3c94ea56	0.018178146

momentum_buffer f4 [8]
0	0xbca72729	-0.020404415
1	0x3d162ef1	0.03666586
2	0xbb42c6b8	-0.0029720496
3	0x3c83a88d	0.016071582
4	0x3cbab45c	0.02279108
5	0xbd081022	-0.03321851
6	0x3d24c08e	0.040222697
7	0xbc2414c0	-0.010014713

momentum_buffer f4 [8]
0	0xbc572c02	-0.013133051
1	0x3c005efc	0.007835146
2	0xbd51a718	-0.051184744
3	0x3c4ced8d	0.012507808
4	0x3dc32ac5	0.09529642
5	0xbbd60680	-0.0065315366
6	0x3c32f656	0.010922989
7	0x3c49c374	0.012314666

momentum_buffer f4 [8]
0	0x3d191f1b	0.03738318
1	0x3cd38e74	0.025824763
2	0xbcadcbe8	-0.021215394
3	0xbce12065	-0.027481267
4	0xbcdc5b83	-0.026899105
5	0xbc9004e9	-0.017580466
6	0xbcf7cc60	-0.03024882
7	0x3d86ede7	0.06588345

momentum_buffer f4 [8]
0	0x3c4283f6	0.011872282
1	0x3d153242	0.036424883
2	0x3c652551	0.013985948
3	0xbd5d1506	-0.053975128
4	0xbb7f13a0	-0.003892161
5	0xbce7792e	-0.028256025
6	0xbd35f6f7	-0.044424977
7	0x3c3bb1eb	0.011455993

momentum_buffer f4 [16]
0	0x3af91480	0.0019003302
1	0x3cc2a3da	0.023759771
2	0x3e268482	0.16261485
3	0x3d31faf7	0.04345223
4	0xbaa439c8	-0.0012529427
5	0xbdd19f2c	-0.10235438
6	0xbd34a30c	-0.044100806
7	0x3c1ff148	0.009762116
8	0xbbda354e	-0.0066591864
9	0xbc55657f	-0.013024687
10	0xbbeb4e58	-0.00718097
11	0xbb947bf4	-0.004531378
12	0x3d9097f4	0.07060233
13	0xbd0affa3	-0.0339352
14	0x3d20658d	0.039159346
15	0xbdba60ae	-0.091004714

momentum_buffer f4 [16]
0	0xbba6051d	-0.0050665275
1	0xbcc05440	-0.023477674
2	0x3dc4934d	0.09598408
3	0x3cb9d188	0.02268292
4	0xbbe97830	-0.007124923
5	0xbcb0066f	-0.021487443
6	0x3c529540	0.012852967
7	0x3c4e5188	0.012592681
8	0x3c455b5b	0.012045707
9	0xbdce97a4	-0.10087517
10	0x3d2a6339	0.041598532
11	0xbc8afc63	-0.01696605
12	0x3c16b406	0.009198194
13	0xbbb07eb2	-0.005386197
14	0x3cb99b20	0.022656977
15	0xbda3ee24	-0.08004406

momentum_buffer f4 [16]
0	0x3aa83bd0	0.0012835208
1	0xbc8adb21	-0.016950192
2	0x3c5a070a	0.013307342
3	0x3c5aff78	0.013366573
4	0xbc619afd	-0.013769862
5	0xbae74a5c	-0.0017646062
6	0xbda749f6	-0.08168404
7	0xbcd90262	-0.026490394
8	0x3bc7c0c8	0.0060959794
9	0x3cef9cc2	0.029249553
10	0x3db36a05	0.08760456
11	0xbcc525a6	-0.024065804
12	0x3bfbc044	0.007682832
13	0xbd8b4865	-0.068009175
14	0x3c8ad527	0.016947342
15	0x3cb06ba4	0.021535702

momentum_buffer f4 [16]
0	0x3c88965e	0.016673263
1	0xbc20a551	-0.0098050395
2	0x3c8f54eb	0.017496547
3	0x3c7a4c8e	0.015277041
4	0x3c074411	0.008255974
5	0xbbb3e6db	-0.0054901666
6	0xbdbb9500	-0.09159279
7	0xbd73d900	-0.05953312
8	0x3c27df9e	0.010246186
9	0x3bd7536a	0.006571223
10	0x3d5078ff	0.05089664
11	0xbc0532e8	-0.008129813
12	0x3c5d4964	0.013506267
13	0xbce3ce7d	-0.027808422
14	0x3c8b5506	0.017008316
15	0x3d00849f	0.031376477

momentum_buffer f4 [16]
0	0x3cb32398	0.021867558
1	0x3ce490e0	0.027901113
2	0xbcd86292	-0.02641419
3	0x3cdedf54	0.0272061
4	0x3ce2bb71	0.02767727
5	0xbd317fe4	-0.043334857
6	0x3c122fc6	0.008922523
7	0x3d8d9c3a	0.069145635
8	0xbd0509ef	-0.032480177
9	0x3d4cb01b	0.049972635
10	0xbb2aad84	-0.0026043365
11	0x3d79d515	0.060994226
12	0xbcd67489	-0.026178615
13	0x3c378d04	0.011203054
14	0x3ba25bb0	0.0049547777
15	0xbcb6bd40	-0.022307038

momentum_buffer f4 [16]
0	0x3d17dfe7	0.037078764
1	0x3ceb327c	0.028710596
2	0xbd50fecf	-0.051024254
3	0x3c1eac88	0.009684689
4	0x3d52dda2	0.051480897
5	0xbbecdfab	-0.0072288117
6	0x3b2bf384	0.0026237676
7	0x3d08083d	0.03321098
8	0xbcac5d0f	-0.021040468
9	0x3d0fe1e5	0.03512754
10	0x3bc3d086	0.0059757857
11	0x3d3a31cc	0.045457646
12	0xbb3d4461	-0.0028879868
13	0x3b384760	0.0028118715
14	0x3c4fc65c	0.01268157
15	0xbd37f1a4	-0.04490818

momentum_buffer f4 [16]
0	0x3c5187b7	0.012788705
1	0xbc0c4a34	-0.008562613
2	0x3ae86564	0.0017730412
3	0xbd2b51e5	-0.041826148
4	0x3bafd1d0	0.005365588
5	0xbb7c63d8	-0.003851166
6	0xbd0e1475	-0.034687478
7	0xbd14043a	-0.036136843
8	0xbc1c9460	-0.00955686
9	0x3d37f830	0.044914424
10	0x3cab4133	0.020905113
11	0x3ae7b7e0	0.00176787
12	0x3d1c5940	0.038171053
13	0xbc23f4c5	-0.010007088
14	0x3d7d2862	0.06180609
15	0xbc3dc418	-0.011582397

momentum_buffer f4 [16]
0	0xbc684846	-0.014177388
1	0xbba4e354	-0.0050319824
2	0x3ba941b7	0.0051653045
3	0xbbe6517e	-0.0070287576
4	0x3c0256a0	0.007955223
5	0x39b91d80	0.0003530793
6	0xbc3e9c04	-0.011633877
7	0xbb0765f2	-0.002066013
8	0xbb53e26c	-0.0032331003
9	0x3d38b433	0.045093726
10	0x3d2cdfd2	0.04220564
11	0x3c0f9d7f	0.008765577
12	0x3cc8f508	0.024530903
13	0xbcfd8b8c	-0.03095033
14	0x3d94a4c0	0.07257986
15	0x3aeda34c	0.0018130331
