Securite/Model19/Result_bfa/clipping_0.2_0.01/model_best.pth.tar (torch, 533040 bytes, 118 tensors)

0.0.b_w f4 [8, 1]
000000 00 00 00 c3 00 00 80 42 00 00 00 42 00 00 80 41
       -128.0 64.0 32.0 16.0
000010 00 00 00 41 00 00 80 40 00 00 00 40 00 00 80 3f
       8.0 4.0 2.0 1.0

0.1.weight f4 [8]
000000 66 5e c6 3e 6d e9 ce 3e f6 27 56 3e 0c 83 c9 3e
       0.38743895 0.40412465 0.20913681 0.39357793
000010 a4 14 d6 3e 30 5c 97 3e b2 1d 86 3e dd 74 b2 3e
       0.41812623 0.2956252 0.2619453 0.34854785

0.1.bias f4 [8]
000000 94 f3 68 be 60 96 49 3e e3 ba 42 3d de 22 c2 bd
       -0.22749168 0.1968627 0.04754151 -0.09479307
000010 12 0a 6b be 93 0d 1a be ec 01 8e 3d 4d a0 33 3e
       -0.2295306 -0.1504424 0.0693396 0.17541619

0.1.running_mean f4 [8]
000000 e1 00 4c 3e c1 f2 3e bd 32 1d 94 bc 42 60 52 3e
       0.1992221 -0.046618227 -0.018080328 0.20544532
000010 2c 3c f5 3d b6 39 87 bd 02 ff 03 bd 04 f8 a7 bc
       0.119743675 -0.06602804 -0.032225616 -0.020504005

0.1.running_var f4 [8]
000000 b5 8b 88 3f 94 87 82 3e 9d 3c 41 3e e1 83 8e 3f
       1.0667635 0.25494063 0.18870778 1.1133996
000010 a8 2e 1e 3f ab 83 d7 3e 25 fb f7 3e 43 7a ce 3e
       0.6178994 0.42092642 0.48433796 0.40327653

1.module.0.0.b_w f4 [8, 1]
000000 00 00 00 c3 00 00 80 42 00 00 00 42 00 00 80 41
       -128.0 64.0 32.0 16.0
000010 00 00 00 41 00 00 80 40 00 00 00 40 00 00 80 3f
       8.0 4.0 2.0 1.0

1.module.0.1.weight f4 [8]
000000 4a b8 19 3f b8 90 3d 3f a8 a7 33 3f d8 db 35 3f
       0.6004683 0.7404895 0.701777 0.7103858
000010 c6 95 2b 3f ac f1 24 3f 58 4d 2b 3f ff 68 4f 3f
       0.6702541 0.6443126 0.6691489 0.81019586

1.module.0.1.bias f4 [8]
000000 52 d1 09 3d a6 3b ff bd 1e bd ba be b8 5f 6c 3e
       0.03364689 -0.12462549 -0.3647241 0.23083389
000010 37 82 bc 3d 71 e1 39 3d 54 8c 98 be 24 4e 99 bd
       0.09204524 0.045381013 -0.29794562 -0.07485607

1.module.0.1.running_mean f4 [8]
000000 e5 a2 c2 bd 71 a6 9e bd 80 70 37 be 05 48 2c be
       -0.09503726 -0.0774659 -0.17914009 -0.16824348
000010 52 6d 38 be c4 72 35 be bf c5 56 3d a6 11 0a bd
       -0.18010452 -0.17719561 0.05243468 -0.033708237

1.module.0.1.running_var f4 [8]
000000 29 54 b1 3d d2 25 82 3d 51 a4 38 3d ca fe 39 3d
       0.086586304 0.0635487 0.04507858 0.045409
000010 e4 09 5e 3d 47 9c 6c 3d 96 f5 a1 3d 8f c0 b5 3d
       0.05420865 0.057766225 0.0790817 0.08874618

1.module.1.0.b_w f4 [8, 1]
000000 00 00 00 c3 00 00 80 42 00 00 00 42 00 00 80 41
       -128.0 64.0 32.0 16.0
000010 00 00 00 41 00 00 80 40 00 00 00 40 00 00 80 3f
       8.0 4.0 2.0 1.0

1.module.1.1.weight f4 [8]
000000 33 9f 7a 3f b5 57 22 3f c1 8e 1a 3f ae a2 f9 3e
       0.9789917 0.6341508 0.60374075 0.48756927
000010 7a 09 1f 3f 2f 1f 48 3f d8 84 35 3f 18 74 2f 3f
       0.62123835 0.7817258 0.7090583 0.6853652

1.module.1.1.bias f4 [8]
000000 54 33 38 be 7b 42 3f be 08 0d c7 bd 6a c7 be 3d
       -0.1798833 -0.18677704 -0.097192824 0.09315379
000010 0a 34 07 be c3 27 24 be 1d 93 81 bd c9 ac a9 be
       -0.13203445 -0.16030793 -0.06326888 -0.33139637

1.module.1.1.running_mean f4 [8]
000000 0b b3 df be d6 a6 a4 be af ce 7b be bd 34 8e 3e
       -0.43691286 -0.32158536 -0.24590562 0.2777461
000010 6d 9c f2 3d eb fc 83 be 58 99 89 be e5 da 19 3f
       0.11846242 -0.257789 -0.26874804 0.6009963

1.module.1.1.running_var f4 [8]
000000 27 fe c9 3e 47 1b 08 3e 01 98 d3 3d 2f 98 8e 3e
       0.39451715 0.13291655 0.10331727 0.27850482
000010 04 7a 19 3e 49 73 03 3f 58 eb 9b 3e 46 ea 3b 3e
       0.14987952 0.51347786 0.3045299 0.18351087

1.module.2.0.b_w f4 [8, 1]
000000 00 00 00 c3 00 00 80 42 00 00 00 42 00 00 80 41
       -128.0 64.0 32.0 16.0
000010 00 00 00 41 00 00 80 40 00 00 00 40 00 00 80 3f
       8.0 4.0 2.0 1.0

1.module.2.1.weight f4 [8]
000000 65 08 39 3f f9 e2 20 3f 1a 91 18 3f 8e 56 34 3f
       0.72278434 0.6284633 0.5959641 0.7044457
000010 37 6f 56 3f 47 51 f7 3e 54 5d 18 3f 6d 57 4a 3f
       0.8376345 0.48304197 0.5951741 0.7903965

1.module.2.1.bias f4 [8]
000000 4b 36 41 bd c1 fa 0d be f0 22 03 3d c1 fb 12 be
       -0.04717092 -0.13865186 0.03201574 -0.14353849
000010 7e b0 77 3d 3e 80 64 be 58 c7 40 be 8c da e1 bd
       0.06047105 -0.22314546 -0.18826044 -0.11028013

1.module.2.1.running_mean f4 [8]
000000 b1 7b 8b be 25 bb af be 0e a3 af be 5b 63 89 bc
       -0.27242807 -0.34322467 -0.34304088 -0.01677101
000010 09 ca 02 bf da 31 f3 be 9c b2 d5 bc e8 8f 9c be
       -0.5108953 -0.4749897 -0.026086144 -0.30578542

1.module.2.1.running_var f4 [8]
000000 9c fb 41 3e 0e db 40 3e 16 82 35 3e 4c e7 50 3e
       0.18943638 0.18833563 0.17725405 0.20400733
000010 15 cb 50 3e 2c 4d 17 3e 5c c3 f7 3d b9 d8 23 3e
       0.2038997 0.14775532 0.12097809 0.16000642

2.module.0.0.b_w f4 [8, 1]
000000 00 00 00 c3 00 00 80 42 00 00 00 42 00 00 80 41
       -128.0 64.0 32.0 16.0
000010 00 00 00 41 00 00 80 40 00 00 00 40 00 00 80 3f
       8.0 4.0 2.0 1.0

2.module.0.1.weight f4 [8]
000000 0c ea 13 3f 53 67 30 3f 79 0f 20 3f 45 d2 30 3f
       0.57779 0.6890766 0.6252361 0.69070846
000010 00 01 31 3f d0 91 3a 3f a1 22 38 3f 4f 52 39 3f
       0.6914215 0.7287874 0.7192784 0.7239122

2.module.0.1.bias f4 [8]
000000 04 3b de 3c 07 5c 4c be 78 b2 f2 bd fd a1 6b bc
       0.02712775 -0.1995698 -0.118504465 -0.014381883
000010 18 42 42 bd e6 ef d4 bc a3 28 50 bd a5 f0 1a be
       -0.047426313 -0.025993299 -0.050820004 -0.15130861

2.module.0.1.running_mean f4 [8]
000000 b5 dc cd 3e 16 7b 58 be 8a 56 31 3d 37 ba fb be
       0.4020745 -0.21140704 0.04329542 -0.49165508
000010 45 e8 74 bd 73 00 85 bd 39 82 6a be 06 db fa bd
       -0.059791822 -0.06494226 -0.22901239 -0.12248807

2.module.0.1.running_var f4 [8]
000000 45 91 13 3e ca f7 13 3e fc 07 8a 3d ef f7 3b 3e
       0.14410885 0.14449993 0.06739804 0.18356298
000010 1c a7 de 3d 6d 11 1d 3e 55 46 aa 3e 9c 1b 17 3e
       0.10871717 0.15338679 0.33256784 0.14756626

2.module.1.0.b_w f4 [8, 1]
000000 00 00 00 c3 00 00 80 42 00 00 00 42 00 00 80 41
       -128.0 64.0 32.0 16.0
000010 00 00 00 41 00 00 80 40 00 00 00 40 00 00 80 3f
       8.0 4.0 2.0 1.0

2.module.1.1.weight f4 [8]
000000 37 b0 45 3f ea b3 16 3f 5d 9b 29 3f 75 a0 0f 3f
       0.7722201 0.5886828 0.6625269 0.56104213
000010 1c f6 31 3f 65 10 38 3f 4d e0 30 3f 20 40 23 3f
       0.6951616 0.71900016 0.69092256 0.6376972

2.module.1.1.bias f4 [8]
000000 b0 68 22 be 75 4a 99 bd f9 ad 30 bc f7 fa 55 be
       -0.15860248 -0.07484905 -0.010783666 -0.20896517
000010 b5 ea f0 bd 2d 1d 98 bd 94 ae 86 be 7e aa c5 bd
       -0.11763517 -0.0742744 -0.26305068 -0.096516594

2.module.1.1.running_mean f4 [8]
000000 65 25 a1 bd 95 d4 2e 3d d1 d8 e0 be 32 0d 42 bd
       -0.078684606 0.042683203 -0.43915418 -0.047375865
000010 c7 2c 02 bf 26 c0 93 3d 5f 83 4b bd 11 c1 9e bb
       -0.50849575 0.07214384 -0.049685832 -0.0048447927

2.module.1.1.running_var f4 [8]
000000 e4 04 dd 3d 2c bd 25 3e 3d e4 09 3e 00 88 0b 3e
       0.107919484 0.16185445 0.13465972 0.13626099
000010 be 6b 3d 3e 2a f0 09 3e e0 6a 07 3e 48 30 d8 3d
       0.18498132 0.13470522 0.13224363 0.10556084

2.module.2.0.b_w f4 [8, 1]
000000 00 00 00 c3 00 00 80 42 00 00 00 42 00 00 80 41
       -128.0 64.0 32.0 16.0
000010 00 00 00 41 00 00 80 40 00 00 00 40 00 00 80 3f
       8.0 4.0 2.0 1.0

2.module.2.1.weight f4 [8]
000000 dc 09 44 3f 2b c9 52 3f ec 40 4c 3f e5 53 39 3f
       0.76577544 0.8233821 0.7978656 0.7239364
000010 f1 b0 69 3f ae 89 56 3f a8 ef 4a 3f 67 7b 74 3f
       0.91285616 0.8380383 0.79271936 0.955008

2.module.2.1.bias f4 [8]
000000 ec fd 31 be 18 8f 3a bd eb 9c a2 bd b9 bd 9e bd
       -0.1738202 -0.04554662 -0.07940086 -0.077510305
000010 51 97 a8 bd 51 c1 f5 bd 5b bf 33 bc 52 e7 1f 3e
       -0.08231986 -0.11999763 -0.010970916 0.15615585

2.module.2.1.running_mean f4 [8]
000000 9b ff 50 3d 77 91 38 bd cd 2c 63 3e 44 b7 b2 3d
       0.051025014 -0.0450606 0.22185059 0.087263614
000010 8d f3 52 be 65 f6 98 3d 6e ac 82 be e5 98 89 be
       -0.2060072 0.07468871 -0.25522178 -0.26874462

2.module.2.1.running_var f4 [8]
000000 b7 28 f3 3d f2 b1 1e 3e b4 8f 23 3e ed d8 2f 3e
       0.11873 0.15497568 0.15972787 0.17172594
000010 a4 23 2b 3e 3a 38 08 3e b0 76 b6 3d 2e 5a 3e 3e
       0.16712815 0.13302699 0.089093566 0.18589088

5.module.0.0.b_w f4 [8, 1]
000000 00 00 00 c3 00 00 80 42 00 00 00 42 00 00 80 41
       -128.0 64.0 32.0 16.0
000010 00 00 00 41 00 00 80 40 00 00 00 40 00 00 80 3f
       8.0 4.0 2.0 1.0

5.module.0.1.weight f4 [16]
000000 6e 60 44 3f 04 1d 5b 3f 92 cf 0c 3f 1a 65 0f 3f
       0.7670964 0.8559115 0.5500423 0.56013644
000010 ea 2b 29 3f 7d cc 08 3f ca a8 44 3f 62 91 2e 3f
       0.6608263 0.53437024 0.7682005 0.68190587
000020 58 e1 28 3f 9f 36 34 3f 49 a8 0b 3f 61 11 3f 3f
       0.6596885 0.70395845 0.5455366 0.74635893
000030 c9 4c 2c 3f 48 50 28 3f ff b1 1d 3f 8f 6a 38 3f
       0.67304665 0.657475 0.61599725 0.72037596

5.module.0.1.bias f4 [16]
000000 72 54 bd bc 99 c9 d7 bd a9 c2 8b bd 34 9f 00 be
       -0.023111556 -0.105364986 -0.06824238 -0.12560731
000010 c0 69 b1 3d 0c b3 85 be be 97 18 be fa 4b ac 3c
       0.08662748 -0.26113164 -0.14901635 0.021032322
000020 3e 60 52 bd e9 9c ae bd 8b d2 66 be b0 71 48 bd
       -0.051361315 -0.08526022 -0.22541253 -0.048936546
000030 4d d4 b1 3c 9b ec e6 bd d0 ab 87 bd 8b 8e 1f be
       0.021707678 -0.11275598 -0.066245675 -0.1558172

5.module.0.1.running_mean f4 [16]
000000 2d 30 a2 bf 81 03 a4 be 80 0c a1 3f d7 64 3f bf
       -1.2670952 -0.32033923 1.258194 -0.74763244
000010 7f 1c c1 be 0f 9c 5f 3f a3 3f 23 3f 9d 3f 00 c0
       -0.37717053 0.873475 0.63768977 -2.0038826
000020 83 66 db bd 14 75 89 3f 46 0d 18 3f 39 58 d8 be
       -0.10712912 1.0738854 0.59395254 -0.4225481
000030 7b d7 91 3e 90 ce 40 bf 70 31 20 3f 51 16 c1 bf
       0.2848471 -0.7531519 0.62575436 -1.5084935

5.module.0.1.running_var f4 [16]
000000 fa 06 b3 3f 65 c5 f0 3f 7f d9 f4 3f cc 61 90 3f
       1.3986504 1.881024 1.9128875 1.1279845
000010 f1 f6 95 3f a9 8d c9 3f b2 a4 a8 3f e0 e6 c1 3f
       1.1715986 1.5746356 1.3175261 1.5148582
000020 83 2f 34 3f 3b e5 02 40 cc 8b c0 3f 6f a7 8f 3f
       0.70385 2.045241 1.5042663 1.1222972
000030 f1 ae 7d 3f c7 b6 78 3f 36 df 8a 3f a8 a2 bc 3f
       0.99095064 0.97153896 1.0849369 1.4737139

5.module.1.0.b_w f4 [8, 1]
000000 00 00 00 c3 00 00 80 42 00 00 00 42 00 00 80 41
       -128.0 64.0 32.0 16.0
000010 00 00 00 41 00 00 80 40 00 00 00 40 00 00 80 3f
       8.0 4.0 2.0 1.0

5.module.1.1.weight f4 [16]
000000 4b cb 2f 3f 83 c3 35 3f 36 84 0f 3f 0d dc 32 3f
       0.68669575 0.7100145 0.5606111 0.6986702
000010 38 90 2c 3f 3e 1b 35 3f 43 8b 12 3f 7f 3e 17 3f
       0.6740756 0.70744693 0.57243747 0.59079736
000020 c1 01 3a 3f 92 65 3e 3f ba 7b 42 3f 5a 8d 19 3f
       0.72658926 0.74373734 0.7597004 0.5998131
000030 05 1d 2f 3f 56 b6 18 3f 8d 6a 3c 3f d5 25 33 3f
       0.68403655 0.5965322 0.73600084 0.699796

5.module.1.1.bias f4 [16]
000000 f2 11 23 3d 24 36 9a bd f5 75 d2 bc 72 b9 ec bd
       0.039812036 -0.07529858 -0.025691012 -0.115588084
000010 b3 5a b9 bd 29 5b c4 bd 67 73 33 be e5 91 ea bd
       -0.09050503 -0.095877 -0.17524491 -0.114536084
000020 46 34 97 bd f5 cd 6c bb bc 4c 8e bd cd 1b e0 bd
       -0.07383017 -0.0036133502 -0.0694823 -0.109428026
000030 5b f8 2f be e6 f1 11 3d 0a 9c 2c bc bf 15 e0 3d
       -0.17184584 0.035631083 -0.0105352495 0.10941648

5.module.1.1.running_mean f4 [16]
000000 ff c7 a8 be 00 9f a2 3e 53 27 5e bc 9f 6e 16 3e
       -0.32965085 0.31761932 -0.01355918 0.14690636
000010 91 f8 6b 3f 45 38 00 3e 5e 69 06 3e f2 b7 36 bf
       0.9217616 0.12521465 0.13126132 -0.7137443
000020 50 e0 95 3d 26 55 b0 bd 57 98 bf 3d 8c af 8d 3d
       0.07318175 -0.08609991 0.093552284 0.069182485
000030 de 1a b2 3d 6b e9 9e 3d fa 50 9d be 81 12 f1 be
       0.08696531 0.07759365 -0.30725843 -0.4708443

5.module.1.1.running_var f4 [16]
000000 b5 be d0 3d 07 a7 3d 3e 63 4d 03 3e dd 4b 04 3e
       0.101926245 0.18520747 0.1282249 0.12919565
000010 e9 77 8c 3e f1 d4 1d 3e 47 73 82 3e d0 7b 99 3e
       0.27435234 0.15413262 0.25478575 0.29977274
000020 58 d9 45 3e 0d 54 2f 3e 00 f2 37 3e 06 15 82 3e
       0.19321191 0.17121907 0.1796341 0.25406665
000030 b5 8f 41 3e b8 27 b1 3e f9 1a 95 3e 9b ff 45 3e
       0.18902476 0.34600616 0.2912214 0.19335787

5.module.2.0.b_w f4 [8, 1]
000000 00 00 00 c3 00 00 80 42 00 00 00 42 00 00 80 41
       -128.0 64.0 32.0 16.0
000010 00 00 00 41 00 00 80 40 00 00 00 40 00 00 80 3f
       8.0 4.0 2.0 1.0

5.module.2.1.weight f4 [16]
000000 d6 78 3f 3f 8c 4b 4f 3f b2 19 43 3f 08 71 2f 3f
       0.74793756 0.8097465 0.7621108 0.68531847
000010 eb aa 2d 3f c5 df 23 3f 90 fc 2b 3f 52 14 3e 3f
       0.67838925 0.6401332 0.67182255 0.74249756
000020 ee 1b 23 3f 34 33 3a 3f 10 12 34 3f 9d 0c 28 3f
       0.6371449 0.7273438 0.7034006 0.65644246
000030 aa 04 3b 3f a5 b4 3a 3f aa 02 1b 3f b2 75 31 3f
       0.7305399 0.7293189 0.6055094 0.69320214

5.module.2.1.bias f4 [16]
000000 dd 9f 3b be a2 18 80 bd f1 7a 90 3d b0 ed 0b bc
       -0.18322702 -0.06254698 0.07054699 -0.008540556
000010 6d 23 08 3d bb 18 9a 3c 20 68 cf ba 22 c5 45 3c
       0.03323691 0.01881062 -0.0015823878 0.012070926
000020 7a 55 ca bd fc 0e 35 be 6a 17 98 3c ee a8 53 3b
       -0.098795846 -0.17681497 0.018565852 0.0032296735
000030 39 19 f4 bd ce 1a 1f bd 2c 9a cd bd 14 0c 20 bd
       -0.11918873 -0.038843922 -0.100391716 -0.03907402

5.module.2.1.running_mean f4 [16]
000000 eb 33 f7 bd 6d 38 85 3d 2b 8b 1c bf f9 b6 02 3e
       -0.120704494 0.06504903 -0.61149853 0.12765111
000010 17 93 9e be 3a 6a 32 3e 12 b3 d3 be 8a 41 81 3d
       -0.30971596 0.17423335 -0.41347557 0.06311329
000020 99 a6 54 be f9 0e 48 be 09 d3 a5 be 57 93 b2 3e
       -0.20766677 -0.19536962 -0.3238757 0.34878036
000030 62 76 7f ba d1 dc 4d 3e 4e f0 cf bd 17 8d 9f be
       -0.00097451184 0.20103766 -0.10153256 -0.3116233

5.module.2.1.running_var f4 [16]
000000 dd 2c b4 3e 7c 73 45 3e d6 f9 42 3e e9 8e 40 3e
       0.35190478 0.19282335 0.19040617 0.18804516
000010 bd 03 6e 3e aa b9 2d 3e de 15 86 3e 06 ff a0 3e
       0.23243614 0.16965356 0.26188558 0.31444567
000020 45 8b 2e 3e d4 00 51 3e a2 85 5c 3e a1 4c 6c 3e
       0.17045315 0.20410472 0.21535352 0.23076107
000030 cf 7f 7f 3e d5 b7 50 3e f2 56 24 3e de fa 2b 3e
       0.24951099 0.20382626 0.16048792 0.16794917

6.module.0.0.b_w f4 [8, 1]
000000 00 00 00 c3 00 00 80 42 00 00 00 42 00 00 80 41
       -128.0 64.0 32.0 16.0
000010 00 00 00 41 00 00 80 40 00 00 00 40 00 00 80 3f
       8.0 4.0 2.0 1.0

6.module.0.1.weight f4 [16]
000000 ba a3 0a 3f d8 5a 27 3f 1a a4 3f 3f c2 18 33 3f
       0.54156077 0.6537299 0.74859774 0.6995965
000010 21 2b 2c 3f 9c 00 35 3f 5b 46 27 3f 04 94 1e 3f
       0.6725331 0.70704055 0.6534173 0.61944604
000020 cf b6 2e 3f 6a 57 29 3f 61 af 3a 3f 36 52 3b 3f
       0.68247694 0.6614901 0.72923857 0.7317232
000030 95 55 10 3f 76 b1 30 3f 48 cd 3e 3f ed e3 1a 3f
       0.5638059 0.69020784 0.74531984 0.6050404

6.module.0.1.bias f4 [16]
000000 fd ab ac bd 1d 45 da bb 68 7a 60 3d 7a fd 0a bd
       -0.08431242 -0.006661071 0.054804236 -0.03393314
000010 c0 2d 9f bd 3a f1 1d be 7d c0 0c be 67 22 20 be
       -0.07772398 -0.15424052 -0.13745303 -0.15638123
000020 5c 9a ac bd 28 37 a6 bd aa 9b 16 bd 96 0d a7 bd
       -0.08427879 -0.08115989 -0.036769547 -0.08156888
000030 b2 c8 6e be 7f 2f 04 be 79 0f 51 3d 37 3f 2c bd
       -0.23318747 -0.12908743 0.051040146 -0.042052474

6.module.0.1.running_mean f4 [16]
000000 fc a1 06 3f e7 4f 96 bd 81 e0 3d be f2 ba 86 be
       0.5259092 -0.07339459 -0.18542673 -0.26314503
000010 b9 12 d3 3c 14 e9 e6 be f1 4e a4 be e6 b9 2f 3e
       0.025765764 -0.450997 -0.32091478 0.17160758
000020 fa 05 6b 3e 94 a5 1c 3f 64 92 02 bf 30 29 63 be
       0.22951499 0.6119015 -0.51004624 -0.2218368
000030 68 55 e0 be 61 e0 00 bd 20 ef 07 bf ad 90 45 bd
       -0.4381516 -0.031463984 -0.5309925 -0.048233677

6.module.0.1.running_var f4 [16]
000000 4e 7d bd 3e fb 9b 55 3e 07 e9 a1 3e f0 9f ab 3e
       0.37009662 0.20860283 0.31623098 0.3352046
000010 9e be 6f 3e 8b 94 0c 3f 55 82 e1 3e 4d 43 af 3e
       0.23412558 0.5491416 0.44044748 0.34231034
000020 da 76 e3 3e 1e c1 08 3f 6b f0 27 3f 3f dd d7 3e
       0.44426614 0.53419673 0.65601224 0.42160985
000030 6f 7b e4 3e b8 69 df 3e dd 0a 94 3e d4 f7 d0 3e
       0.44625422 0.43635345 0.28914538 0.40814078

6.module.1.0.b_w f4 [8, 1]
000000 00 00 00 c3 00 00 80 42 00 00 00 42 00 00 80 41
       -128.0 64.0 32.0 16.0
000010 00 00 00 41 00 00 80 40 00 00 00 40 00 00 80 3f
       8.0 4.0 2.0 1.0

6.module.1.1.weight f4 [16]
000000 e4 f8 1d 3f dc e8 2c 3f 55 7e 3a 3f 8f 84 27 3f
       0.617079 0.67542815 0.7284902 0.65436643
000010 1f 82 23 3f 56 54 1e 3f b8 7b 30 3f 61 b0 1b 3f
       0.63870424 0.61847436 0.6893878 0.6081601
000020 14 19 3e 3f 05 fc 1d 3f 18 78 31 3f 9b f1 3d 3f
       0.74257016 0.61712676 0.69323874 0.74196786
000030 ed de 33 3f 8e 6d 30 3f 18 69 2f 3f db 3a 24 3f
       0.7026203 0.6891717 0.68519735 0.64152306

6.module.1.1.bias f4 [16]
000000 ae f2 19 be 59 3f 3e bc 3c b1 3d bc 83 2c 47 bc
       -0.15033981 -0.011611783 -0.0115779005 -0.0121566085
000010 61 52 b9 bd a0 4e d2 bd 78 08 c0 bc 1a df 07 be
       -0.09048916 -0.10268903 -0.023441538 -0.132687
000020 92 c4 dc bd b4 0f ec bc 2d ca 40 3d e2 7b ea 3c
       -0.1077968 -0.028816082 0.04706781 0.028623525
000030 67 04 e0 bd fe 7e b3 bd ae 4c fd bc 79 b0 86 bc
       -0.1093834 -0.08764456 -0.030920353 -0.01644157

6.module.1.1.running_mean f4 [16]
000000 c5 56 64 3e 04 78 84 bb eb dd 99 be da 50 86 be
       0.22298725 -0.0040426273 -0.30052122 -0.2623356
000010 5a 9a 97 bc ec c5 63 bd c9 7f e8 be 0b 04 3e 3e
       -0.018506218 -0.055608675 -0.45409992 0.1855623
000020 93 70 05 bf 70 3a dd bd a8 1a 76 bc b6 e0 7c be
       -0.521249 -0.10802162 -0.015021004 -0.24695095
000030 53 b9 36 be 3b 6e fa be 1f 69 ec bd 32 99 bf bd
       -0.17844133 -0.48912224 -0.11543488 -0.093553916

6.module.1.1.running_var f4 [16]
000000 8f 68 1b 3e bb e8 1f 3e 92 6c 28 3e 3f cf ba 3d
       0.15176605 0.15616123 0.16447666 0.0912156
000010 1b 7f d4 3d ca 18 b9 3d 6c a5 18 3e 6f b5 2b 3e
       0.10375806 0.09037931 0.14906853 0.1676843
000020 f4 b5 49 3e 4f f4 2d 3e 49 6f 0c 3e 34 17 b2 3d
       0.19698316 0.16987728 0.13714327 0.08695832
000030 c4 4d 2a 3e 94 4a 4c 3e 97 ec 31 3e a7 06 ae 3d
       0.16631228 0.19950324 0.17375408 0.084973626

6.module.2.0.b_w f4 [8, 1]
000000 00 00 00 c3 00 00 80 42 00 00 00 42 00 00 80 41
       -128.0 64.0 32.0 16.0
000010 00 00 00 41 00 00 80 40 00 00 00 40 00 00 80 3f
       8.0 4.0 2.0 1.0

6.module.2.1.weight f4 [16]
000000 d5 1e 48 3f ef 72 40 3f 3c e8 41 3f f2 09 3f 3f
       0.78172046 0.75175375 0.75744987 0.7462455
000010 bc 90 38 3f 4c dc 42 3f f3 1c 50 3f 67 3e 47 3f
       0.7209585 0.76117396 0.81294173 0.77829593
000020 58 fa 51 3f d1 64 3d 3f 47 48 45 3f a5 d4 4f 3f
       0.8202262 0.7398196 0.7706341 0.81183845
000030 39 2b 46 3f fd 80 43 3f 6f 97 43 3f d7 6d 44 3f
       0.774097 0.76368695 0.76402944 0.767301

6.module.2.1.bias f4 [16]
000000 7a 05 13 3d 41 cd 0e bc a6 16 68 3d b5 b3 82 bc
       0.035893895 -0.0087159285 0.056662224 -0.015954832
000010 9c c3 fe bd e1 68 81 bc cc 3f 45 3d 72 d1 f1 3c
       -0.12439653 -0.01579708 0.048156545 0.029518817
000020 9d 71 0f 3d e0 00 5d 3c d5 99 3c bd 58 dd 85 3d
       0.03502046 0.013488978 -0.046045143 0.065363586
000030 6b 3a ba bb d3 29 50 3d bb 2b 9c bc e4 fe 89 3c
       -0.0056832335 0.050821137 -0.019063821 0.016845174

6.module.2.1.running_mean f4 [16]
000000 1d fc 88 3e b3 04 14 be d8 43 56 be dc c2 9a 3d
       0.26754847 -0.14454918 -0.20924318 0.07556698
000010 01 80 8f 3c 87 73 5e 3d d7 76 21 be 29 7c f2 3c
       0.017517092 0.054309394 -0.1576799 0.02960022
000020 d1 c8 fd 3c 7a 98 8d 3d 26 65 03 3e b8 58 46 3e
       0.030979546 0.06913848 0.12831554 0.19369781
000030 58 63 77 3d 2f c8 33 3e c0 61 08 3e 30 ff 10 3c
       0.060397476 0.17556833 0.13318539 0.008849904

6.module.2.1.running_var f4 [16]
000000 54 90 d7 3d 29 6a c1 3d 18 95 cf 3d c4 65 07 3e
       0.10525575 0.094440766 0.10135859 0.13222414
000010 5f 7b d2 3d 90 23 c4 3d f9 50 cd 3d 5e 7c 04 3e
       0.102774374 0.095770955 0.1002521 0.12938067
000020 ba b8 08 3e 23 cf db 3d 57 a7 d9 3d d2 47 12 3e
       0.13351718 0.107328676 0.10627621 0.1428521
000030 38 87 d6 3d a2 4a fe 3d 57 6d dd 3d 68 be 00 3e
       0.1047501 0.12416579 0.108118705 0.12572634

9.0.b_w f4 [8, 1]
000000 00 00 00 c3 00 00 80 42 00 00 00 42 00 00 80 41
       -128.0 64.0 32.0 16.0
000010 00 00 00 41 00 00 80 40 00 00 00 40 00 00 80 3f
       8.0 4.0 2.0 1.0

9.1.weight f4 [32]
000000 12 aa 33 3f ea d8 36 3f 54 f7 3b 3f fd f0 29 3f
       0.7018138 0.71424735 0.7342427 0.66383344
000010 ca 09 24 3f 9e 6a 2d 3f 58 87 39 3f 54 57 2b 3f
       0.64077437 0.6774081 0.72472143 0.6693013
000020 51 50 28 3f af b7 20 3f 81 fd 24 3f cb 44 34 3f
       0.65747553 0.6278028 0.64449316 0.7041747
000030 78 a5 1e 3f ef 0f 33 3f 0f 58 38 3f b4 57 3e 3f
       0.61971235 0.6994619 0.72009367 0.74352574
000040 e5 05 24 3f 04 bd 20 3f 0d f5 20 3f ec 32 36 3f
       0.64071494 0.62788415 0.6287392 0.7117145
000050 b5 d4 28 3f bd 92 26 3f 7e 4b 18 3f b2 87 45 3f
       0.65949565 0.65067655 0.5949019 0.7716018
000060 78 b8 38 3f 82 13 17 3f 40 13 33 3f 0f 59 1f 3f
       0.72156477 0.5901414 0.6995125 0.6224527
000070 61 ce 1c 3f fd 13 2d 3f dd 30 2b 3f c2 bb 24 3f
       0.6125241 0.67608625 0.66871434 0.64348996

9.1.bias f4 [32]
000000 c6 ec 19 bc 66 96 80 bd 52 23 4e 3d 2d 8f 91 bd
       -0.00939483 -0.06278686 0.050326653 -0.07107387
000010 ad 6e 2a bc 98 24 0b be e5 28 40 bd 05 71 47 bd
       -0.010402364 -0.13588178 -0.046914 -0.04869177
000020 63 01 94 bd df f7 1a bd 64 a7 51 3c 76 7e 22 be
       -0.07226827 -0.037834045 0.012796257 -0.15868554
000030 6e 1f fa bd cf 77 0f bd bf fd 26 3e 52 2c dc 3c
       -0.12213026 -0.035026368 0.16307734 0.026876602
000040 58 0f 02 be 24 99 9f bd aa 18 14 3d 7c 20 49 3d
       -0.12701166 -0.07792881 0.036156334 0.049103245
000050 da 01 6d bd 0c 4e 95 bc 40 0f a0 bd be 1c e2 3b
       -0.057863094 -0.018225692 -0.07815409 0.006900399
000060 e5 1b 48 3d d2 de 71 bd 95 e9 8c 38 96 4d 2e bd
       0.048854727 -0.05905039 6.719228e-05 -0.04255446
000070 97 52 89 bd 4c fd 4b bd 2e dd 7d bc 92 4e 0c bd
       -0.06705206 -0.04980211 -0.015494628 -0.034254618

9.1.running_mean f4 [32]
000000 29 03 97 be 63 2a 73 be 8e b7 8d be 0a 07 cf be
       -0.29494599 -0.23746638 -0.27679104 -0.40435058
000010 8d 47 5d be 3c 39 ba be 83 cd 3c bd 9f 08 a0 bd
       -0.21609326 -0.3637179 -0.04609443 -0.07814144
000020 21 3a 7a bd 3d 0b 40 be c7 ed a1 be a6 fc 5a be
       -0.061090592 -0.18754287 -0.31626722 -0.2138544
000030 a6 46 58 3c 7d 56 53 3c 6d 32 bf be 44 cd 0d bf
       0.013200438 0.012899038 -0.3734316 -0.55391335
000040 1a af fc bc 4b 73 2c be 71 77 9a bd 55 7b e4 be
       -0.030845214 -0.16840856 -0.07542313 -0.44625345
000050 78 50 29 bd 22 f4 7f bd e2 46 37 3e 22 2f 9f be
       -0.041336507 -0.062488683 0.17898133 -0.31090647
000060 11 f5 8e be a4 99 3c 3e 2a 62 9c bd 0a 1e c1 3d
       -0.27921346 0.18417984 -0.07635911 0.094295576
000070 77 c5 1b be 40 ae ca bd fa d4 ac be 44 08 3c be
       -0.15212046 -0.09896517 -0.33756238 -0.18362528

9.1.running_var f4 [32]
000000 41 dc 1f 3f 52 6e 8d 3f fe 2a dc 3f 03 6d 3a 3f
       0.62445456 1.1049292 1.720062 0.7282259
000010 f0 36 f9 3e ba 3e 57 3f 9d c2 cf 3f e7 d0 b4 3f
       0.48674726 0.8408009 1.6231266 1.4126252
000020 f8 ae 0d 3f b5 6a c5 3e 04 69 4f 3f 3e 8b d4 3f
       0.55345106 0.38557974 0.81019616 1.6604993
000030 ba d8 b3 3f e1 be ac 3f 55 e0 d2 3f 9c f3 22 40
       1.4050515 1.3495752 1.6474711 2.5461187
000040 e9 eb 88 3f f0 d7 f7 3e a2 bf 6c 3f 3b 2b 96 3f
       1.0696994 0.48406935 0.9247991 1.1731943
000050 fc c7 15 3f 92 aa 33 3f 9f eb 99 3f 73 8a 00 40
       0.58508277 0.70182145 1.2025031 2.0084503
000060 07 e6 9d 3f 2c 6e 56 3f 4e 73 86 3f 51 42 6f 3f
       1.2335824 0.8376186 1.0503938 0.93460566
000070 c1 a8 0f 3f d7 72 42 3f d6 42 17 3f 9b 54 5d 3f
       0.56116873 0.7595648 0.5908636 0.8645722

10.0.b_w f4 [8, 1]
000000 00 00 00 c3 00 00 80 42 00 00 00 42 00 00 80 41
       -128.0 64.0 32.0 16.0
000010 00 00 00 41 00 00 80 40 00 00 00 40 00 00 80 3f
       8.0 4.0 2.0 1.0

10.1.weight f4 [32]
000000 ce f4 1c 3f f8 b4 3c 3f 11 36 16 3f cc d9 19 3f
       0.6131104 0.73713636 0.5867625 0.60097957
000010 82 63 0f 3f 53 77 19 3f 0b 85 20 3f 9e ec 17 3f
       0.5601121 0.599477 0.6270301 0.59345424
000020 04 6e 1b 3f aa 47 19 3f 56 97 32 3f 5c 07 28 3f
       0.60714746 0.59874976 0.6976217 0.6563623
000030 7d 82 1a 3f c0 79 21 3f 93 01 27 3f 66 2a 2c 3f
       0.6035536 0.630764 0.6523678 0.67252195
000040 78 3b 20 3f 9a 84 27 3f 0d ef 2b 3f fb f3 28 3f
       0.6259074 0.6543671 0.6716164 0.65997285
000050 2a ef 31 3f 1b 5c 16 3f 4d b9 18 3f 77 fe 27 3f
       0.6950556 0.5873429 0.59657747 0.6562266
000060 8a 47 22 3f 96 3f 19 3f 19 a0 25 3f 97 8e 17 3f
       0.6339041 0.5986265 0.64697415 0.5920195
000070 1a b1 29 3f a8 58 20 3f db 2e 24 3f d7 62 2d 3f
       0.6628586 0.6263528 0.64133996 0.6772894

10.1.bias f4 [32]
000000 b6 75 6e be 58 ea 4c be d2 62 50 be d3 5b 45 be
       -0.2328709 -0.2001127 -0.20350197 -0.1927331
000010 21 4f 44 be 0c 1e 88 be f1 d7 4a be be c9 40 be
       -0.1917081 -0.26585424 -0.19808938 -0.18826959
000020 ee fc f8 bd 2a 69 86 be 2e ab 58 be 3e 53 24 be
       -0.121576175 -0.2625211 -0.2115905 -0.1604738
000030 80 69 b3 be f0 32 74 be df 0b 42 be 53 ad 4f be
       -0.35041428 -0.23847556 -0.18949841 -0.20280962
000040 8a 1b 7b be 54 61 80 be d6 2b 7b be 65 9e 27 be
       -0.24522224 -0.25074255 -0.24528441 -0.16369016
000050 0a 18 9b be 3e 2a 92 be 68 f6 8e be 67 87 8e be
       -0.30291778 -0.28547853 -0.27922368 -0.2783768
000060 9b 5b 8d be d9 83 73 be 97 f1 45 be 64 d6 c3 be
       -0.27608952 -0.23780765 -0.1933044 -0.38249505
000070 c6 5b 1a be 67 d9 f9 bd e8 ae 61 be 6a 31 43 be
       -0.15074071 -0.12199669 -0.22039378 -0.19061819

10.1.running_mean f4 [32]
000000 73 6a c1 be 16 89 94 bd 1f 99 a4 be f2 8e 53 bd
       -0.37776527 -0.072527096 -0.32148072 -0.051649995
000010 66 93 4b be 03 cb a9 bd b1 62 57 be 39 1d 47 be
       -0.19880447 -0.082906745 -0.21033742 -0.19444741
000020 fb 49 69 be a4 32 7a be 61 56 34 be 42 29 22 be
       -0.22782128 -0.2443338 -0.17611076 -0.15836051
000030 39 fe 14 be ec 5b 93 be 22 ac cc bd 17 11 cb be
       -0.14550103 -0.28781068 -0.09993769 -0.39661476
000040 c2 89 db be e3 a5 c8 bd 59 dc 77 be 4c ba 67 3d
       -0.42878538 -0.097972654 -0.2420515 0.05657415
000050 54 60 42 be 32 0b 11 be 63 c5 a3 be 58 34 a9 be
       -0.18982059 -0.14164427 -0.31986532 -0.33047748
000060 03 ac c9 bd cc 09 a5 be c1 38 89 be 3f 64 d5 be
       -0.09847262 -0.32234037 -0.26801112 -0.41678044
000070 67 f1 20 be d9 d9 31 be fa c5 5e be e8 42 64 be
       -0.15717088 -0.17368259 -0.2175521 -0.22291148

10.1.running_var f4 [32]
000000 0d 78 1e 3e 54 63 e5 3d e4 57 eb 3d 53 2a 21 3e
       0.15475483 0.11200586 0.11491373 0.15738802
000010 c1 b4 e9 3d c5 55 1a 3e ff 5c 0c 3e 26 84 2a 3e
       0.11411429 0.15071781 0.1370735 0.16651973
000020 7d 4e 2c 3e 8c 5e 3e 3e a6 7d c4 3d 8c 41 06 3e
       0.16826816 0.18590754 0.09594278 0.13110942
000030 1a a5 1d 3e 58 50 00 3e 41 ec f8 3d ed c6 dc 3d
       0.15395012 0.12530649 0.12154437 0.107801296
000040 57 69 09 3e c5 19 17 3e 6a a9 2b 3e cb 38 cd 3d
       0.1341909 0.14755924 0.16763845 0.10020598
000050 70 ba f4 3d b7 de 43 3e be 32 1f 3e be 15 08 3e
       0.11949623 0.19127928 0.155467 0.13289544
000060 0a ec b9 3d b1 d8 e8 3d d8 47 11 3e 8d 32 43 3e
       0.09078224 0.113694556 0.14187562 0.19062252
000070 7d 56 f8 3d 75 ce 21 3e 14 61 32 3e bb 3c 30 3e
       0.12125871 0.15801413 0.17419845 0.17210667

13.0.b_w f4 [8, 1]
000000 00 00 00 c3 00 00 80 42 00 00 00 42 00 00 80 41
       -128.0 64.0 32.0 16.0
000010 00 00 00 41 00 00 80 40 00 00 00 40 00 00 80 3f
       8.0 4.0 2.0 1.0

13.1.weight f4 [64]
000000 cc 0e 66 3f ef 59 79 3f 1d f8 62 3f 0c 1d 6e 3f
       0.8986633 0.9740285 0.8865984 0.9301307
000010 b9 12 67 3f 74 5e 61 3f 91 72 6f 3f 6a ca 68 3f
       0.90262944 0.8803475 0.9353419 0.9093386
000020 72 28 58 3f 42 d1 75 3f 4f 75 9c 3f e1 d0 56 3f
       0.84436715 0.9602243 1.22233 0.83912474
000030 db 4e 83 3f 66 15 6f 3f 7c a7 66 3f 63 ef 6d 3f
       1.025844 0.93392026 0.9009931 0.929434
000040 90 03 5f 3f 92 72 80 3f f4 2f 9a 3f 04 0a 8e 3f
       0.8711481 1.0034964 1.2045884 1.1096807
000050 66 73 78 3f cc 29 7d 3f 4e a4 63 3f 55 de 5c 3f
       0.97051084 0.988919 0.88922584 0.8627675
000060 7c cd 55 3f 24 b9 68 3f 7f 83 85 3f 3f 3f 6e 3f
       0.8351667 0.909075 1.0430754 0.93065256
000070 43 77 6b 3f fd 61 7b 3f 28 97 6d 3f b9 4f 60 3f
       0.91978854 0.98196393 0.9280877 0.8762165
000080 45 c1 77 3f ff d5 78 3f 32 a7 74 3f 86 ea 57 3f
       0.9677928 0.9720153 0.9556762 0.8434223
000090 60 39 81 3f 95 0a 84 3f dd be 75 3f 42 1a 77 3f
       1.0095634 1.0315729 0.9599436 0.9652444
0000a0 a3 03 5f 3f 85 78 5f 3f 5e 0d 70 3f 49 18 7f 3f
       0.87114924 0.87293273 0.93770397 0.9964643
0000b0 b1 69 69 3f f2 40 45 3f a0 66 54 3f 62 d2 57 3f
       0.911769 0.77052224 0.82969093 0.84305394
0000c0 42 5d 60 3f 3b b5 57 3f b1 9f 65 3f 18 00 80 3f
       0.876423 0.8426091 0.89696795 1.0000029
0000d0 46 37 87 3f 9a 99 7a 3f a7 e5 63 3f df a7 7e 3f
       1.0563743 0.9789063 0.89022297 0.994749
0000e0 c2 e0 81 3f 54 07 6e 3f 95 19 7f 3f 33 60 67 3f
       1.0146716 0.9297993 0.9964841 0.90381163
0000f0 6e d5 7d 3f e0 d9 95 3f 84 c7 7a 3f 1b ca 7b 3f
       0.9915379 1.1707115 0.97960687 0.98355263

13.1.bias f4 [64]
000000 47 5c 0b 3e ad f7 81 3e 19 20 6c 3d 8d ce d8 3d
       0.1360942 0.25384274 0.0576478 0.105862714
000010 f4 d4 c6 3d 65 d7 c0 3c 01 0b 51 3e 6d 92 ae 3d
       0.09708586 0.023540208 0.20414354 0.08524022
000020 b8 f6 91 3d 36 df 38 3e 20 ad 8c 3e a7 9e fb 3d
       0.07127136 0.18053898 0.27475834 0.1228612
000030 aa 70 3d 3e 8d 80 1f 3e e5 93 42 3e bc b2 1b 3e
       0.18500009 0.15576382 0.1900173 0.152049
000040 77 a4 ce 3d 54 18 93 3e cd e3 a8 3e b6 6d 90 3e
       0.10089963 0.28729498 0.32986298 0.28208703
000050 bd 5b 5a 3e cf dd 65 3e 21 7b 17 3e 4a 6d 08 3e
       0.21324058 0.22447895 0.14793064 0.1332294
000060 95 64 0f 3e 97 e1 c4 3d 89 bd 10 3e 18 9c 35 3e
       0.14003213 0.0961334 0.14134802 0.17735326
000070 99 be 2d 3e 4d 41 5d 3e f5 71 36 3e c8 10 98 3d
       0.16967238 0.21606942 0.17816909 0.07425076
000080 41 57 e0 3d 97 8b 48 3e 5c 1f 5a 3e fe b0 92 3d
       0.10954142 0.195845 0.21301025 0.07162665
000090 8e 9c 55 3e 41 c7 d5 3d 2a 4f 47 3e 4a 37 4c 3e
       0.20860502 0.10438395 0.19463792 0.19942966
0000a0 9c 40 d5 3d a5 e8 f9 3d 32 2e 20 3e f5 a6 2f 3e
       0.10412714 0.122025765 0.15642622 0.17153533
0000b0 ab b7 0c 3e 8c e1 a2 3d fb 22 30 3e e2 30 e3 3d
       0.13741939 0.07953176 0.17200844 0.11093308
0000c0 8d d1 fd 3d 87 ff f9 3d 45 e6 50 3e a1 cf 8b 3e
       0.12393484 0.12206941 0.20400341 0.27306846
0000d0 0f 65 8f 3e c2 20 6c 3e 69 47 20 3e 7c ff 00 3e
       0.2800679 0.23059371 0.15652241 0.1259746
0000e0 92 e2 87 3e ca 27 21 3e f3 e2 bd 3d 68 df f0 3d
       0.26540047 0.15737835 0.09271803 0.11761361
0000f0 27 d2 7f 3e ac 5a 7b 3e 38 5c 31 3e c2 4c 87 3e
       0.2498251 0.24546307 0.17320335 0.2642575

13.1.running_mean f4 [64]
000000 39 15 2f be 3d e9 20 bd 7e aa f3 bd 3e 88 d4 bd
       -0.1709794 -0.039284933 -0.11897753 -0.10377549
000010 45 a1 80 bd f4 fd 31 be 37 0d 8e be e1 28 00 be
       -0.0628076 -0.17382032 -0.27744457 -0.12515594
000020 de 49 04 3d 43 85 ce bd 7a 59 8a 3d e0 23 8f bc
       0.032297008 -0.100840114 0.067553475 -0.017473161
000030 d6 4c 59 be 2c 82 5c be 57 83 13 be cd e3 97 bd
       -0.21220717 -0.21534032 -0.14405571 -0.074164964
000040 72 60 06 bd 29 2b 03 be 84 d1 44 3d e6 26 92 3d
       -0.03280682 -0.12809433 0.048051372 0.071363255
000050 0c e3 8f 3c d9 a2 dd bc 41 ae 07 3d 46 9f d9 bd
       0.01756432 -0.02705519 0.033125166 -0.10626082
000060 d1 f6 6c be 36 60 bd 3b ee ea 31 bd 97 21 84 3c
       -0.23141028 0.0057792915 -0.043436937 0.016129298
000070 04 9c 1f 3d 56 a2 83 3d 6f fc 51 be 50 d4 a2 bc
       0.038967147 0.064274475 -0.20506452 -0.01987663
000080 a7 59 d2 bd 36 15 bd 3b 47 c7 40 be 1f 0e db bd
       -0.10271006 0.005770351 -0.18826018 -0.10696053
000090 f6 27 53 be bf 95 6d be c8 50 5d be c8 aa 22 3d
       -0.20620713 -0.23201655 -0.21612847 0.03971365
0000a0 e1 88 f8 bd 10 68 4d be 4a 44 83 3c 43 5c 23 3d
       -0.121354826 -0.20059228 0.016023774 0.03988291
0000b0 33 b7 f7 bd cc c9 1f bd bb d2 5f be 31 1e 59 3d
       -0.12095489 -0.039010808 -0.21857731 0.05300731
0000c0 96 c3 e7 bd c4 62 f8 3c 42 96 c9 3b d8 74 3a be
       -0.11316602 0.030320533 0.0061519453 -0.18208635
0000d0 31 d1 35 be 51 1d 53 3d 17 1e 18 be fb a2 70 be
       -0.17755581 0.05154163 -0.14855228 -0.23499672
0000e0 a3 d1 9a bd 79 f6 81 be ac f9 53 be a6 82 58 bd
       -0.07559516 -0.25383356 -0.20700711 -0.05285897
0000f0 3a 00 57 be c6 ac 74 3d 22 51 74 be f8 1d 46 be
       -0.2099618 0.059735082 -0.23859075 -0.1934737

13.1.running_var f4 [64]
000000 1d 91 12 3e 62 37 18 3e b8 a0 ce 3d 36 2a 03 3e
       0.14313169 0.14864877 0.100892484 0.12809071
000010 cd 20 fc 3d e0 c0 ab 3d 77 18 27 3e c0 53 d9 3d
       0.12310944 0.08386397 0.16317926 0.10611677
000020 a7 73 c8 3d 0b f6 16 3e 04 90 66 3e 67 90 14 3e
       0.09787684 0.14742295 0.22515875 0.1450821
000030 28 68 06 3e 58 c8 25 3e 3b 2b 3d 3e e1 7a 05 3e
       0.1312567 0.16189706 0.18473522 0.13035156
000040 d5 fb f8 3d 1f d4 28 3e e4 a1 47 3e 1a 19 fa 3d
       0.12157408 0.16487168 0.1949535 0.12211819
000050 da 0f 1e 3e 31 c3 18 3e 3e 6b b0 3d 80 b4 17 3e
       0.15435734 0.1491821 0.08614205 0.14814949
000060 63 01 01 3e db 1c a9 3d a5 25 2c 3e 3c a5 9f 3d
       0.12598185 0.08257457 0.16811235 0.07795188
000070 6e 8f a3 3d 35 f6 12 3e 34 f0 0a 3e 74 1e af 3d
       0.079863414 0.14351733 0.13568193 0.0855073
000080 9d f8 08 3e 11 83 e9 3d db b1 3c 3e fe b1 e1 3d
       0.13376088 0.11401952 0.18427221 0.110202774
000090 00 05 10 3e 85 7e 3f 3e e9 c9 aa 3d e6 40 10 3e
       0.14064407 0.18700607 0.083392926 0.14087257
0000a0 db c4 bb 3d f6 1d ee 3d 56 7a 0b 3e 67 9e 0b 3e
       0.091684066 0.11626808 0.13620886 0.13634644
0000b0 46 e5 dc 3d 60 b7 d1 3d a8 de 2a 3e ec b7 03 3e
       0.10785918 0.10240054 0.16686499 0.1286313
0000c0 ca 8a 26 3e 71 aa 99 3d 0d a2 20 3e 27 26 77 3e
       0.16263881 0.07503212 0.15686817 0.24135648
0000d0 3d d6 d5 3d e8 4c 3b 3e 3b 90 0c 3e 23 86 fe 3d
       0.10441253 0.18291056 0.13726895 0.12427928
0000e0 69 12 4f 3e 49 31 1d 3e e1 85 06 3e 3a e8 f6 3d
       0.20221867 0.15350832 0.13137008 0.120560125
0000f0 8c f8 fd 3d b8 91 59 3e 02 26 1f 3e 7f 67 81 3e
       0.12400922 0.21246994 0.15541843 0.25274274

16.weight f4 [128, 64]
000000 e4 a7 b7 3d c1 36 8d 3d e7 aa 9b 3d d9 13 3a bd
       0.089675695 0.06895209 0.076009564 -0.045429084
000010 7f b9 de 3d 32 ca 4a 3c 8d 68 89 bd f5 66 45 3d
       0.10875224 0.012377309 -0.067093946 0.04819389
000020 f2 6e b1 bd 60 b7 a0 3d eb cd 4c 3e 5e 6a 1b bd
       -0.08663739 0.07847476 0.20000426 -0.037943237
000030 3d 0a b2 bc 7d a4 67 3d 2f ad bf bc 51 f2 27 bd
       -0.021733398 0.056553353 -0.02339801 -0.041002575
000040 f8 af 04 bd da 0a 39 3d 36 18 3a 3e 7b cd 4c 3e
       -0.03239438 0.045176364 0.18173298 0.2000026
000050 81 61 35 3e 70 57 02 3e 5d c1 e1 3c 84 ff 9e 3d
       0.17712976 0.12728667 0.027558023 0.077635795
000060 76 2a e7 bd cd ac 32 bc b7 92 fc 3c 24 a4 e4 3d
       -0.11287396 -0.010905457 0.030831678 0.1116412
000070 24 d0 cc 3c 2a 52 94 3d ca ee 48 bd f8 f1 93 bd
       0.025001593 0.07242234 -0.049055852 -0.07223886
000080 4b 24 76 3d c2 2c 29 bd 77 76 95 bb 88 64 a1 bd
       0.060093205 -0.04130245 -0.0045612413 -0.07880503
000090 75 ba c0 bd 60 8c b1 bc 5b c7 8b bd 13 83 cc 3d
       -0.09410564 -0.021673381 -0.068251334 0.09985938
0000a0 e7 16 54 bb 7e 8e 2a 3d d3 af 3a 3d ac b5 0b 3e
       -0.0032362284 0.041639797 0.045577835 0.13643521
0000b0 1b 90 74 3d 40 cc 6c bd 54 3c a1 3b 1b 4c 37 3d
       0.059707742 -0.057811975 0.0049205218 0.044750314
0000c0 80 08 a3 3b 0a 5f cb 3d 1c 80 d6 3d 00 e4 63 3d
       0.0049753785 0.09930237 0.10473654 0.05563736
0000d0 c9 d0 75 bd b3 ab a8 3c 8f 4a 79 bd 89 5d e9 bd
       -0.060013566 0.020589685 -0.06086212 -0.113947935
0000e0 78 68 14 bb 7a a3 45 bc ba 58 8e bd 9a 77 be bd
       -0.0022645276 -0.012062902 -0.06950517 -0.09300156
0000f0 b1 e6 15 3d e1 cd 4c 3e 1d b9 55 3c 68 a4 be 3c
       0.036596958 0.20000412 0.013044623 0.023271754
000100 69 e0 26 3d 7a bd 38 3e 7d 3b 94 3d bf 1a e0 bd
       0.040741358 0.1804103 0.07237909 -0.109426014
000110 99 a1 93 3d 3a 05 37 bd 75 7a ba bd 7b 29 9c 3d
       0.07208557 -0.04468272 -0.09105388 0.07625099
000120 29 ec 86 bc 5f 9d 1f 3e 06 00 e2 3d c4 71 86 bd
       -0.016470032 0.15587376 0.11035161 -0.06564668
000130 d1 e3 b8 bd ad 61 f7 3d 92 dd ce bc 0e 6c 34 3d
       -0.090278275 0.12079177 -0.025252137 0.04404836
000140 bc 89 7f 3d 0c 60 41 3d a2 cb 4c 3e bd da 30 3e
       0.062387213 0.047210738 0.19999555 0.17270942
000150 ce 2c d7 bb 77 39 0a 3e 12 ce 15 bd 64 81 d4 3d
       -0.0065666204 0.13498484 -0.036573477 0.10376242
000160 5f 46 f4 bd ee ef d4 bc 9f 6a e4 3d 5d 16 03 3d
       -0.11927485 -0.025993314 0.11153149 0.03200375
000170 b8 67 6b 3d 20 6e 58 bd 5e 7c e0 bd 81 2e c0 bd
       0.05747196 -0.0528394 -0.10961221 -0.0938387
000180 5a bf 42 bd 5b f7 68 3d bb bd ce bd f9 cb 4d 3c
       -0.04754577 0.05687652 -0.10094782 0.012560838
000190 0a be 0d 3e 45 45 ff bb 61 23 fe 3c fd 99 41 3b
       0.13842025 -0.00779024 0.03102273 0.0029541247
0001a0 49 11 8e 3c fd d3 14 bd a4 04 db 3c cf e9 c4 3d
       0.017342227 -0.03633498 0.026735611 0.09614908
0001b0 de 12 86 bd 3e 52 d4 bd c5 48 c0 3d 09 00 a5 bd
       -0.065465674 -0.10367249 0.0938888 -0.08056647
0001c0 cd dd ae 3d ee 0a 89 3d 2b e7 86 3d 82 9c 81 3d
       0.08538399 0.06691538 0.065870605 0.063286796
0001d0 a9 32 47 bc c8 78 71 bc 49 71 cd 3d e4 17 a7 3c
       -0.012158074 -0.014738269 0.10031373 0.020397134
0001e0 b0 50 d1 3d 0e a7 74 bd 56 23 f8 bb d8 fc bf bd
       0.10220468 -0.05972963 -0.0075725717 -0.09374398
0001f0 ec d2 6c 3d 22 82 c0 3b d0 6f 82 bd a6 08 42 3c
       0.05781834 0.005874888 -0.06368983 0.011842882
000200 43 60 93 bb 24 53 72 3d f1 eb 93 bd 1d 09 98 3c
       -0.0044975593 0.05916132 -0.072227366 0.018559033
000210 95 0c 1b 3d 73 6d 00 bc 07 6d 5e 3d ec 1f db 3b
       0.037853796 -0.007838595 0.054303195 0.006687155
000220 2d f1 8f 3d ff fd d0 bd 10 9f 4a 3d 1b 03 b3 bd
       0.070284225 -0.10204696 0.0494681 -0.08740827
000230 94 70 1b 3e b1 84 95 bd 1c 9e 23 3e 8d 6a 4d bd
       0.15179664 -0.073006995 0.15978283 -0.050150443
000240 a5 69 80 bd ae 3e 3c 3e 27 31 f0 3c ba fe b1 3d
       -0.0627015 0.18383285 0.029320313 0.08691163
000250 12 85 09 bd 5d 34 f6 3d 9f 57 28 3c 15 f7 19 bc
       -0.03357417 0.12021706 0.010274797 -0.009397288
000260 d0 6e 90 3d 99 fd da 3b cb 95 ef bc b4 bb a1 bd
       0.07052386 0.006683063 -0.029246232 -0.0789713
000270 b0 1d bd bc fe cb 52 bc 45 56 1e bd 9f 5f 20 3d
       -0.023085445 -0.012866018 -0.03865649 0.03915369
000280 10 61 a0 bd 1c b1 a1 3d e9 c3 45 3e f7 62 2b bd
       -0.07831013 0.07895109 0.19313015 -0.041842427
000290 0d 3b a8 3c b3 6a 83 3d 14 93 32 3d cb 73 45 3d
       0.02053597 0.06416836 0.043597296 0.048206132
0002a0 a8 85 ae bd 55 92 c3 bd a8 f1 c6 bc d0 57 14 bd
       -0.08521587 -0.09549395 -0.024285153 -0.036216557
0002b0 a0 67 b4 bc 1c d7 be bd 1b 74 fc 3d 91 f7 3b bc
       -0.022022069 -0.093183726 0.12326833 -0.011472599
0002c0 57 aa 96 bc 4f 7e 08 bd 61 07 3b bd 01 0e 4a 3e
       -0.018391771 -0.033323582 -0.045661334 0.19731905
0002d0 57 2e 34 3e 03 b1 38 3e 14 17 66 bd ee 2e 6b bd
       0.17595802 0.18036275 -0.056174353 -0.057417803
0002e0 61 be 4a 3e fa e4 3e 3e 30 8d cf bb f9 dd 1c bd
       0.19799186 0.18642035 -0.0063339695 -0.038297627
0002f0 25 f2 83 3d 4c 60 10 bd 9e 2f 92 3d a9 2e 4a 3e
       0.0644267 -0.035248086 0.071379885 0.19744362
000300 58 b8 b2 bb 14 fc 09 3e a0 61 fd bc c0 d3 ef 3d
       -0.0054541044 0.13475066 -0.03093034 0.1171031
000310 ba 81 26 bd 98 74 09 bd 42 9e 57 3c 16 a8 ad 3c
       -0.04065106 -0.033558458 0.01316029 0.021198314
000320 95 6d 08 3e 65 46 d3 3d eb 46 a9 3d 86 c1 2f 3d
       0.13323052 0.10316161 0.0826548 0.042909168
000330 49 27 0f 3d 75 b1 11 bd 55 f4 5a bd 9f 06 78 3d
       0.034949575 -0.035569627 -0.05345567 0.06055319
000340 e0 0c a7 bd 83 31 c4 bd da cf c2 3d 09 b6 13 3e
       -0.081567526 -0.09579756 0.09512301 0.1442491
000350 cf ef 26 bd fe f8 26 3d 21 35 19 3e ff b2 05 bd
       -0.040756043 0.0407648 0.14961673 -0.032641407
000360 b6 4a 22 3c 25 b2 83 bb 7d 7d 3b bd c8 14 23 3e
       0.009905508 -0.004019039 -0.04577397 0.15925896
000370 ff a5 84 3d 12 59 2f 3d 64 c3 2e 3d 62 93 0b 3e
       0.06476974 0.042809553 0.042666808 0.13630441
000380 46 70 d6 bd 5e 40 87 3d d6 a9 42 bc 3a b6 c2 3d
       -0.10470633 0.06604074 -0.011881312 0.09507413
000390 7a 5c 53 3d 64 cc 2e bd 33 9c 74 3d d6 3d 79 3d
       0.051601864 -0.04267539 0.059719276 0.060849987
0003a0 5c 78 d7 3d 7c 37 0f bd 36 76 a0 3d 07 77 d5 bc
       0.105210036 -0.034965023 0.07835047 -0.026057733
0003b0 25 47 2f bd 4a ac ae 3d 49 21 c5 bb 5d b9 98 3b
       -0.042792458 0.08528955 -0.006015931 0.004660769
0003c0 d5 83 63 3d 15 40 1d 3e af 3f 90 3c 00 66 11 bd
       0.055545647 0.15356477 0.017608492 -0.035497665
0003d0 c4 d9 99 bd 48 c7 9d 3d 94 3d 85 3d ab 4d c0 bd
       -0.075122386 0.077040255 0.06505886 -0.09389814
0003e0 a9 95 1f bd 3e ae 93 bd 74 ce c8 bd 06 04 8b 3d
       -0.038961086 -0.072109684 -0.09805003 0.06787877
0003f0 f6 7f f1 bd 8e c9 7a 3d 33 83 cc bc 5c ad f2 bd
       -0.11791985 0.061227374 -0.024964904 -0.11849472

16.b_w f4 [8, 1]
000000 00 00 00 c3 00 00 80 42 00 00 00 42 00 00 80 41
       -128.0 64.0 32.0 16.0
000010 00 00 00 41 00 00 80 40 00 00 00 40 00 00 80 3f
       8.0 4.0 2.0 1.0

19.weight f4 [10, 128]
000000 29 94 db 3d 72 c6 43 3e cd cc 4c be 02 cd 4c 3e
       0.10721619 0.1911867 -0.2 0.2000008
000010 a9 83 d8 3c be 92 4c 3e 7f ce 4c be a9 93 dd bd
       0.026429968 0.19977853 -0.20000647 -0.108191796
000020 24 9b 4c be 44 55 8e 3c f5 e1 23 be eb 93 15 3c
       -0.19981056 0.017374642 -0.16004165 0.009129505
000030 39 ca 4c be ab b4 ab bc 86 92 4c be 79 cb 4c be
       -0.19999017 -0.020960173 -0.1997777 -0.19999494
000040 3d d0 4c be 9f 06 4e bd 15 39 d6 3b 4d 7e 4c be
       -0.20001312 -0.050299283 0.0065375664 -0.19970055
000050 cf c2 4c be b2 b0 43 3e 71 cd 06 be 77 22 83 bc
       -0.19996189 0.19110373 -0.13164307 -0.016007645
000060 5d a1 b5 bc ab 86 e6 bc a9 ea 0d 3e 6c 75 5d bd
       -0.02217167 -0.028140387 0.13859047 -0.05406706
000070 cc 8c 26 be 04 1c 1f bd d1 4f 26 be 8d c9 4c be
       -0.16264647 -0.038845077 -0.16241385 -0.1999876
000080 3c 9b 3f 3e e7 1a 39 3e 58 c6 4c 3e b2 cd 4c be
       0.18711561 0.18076669 0.19997537 -0.20000342
000090 f8 d5 45 3e be 67 97 bd 3d 55 f9 bd 79 6f 38 bd
       0.19319904 -0.07392834 -0.12174461 -0.045028184
0000a0 c4 5d 4c 3e b0 35 b9 bd 0f 8e 23 bd 99 4e 07 3e
       0.19957644 -0.09043443 -0.0399304 0.13213576
0000b0 d9 cb 4c be 08 41 14 be 71 c9 4c be 19 c8 4c 3e
       -0.19999637 -0.14477932 -0.19998719 0.19998206
0000c0 98 c2 20 be 18 b5 4c be 25 a6 84 bc fe c3 30 3e
       -0.15699232 -0.19990957 -0.016192505 0.17262265
0000d0 91 1c d8 bc cb 1c 2c 3c 44 2e e3 bc bf cb 4c 3e
       -0.026380809 0.010504912 -0.027732022 0.19999598
0000e0 d2 a5 8a bc fc 6f 15 be 4e 85 1f 3e d3 bc 4c 3e
       -0.016924772 -0.145935 0.15578195 0.19993906
0000f0 09 84 3a be a0 af 4c 3e ec 25 0c 3e 51 11 ed 3c
       -0.1821443 0.1998887 0.13686341 0.028938921
000100 e5 4a 46 3e 45 ce 3d 3d 17 6c 20 3d f4 d7 49 3e
       0.19364507 0.046339292 0.039165583 0.19711286
000110 e1 31 3f 3e 92 b0 4c be c5 e5 00 be fe fd 46 bd
       0.18671371 -0.19989231 -0.1258765 -0.04858207
000120 06 ac 4c 3e 20 8e 4c be 48 ce 4c be 69 73 7c bc
       0.19987497 -0.19976091 -0.20000565 -0.015408375
000130 4a cc 4c 3e 74 a6 4b 3e 2a 09 0b bd 19 03 4b 3e
       0.19999805 0.19887716 -0.033944286 0.198254
000140 38 ce 4c 3e 52 8b 24 be 8d 9a ef 3d 60 b2 4c 3e
       0.20000541 -0.16068771 0.116994 0.1998992
000150 d6 14 77 3d 67 cb 4c be 20 fe ad bd 15 da 1b be
       0.060322605 -0.19999467 -0.08495736 -0.1521991
000160 8d de 5e bd 3b 79 49 3e 23 f5 21 be 08 cd 46 3e
       -0.05441146 0.19675152 -0.15816168 0.1941415
000170 35 86 c1 3d 54 d8 45 3e c1 10 db 3d db 33 37 be
       0.09449426 0.19320804 0.10696555 -0.17890875
000180 69 ce 62 bb ac 90 ab bc f7 0f 43 3e 49 c4 9f bd
       -0.0034607893 -0.020943008 0.19049059 -0.0780111
000190 b3 18 3b 3e da c2 4c be 84 71 c4 3c e8 b5 21 3e
       0.18271141 -0.19996205 0.02397991 0.15792048
0001a0 c7 c9 4c be 18 21 d6 bc 44 6f c6 3c a1 c2 a1 3d
       -0.19998847 -0.026138827 0.024222977 0.07898451
0001b0 18 f8 bf bd 13 27 4c be fb 45 ea bd f7 cd 4c be
       -0.09373492 -0.1993678 -0.11439129 -0.20000444
0001c0 c9 39 47 3e 1a 6d 4b 3e 5c 65 00 3d 89 ce 4c be
       0.19455637 0.19865838 0.031346664 -0.20000662
0001d0 a6 00 16 bd 95 d8 06 3e 63 a9 43 3e 9f f0 40 3d
       -0.036621712 0.13168557 0.19107585 0.047104474
0001e0 ab 9a 06 bd f8 f9 5d bd a6 cd 92 bb 57 0f 4b 3e
       -0.032862347 -0.054193467 -0.0044800816 0.1983007
0001f0 0a c0 4c be 33 68 4a 3e dd ee bb ba b3 85 33 3d
       -0.19995132 0.19766311 -0.0014338155 0.043828677
000200 b4 ca 4c be b4 cb 4c be 20 36 22 be 17 ce 4b 3e
       -0.199992 -0.19999582 -0.1584096 0.19902836
000210 b2 ed d8 3c 02 7d 4b 3e 07 cb 4c be e8 ef 24 3e
       0.02648053 0.19871905 -0.19999324 0.16107142
000220 b3 ed 5c bd 43 7c a2 bc 39 1d 4c 3e e5 b8 2f 3e
       -0.053937625 -0.019834643 0.19933023 0.17160375
000230 6e ca 40 be 32 19 52 bd 14 ce 4c be b0 02 8b 3d
       -0.18827221 -0.05129356 -0.20000488 0.06787622
000240 36 cb 4c be 87 8c 13 3e 5e c2 c6 3c ba 27 4c 3e
       -0.19999394 0.14409076 0.024262603 0.1993703
000250 cb ad 4c be 16 c5 4c be d4 cd 6e bd 44 4a 00 3e
       -0.19988172 -0.19997057 -0.05830176 0.1252833
000260 4c 0f e8 3d 48 a7 47 3e 1b bf cf bd 44 91 cc bd
       0.11331043 0.19497406 -0.10143872 -0.09988645
000270 61 a5 3f 3e ae d6 3e 3e 70 2f 0f be d2 cd 4c be
       0.18715431 0.18636581 -0.1398294 -0.20000389
000280 46 bd 42 be 99 91 4c 3e b5 01 50 3c ed 67 47 be
       -0.19017515 0.19977416 0.0126957195 -0.19473238
000290 71 c2 e2 3d c7 b5 4c be e2 6d 9b bc 5e 09 90 3c
       0.11072243 -0.19991218 -0.018973295 0.017582592
0002a0 02 03 03 bd 38 19 a3 bb f5 74 01 3e 26 34 49 3e
       -0.03198529 -0.0049773715 0.12642272 0.196488
0002b0 9a 4c d3 bd bf 3c b0 3b eb ca 4c be 09 38 8c 3d
       -0.10317345 0.0053783352 -0.19999282 0.06846625
0002c0 9e 75 4c 3e c7 74 1b be 77 74 1c be a8 7c fc bc
       0.19966742 -0.15181266 -0.15278803 -0.03082116
0002d0 a8 1f 4c 3e 2b 65 4c 3e b6 57 3c 3e 43 93 88 3d
       0.19933951 0.19960468 0.18392834 0.06668713
0002e0 63 ad 1b be 92 41 4c 3e 88 3c 4c 3e 27 6f 47 3e
       -0.1520286 0.19946888 0.19944966 0.19475995
0002f0 65 00 d3 3d fc 0b 2f 3e b3 36 0e 3c 71 8e 5c 3d
       0.103028096 0.17094415 0.0086800335 0.05384678
000300 01 e5 33 3e 42 de 53 3d 78 ce 4c be 9a 0d 94 bd
       0.17567827 0.051725633 -0.20000637 -0.07229157
000310 10 66 ed bd 31 17 48 be 07 4f 4b 3e 62 aa 1d bd
       -0.115917325 -0.19540097 0.19854365 -0.038492568
000320 5e 2f 4c 3e 27 fa 4b 3e 6e ad 3b be 53 10 0d 3e
       0.19939944 0.19919644 -0.18327877 0.13775758
000330 9b 55 43 3e e1 f8 88 bd 26 b7 5c 3d 2f ca 4c be
       0.19075625 -0.06688095 0.0538856 -0.19999002
000340 3b 33 13 3e 08 99 43 3e 04 b1 f4 3d a4 ce 4c be
       0.14375012 0.19101346 0.119478256 -0.20000702
000350 f3 7a cb bd 52 a8 42 be 4c 0c 5f bc 4e 38 4c 3e
       -0.0993556 -0.19009522 -0.013613772 0.19943354
000360 64 99 4c 3e 93 78 c4 3d 0a 98 bd bc b7 8c 4b 3e
       0.19980389 0.0959331 -0.023143787 0.19877897
000370 77 94 a4 3d 50 26 d9 bd f9 14 0b be 23 ce 4c be
       0.0803613 -0.10603011 -0.13582219 -0.2000051
000380 3a 4f 96 3c 22 2a 4b 3e 3f b6 6f bd c6 d8 10 3e
       0.018348325 0.19840291 -0.058523413 0.14145193
000390 28 57 07 be 20 20 3f be 9a e7 4b 3e 13 c8 4c be
       -0.13216841 -0.18664598 0.19912568 -0.19998197
0003a0 24 36 01 bc a1 92 32 be 3a 19 95 3d b3 a9 84 bd
       -0.007886443 -0.17438747 0.07280202 -0.0647768
0003b0 da ee a0 bd 99 10 4c 3e a4 3c 4c 3e 41 75 40 be
       -0.07858057 0.19928207 0.19945008 -0.18794729
0003c0 4c dd 37 3e 25 b4 26 be b9 3a f6 3d 6d 50 9b bc
       0.17955512 -0.16279657 0.12022919 -0.018959248
0003d0 eb e3 1c 3d 67 bb 97 3d 5a f4 1f bc c1 86 3f 3e
       0.038303297 0.07408791 -0.009762848 0.18703748
0003e0 3f 7f ca bc 94 97 d0 bd 10 b4 07 bc f5 f9 bc bd
       -0.024718879 -0.10185161 -0.008282676 -0.09227363
0003f0 5d ba 05 be 5d b6 22 be 3c 3a cc 3c 19 74 fb bd
       -0.13059373 -0.15889879 0.024930112 -0.12278003

19.b_w f4 [8, 1]
000000 00 00 00 c3 00 00 80 42 00 00 00 42 00 00 80 41
       -128.0 64.0 32.0 16.0
000010 00 00 00 41 00 00 80 40 00 00 00 40 00 00 80 3f
       8.0 4.0 2.0 1.0

momentum_buffer f4 [8]
000000 be 76 3d 3d a5 9b 5c 3d cc 14 55 be d8 9d 9d 3d
       0.04625582 0.05385937 -0.20808715 0.07696122
000010 f6 93 e4 bd 36 e9 17 be fb 43 78 be 6e 9b 0b 3d
       -0.11161034 -0.14835057 -0.24244682 0.034083776

momentum_buffer f4 [8]
000000 de 8c 94 3d f2 ee a4 3d 4a 5c 85 bd 8e 07 db 3c
       0.07253431 0.08053388 -0.06511743 0.026737
000010 c2 11 3e bd ce e2 46 be ce c4 0c be ce 4a db 3d
       -0.046403654 -0.19422457 -0.1374695 0.10707627

momentum_buffer f4 [8]
000000 9a 17 82 bd 48 e8 8c bc 9a 5f 97 3d 52 88 6c bc
       -0.06352158 -0.017200604 0.073912814 -0.014436798
000010 98 a2 29 3c 59 54 60 bd e0 dd 12 bd 96 ee 93 3d
       0.010353707 -0.05476794 -0.035856128 0.07223241

momentum_buffer f4 [8]
000000 c9 a3 30 bd f1 d6 d7 bd 6a 14 ea bc 55 b6 0c bd
       -0.043124948 -0.10539044 -0.028574187 -0.034353573
000010 ce 65 37 3c d2 f8 f5 bc 05 64 c4 bc 76 bd a4 3d
       0.011193706 -0.030025873 -0.023973474 0.08043949

momentum_buffer f4 [8]
000000 b5 a7 00 bc 68 a3 b5 bc 39 f2 f5 bc 0a c0 44 be
       -0.0078524845 -0.022172645 -0.030022727 -0.19213882
000010 41 4d 9e 3d c4 3d dc 3c 28 47 a6 3d 94 ff 51 3d
       0.07729579 0.02688492 0.08119041 0.05126913

momentum_buffer f4 [8]
000000 6d 27 6f 3c 9a ac 30 3d 2f 67 14 bc 29 81 47 bd
       0.014596802 0.043133356 -0.009057804 -0.04870716
000010 17 16 d1 bc ea 7f 08 bd a9 1d 00 3b 08 ca 06 3d
       -0.025523229 -0.033325113 0.0019548929 0.032907516

momentum_buffer f4 [8]
000000 cc fc 35 bc 5f c7 7e 3c a9 f0 79 bd 20 4f d2 3d
       -0.011107635 0.015550463 -0.061020527 0.10268998
000010 48 82 b9 3a 2c 89 6e bb e0 0e 88 3d 99 9d 34 bd
       0.0014153207 -0.0036397679 0.06643462 -0.04409561

momentum_buffer f4 [8]
000000 0e 58 1d bd 7d 7e 49 3d 64 98 33 bd 09 36 76 3d
       -0.038414054 0.049192894 -0.043846503 0.060110126
000010 53 e5 12 3c ac 9c 9d bc 14 89 84 3d 08 39 93 bd
       0.008965808 -0.019239746 0.06471458 -0.07188612

momentum_buffer f4 [8]
000000 74 3f 00 bc f7 3c 22 3c 00 15 97 3c 2a d0 ba 3a
       -0.007827628 0.00990223 0.01844263 0.0014252712
000010 4b b8 84 3c 30 05 90 bd b5 41 50 3d 14 d9 21 3c
       0.016201159 -0.070322394 0.050843913 0.009878416

momentum_buffer f4 [8]
000000 02 78 cb bc 1e 0b 73 bb 87 b8 da 3b 03 e5 93 3c
       -0.024837498 -0.0037085484 0.0066748294 0.018053537
000010 0d 16 e7 3c 39 90 ba 3b e6 ae 12 3d 91 c3 a3 3c
       0.028208757 0.005693462 0.035811327 0.019990714

momentum_buffer f4 [8]
000000 b0 e1 9b ba 16 0c 1b 3d 26 78 da 3c bc 15 cc 3c
       -0.0011892822 0.037853323 0.02666862 0.024912708
000010 55 44 1d bd 8a 3e 84 3d d2 74 77 bd 9c dc ca bc
       -0.038395245 0.06457241 -0.060414143 -0.024763398

momentum_buffer f4 [8]
000000 ee bd dc bb 96 25 65 3d 42 86 c6 bb 09 78 4b 3c
       -0.0067365086 0.055944048 -0.0060584852 0.012418755
000010 e2 14 b3 bc 8b a3 64 3d b4 19 2e bc 30 4d ed ba
       -0.021860544 0.05582003 -0.010626245 -0.0018104669

momentum_buffer f4 [8]
000000 fa cf e1 bc ed 38 e4 bc 6c 4f 90 bd b9 b1 a2 3d
       -0.027564991 -0.027859176 -0.070463985 0.07944054
000010 d0 2f ce 3c c2 1e 17 3c bf 8d ad bb 90 68 34 3c
       0.025169283 0.009223642 -0.0052964385 0.011011258

momentum_buffer f4 [8]
000000 e8 5d e6 3c 76 08 30 bc 9f 77 a2 bc 59 14 48 3d
       0.02812095 -0.010744205 -0.01983243 0.04884753
000010 c4 bd 89 bc 80 ff d9 b8 6e 88 92 bb 43 23 0c bc
       -0.01681412 -0.00010394957 -0.00447183 -0.008553329
